LTC_A2C/training_results/CfC_a2c_result_396_2024323_learningrate_0.0005_numneurons_64_encoutact_identity_neuromod_network_dims_3_128_80_64_randomization_params_[(0.775, 5.75), (1.0, 2.0), (0.8, 2.25)]/checkpoint_CfC_A2C_8.pt (torch, 74488 bytes, 10 tensors)

cfc_model.rnn_cell.w_tau f4 [1, 64]
0	0x3e49e658	0.19716775
1	0xbe35ef35	-0.17767031
2	0x3da5c59f	0.08094334
3	0xbc085d5d	-0.008323041
4	0x3e588703	0.21145253
5	0x3df899e0	0.12138724
6	0x3e864f60	0.26232433
7	0xbe40fcef	-0.18846487
8	0xbe141ae7	-0.14463387
9	0x3e3c9241	0.18415166
10	0x3e3041ad	0.17212553
11	0xbd1b769c	-0.03795491
12	0x3e1848eb	0.14871566
13	0x3e898949	0.26862553
14	0x3e4e7300	0.20161057
15	0xbe89a566	-0.26884001
16	0xbe9ef3da	-0.3104542
17	0xbe887efd	-0.26659384
18	0xbe69c18a	-0.22827736
19	0xbe2786b2	-0.16359976
20	0x3d11da94	0.035608843
21	0xbe827494	-0.25479567
22	0xbe1b9dbd	-0.15196891
23	0xbd13996c	-0.036034986
24	0xba16febf	-0.0005760006
25	0xbe174a82	-0.14774516
26	0xbddc1479	-0.10746092
27	0x3df3ac48	0.118980944
28	0x3be9b94f	0.007132686
29	0xbe5ae486	-0.21376237
30	0x3c3ce1c7	0.011528439
31	0x3e45cc85	0.193163
32	0xbe0b1256	-0.13581213
33	0x3ce85f77	0.028365834
34	0x3e1909ab	0.14945094
35	0xbda6900c	-0.081329435
36	0x3e0c31f7	0.13690935
37	0xbdb339b8	-0.08751243
38	0x3dcec720	0.10096574
39	0x3de15428	0.1100238
40	0xbc28c4be	-0.010300813
41	0x3e1c2b91	0.15250994
42	0xbdbc1019	-0.09182758
43	0xbd4c5ec5	-0.049895067
44	0xbdbf37db	-0.093368255
45	0xbe7503cd	-0.23927231
46	0xbc0b387e	-0.0084973555
47	0x3e7f7fd7	0.24951111
48	0x3dae6d23	0.0851691
49	0x3d860bf2	0.06545247
50	0xbddd4b00	-0.10805321
51	0xbe54a6d3	-0.20766763
52	0xbcff0686	-0.03113104
53	0x3e0cc50e	0.13747045
54	0xbdd84e2e	-0.105617866
55	0xbe349c5b	-0.1763777
56	0x3db3bd32	0.087763205
57	0xbdb4dc2d	-0.08831058
58	0xbe76f977	-0.24118601
59	0xbe006a85	-0.12540634
60	0x3e66349a	0.22481003
61	0x3d64a0e7	0.05581751
62	0xbe98ff7f	-0.29882428
63	0x3df6ed1f	0.12056946

cfc_model.rnn_cell.A f4 [1, 64]
0	0x3e277557	0.16353355
1	0xbcace2e1	-0.021104278
2	0xbe7e6df4	-0.24846631
3	0xbe8aa440	-0.27078438
4	0xbe66c421	-0.22535755
5	0xbe1e823f	-0.15479372
6	0xbe91120b	-0.28334078
7	0x3e87ca4e	0.26521534
8	0x3e8a0c3c	0.2696246
9	0xbe862c56	-0.262057
10	0xbe01d421	-0.12678577
11	0x3d62f334	0.055407718
12	0x3e5545d3	0.20827417
13	0xbc9d7cde	-0.01922458
14	0xbe296dcf	-0.16545795
15	0xbd063f38	-0.032775134
16	0xbdd57d9e	-0.1042435
17	0x3e5a7095	0.21332009
18	0xbdf8b42e	-0.121437415
19	0x3e60e486	0.21962175
20	0xbdf83c3d	-0.121208645
21	0x3e2631a4	0.16229874
22	0x3e138d39	0.14409341
23	0x3e555d26	0.20836315
24	0x3e78ae03	0.2428513
25	0xbe8a9e8a	-0.2707408
26	0x3deb4c40	0.11489153
27	0xbe513960	-0.20432043
28	0x3ddc6f3e	0.10763405
29	0xbd96e232	-0.07367362
30	0xbe166b57	-0.14689384
31	0xbe0ead33	-0.13933258
32	0xbe4a5214	-0.19757873
33	0x3e5b2c4e	0.2140362
34	0x3e1e6d5b	0.15471403
35	0x3db3c9eb	0.08778747
36	0xbdf2f162	-0.11862446
37	0x3e4dc478	0.20094478
38	0xbc9a9919	-0.01887183
39	0x3e8b8da2	0.27256495
40	0x3e6670af	0.22503923
41	0x3da49999	0.08037109
42	0xbdeb6490	-0.1149379
43	0x3e4ef9e6	0.20212516
44	0xbdeb0224	-0.11475018
45	0xbe2871fd	-0.16449733
46	0xbe0959b7	-0.1341313
47	0xbe7f029e	-0.24903342
48	0x3ca631ef	0.020287482
49	0x3e742af2	0.23844507
50	0xbc9ebb1c	-0.01937633
51	0xbe13b5bd	-0.14424796
52	0xbe940580	-0.28910446
53	0xbe5b5de3	-0.21422534
54	0xbe3872cb	-0.1801254
55	0x3e02569d	0.12728353
56	0x3d913a51	0.07091201
57	0x3e8f0c4f	0.27939078
58	0x3e963682	0.2933846
59	0x3d950d07	0.072778754
60	0xbe93e8dd	-0.28888598
61	0x3e63a66e	0.22231457
62	0xbd097b0b	-0.03356461
63	0xbd973039	-0.073822446

cfc_model.rnn_cell.tau_system f4 [1, 64]
0	0x401f02a0	2.4845352
1	0x3ff3d933	1.9050659
2	0x406d2bf6	3.7058082
3	0x4081233e	4.035552
4	0x407c2a80	3.940094
5	0x40be74c8	5.9517555
6	0x4056f585	3.3587353
7	0x40a5d84d	5.182654
8	0x401e479b	2.4731205
9	0x408604ca	4.1880846
10	0x4082a595	4.0827127
11	0x405b2005	3.4238293
12	0x40270aa0	2.6100235
13	0x404fdd99	3.2479002
14	0x4087c30a	4.2425585
15	0x404b9856	3.1811728
16	0x3fd64cba	1.6742165
17	0x400c5355	2.1925862
18	0x40508fbe	3.2587733
19	0x3fd449a4	1.6584973
20	0x41a0b5f1	20.088839
21	0x404dcfff	3.21582
22	0x3fd08caa	1.6292927
23	0x4084b213	4.1467376
24	0x400f61a9	2.2403357
25	0x40041bce	2.064197
26	0x4103c966	8.23667
27	0x401d461d	2.4574044
28	0x402eedca	2.7332635
29	0x401615c6	2.345079
30	0x40129fa1	2.290993
31	0x404a10dc	3.157279
32	0x40c0aff0	6.0214767
33	0x4083ee18	4.122814
34	0x406bdca2	3.6853414
35	0x401f4b51	2.488972
36	0x4005beab	2.0897624
37	0x3fd358cf	1.6511477
38	0x401693b0	2.3527641
39	0x400a1f24	2.1581507
40	0x40cd24bf	6.4107356
41	0x3fd371bc	1.6519084
42	0x404f9ab2	3.2438169
43	0x402e1578	2.7200603
44	0x40a064eb	5.012319
45	0x3ffc95d3	1.9733223
46	0x42d7831e	107.75609
47	0x3fc1fcf5	1.5155321
48	0x40e478eb	7.1397605
49	0x411df666	9.872656
50	0x41098c47	8.596747
51	0x3fe1e2ee	1.7647378
52	0x40c44432	6.1333246
53	0x404d6e0f	3.2098424
54	0x405d3322	3.456246
55	0x4043d93e	3.0601344
56	0x404ccc7b	3.1999805
57	0x4012e5ed	2.2952836
58	0x400a99ed	2.165645
59	0x40a1bcdd	5.0543046
60	0x400027fd	2.0024407
61	0x408238f3	4.069452
62	0x404bc018	3.1835995
63	0x4023b067	2.5576417

cfc_model.rnn_cell.backbone.0.weight f4 [128, 68]
0	0x3d4d1e6f	0.05007785
1	0xbd920390	-0.07129586
2	0x3e2c9a92	0.16855839
3	0xbd575caf	-0.052578624
4	0x3d8559d1	0.06511272
5	0x3db05677	0.08610242
6	0xbe03ed56	-0.12883505
7	0x3da1e727	0.07905417
8	0xbc43bed4	-0.011947352
9	0x3de327e3	0.11091592
10	0x3c61408a	0.0137482975
11	0x3dd8ff25	0.1059554
12	0x3d9494e7	0.07254963
13	0xbe169405	-0.14704902
14	0x3cb3991f	0.0219236
15	0xbd27a2fb	-0.040926915
16	0x3e368fcb	0.1782829
17	0xbddf2e57	-0.108975105
18	0xbb9944f3	-0.004677409
19	0x3dcc2324	0.0996764
20	0xbaa84a32	-0.0012839495
21	0xbdb42d28	-0.08797675
22	0x3d9bdd19	0.076105304
23	0xbdc757cf	-0.09733545
24	0xbe2a5a07	-0.16635905
25	0xbcf722ca	-0.030167956
26	0x3dfc0fc1	0.12307692
27	0x3d91e1a4	0.07123116
28	0xbc98f78e	-0.01867273
29	0x3d0ebb3c	0.03484653
30	0xbe089fb3	-0.1334217
31	0xbe169748	-0.14706147
32	0x3d7f1c4c	0.062282845
33	0x3c161790	0.009160891
34	0xbdf277e1	-0.11839271
35	0xbe192168	-0.1495415
36	0xbe1c07f3	-0.15237407
37	0xbbc08f46	-0.0058764545
38	0x3d12a98e	0.03580623
39	0x3e137fd7	0.14404236
40	0xbdd40a0e	-0.1035348
41	0x3d8e3556	0.06943767
42	0x3d1b8bbf	0.03797507
43	0x3e2a0347	0.16602813
44	0xbd1f49b2	-0.03888864
45	0x3c2f534e	0.010701014
46	0xbe14ec60	-0.14543295
47	0xbe1c4969	-0.15262379
48	0x3b6fbdcd	0.0036581636
49	0xbdf2dc88	-0.11858469
50	0xbe095400	-0.1341095
51	0x3c9390d4	0.018013395
52	0x3d3bef22	0.04588235
53	0x3ddea2f1	0.10870922
54	0x3ce9b228	0.028527334
55	0x3dea74c9	0.11448056
56	0x3e18fa2f	0.14939187
57	0xbddc5e44	-0.10760167
58	0xbcf20ff5	-0.029548625
59	0xbdce5a4c	-0.100758165
60	0xbc3489e9	-0.0110192085
61	0x3e3339d1	0.17502524
62	0x3e1e03cf	0.1543114
63	0x3cc0a9f4	0.02351854
64	0xbdfcfff0	-0.12353504
65	0xbc18dc1d	-0.009329823
66	0x3dbb3f5e	0.09142946
67	0x3de5b174	0.11215487
68	0xbdfb9651	-0.1228453
69	0x3d53e1ad	0.051728893
70	0xbc767bb4	-0.015044142
71	0xbcd9d47c	-0.026590578
72	0xbe1df0ab	-0.15423839
73	0x3cb728db	0.022358349
74	0x3d99f935	0.075182356
75	0x3e05fe1e	0.1308522
76	0x3e0f9f63	0.14025645
77	0xbd404995	-0.046945173
78	0xbda7d239	-0.08194394
79	0x3d2faaf1	0.04288763
80	0x3daf32f7	0.08554643
81	0xbb61aeef	-0.0034436544
82	0xbd4ad172	-0.04951615
83	0x3cb4396e	0.02200004
84	0xbe255163	-0.16144328
85	0xbe09d911	-0.1346171
86	0xbb687ea3	-0.0035475872
87	0x3ddca8f3	0.10774412
88	0xbe1ee8e5	-0.1551853
89	0xbd07946e	-0.033100538
90	0xbe120568	-0.14259875
91	0x3bf588cc	0.007493114
92	0xbd4ec17d	-0.050477494
93	0xbdde3914	-0.108507305
94	0xbd336428	-0.04379669
95	0x3e1da9d0	0.1539681
96	0xbdc01ad8	-0.0938012
97	0xbdfb7ef3	-0.12280073
98	0x3df71e63	0.12066343
99	0x3dd1bb9f	0.10240864
100	0x3d9aa6cf	0.075513475
101	0xbe20478b	-0.15652291
102	0xbca3e07b	-0.020004502
103	0xbe2a90b5	-0.16656764
104	0x3df23b66	0.118277356
105	0xbe38933e	-0.18024918
106	0x3dfcc33d	0.12341926
107	0xbd6c117c	-0.057633862
108	0x3e328c60	0.17436361
109	0x3dc10b21	0.09425951
110	0x3cede0ac	0.029037796
111	0xbd1d9d67	-0.03848019
112	0x3d92f1d1	0.07175029
113	0xbcde6360	-0.027146995
114	0x3e38111e	0.1797528
115	0x3e2559a3	0.16147475
116	0xbd993d15	-0.074823536
117	0x3e1c4da2	0.1526399
118	0x3d0d17d4	0.034446552
119	0xbdbedcd0	-0.093194604
120	0x3d3575f2	0.044301935
121	0x3e008770	0.12551665
122	0x3e3024da	0.17201558
123	0x3c0b516c	0.008503299
124	0x3e11cfa0	0.14239359
125	0xbd61c6f4	-0.055121377
126	0x3df633fd	0.12021635
127	0xbdff17b2	-0.124556914
128	0xbe009697	-0.12557445
129	0xbd835529	-0.064127274
130	0x3e06b984	0.13156706
131	0xbe1c60bc	-0.15271276
132	0xbdea7a31	-0.114490874
133	0xbd73b619	-0.059499834
134	0x3d5b5beb	0.053554457
135	0x3d128097	0.035767164
136	0xbe0b84fa	-0.13624945
137	0xbd1b4bbe	-0.03791403
138	0xbe1e3a99	-0.1545204
139	0xbe1edf32	-0.1551483
140	0x3e039484	0.12849623
141	0x3bdca7ff	0.006733894
142	0x3e037915	0.12839158
143	0xbd8c8886	-0.06861977
144	0xbc5b88dc	-0.013399329
145	0xbdb37b56	-0.08763759
146	0x3e1bbb08	0.15208066
147	0xbdcaec39	-0.09908337
148	0x3d12234b	0.03567819
149	0x3e1852c6	0.14875326
150	0x3d122818	0.035682768
151	0x3c396eff	0.011317967
152	0x3db6604c	0.08905086
153	0xbdd11516	-0.102091
154	0xbe185705	-0.14876945
155	0xbce7c80b	-0.02829363
156	0xbd59493b	-0.053048354
157	0xbdb502c1	-0.08838416
158	0xbe1ffd5d	-0.15623994
159	0x3cb2030a	0.021729965
160	0xbd7954b9	-0.060871813
161	0x3e188aba	0.1489667
162	0x3d6dc423	0.05804838
163	0x3e208465	0.15675505
164	0x3e0c4fda	0.13702336
165	0x3d3849d3	0.04499228
166	0xbd0103c7	-0.031497743
167	0xbdbfdcd5	-0.09368292
168	0xbdb352b8	-0.08756012
169	0xbe1b2823	-0.1515203
170	0x3de4a913	0.11165061
171	0xbdc48dcc	-0.09597358
172	0xbc589044	-0.013217989
173	0x3c995dad	0.018721426
174	0x3dcc321f	0.09970497
175	0x3e23199a	0.15927735
176	0xbcdb578f	-0.02677515
177	0xbdcdf966	-0.100573346
178	0x3e06186b	0.13095252
179	0x3dbf0aa5	0.09328202
180	0x3e141af2	0.14463404
181	0x3e257a43	0.1615992
182	0xbd1fc832	-0.03900928
183	0xbe25a4be	-0.16176125
184	0xbcbcecc9	-0.023062127
185	0x3e0a26a9	0.1349131
186	0x3e237e24	0.15966088
187	0x3da904d3	0.08252873
188	0x3e1664f6	0.14686951
189	0x3e054125	0.13013132
190	0x3c60c611	0.013719098
191	0x3d17cda7	0.03706136
192	0xbc3b51f8	-0.011433117
193	0xbe276c1a	-0.16349831
194	0xbd469a00	-0.04848671
195	0x3d111b47	0.035426404
196	0x3e1197ea	0.14218107
197	0x3db57646	0.088604495
198	0xbd623193	-0.05522306
199	0x3d0f2173	0.03494401
200	0xbdd74891	-0.10511888
201	0x3dfa0183	0.122073196
202	0xbc93de0b	-0.018050214
203	0xbe179267	-0.14801942
204	0xbe1a059e	-0.15041205
205	0xbd7cfbc9	-0.06176356
206	0x3df5ce97	0.120022945
207	0xbd9fd52c	-0.07804331
208	0x3e1cf0ef	0.15326284
209	0x3e0983fc	0.13429254
210	0xbdfa7189	-0.12228686
211	0x3deabce4	0.11461809
212	0x3dde4d89	0.108546324
213	0x3d65524f	0.0559867
214	0xbd9aa1c8	-0.075503886
215	0xbcf8563c	-0.030314557
216	0x3ca2a238	0.019852743
217	0x3dd9dfb6	0.106383726
218	0xbde9a020	-0.114074945
219	0x3db2f75a	0.08738585
220	0x3d2aaffa	0.04167173
221	0x3e155c19	0.14585914
222	0x3e19e4e5	0.15028723
223	0x3c6aa2a1	0.014321
224	0xbdffd7a6	-0.124923036
225	0xbd808584	-0.06275466
226	0xbddb1e26	-0.1069911
227	0x3e3957e4	0.18099934
228	0xbda165d5	-0.07880751
229	0xbe02eba9	-0.1278521
230	0x3e2b770f	0.16744636
231	0xbcec87c1	-0.028873326
232	0x3d65922e	0.05604761
233	0x3d5b810b	0.05358986
234	0x3dc72306	0.09723477
235	0xbd5de3a3	-0.05417217
236	0xbcbe15ce	-0.023203757
237	0x3d54fb9e	0.051997773
238	0xbd3bcbf6	-0.04584881
239	0x3e1d11c2	0.15338805
240	0xbd6f1e51	-0.05837852
241	0xbe227ed0	-0.15868688
242	0xbe101a6c	-0.14072579
243	0xbdde94f0	-0.10868251
244	0x3d380aea	0.044932283
245	0xbdcc2198	-0.09967345
246	0x3e2b8647	0.16750441
247	0x3e2c9a9e	0.16855857
248	0x3c92581e	0.017864283
249	0xba02e074	-0.00049925526
250	0xbdffc887	-0.124894194
251	0x3e29b18f	0.1657164
252	0x3dbd69f2	0.09248723
253	0xbdc40bf9	-0.09572596
254	0xbc32b71e	-0.010907916
255	0xbe2c506c	-0.16827554

cfc_model.rnn_cell.backbone.0.bias f4 [128]
0	0x3d9f323e	0.07773255
1	0xbcf21862	-0.029552642
2	0x3dba50f3	0.09097471
3	0xbc50d3d5	-0.012745817
4	0xbbba276e	-0.00568097
5	0xbd6ff18a	-0.05857996
6	0xbd881be0	-0.06645942
7	0xbcc3b4d4	-0.023889937
8	0x3df81a07	0.12114339
9	0x3cc9bef2	0.024627183
10	0xbc75f463	-0.01501188
11	0xbda3b970	-0.07994354
12	0xbd96290f	-0.0733205
13	0x3da9c2eb	0.08289131
14	0x3d284e54	0.041090325
15	0x3d2c7ab3	0.042109203
16	0xbda01aab	-0.078175865
17	0x3d949215	0.072544254
18	0x3d12ca0c	0.03583722
19	0x3db19442	0.08670856
20	0xbdb65721	-0.08903337
21	0x3d957652	0.072979584
22	0xbdd0cbb9	-0.10195107
23	0x3d85172c	0.0649856
24	0xbdfdc384	-0.12390807
25	0x3c865b7c	0.016401045
26	0xbcb7dcf8	-0.022444233
27	0x3d8a4c8d	0.06752882
28	0xbd806a78	-0.06270307
29	0xbdaa81c9	-0.08325536
30	0xbd3436ca	-0.043997563
31	0x3db218d0	0.08696139
32	0x3de5f0df	0.11227583
33	0x3dd08fe7	0.10183697
34	0x3dd367d9	0.10322542
35	0xbded0dca	-0.11574896
36	0xbde4f032	-0.11178626
37	0x3d9991b7	0.07498496
38	0x3ce801c9	0.028321164
39	0x3cb24de1	0.021765651
40	0x3dfc9eaf	0.12334954
41	0x3d5171fb	0.05113409
42	0xbda6b6f5	-0.08140365
43	0x3d5eb7cc	0.0543745
44	0xbdb71736	-0.08939974
45	0x3ba79ea7	0.0051153484
46	0x3d941668	0.07230836
47	0x3d719579	0.05898044
48	0xbd12fd9d	-0.035886396
49	0x3c9773f3	0.018487906
50	0xbddd60da	-0.108094886
51	0xbcdaae66	-0.026694488
52	0xbdc12b27	-0.09432059
53	0x3de15147	0.110018305
54	0x3dbae643	0.0912595
55	0x3d8763e8	0.066108525
56	0xbb1d9cef	-0.0024049839
57	0x3cb28351	0.021791132
58	0x3d7ad657	0.061239567
59	0x3d466301	0.04843426
60	0xbd5e1d0b	-0.054226916
61	0x3c8c36d8	0.017115995
62	0x3d749070	0.05970806
63	0xbd7011bc	-0.058610663
64	0xbdf5e6fc	-0.120069474
65	0x3de87691	0.1135074
66	0xbd0b0225	-0.033937592
67	0xbc228876	-0.00992023
68	0x3db7d36d	0.08975873
69	0xbdd57d29	-0.10424263
70	0xbdcbff35	-0.09960786
71	0xbd3ed1ef	-0.046586927
72	0xbd8f096b	-0.06984218
73	0x3cdb56f3	0.026774859
74	0x3d8b7885	0.06810097
75	0xbe020d19	-0.12700309
76	0x3df0dcb0	0.11760843
77	0x3c059d78	0.008155219
78	0x3dde9b7d	0.10869501
79	0x3df97d30	0.12182081
80	0xbde10c4a	-0.10988672
81	0x3dc15fe8	0.09442121
82	0x3ca7d2a7	0.020486189
83	0x3dfcac89	0.12337596
84	0xbd800dd2	-0.06252636
85	0x3bbf7bc2	0.0058436105
86	0x3c087a5e	0.008329956
87	0x3d86844a	0.06568201
88	0xbce6e6a8	-0.028186157
89	0x3cdae407	0.02672006
90	0x3da7a4c5	0.08185724
91	0x3cb5ac3b	0.022176852
92	0xbd89da1f	-0.067310564
93	0xbd9da5a0	-0.07697606
94	0x3d87a2b2	0.066228285
95	0x3dc93a5a	0.09825583
96	0xbded1d1f	-0.1157782
97	0x3d01ddcb	0.03170566
98	0x3dd853b5	0.10562841
99	0xbdfea1be	-0.124331936
100	0x3c06e1ac	0.008232515
101	0x3dba1573	0.09086122
102	0xbd76b8e6	-0.060234927
103	0xbd98df73	-0.074644946
104	0x3d7e6425	0.062107224
105	0x3de86f5e	0.113493666
106	0xbdca48dc	-0.09877178
107	0xbdaaf4d6	-0.0834748
108	0x3d096a5b	0.033548694
109	0x3bd05f49	0.006359015
110	0x3dbb8a81	0.09157277
111	0xbc2787dc	-0.0102252625
112	0xbde561d3	-0.11200299
113	0xbd7555c7	-0.059896257
114	0x3d8f19f9	0.06987376
115	0xbdcb1a53	-0.0991713
116	0x3d94e6e5	0.07270602
117	0x3d0724b3	0.032993983
118	0x3d2d4ad3	0.042307686
119	0x3de28849	0.110611506
120	0x3d856243	0.065128826
121	0x3d4b4d07	0.049634006
122	0x3dc516d7	0.09623497
123	0x3d9f4aae	0.07777916
124	0xbdaba0cb	-0.08380278
125	0xbd8f843b	-0.07007643
126	0xbd817e54	-0.06322923
127	0xbdb8e67e	-0.09028338

cfc_model.rnn_cell.ff1.weight f4 [64, 128]
0	0xbc805c2b	-0.01566895
1	0x3d582eaf	0.052778896
2	0xbdf592b2	-0.119908705
3	0x3c6fe02b	0.014640848
4	0x3e10dff1	0.14147927
5	0x3da413d0	0.080115914
6	0xbd2f5d50	-0.0428136
7	0x3e040fa0	0.12896585
8	0xbd9cd339	-0.07657475
9	0xbda64054	-0.08117738
10	0xbe09ba9e	-0.13450095
11	0x3debe644	0.11518529
12	0xbdbfd74f	-0.09367239
13	0xbdf808ca	-0.121110514
14	0x3d9dae1d	0.07699225
15	0x3e209c90	0.15684724
16	0x3e35470b	0.17702882
17	0xbe1e9c88	-0.154894
18	0x3d68a47e	0.056797497
19	0xbe08a6c3	-0.13344865
20	0x3e22cbb0	0.15898013
21	0x3dc80486	0.09766488
22	0xbdfb9d48	-0.122858584
23	0x3ba74f9f	0.005105927
24	0x3e302dd7	0.17204987
25	0x3df47c03	0.11937716
26	0xbde22bf8	-0.110435426
27	0x3c8ec2de	0.017426904
28	0x3d12586f	0.035728868
29	0x3bf94224	0.0076067615
30	0x3e14bf00	0.14525986
31	0xbd85ef9e	-0.06539844
32	0x3e2e82ef	0.17042135
33	0xbdbfb6cb	-0.09361037
34	0xbcffb2f0	-0.031213254
35	0x3e1dac69	0.153978
36	0xbd49a18e	-0.049226336
37	0x3e1c60fd	0.15271373
38	0xbdff91f9	-0.12479014
39	0x3d052119	0.032502268
40	0xbe1de3a2	-0.15418866
41	0x3dfa865e	0.1223266
42	0x3e103b28	0.14085066
43	0xbcee2ec0	-0.029075027
44	0xbe2b9ffb	-0.16760246
45	0x3d84370e	0.06455813
46	0xbd81cd36	-0.06337969
47	0x3cee52f8	0.029092297
48	0xbdb26135	-0.08709947
49	0xbc9f5e17	-0.019454045
50	0xbe183823	-0.14865164
51	0xbda88998	-0.08229369
52	0x3ce99830	0.028514951
53	0xbe015e0b	-0.12633531
54	0x3e1b4f42	0.15166953
55	0x3c664a3e	0.014055787
56	0x3bb362e5	0.0054744356
57	0xbbc48f87	-0.005998555
58	0xbdf34bfc	-0.11879727
59	0x3e07c195	0.1325744
60	0xbdf07550	-0.117411256
61	0xbddf3aac	-0.10899863
62	0x3e1515d5	0.1455911
63	0x3df5c9fa	0.120014146
64	0x3e2c3d70	0.16820312
65	0x3d45eceb	0.048321646
66	0xbd9583c3	-0.07300522
67	0xbe18096e	-0.14847347
68	0xbe211753	-0.15731554
69	0x3c8e9411	0.017404588
70	0xbe2543d3	-0.16139154
71	0x3d426997	0.04746398
72	0xbe0baa03	-0.13639073
73	0x3d22b63d	0.039724577
74	0xbd26f9dc	-0.04076563
75	0x3cf08efb	0.029365053
76	0x3dbda6d7	0.09260338
77	0xbddda18e	-0.1082183
78	0x3d1cd0b0	0.038284957
79	0x3e0c99b9	0.13730516
80	0x3e2cc31c	0.16871303
81	0xbc7e6acd	-0.015528393
82	0x3da2a61e	0.079418406
83	0x3e15ff05	0.14648063
84	0x3d1542fb	0.03644083
85	0xbdd358aa	-0.10319646
86	0x3d80f3fc	0.06296536
87	0x3dcb14c6	0.099160716
88	0xbe2632f7	-0.16230379
89	0x3e340d69	0.1758324
90	0xbcac82f9	-0.021058546
91	0xbc63c7c6	-0.01390261
92	0xbda5b460	-0.080910444
93	0xbb369734	-0.002786112
94	0xbd80f21f	-0.06296181
95	0xbc224dd5	-0.009906252
96	0x3b03bd60	0.002010189
97	0x3d5b75b8	0.053579062
98	0xbdc26f41	-0.09493876
99	0xbcea8483	-0.02862764
100	0xbdfa6b74	-0.12227526
101	0xbc83cb92	-0.01608828
102	0x3e0fad59	0.1403097
103	0x3d9ac971	0.07557953
104	0x3e32c989	0.17459692
105	0xbd02cce7	-0.03193369
106	0xbd119984	-0.035546795
107	0x3dddbb17	0.108267
108	0x3da0eb88	0.07857424
109	0x3e1134fd	0.1418037
110	0xbd151490	-0.036396563
111	0xbe0201b6	-0.12695965
112	0xbd9f60bb	-0.07782122
113	0xbc78f20f	-0.01519443
114	0x3e35273e	0.17690751
115	0x3e2494e9	0.1607243
116	0xbd8d6ff3	-0.06906118
117	0xbd3dac12	-0.046306677
118	0xbe0bc5ef	-0.13649724
119	0xbda05fe3	-0.07830789
120	0xbe34514e	-0.1760914
121	0x3d8e563c	0.06950042
122	0x3e2b1b1b	0.16709559
123	0xbe0cb6ce	-0.1374161
124	0xbe331576	-0.17488655
125	0x3d20e41e	0.03928005
126	0xbc024370	-0.007950649
127	0xbdf7bebe	-0.12096928
128	0xbe1ff8a9	-0.156222
129	0x3e0d843b	0.13819973
130	0xbe26b5a8	-0.16280234
131	0x3e183fda	0.14868107
132	0xbe059a21	-0.13047077
133	0x3dcf7e4d	0.10131512
134	0xbdb54c85	-0.088524856
135	0xbe1c17ee	-0.15243503
136	0xbdf2f809	-0.11863715
137	0x3e2b4d72	0.16728762
138	0x3d6f4f30	0.05842513
139	0xbd1988ea	-0.037484087
140	0xbdb459e5	-0.088062085
141	0x3cfe3c83	0.031034714
142	0x3e2e6f6d	0.17034693
143	0x3da858cb	0.08220061
144	0x3deb0d40	0.114771366
145	0x3dffa85b	0.12483283
146	0xbe18f3e1	-0.14936782
147	0x3d162f91	0.036666457
148	0xbdc8ce9d	-0.09805033
149	0xbe11360a	-0.1418077
150	0xbc922f5a	-0.017844845
151	0x3d371919	0.04470167
152	0xbd6e4ed3	-0.05818064
153	0x3dd69d73	0.1047925
154	0x3db52cd6	0.088464424
155	0xbc6fc0c4	-0.014633361
156	0xbdc28722	-0.09498431
157	0x3e1a9e03	0.15099339
158	0xbd978297	-0.07397955
159	0x3dc9e586	0.09858231
160	0x3d6df79b	0.058097463
161	0x3e15f370	0.14643645
162	0x3e333b0b	0.17502992
163	0x3e2b6920	0.16739321
164	0x3df47768	0.119368374
165	0xbdd4486f	-0.10365378
166	0x3d889337	0.06668704
167	0x3e0ae629	0.13564362
168	0xbd55074c	-0.052008912
169	0xbe06eaac	-0.13175458
170	0x3e115bdb	0.14195196
171	0x3e1e6af6	0.1547049
172	0x3d190fec	0.0373687
173	0x3da71d0f	0.08159839
174	0x3d9df497	0.077126674
175	0x3d69b566	0.05705776
176	0xbdc05af2	-0.093923464
177	0x3da1eeb1	0.07906855
178	0xbdabfdd3	-0.083980225
179	0x3e27c4f7	0.1638373
180	0xbd6a733f	-0.057238813
181	0xbc7fdc24	-0.01561645
182	0xbde1985d	-0.11015389
183	0xbca7ae11	-0.020468744
184	0xbc170ffc	-0.00922012
185	0x3e0104b1	0.12599446
186	0xbdc741a1	-0.097293146
187	0xbdfab042	-0.1224065
188	0xbd9d7393	-0.0768806
189	0xbdf6bd10	-0.120477796
190	0xbe120338	-0.1425904
191	0xbde1c1d9	-0.11023302
192	0x3cb657fb	0.02225875
193	0x3e058eef	0.13042806
194	0x3dd7145e	0.105019316
195	0x3dc4f0f3	0.0961627
196	0x3d364da0	0.044507623
197	0x3dce42d9	0.10071344
198	0x3d50c846	0.050972246
199	0xbe192968	-0.14957201
200	0xbe1b1fad	-0.15148802
201	0xbd6f512a	-0.058427013
202	0x3d933d7a	0.0718946
203	0xbc8e872e	-0.017398443
204	0x3c47adea	0.01218746
205	0x3de65197	0.11246031
206	0x3e16229f	0.14661644
207	0xbe01e072	-0.12683275
208	0xbcc71622	-0.024302546
209	0xbda61ce6	-0.08110981
210	0xbdddbcda	-0.10827036
211	0x3d870cf4	0.065942675
212	0xbda43a3f	-0.08018922
213	0x3d0feb79	0.035136674
214	0x3d8e6d4d	0.06954441
215	0x3d288aab	0.04114787
216	0xbdf1f9a8	-0.11815196
217	0x3e0bce80	0.13652992
218	0x3dbcaf38	0.09213108
219	0xbd46afce	-0.048507504
220	0xbe2a8ca3	-0.16655211
221	0x3d732907	0.0593653
222	0xbdf352a1	-0.118809946
223	0xbddadbe2	-0.106864706
224	0xbd11bd56	-0.035580955
225	0x3da5137f	0.08060359
226	0xbc834faf	-0.016029207
227	0x3d1353f5	0.03596874
228	0x3e0be897	0.13662945
229	0xbd079dfa	-0.033109643
230	0x3d1992ad	0.037493397
231	0xbe203625	-0.15645654
232	0x3d3e05ff	0.046392437
233	0x3e221197	0.15827022
234	0x3e00b293	0.1256812
235	0xbd201ce6	-0.03909006
236	0x3deb4916	0.114885494
237	0x3d9dcad1	0.077047
238	0x3d20257e	0.039098255
239	0xbd5c9a23	-0.053857934
240	0x3ae95243	0.0017801005
241	0xbe1b9fd3	-0.15197687
242	0xbe0c1a8e	-0.13682005
243	0xbe2ee582	-0.17079738
244	0xbd9eee35	-0.07760278
245	0xbdad1cfa	-0.084527925
246	0xbe0fd619	-0.14046516
247	0x3cea02f6	0.028565865
248	0xbdce5fd4	-0.100768715
249	0xbdf2e9c4	-0.118609935
250	0xbde412b0	-0.11136377
251	0x3e1cbd86	0.15306672
252	0x3c828555	0.015932718
253	0x3d81d561	0.06339527
254	0x3d045099	0.032303426
255	0xbd6341f2	-0.055482812

cfc_model.rnn_cell.ff1.bias f4 [64]
0	0x3d872c6b	0.06600269
1	0xbd88e997	-0.06685179
2	0x3d973a43	0.073841594
3	0x3d084c06	0.033275627
4	0x3a327540	0.0006807633
5	0x3ccb83e1	0.024843158
6	0xbcf27a4e	-0.029599335
7	0xbcdbbb53	-0.026822722
8	0xbd6548aa	-0.0559775
9	0xbda7381d	-0.08165
10	0x3c669d18	0.01407554
11	0x3d8cc98c	0.068743795
12	0xbdc0dba1	-0.09416891
13	0xbd1f0207	-0.038820293
14	0x3bc98f3a	0.006151107
15	0x3dbd8c99	0.092553325
16	0x3d6384c7	0.05554655
17	0x3d9103de	0.07080816
18	0xbcc07d09	-0.023497121
19	0x3c78b15f	0.015179007
20	0xbcf2a340	-0.02961886
21	0x3d51d15d	0.051225055
22	0x3d9c0e2b	0.0761989
23	0xbbd28f9e	-0.006425812
24	0xbc8e05d0	-0.017336756
25	0x388e2034	6.777086e-05
26	0x3d959890	0.073044896
27	0xbd9ba99c	-0.0760071
28	0x3d21745d	0.039417613
29	0x3d870617	0.065929584
30	0x3cd61748	0.026134148
31	0x3d611e41	0.054960493
32	0xbd393720	-0.045218587
33	0x3d0df7c0	0.0346601
34	0xbd549e72	-0.051908918
35	0xbcb1b6eb	-0.021693667
36	0x3c80c6fe	0.015719887
37	0xbca6360e	-0.020289447
38	0x3dc24938	0.094866216
39	0x3d028543	0.03186537
40	0xbcead446	-0.028665673
41	0x3c20ab2a	0.009806434
42	0xbdbb6439	-0.09149975
43	0xbd5bf501	-0.05370045
44	0xbd4b40e6	-0.04962244
45	0xbd403b83	-0.046931755
46	0x3da9c309	0.08289153
47	0x3d0d9744	0.034568086
48	0x3d778fa2	0.060439713
49	0x3d6f590d	0.058434535
50	0x3ccf6066	0.025314521
51	0xbda162d9	-0.07880182
52	0xbd0a6018	-0.03378305
53	0x3db481a4	0.088137895
54	0x3d68ecac	0.056866333
55	0xbd891956	-0.066942856
56	0x3c85e7a2	0.016345803
57	0x3d8a0fbd	0.06741283
58	0xbc00d705	-0.007863765
59	0x3ca6b0a8	0.020347908
60	0xbd2a2e30	-0.041547954
61	0x3b552016	0.0032520345
62	0xbd9d37b1	-0.07676638
63	0x3cf8e3f2	0.03038213

h2o.weight f4 [2, 64]
0	0x3ce9557d	0.028483147
1	0x3d2cf607	0.042226817
2	0xbdc222bc	-0.09479281
3	0xbad3b24c	-0.0016151159
4	0x3cfe90b8	0.031074867
5	0x3dbfa6ea	0.09358008
6	0xbda2e8d3	-0.07954564
7	0xbdb808e8	-0.08986074
8	0x3dd5bee1	0.10436798
9	0x3d6ba020	0.057525754
10	0xbd8f1479	-0.06986327
11	0xbdb62dba	-0.088954404
12	0xbce00592	-0.027346406
13	0x3c5ff20e	0.01366855
14	0x3d8a33ea	0.06748183
15	0xbde0c9ee	-0.10976015
16	0x3d213974	0.039361432
17	0x3d87c315	0.06629006
18	0xbd259ed5	-0.040434677
19	0xbd2f50eb	-0.04280178
20	0xbd815c5f	-0.063164465
21	0xbdd26b6c	-0.10274395
22	0x3ccf62c6	0.025315654
23	0x3d5f14a5	0.054463048
24	0xbd6ea18c	-0.05825953
25	0xbdcb229f	-0.09918713
26	0xbdf423a9	-0.11920864
27	0x3dffa133	0.12481918
28	0xbc9bcad2	-0.01901761
29	0xbd8a171c	-0.06742689
30	0x3d0fb580	0.0350852
31	0xbda1c874	-0.078995615
32	0x3dc631b6	0.0967745
33	0xbe0227b2	-0.12710455
34	0x3dd5363d	0.10410736
35	0xbd422eb7	-0.047407832
36	0xbd4646bc	-0.0484073
37	0xbda3ee6c	-0.0800446
38	0xbc84f5e6	-0.016230535
39	0x3d055058	0.032547325
40	0xbd71d07e	-0.059036724
41	0x3dc6a1c5	0.09698824
42	0x3d6d80ab	0.057984035
43	0x3d53a9cf	0.051675614
44	0xbd484320	-0.04889214
45	0x3df611c2	0.12015106
46	0xbd54a917	-0.05191907
47	0xba730364	-0.00092702196
48	0xbd5c9af9	-0.05385873
49	0x3db91c63	0.090386175
50	0xbd797451	-0.060901944
51	0xbc165620	-0.009175807
52	0xbd1300b2	-0.035889335
53	0xbd95c875	-0.07313625
54	0xbdda440a	-0.10657509
55	0xbdd82d56	-0.10555522
56	0xbdc68830	-0.096939445
57	0x3d8e2481	0.06940556
58	0x3de369eb	0.111041866
59	0x3dea906e	0.11453329
60	0x3d25f7e7	0.04051962
61	0x3d9dc536	0.077036306
62	0x3d0d6847	0.034523275
63	0x3ca9e81e	0.020740565
64	0x3ce922a3	0.028458899
65	0x3daf34b4	0.08554974
66	0x3ddc13e0	0.10745978
67	0xbdd9ccc1	-0.10634757
68	0xbdeabbe8	-0.114616215
69	0x3d865f44	0.06561139
70	0xbc458eb1	-0.012057946
71	0xbd6e64ac	-0.058201477
72	0x3d19d22b	0.037553947
73	0x3cf62f70	0.030051917
74	0x3d0c5068	0.03425637
75	0x3d862443	0.06549885
76	0xbcd4b10e	-0.025963333
77	0x3dc5c3e2	0.09656502
78	0x3ceb2ba8	0.02870734
79	0x3d884e7a	0.06655593
80	0x3d869f72	0.065733805
81	0x3dbc0d21	0.09182192
82	0xbe03150d	-0.12800999
83	0xbcf69af2	-0.03010318
84	0xbdb9a39d	-0.0906441
85	0xbd013b90	-0.031550944
86	0xbd487348	-0.048938066
87	0xbdac38e2	-0.08409287
88	0xbca93c9b	-0.020658782
89	0x3d81d491	0.06339372
90	0xbda04a07	-0.078266196
91	0x3daef74d	0.08543263
92	0x3d79ec91	0.061016623
93	0xbdb90865	-0.09034804
94	0xbd6c6023	-0.05770887
95	0x3c2fc263	0.010727498
96	0xbdab4b32	-0.08363952
97	0xbd3db8d6	-0.04631885
98	0xba6be01a	-0.00089979323
99	0xbd81808e	-0.06323348
100	0x3d300654	0.042974785
101	0xbd59bc3e	-0.053158037
102	0x3da409d4	0.08009687
103	0xbd4868ee	-0.048928194
104	0xbcb4aa09	-0.022053735
105	0x3c531c83	0.012885216
106	0xbdfd435b	-0.12366363
107	0x3ddcf3dd	0.10788701
108	0xbdce5452	-0.100746766
109	0xbdcb3fd6	-0.09924285
110	0x3d49eebf	0.04929995
111	0x3d8cfeac	0.06884512
112	0xbdc43e2a	-0.09582169
113	0xbdef1777	-0.116743974
114	0xbde3ad40	-0.11117029
115	0xba865780	-0.0010249466
116	0xbc404a5e	-0.0117364805
117	0xbce17868	-0.027523234
118	0x3d1af079	0.03782699
119	0x3d859c17	0.065239124
120	0xbc492a92	-0.012278216
121	0xbdec2d91	-0.115321286
122	0xbdd3c331	-0.10339964
123	0x3df3d83c	0.11906478
124	0xbd9e7b56	-0.07738368
125	0xbd4c13e0	-0.04982364
126	0x3d86b028	0.06576568
127	0x3daed839	0.08537335

h2o.bias f4 [2]
0	0x3c9b01ac	0.018921696
1	0xbde5bc98	-0.11217612

h2v.weight f4 [1, 64]
0	0x3db3421c	0.08752844
1	0x3d8f5616	0.069988415
2	0x3cec7288	0.028863207
3	0xbd8a0958	-0.067400634
4	0x3c8d8518	0.017275378
5	0x3d8db162	0.06918599
6	0xbdcf80f4	-0.10132018
7	0xbc83cde8	-0.016089395
8	0x3d1626ac	0.036657974
9	0xbbdba240	-0.0067026913
10	0x3cd59400	0.026071548
11	0x3cc71cb8	0.024305686
12	0xbdbd995a	-0.09257765
13	0xbda23f76	-0.079222605
14	0xbd6a5700	-0.057211876
15	0xbd3293e8	-0.043598086
16	0x3d1bea58	0.038065284
17	0x3cdd5570	0.027018279
18	0xbdbd9322	-0.09256579
19	0x3d6f9220	0.058488965
20	0x3c625ee0	0.013816565
21	0x3df72d98	0.12069243
22	0xbd0ed4ac	-0.03487079
23	0xbda60f3c	-0.081083745
24	0xbcf91b40	-0.030408502
25	0xbc26d030	-0.010181472
26	0xbd97d320	-0.07413316
27	0x3de77ec4	0.113034755
28	0x3c676de0	0.014125317
29	0xbcbfb4c8	-0.023401633
30	0x3de00c8c	0.10939893
31	0xbdb05630	-0.08610189
32	0x3d944d90	0.072413564
33	0xbd7775d4	-0.060415104
34	0x3d36d978	0.044640988
35	0xbdc1e58c	-0.09467611
36	0x3aac6b80	0.0013154596
37	0x3da9fe90	0.08300507
38	0xbd4c895c	-0.049935684
39	0x3db242be	0.08704136
40	0xbd919cd4	-0.07109991
41	0x3c6a5d10	0.014304414
42	0x3cbf9368	0.023385718
43	0xbc2e4b50	-0.010638073
44	0x3d085e40	0.03329301
45	0xbd933730	-0.071882606
46	0xbca53f78	-0.020171866
47	0x3d53973c	0.0516579
48	0xbd997d8c	-0.07494649
49	0x3d5a6cd8	0.053326458
50	0xbcfe1c90	-0.031019479
51	0x3d8c2e70	0.06844795
52	0xbca736e8	-0.020411924
53	0x3ce3fca0	0.027830422
54	0xbd1e4208	-0.03863719
55	0x3c4fbf40	0.012679875
56	0xbdf6998a	-0.12041004
57	0x3c4cffc0	0.012512147
58	0xbc3c6f10	-0.011501089
59	0x3d3f6f9c	0.0467373
60	0xbde54b2a	-0.11195977
61	0xbdcc9706	-0.09989743
62	0xbd93f826	-0.07225065
63	0xbd7ce538	-0.061742038
