LTC_A2C/adaptation_module/training_results/adaptation_module_StandardRNN_result_680_2024327_CfC_result_296_202437_numneuronsadaptmod_32_lradaptmod_0.0005_wdadaptmod_0.01/best_adaptation_module_reward_CfC_A2C_4.pt (torch, 14344 bytes, 6 tensors)

rnn.weight_ih_l0 f4 [32, 5]
0.05287782 -0.049863927 0.06226594 0.0367651 0.10944622 -0.06895954 -0.05465233 0.013357498
-0.07615063 0.105917476 0.0009465446 0.0044959416 -0.06743172 0.0054116016 0.02713409 -0.009467835
0.08950674 0.00090153853 -0.07351914 0.09936879 0.01925597 -0.0136791775 -0.07657908 0.03220995
0.16202813 -0.07654321 0.01191453 0.0038019116 -0.016449468 -0.053593352 -0.058497693 -0.025651246
-0.07585892 -0.0032986465 0.12926851 0.040477052 0.10247759 -0.06832083 -0.0026359844 0.17710052
0.0052046175 -0.0044820425 -0.075360686 0.017630711 0.06573635 0.07772809 0.07744605 -0.00044192662
0.047454767 -0.08111585 0.06287176 -0.010295956 -0.000724146 -0.022650754 0.056951284 0.030282449
0.044004284 -0.035077523 -0.022700792 0.15818568 -0.03977813 -0.037808035 -0.0002877666 -0.003193313
-0.068888225 0.07423572 -0.017881604 0.013427054 0.055114474 -0.10833201 0.056773692 -0.027186634
-0.00021578389 0.054995075 0.13313653 0.08922615 0.04366215 0.07771502 -0.0077706696 -0.04807083
-0.023096249 -0.0061170775 -0.0005019203 0.024389226 0.08527282 -0.052597884 -0.030562256 -0.00062203326
-0.0011246242 -0.039651595 -0.0387976 0.0031088132 -0.015765352 0.004415044 -0.08747003 -0.0013622824
-0.007299552 0.00024076791 0.059020683 0.08942974 -0.021097083 -0.09572854 -0.048403174 -0.05389002
-0.045802955 -0.03787458 -0.06733272 0.00028890185 0.0006171588 -0.051661655 -0.014377164 0.07402639
-0.08499007 2.5336501e-05 0.08281542 0.054518364 -0.06525108 -0.00011122612 0.067034066 -0.005917832
0.039328597 -0.02145111 0.043617707 -0.007048648 -0.0524592 0.084853314 -0.0036181253 -0.00030174525
-0.045078713 -0.06854466 -0.08353769 -0.06747673 0.00094037893 0.0035649699 -0.16242498 0.09148029
0.05121981 -0.08109488 0.027103974 -0.12220773 -0.076265745 0.10153761 -0.0055835694 -0.005643337
0.054005593 0.056549776 -0.009507293 -1.4154099e-05 0.0014035482 -0.053101495 -0.05850151 0.007297131
0.00015355817 0.012664145 -0.009461861 -0.09701297 -0.015465399 -0.08410155 -0.0014086912 0.10418363
00000000: 6a96 583d 1e3e 4cbd 920a 7f3d 0097 163d
00000010: 5725 e03d a93a 8dbd 1fdb 5fbd 68d9 5a3c
00000020: ddf4 9bbd 43eb d83d 8821 783a b152 933b
00000030: a419 8abd ce53 b13b 5048 de3c fa1e 1bbc
00000040: 4f4f b73d 3a55 6c3a 3491 96bd dd81 cb3d
00000050: b2be 9d3c a11e 60bc 7ed5 9cbd 95ee 033d
00000060: b4ea 253e b0c2 9cbd 2935 433c 7e29 793b
00000070: 09c1 86bc b484 5bbd 479b 6fbd 9022 d2bc
00000080: ec5b 9bbd 1b2e 58bb f75e 043e 44cb 253d
00000090: c5df d13d cbeb 8bbd 7bc0 2cbb d759 353e
000000a0: 7f8b aa3b 19de 92bb b456 9abd 486e 903c
000000b0: c8a0 863d e82f 9f3d 099c 9e3d 63b2 e7b9
000000c0: ee5f 423d 1120 a6bd e9c2 803d 5fb0 28bc
000000d0: 9ed4 3dba 138e b9bc c045 693d e612 f83c
000000e0: d63d 343d 73ad 0fbd 03f7 b9bc 6dfb 213e
000000f0: 64ee 22bd 99dc 1abd 61df 96b9 e746 51bb
00000100: 4515 8dbd e608 983d 717c 92bc 25fd 5b3c
00000110: b7bf 613d 2cdd ddbd 888b 683d 81b6 debc
00000120: 0c44 62b9 8442 613d f154 083e 33bc b63d
00000130: 15d7 323d 0d29 9f3d 1aa1 febb ebe5 44bd
00000140: 5834 bdbc c471 c8bb 4d93 03ba eacb c73c
00000150: 84a3 ae3d e170 57bd b25d fabc f20f 23ba
00000160: 2068 93ba b669 22bd 3bea 1ebd 3bbd 4b3b
00000170: 5726 81bc 13ac 903b 7d23 b3bd 9d8e b2ba
00000180: 1531 efbb a576 7c39 acbf 713d f126 b73d
00000190: cad3 acbc 530d c4bd 6842 46bd c8bb 5cbd
000001a0: e19b 3bbd 6022 1bbd bde5 89bd c077 9739
000001b0: d3c8 213a 2c9b 53bd 328e 6bbc 269b 973d
000001c0: 460f aebd b989 d437 229b a93d a64e 5f3d
000001d0: 5ca2 85bd 1242 e9b8 2849 893d 5fea c1bb
000001e0: 0617 213d 3dba afbc 7ba8 323d 58f8 e6bb
000001f0: 75df 56bd 93c7 ad3d 121e 6dbb 9033 9eb9
00000200: 75a4 38bd 2561 8cbd cf15 abbd 3d31 8abd
00000210: c383 763a 45a2 693b bc52 26be 055a bb3d
00000220: ddcb 513d 1315 a6bd 2709 de3c 0c48 fabd
00000230: 3731 9cbd f3f2 cf3d 60f6 b6bb beeb b8bb
00000240: f834 5d3d bda0 673d 7ac4 1bbc 6477 6db7
00000250: 43f7 b73a f480 59bd 489f 6fbd c51c ef3b
00000260: 7504 2139 467d 4f3c ec05 1bbc bcae c6bd
00000270: 9662 7dbc 6f3d acbd d5a3 b8ba 3a5e d53d

rnn.weight_hh_l0 f4 [32, 32]
0.0014296048 0.02155399 0.004396847 0.033337098 0.080404855 -0.0042548487 0.020933779 -0.021923006
0.041677438 0.08030849 -0.07118494 0.113882415 0.04286885 -0.030773818 -0.10730778 -0.0980478
-0.063362 -0.059546553 -0.082196906 -0.016632503 -0.067432076 -0.08179173 0.005729248 -0.06415584
0.010308674 -0.0029819605 0.009465132 0.05224124 0.07152176 -0.03689437 -0.013143377 0.012439333
0.05981416 0.025063338 -0.03275471 0.025431797 -0.015584527 0.040382992 -0.057161864 -0.08841638
-0.033229973 0.038550086 -0.037282187 -0.008703243 0.03818789 0.024869567 0.027940165 0.06807055
0.032911487 -0.0823622 0.07335184 -0.0014572345 -0.08840895 0.039304774 -0.088431224 0.074792445
0.06157603 -0.039394516 -0.03860997 0.043553352 -0.059089176 -0.00061749585 -0.089632705 0.050856005
-0.0055403626 0.009832553 -0.05334428 0.03177115 0.034263145 0.116977766 -0.079977885 -0.06425482
0.027185284 0.06839913 -0.08012736 -0.05847268 -0.09908722 0.108050376 -0.056604933 0.07961048
0.016681487 -0.009957922 0.01663616 0.037957706 0.019249104 0.07042293 -0.038246837 0.016231634
-0.0057163048 -0.073875494 -0.018625826 -0.058364928 -0.05630891 -0.034134272 -0.00024865713 -0.09424333
-0.07458315 0.05269076 0.019902516 -0.038865473 -0.054301333 0.047968388 -0.11518615 -0.17136657
-0.03896508 0.121290125 0.015952462 -0.18100135 -0.11534933 0.1367261 0.112758435 0.06924739
0.027488496 0.014067738 0.10033445 -0.08289412 0.06395763 -0.08616698 -0.19410378 0.0883046
-0.027197251 0.030177748 -0.0016454827 -0.08479182 0.07691167 -0.10904634 -0.121754445 0.0100143915
-0.007443449 -0.01028698 -0.17385708 0.0061832196 -0.044277605 0.030836655 0.040704638 -0.0712705
-0.054890342 -0.074846536 0.064490594 -0.016028306 0.06671309 -0.098447725 0.054278582 0.08344442
0.07879613 0.024939757 -0.10529835 0.04506772 0.09361098 -0.013531042 0.1767118 0.01372234
0.14426784 -0.03555372 -0.032411363 0.02579054 0.012497271 0.019576833 0.036924202 0.002479886
-0.0026646485 0.010006227 -0.060245 0.15765947 -0.10209977 -0.03624687 0.08938323 -0.111716084
-0.06937802 0.09820765 0.10576925 0.067264326 -0.12086936 -0.107679464 -0.14493293 0.032759737
-0.020158308 -0.016798582 0.0393872 -0.038367152 0.036201503 0.13743311 -0.08160649 -0.059596457
0.0817138 0.05461884 0.091404505 0.13545857 -0.035749704 0.026374184 -0.021675536 -0.0014698568
0.012126176 0.016650954 -0.08585481 -0.05784588 0.101622656 0.016063113 0.14270042 0.006565663
-0.05289419 -0.1407688 -0.042815637 -0.110461146 0.17868203 -0.14399922 -0.016200045 0.0040337346
0.107981235 0.06820526 0.1140966 0.018057562 -0.10813501 -0.1681587 0.07134649 0.008039376
0.038039174 0.028976584 -0.013249144 -0.03356337 -0.099346116 0.045830924 0.09255037 -0.015180668
0.024357446 -0.09717156 0.07754122 -0.18419154 0.09173311 -0.08899973 -0.10151154 0.029354911
0.028416932 -0.051189 -0.071886994 -0.059405617 0.15515631 -0.15761517 -0.037782606 -0.17494768
-0.09039388 0.09548134 -0.07510553 0.025259068 -0.06911185 -0.13704579 0.029103987 -0.11041409
-0.040015984 0.054576814 -0.07027669 0.011603386 0.0015158651 0.05790158 0.020685995 0.11729688
00000000: 9461 bb3a fe91 b03c 6d13 903b 7b8c 083d
00000010: 4dab a43d 426c 8bbb 517d ab3c e097 b3bc
00000020: f6b5 2a3d c778 a43d 69c9 91bd 2f3b e93d
00000030: 3f97 2f3d 6019 fcbc 2ec4 dbbd 49cd c8bd
00000040: f0c3 81bd 16e7 73bd da56 a8bd e340 88bc
00000050: d419 8abd 6c82 a7bd 6abc bb3b 2364 83bd
00000060: b6e5 283c ff6c 43bb a413 1b3c e9fa 553d
00000070: 007a 923d 8d1e 17bd 5257 57bc 58ce 4b3c
00000080: b1ff 743d a151 cd3c ce29 06bd 5856 d03c
00000090: 3e56 7fbc a368 253d 8f22 6abd a613 b5bd
000000a0: 271c 08bd b2e6 1d3d 35b5 18bd 0c98 0ebc
000000b0: e86a 1c3d 43bb cb3c c6e2 e43c 9368 8b3d
000000c0: 32ce 063d 83ad a8bd 7d39 963d ad00 bfba
000000d0: c00f b5bd 0bfe 203d 6e1b b5bd c82c 993d
000000e0: 2637 7c3d 255c 21bd 7d25 1ebd 0065 323d
000000f0: 7e07 72bd 72df 21ba 5a91 b7bd 634e 503d
00000100: ee8b b5bb b718 213c 887f 5abd 7722 023d
00000110: 8357 0c3d 0a92 ef3d 72cb a3bd 0898 83bd
00000120: acb3 de3c d814 8c3d d019 a4bd 0d81 6fbd
00000130: 3eee cabd 8449 dd3d 93da 67bd d20a a33d
00000140: 9da7 883c 8d26 23bc 8e48 883c 8a79 1b3d
00000150: 4cb0 9d3c e639 903d b7a8 1cbd 34f8 843c
00000160: d74f bbbb 094c 97bd 3095 98bc 1010 6fbd
00000170: 2ca4 66bd 61d0 0bbd 325e 82b9 a602 c1bd
00000180: 0dbf 98bd 44d2 573d 9a0a a33c 6731 1fbd
00000190: 136b 5ebd 807a 443d b7e6 ebbd b87a 2fbe
000001a0: d999 1fbd f566 f83d bdae 823c 6b58 39be
000001b0: 453c ecbd ed01 0c3e e5ed e63d 93d1 8d3d
000001c0: 8e2f e13c 5f7c 663c 267c cd3d 64c4 a9bd
000001d0: 38fc 823d 5078 b0bd 24c3 46be 0bd9 b43d
000001e0: c5cc debc 5337 f73c 3dad d7ba 55a7 adbd
000001f0: de83 9d3d b053 dfbd 655a f9bd 6713 243c
00000200: 2de8 f3bb b98a 28bc 9707 32be 9b9c ca3b
00000210: 6f5c 35bd 279d fc3c e8b9 263d 45f6 91bd
00000220: b2d4 60bd 2449 99bd a513 843d cb4d 83bc
00000230: dfa0 883d f69e c9bd 3853 5e3d e8e4 aa3d
00000240: de5f a13d 764e cc3c a9a6 d7bd ee98 383d
00000250: 1db7 bf3d 4eb1 5dbc f0f3 343e aad3 603c
00000260: f3ba 133e c7a0 11bd c7c1 04bd af46 d33c
00000270: 5bc1 4c3c 985f a03c d53d 173d 9585 223b
00000280: 62a1 2ebb 28f1 233c 76c3 76bd 7c71 213e
00000290: af19 d1bd 9977 14bd 8e0e b73d 67cb e4bd
000002a0: 1016 8ebd 1821 c93d 8c9d d83d e1c1 893d
000002b0: 5b8a f7bd 0d87 dcbd 4c69 14be 132f 063d
000002c0: 0923 a5bc 2e9d 89bc 7954 213d e026 1dbd
000002d0: 0748 143d 44bb 0c3e 4e21 a7bd 6a1b 74bd
000002e0: 9159 a73d 01b8 5f3d 4932 bb3d a7b5 0a3e
000002f0: 486e 12bd ac0e d83c e590 b1bc 36a8 c0ba
00000300: deac 463c 9567 883c a6d4 afbd cdef 6cbd
00000310: 8a1f d03d ca96 833c 0f20 123e c624 d73b
00000320: 94a7 58bd b225 10be 735f 2fbd 7439 e2bd
00000330: 6cf8 363e 8874 13be f5b5 84bc 6b2d 843b
00000340: 4425 dd3d 33af 8b3d 7aab e93d 74ed 933c
00000350: e375 ddbd cb31 2cbe 1c1e 923d 96b7 033c
00000360: f7ce 1b3d 4d60 ed3c f012 59bc bf79 09bd
00000370: fa75 cbbd 35b9 3b3d 0c8b bd3d 56b8 78bc
00000380: 4489 c73c e201 c7bd eecd 9e3d b59c 3cbe
00000390: 92de bb3d 7e45 b6bd 48e5 cfbd b679 f03c
000003a0: a0ca e83c 8fab 51bd 7d39 93bd 4e53 73bd
000003b0: 4ce1 1e3e df65 21be efc1 1abd 7c25 33be
000003c0: 6d20 b9bd b98b c33d eed0 99bd 1bec ce3c
000003d0: 838a 8dbd bb55 0cbe 7c6b ee3c c820 e2bd
000003e0: cde7 23bd f08b 5f3d 3aed 8fbd 211c 3e3c
000003f0: feaf c63a 352a 6d3d ad75 a93c 5939 f03d

rnn.bias_ih_l0 f4 [32]
-0.01390415 0.030473353 -0.10972512 -0.10743527 -0.10999964 -0.08677762 -0.11427452 0.06910948
-0.087632895 -0.1538302 0.03252987 0.0816167 0.12662652 -0.13839689 0.0459907 -0.13913271
0.09043583 -0.11054721 -0.08162857 0.044978447 0.031189408 0.09452428 0.14623146 0.104503505
-0.045440253 0.089672215 -0.052720055 0.0010358827 0.19110578 -0.12801841 0.13899305 -0.12156822
00000000: 3bce 63bc 41a3 f93c 90b7 e0bd 0607 dcbd
00000010: 7e47 e1bd 77b8 b1bd c208 eabd 4589 8d3d
00000020: e078 b3bd aa85 1dbe 0a3e 053d a826 a73d
00000030: 62aa 013e eab7 0dbe bf60 3c3d ce78 0ebe
00000040: 6c36 b93d 9366 e2bd e12c a7bd 523b 383d
00000050: ee80 ff3c f295 c13d b3bd 153e ef05 d63d
00000060: 8f1f 3abd 11a6 b73d fcf0 57bd 75c6 873a
00000070: 3cb1 433e 4217 03be 3254 0e3e c2f8 f8bd

rnn.bias_hh_l0 f4 [32]
-0.09986906 -0.053106613 -0.12469078 -0.15133353 0.11739804 -0.13975918 0.19762586 0.08214191
0.01415487 0.08620951 0.100511074 0.08143286 -0.016909642 -0.14327045 0.10038137 -0.054121736
-0.0047532017 -0.054150105 -0.13497406 0.070657335 -0.16709937 -0.058838945 0.05611746 -0.06616116
0.18822213 -0.0092987055 0.015237698 -0.11354887 0.08479232 -0.00075048057 0.0071339062 0.07764361
00000000: 2688 ccbd 5286 59bd e15d ffbd 2df7 1abe
00000010: 626e f03d 081d 0fbe 6f5e 4a3e 053a a83d
00000020: d4e9 673c 9d8e b03d c0d8 cd3d 45c6 a63d
00000030: 1786 8abc 7db5 12be bf94 cd3d c1ae 5dbd
00000040: bfc0 9bbb 80cc 5dbd a436 0abe cbb4 903d
00000050: 191c 2bbe 1b01 71bd 6cdb 653d 817f 87bd
00000060: 4dbd 403e 9959 18bc 8aa7 793c 4f8c e8bd
00000070: 99a7 ad3d e6bb 44ba 8bc3 e93b 9d03 9f3d

linear.weight f4 [48, 32]
0.0025151037 -0.014657378 -0.029373514 -0.052522384 0.011781382 0.050924323 -0.06317956 0.00022728748
-0.038856223 -0.01655544 0.00093798275 0.020015432 -0.038518537 0.066944346 -0.048910398 0.07144522
-0.019685179 0.0063450364 -0.0051172916 0.041244633 -0.014506868 -0.059524238 0.017309105 0.024390792
-0.07500198 -0.0571687 0.047480296 0.029930621 0.023323918 0.022367617 0.009647212 0.05061708
-0.022518262 0.01750114 -0.020505529 -0.0212135 0.023103725 -0.09792958 0.02915196 0.0107110655
0.0856102 0.0035448137 -0.0057002245 0.09771642 -0.052690387 0.0025447118 -0.028661506 0.06470621
0.07239275 -0.03229111 -0.048100587 0.057802305 -0.04918361 0.063959345 -0.0049863793 0.072062105
-0.08229299 -0.009646408 -0.026812742 -0.05780462 -0.08797677 0.011361229 -0.05320034 0.011468958
-0.003602959 0.012860913 -0.021167785 -0.020388274 -0.0025390172 0.01914532 -0.0050350134 0.0119346455
-0.007345809 -0.054006968 0.0006429472 -0.018646657 -0.006361207 0.00328492 0.017675724 0.006273274
0.05601562 -0.00193214 0.035659507 -0.08101381 -0.041902203 0.005535 -0.025530027 -0.02009495
0.016188119 0.0807279 0.0008104133 -0.04831859 -0.035852555 -0.019992596 -0.0054829624 -0.005660743
0.0008938443 0.0108628655 0.005987016 -0.0069573354 -0.05847784 -0.05037981 -0.0047490885 0.008337011
0.0040889243 0.017714368 0.021798832 -0.04429054 0.05181145 -0.0020883868 0.0279966 0.020938518
0.023305938 -0.0025472003 0.04967642 -0.0008432658 0.0043409965 0.023019552 0.09749745 -0.019091371
-0.005093149 0.0015419606 0.0010335894 0.0048568966 -0.060676016 -0.0049221674 -0.04426202 -0.016051268
0.035633754 0.00126747 0.0038517443 -0.0658331 0.026276447 0.00013882646 0.0006384409 0.039262045
0.0005086969 0.013495546 -0.06274558 0.0042535122 -0.094317086 0.076877356 -0.10012498 -0.06359673
-0.013514384 -0.0007334439 -0.0026776192 -0.0069307475 0.018939316 -1.9847901e-05 -0.08037192 0.0045478926
0.050552018 0.003430718 0.0010477678 0.012422692 0.013803476 0.020401541 0.084931225 0.0004081668
0.0017381238 -0.07128216 -0.0021661187 0.06432222 0.0061919773 -0.023249675 0.0050683683 0.0025709977
-0.0012813419 -0.055475257 0.019424597 0.01266817 -0.049395956 0.054623842 -0.071124844 0.036501117
-0.035953242 -0.0702628 0.057990547 -0.03501155 -0.001702064 -0.0021224364 0.003012178 0.00045684117
0.066326104 -0.04143117 0.016565835 -0.034481004 -0.008835304 0.0006530119 0.068028785 0.005131397
0.003699349 -0.008992997 -0.017255759 -0.05532738 0.0023032427 0.06564322 0.017994454 0.0068266722
-0.0048012314 -0.0046039973 -0.0006864304 -0.008778305 0.0064515006 -0.03943216 0.007361195 -0.0054413
0.03802295 0.017339204 0.017121691 2.6300708e-05 -0.0069887503 0.010516527 -0.090598 -0.0022573175
0.0056963637 -0.03256442 -0.08752904 -0.038927358 -0.082947254 -0.014734227 0.0056342687 0.0065295123
0.10678849 0.012103089 -0.042136155 -0.13227916 0.040148422 0.060618296 0.2023572 0.15387425
-0.05390511 -0.05284904 -0.07761443 0.051564235 0.06972207 -0.10464232 0.03840396 -0.20752421
0.05140471 0.031370364 0.032729793 0.17982627 -0.1510382 -0.1429752 0.21187627 0.10396253
-0.009242553 -0.072630934 -0.12859502 -0.19583473 0.22589912 0.11709627 0.19304703 0.053576138
00000000: 70d4 243b 8025 70bc b9a0 f0bc b621 57bd
00000010: b306 413c 0696 503d 4964 81bd 0554 6e39
00000020: b427 1fbd 469f 87bc f5e2 753a 67f7 a33c
00000030: 9dc5 1dbd 1e1a 893d 4556 48bd df51 923d
00000040: d042 a1bc 06ea cf3b f4ae a7bb 22f0 283d
00000050: 37ae 6dbc b0cf 73bd d3cb 8d3c 33cf c73c
00000060: a39a 99bd ba29 6abd b37a 423d 1031 f53c
00000070: cd11 bf3c 4b3c b73c 570f 1e3c db53 4f3d
00000080: 3878 b8bc 8d5e 8f3c 36fb a7bc efc7 adbc
00000090: 0644 bd3c 4e8f c8bd 17d0 ee3c 777d 2f3c
000000a0: 6754 af3d 1b50 683b f3c8 babb 8c1f c83d
000000b0: e0d1 57bd 2ec5 263b 89cb eabc b084 843d
000000c0: a642 943d af43 04bd 1f05 45bd 1cc2 6c3d
000000d0: c174 49bd 1efd 823d c864 a3bb 4c95 933d
000000e0: 3a89 a8bd f80b 1ebc 65a6 dbbc 8ac4 6cbd
000000f0: 2a2d b4bd 7324 3a3c 9ae8 59bd 4ce8 3b3c
00000100: 9f1f 6cbb 94b6 523c 1068 adbc 4f05 a7bc
00000110: a465 26bb a5d6 9c3c c1fc a4bb 8889 433c
00000120: 1db5 f0bb 6936 5dbd 758b 283a e0c0 98bc
00000130: ac71 d0bb d047 573b aecc 903c 0990 cd3b
00000140: a270 653d dc3f fdba b40f 123d 92ea a5bd
00000150: a5a1 2bbd f25e b53b 5924 d1bc 2a9e a4bc
00000160: f29c 843c ab54 a53d ea71 543a b7e9 45bd
00000170: 21da 12bd 83c7 a3bc 6caa b3bb c17d b9bb
00000180: e050 6a3a 29fa 313c bb2e c43b 5cfa e3bb
00000190: 7686 6fbd 0f5b 4ebd 3e9e 9bbb f597 083c
000001a0: 62fc 853b b91d 913c 7793 b23c ff69 35bd
000001b0: 3e38 543d 51dd 08bb 2059 e53c 4187 ab3c
000001c0: 18ec be3c eeee 26bb 8079 4b3d 9c0e 5dba
000001d0: eb3e 8e3b 8093 bc3c beac c73d 8265 9cbc
000001e0: 6ee4 a6bb 9d1b ca3a 8179 873a 9a26 9f3b
000001f0: 6a87 78bd 224a a1bb 184c 35bd f37d 83bc
00000200: b3f4 113d 3c21 a63a 8c6d 7c3b 81d3 86bd
00000210: b441 d73c f291 1139 0b5d 273a 3dd1 203d
00000220: 125a 053a 6c1c 5d3c c180 80bd 0c61 8b3b
00000230: 5129 c1bd e071 9d3d 530e cdbd 013f 82bd
00000240: 6f6b 5dbc 9644 40ba ff7a 2fbb 531b e3bb
00000250: a026 9b3c 0b7f a6b7 089a a4bd 7d06 953b
00000260: a20f 4f3d e6d5 603b 4155 893a 8c88 4b3c
00000270: f927 623c 2221 a73c 6cf0 ad3d 38ff d539
00000280: c2d1 e33a 62fc 91bd 71f5 0dbb 5ebb 833d
00000290: 12e6 ca3b 1a76 bebc 8e14 a63b 2f7e 283b
000002a0: b3f2 a7ba 063a 63bd 5520 9f3c 288e 4f3c
000002b0: 6a53 4abd 40bd 5f3d e7a9 91bd 3282 153d
000002c0: b543 13bd f1e5 8fbd 7f87 6d3d 4568 0fbd
000002d0: ca17 dfba 9318 0bbb f667 453b 2f84 ef39
000002e0: fbd5 873d bbb3 29bd 13b5 873c f43b 0dbd
000002f0: f3c1 10bc e32e 2b3a ad52 8b3d 4725 a83b
00000300: c770 723b 5d57 13bc f35b 8dbc f69e 62bd
00000310: 00f2 163b f46f 863d 1b69 933c 47b2 df3b
00000320: a653 9dbb 21dd 96bb 90f1 33ba e1d2 0fbc
00000330: 1c67 d33b 9e83 21bd 2e36 f13b ef4c b2bb
00000340: f4bd 1b3d f20a 8e3c ca42 8c3c 57a0 dc37
00000350: e301 e5bb 834d 2c3c 728b b9bd 81ef 13bb
00000360: 90a8 ba3b 4562 05bd 6d42 b3bd 4b72 1fbd
00000370: 40e0 a9bd d467 71bc ac9f b83b 85f5 d53b
00000380: edb3 da3d 094c 463c f696 2cbd 3074 07be
00000390: ac72 243d e44a 783d ba36 4f3e 3691 1d3e
000003a0: 9bcb 5cbd 3c78 58bd 50f4 9ebd 0535 533d
000003b0: 72ca 8e3d b64e d6bd 794d 1d3d 3a81 54be
000003c0: bf8d 523d 367e 003d ad0f 063d 6124 383e
000003d0: c2a9 1abe 1768 12be 18f6 583e 4fea d43d
000003e0: 146e 17bc 87bf 94bd 6aae 03be e688 48be
000003f0: 1952 673e 2bd0 ef3d 1fae 453e a772 5b3d

linear.bias f4 [48]
0.045904763 0.016277472 -0.025366576 0.028457187 0.028543254 0.030206779 -0.025021624 -0.12975377
-0.06404929 -0.12789452 0.0685245 -0.07391338 -0.019676616 -0.028554186 0.09290836 0.109142415
-0.019378154 0.12289806 0.053598393 -0.05489689 -0.0077299895 0.020913754 -0.052105397 0.05680705
0.12589473 -0.06050202 -0.0040709204 0.107142195 0.09720388 -0.13159022 0.087082654 0.0356036
0.012467968 0.018165942 -0.10151972 -0.022713803 -0.0030827436 0.09757661 -0.015970534 0.068264276
-0.0057215304 -0.12006105 -0.0714402 -0.08558748 0.0658849 0.028968496 -0.012816798 -0.08674467
00000000: a206 3c3d 5558 853c 91cd cfbc 0c1f e93c
00000010: 8bd3 e93c 3574 f73c 26fa ccbc 2cde 04be
00000020: 462c 83bd c8f6 02be 9356 8c3d e65f 97bd
00000030: db30 a1bc 78ea e9bc bd46 be3d 0f86 df3d
00000040: efbe 9ebc fab1 fb3d fd89 5b3d 90db 60bd
00000050: da4b fdbb 5253 ab3c 786c 55bd 82ae 683d
00000060: 8cea 003e f7d0 77bd 5b65 85bb 5e6d db3d
00000070: d412 c73d 96bf 06be 6458 b23d 15d5 113d
00000080: 7346 4c3c bed0 943c 92e9 cfbd 4c12 babc
00000090: db07 4abb 3fd6 c73d a3d4 82bc 24ce 8b3d
000000a0: ad7b bbbb 91e2 f5bd 3d4f 92bd 7d48 afbd
000000b0: aaee 863d 574f ed3c 8cfd 51bc 31a7 b1bd
