LTC_A2C/adaptation_module/training_results/adaptation_module_StandardRNN_result_10_2024321_CfC_result_296_202437_numneuronsadaptmod_64_lradaptmod_5e-05_wdadaptmod_0.01/best_adaptation_module_reward_CfC_A2C_3.pt (torch, 29512 bytes, 6 tensors)

rnn.weight_ih_l0 f4 [64, 5]
0.07091076 -0.08664288 0.07542081 0.07296417 0.08996557 -0.092690796 -0.083262704 0.038072832
-0.111983135 0.1442318 0.0077196406 0.015939208 -0.08121582 0.029746497 0.068146944 0.016752992
0.10167901 0.027171323 -0.09058267 0.08390857 0.047696374 -0.050538935 -0.092124894 0.06422785
0.09625279 -0.090502195 0.021919781 0.0253793 -0.07000144 -0.008177521 -0.080900446 -0.049528535
-0.09423287 -0.016503535 0.09173109 0.031500008 0.10345104 -0.08809553 -0.0072554033 0.1446654
0.0046399427 -0.031121988 -0.09163636 0.043421905 0.110906586 0.09240004 0.08840634 0.031030858
0.1028018 -0.05086828 0.07967758 -0.008590162 -0.032147057 -0.06646027 0.085774705 0.047753837
0.068515 -0.060077257 -0.050568484 0.09899538 -0.046467844 -0.06928852 -0.016930835 -0.030756472
-0.102101356 0.09442222 0.0017240559 0.050218754 0.09993565 -0.10094146 0.082213715 -0.0467417
-0.029533254 0.075236075 0.13406119 0.084640436 0.061060272 0.09301272 -0.03502291 0.0023969633
-0.045211114 -0.01185517 -0.021427572 0.056432407 0.10237751 -0.06379946 -0.060697343 -0.021326367
0.013240059 -0.065145865 -0.078640446 -0.021244667 -0.04547729 -0.0018179708 -0.075270124 -0.030819703
-0.030205205 -0.026073236 0.076776326 0.102591485 -0.03701824 -0.09773419 -0.07165398 -0.105539896
0.008623616 -0.027629716 -0.07160086 0.013852373 0.0032592472 -0.01939497 -0.025191212 0.09307363
-0.095559716 -0.0051703453 0.038508598 0.059776664 -0.09118102 -0.01469821 0.08180998 0.030647712
0.061325308 -0.04634458 0.06888349 -0.049451638 -0.085519016 0.09989135 0.015796727 0.012248197
-0.065941 -0.04571494 -0.06758438 -0.07323865 -0.004393273 0.017523859 -0.11841988 0.093674794
0.07958043 -0.09226364 0.07979439 -0.05801348 -0.089517035 0.10647581 -0.029523708 -0.033912286
0.034132518 0.07296147 0.005225047 -0.016635371 0.022338804 -0.08216378 -0.060488537 0.033793584
0.010457747 0.055393435 -0.064899474 -0.11855053 -0.032191705 -0.09792714 -0.010622389 0.07784609
0.008014768 0.07247067 0.008562832 0.03842416 0.12916051 0.0209089 0.021967592 -0.034573663
0.07079959 0.09243849 -0.09166813 0.110379905 0.017152203 -0.017405404 -0.1017366 -0.095579326
-0.08511591 -0.081106745 -0.082664706 -0.05647607 -0.09376591 -0.08736686 -0.02396002 -0.12008008
0.008378568 0.00040854973 0.025490185 0.055966005 0.05499407 -0.04929569 -0.023800483 0.0060996744
0.085733004 0.059469618 -0.08715459 -0.008077894 0.0112158535 0.042498294 -0.027534047 -0.12957604
-0.065919064 0.007204957 -0.06298823 0.024508465 0.096886344 0.003138683 0.062911816 0.06390175
0.07211697 -0.12913567 0.086658485 0.032966167 -0.10148969 0.023740355 -0.06882879 0.08635466
0.08485536 -0.061326634 -0.0812815 0.029088795 -0.04272715 0.046109322 -0.09397479 0.09141227
0.035053506 0.0007060527 -0.06367081 -0.006426328 0.06483027 0.14061016 -0.051768076 -0.04244665
0.025694327 0.06459659 -0.1236031 -0.048150126 -0.09709997 0.09349103 -0.043841626 0.09093282
0.066287406 0.01922834 0.016766308 0.07226737 -0.037336133 0.06366659 -0.02835821 0.012878507
0.05643914 -0.1311303 -0.041354846 -0.09599978 -0.022445953 0.0048179207 0.031703133 -0.09192068
00000000: a939 913d d371 b1bd 3a76 9a3d 3d6e 953d
00000010: de3f b83d acd4 bdbd a385 aabd 42f2 1b3d
00000020: 6a57 e5bd 80b1 133e 0af5 fc3b f192 823c
00000030: 7b54 a6bd edae f33c a090 8b3d 923d 893c
00000040: 163d d03d 6596 de3c 6883 b9bd 42d8 ab3d
00000050: 465d 433d ea01 4fbd faab bcbd e489 833d
00000060: 2f20 c53d 3759 b9bd 1d91 b33c 40e8 cf3c
00000070: ea5c 8fbd 02fb 05bc 22af a5bd 6fde 4abd
00000080: 2afd c0bd 6c32 87bc 82dd bb3d 2706 013d
00000090: 24de d33d 6e6b b4bd bcbe edbb 2b23 143e
000000a0: a90a 983b 8af3 febc d8ab bbbd 2bdb 313d
000000b0: fe22 e33d 3b3c bd3d 620e b53d 6d34 fe3c
000000c0: c089 d23d 425b 50bd 002e a33d c0bd 0cbc
000000d0: a2ac 03bd 521c 88bd a6aa af3d 8799 433d
000000e0: 9851 8c3d 9213 76bd e620 4fbd 17be ca3d
000000f0: 1155 3ebd 24e7 8dbd 89b2 8abc fff4 fbbc
00000100: 841a d1bd 7060 c13d b7f9 e13a 2eb2 4d3d
00000110: 10ab cc3d 65ba cebd aa5f a83d 3a74 3fbd
00000120: b9ef f1bc 5f15 9a3d 5647 093e f757 ad3d
00000130: 561a 7a3d 747d be3d 2f74 0fbd 5f16 1d3b
00000140: 4a2f 39bd 303c 42bc e088 afbc ab25 673d
00000150: 4dab d13d 4ba9 82bd c79d 78bd a2b4 aebc
00000160: d5ec 583c 326b 85bd 3e0e a1bd 4c09 aebc
00000170: 6546 3abd fa48 eeba 3927 9abd 9a79 fcbc
00000180: e870 f7bc 8a97 d5bc e83c 9d3d 7c1b d23d
00000190: 70a0 17bd dd28 c8bd 52bf 92bd 4d25 d8bd
000001a0: 114a 0d3c b757 e2bc 79a3 92bd 10f5 623c
000001b0: 1899 553b 33e2 9ebc cd5d cebc 639d be3d
000001c0: d0b4 c3bd 006c a9bb 31bb 1d3d 60d8 743d
000001d0: 1dbd babd c3d0 70bc fe8b a73d e910 fb3c
000001e0: 3f30 7b3d d0d3 3dbd ca12 8d3d cd8d 4abd
000001f0: 9824 afbd d693 cc3d 2368 813c a9ac 483c
00000200: 130c 87bd 973f 3bbd ae69 8abd 25fe 95bd
00000210: 72f5 8fbb 328e 8f3c 1f86 f2bd 92d8 bf3d
00000220: 11fb a23d b8f4 bcbd 3e6b a33d 8b9f 6dbd
00000230: b554 b7bd fd0f da3d b4db f1bc 9ce7 0abd
00000240: 8ace 0b3d d36c 953d df36 ab3b e746 88bc
00000250: deff b63c 7c45 a8bd d4c2 77bd 246b 0a3d
00000260: f856 2b3c 3ae4 623d 04ea 84bd 9fca f2bd
00000270: 73db 03bd 068e c8bd 8709 2ebc c56d 9f3d
00000280: 6050 033c 816b 943d 1f4b 0c3c a762 1d3d
00000290: a742 043e 2449 ab3c 61f5 b33c 1d9d 0dbd
000002a0: 60ff 903d 6450 bd3d 80bc bbbd dc0e e23d
000002b0: c782 8c3c c795 8ebc 475b d0bd 18bf c3bd
000002c0: 4051 aebd 4b1b a6bd 1d4c a9bd 7453 67bd
000002d0: 5708 c0bd 65ed b2bd ce47 c4bc 8cec f5bd
000002e0: 4346 093c 9e32 d639 cbd0 d03c 9c3c 653d
000002f0: 7641 613d 47ea 49bd 3bf9 c2bc c7df c73b
00000300: c994 af3d 6a96 733d 1b7e b2bd 2559 04bc
00000310: b3c2 373c b112 2e3d 158f e1bc 95af 04be
00000320: 9300 87bd 8f17 ec3b f9ff 80bd fac5 c83c
00000330: 596c c63d 5db2 4d3b e9d7 803d ecde 823d
00000340: 10b2 933d 243c 04be 017a b13d 8807 073d
00000350: d4d9 cfbd 227b c23c 1cf6 8cbd b6da b03d
00000360: a6c8 ad3d a331 7bbd ea76 a6bd a04b ee3c
00000370: aa02 2fbd 21dd 3c3d db75 c0bd 5b36 bb3d
00000380: 4494 0f3d 6516 393a d765 82bd f293 d2bb
00000390: bcc5 843d 1cfc 0f3e c30a 54bd 8adc 2dbd
000003a0: e97c d23c 384b 843d 9f23 fdbd 1139 45bd
000003b0: 59dc c6bd 3a78 bf3d 4793 33bd fd3a ba3d
000003c0: b1c1 873d c084 9d3c 7f59 893c ea00 943d
000003d0: c6ed 18bd a163 823d 7a4f e8bc 6000 533c
000003e0: ba2c 673d 0547 06be b363 29bd 889b c4bd
000003f0: 93e0 b7bc a6df 9d3b 25db 013d e940 bcbd

rnn.weight_hh_l0 f4 [64, 64]
0.01935755 -0.038600564 -0.059210867 0.11193516 -0.10144413 -0.067167126 0.09422332 -0.08256437
-0.11511345 0.08568459 0.105787724 0.0970161 -0.06936662 -0.102946 -0.1205531 0.007158056
0.014716179 0.0099838 0.025748804 -0.066687554 -0.013647449 0.09952415 -0.032511562 -0.10147283
0.11954266 0.09317922 0.10804676 0.09161158 -0.013210639 0.05838511 0.030694908 0.026324747
-0.008544613 0.056933325 -0.050715107 0.001433479 0.04999094 0.03193538 0.10827501 -0.018226134
-0.036580104 -0.072077826 -0.066739075 -0.10489925 0.08994861 -0.096505135 -0.02873926 0.02923764
0.1034262 0.087977625 0.1198337 -0.014462284 -0.03577852 -0.10895859 0.010680254 0.053872418
0.0054879584 0.08239495 -0.024306776 0.0026048445 -0.119319804 0.016664242 0.022694116 -0.025171097
0.027380666 -0.09458224 0.075960435 -0.12780465 0.057327062 -0.016304296 -0.09706419 0.005877642
0.08835405 -0.028531596 -0.061701905 -0.103876784 0.07214017 -0.12639424 -0.04340668 -0.10095002
-0.096935846 0.09488967 -0.029825222 0.02190224 -0.00096316513 -0.085097186 -0.024504468 -0.08407778
-0.09318461 0.07088522 -0.08923995 0.048802458 -0.015248814 0.0131914 -0.04564247 0.097439535
0.121164024 0.09989433 0.105823606 -0.06550397 0.08601263 -0.06442469 -0.13771434 0.08708037
0.0027450814 0.072156265 0.08924565 -0.00346881 0.0052324203 0.00023775094 -0.118640296 0.08959315
-0.0942624 0.024651432 0.0943108 -0.07850816 -0.089006856 0.07965196 0.011963249 -0.13131267
0.018655252 0.066632226 -0.06093843 0.098807745 0.14021708 0.13386855 0.09343543 -0.015395104
0.038953606 -0.023842173 0.0053544366 -0.05568869 0.07049582 -0.022909116 -0.04721328 -0.0018059592
0.03953206 -0.00088074105 -0.054786712 -0.08199464 -0.10257984 -0.061014034 0.0016757045 0.07341498
-0.04424404 -0.015514402 -0.044757202 -0.041995812 -0.050104786 -0.10648828 -0.061568413 -0.0041602743
0.010292905 0.03356517 -0.07883024 -0.09566778 -0.050698586 -0.05249496 -0.077508986 0.074111685
0.042603172 0.005699318 -0.070041776 -0.088423684 0.08633502 -0.086488925 -0.01602931 -0.112976104
-0.10713453 0.00064738106 -0.026575856 -0.09799918 -0.0623697 0.099691436 -0.0606536 0.074512675
0.10021652 -0.084521845 -0.031060535 0.09318772 -0.043571547 0.034177095 0.117483765 -0.12609297
0.012729611 0.10410102 -0.0357181 -0.10107598 -0.051336773 -0.058861572 0.029806677 -0.002533637
0.07668795 0.002547743 0.06549162 -0.06580878 0.019851511 -0.0671992 0.014079495 -0.09684848
-0.113404356 0.027986592 -0.08273969 0.07512141 0.09603178 -0.035613343 -0.057919376 -0.009995238
-0.07157719 0.025107123 -0.10904945 0.06273395 0.06754909 0.025807012 0.09933613 -0.0027636585
-0.049015243 -0.04524434 0.0123235285 0.0907823 -0.0021735101 0.056760233 -0.027248183 0.03874861
0.098372735 -0.09550047 -0.12995607 -0.01948418 -0.06552138 -0.106994435 0.057608794 -0.048087064
0.08885381 0.0013838004 -0.037640482 0.07257133 -0.069452934 -0.089583844 0.032885466 0.05284811
-0.041574344 -0.071119875 -0.08221535 -0.11819175 0.10016526 -0.020668965 0.017948907 -0.009003462
0.109702975 0.06512383 0.039962456 -0.0012432594 0.019643752 0.05208121 -0.10802868 0.123053804
00000000: ba93 9e3c a01b 1ebd 1887 72bd 433e e53d
00000010: f1c1 cfbd eb8e 89bd 28f8 c03d 8217 a9bd
00000020: 9ac0 ebbd 677b af3d 3ca7 d83d 61b0 c63d
00000030: 1610 8ebd 5ad5 d2bd 8be4 f6bd 208e ea3b
00000040: 211c 713c 1893 233c 28ef d23c 7c93 88bd
00000050: 8d99 5fbc 51d3 cb3d d82a 05bd fdd0 cfbd
00000060: c8d2 f43d bfd4 be3d 9f47 dd3d da9e bb3d
00000070: 7071 58bc 3a25 6f3d e373 fb3c ffa6 d73c
00000080: b4fe 0bbc eb32 693d a5ba 4fbd 93e3 bb3a
00000090: 4dc3 4c3d acce 023d 4abf dd3d f94e 95bc
000000a0: 05d5 15bd 8a9d 93bd 7fae 88bd 6bd5 d6bd
000000b0: fa36 b83d 7ca4 c5bd 996e ebbc c683 ef3c
000000c0: 1ed1 d33d 9d2d b43d 5f6b f53d 37f3 6cbc
000000d0: 7f8c 12bd ae25 dfbd 3bfc 2e3c 53a9 5c3d
000000e0: 55d4 b33b afbe a83d 011f c7bc 0ab6 2a3b
000000f0: f15d f4bd 7383 883c 03e9 b93c 9e33 cebc
00000100: 6b4d e03c 55b4 c1bd 2591 9b3d 39df 02be
00000110: c8cf 6a3d 9690 85bc 97c9 c6bd 3c99 c03b
00000120: f8f2 b43d 18bb e9bc 23bb 7cbd 5abd d4bd
00000130: 3abe 933d 7e6d 01be 34cb 31bd e2be cebd
00000140: 4d86 c6bd 8455 c23d 0654 f4bc 546c b33c
00000150: eb7c 7cba 6f47 aebd 98bd c8bc f930 acbd
00000160: 93d7 bebd 452c 913d 6fc3 b6bd 16e5 473d
00000170: 29d6 79bc be20 583c 99f3 3abd 618e c73d
00000180: d824 f83d 6695 cc3d 0cba d83d f226 86bd
00000190: 6427 b03d 18f1 83bd fd04 0dbe 3157 b23d
000001a0: d3e6 333b aac6 933d 6cc6 b63d fa54 63bb
000001b0: b974 ab3b c84c 7939 aff9 f2bd 9d7c b73d
000001c0: a50c c1bd cdf1 c93c 0526 c13d e3c8 a0bd
000001d0: 3a49 b6bd 9120 a33d 8101 443c d476 06be
000001e0: e6d2 983c 7a76 883d 939a 79bd b75b ca3d
000001f0: 1195 0f3e d614 093e 135b bf3d bf3b 7cbc
00000200: d18d 1f3d a950 c3bc 4574 af3b d319 64bd
00000210: 1d60 903d e6ab bbbc b662 41bd efb5 ecba
00000220: 5fec 213d 88e1 66ba 0868 60bd ceec a7bd
00000230: 6115 d2bd dae9 79bd 50a3 db3a 985a 963d
00000240: 3d39 35bd 1e30 7ebc 5453 37bd cd03 2cbd
00000250: ad3a 4dbd 8716 dabd 292f 7cbd e952 88bb
00000260: 93a3 283c a27b 093d c071 a1bd 78ed c3bd
00000270: 52a9 4fbd f504 57bd 08bd 9ebd dec7 973d
00000280: aa80 2e3d 58c1 ba3b 1072 8fbd 7a17 b5bd
00000290: 6ad0 b03d 1b21 b1bd e64f 83bc 0460 e7bd
000002a0: 5969 dbbd 02b5 293a 9cb5 d9bc cbb3 c8bd
000002b0: 5f77 7fbd 062b cc3d e96f 78bd 1a9a 983d
000002c0: 523e cd3d ca19 adbd aa72 febc 34d9 be3d
000002d0: 1478 32bd 48fd 0b3d 549b f03d 841e 01be
000002e0: dc8f 503c ea32 d53d 244d 12bd ec00 cfbd
000002f0: 8246 52bd d518 71bd 222d f43c 600b 26bb
00000300: 920e 9d3d 09f8 263b 7820 863d c1c6 86bd
00000310: a39f a23c bc9f 89bd afad 663c 7f58 c6bd
00000320: 8b40 e8bd 2344 e53c 6d73 a9bd 41d9 993d
00000330: 4fac c43d 4cdf 11bd de3c 6dbd 11c3 23bc
00000340: 1097 92bd 74ad cd3c 5155 dfbd a87a 803d
00000350: 2d57 8a3d 3a69 d33c be70 cb3d 7f1e 35bb
00000360: 35c4 48bd 2152 39bd a0e8 493c 12ec b93d
00000370: 7371 0ebb 6b7d 683d 9537 dfbc ddb6 1e3d
00000380: a577 c93d c095 c3bd 3413 05be 499d 9fbc
00000390: 1330 86bd e61f dbbd 33f7 6b3d f1f6 44bd
000003a0: fdf8 b53d a360 b53a e82c 1abd 47a0 943d
000003b0: 573d 8ebd bc77 b7bd e9b2 063d 4377 583d
000003c0: dc49 2abd 4ca7 91bd 8560 a8bd 840e f2bd
000003d0: 7223 cd3d f651 a9bc 9609 933c 4283 13bc
000003e0: f4ab e03d a55f 853d acaf 233d ddf4 a2ba
000003f0: efeb a03c 1b53 553d 243e ddbd a203 fc3d

rnn.bias_ih_l0 f4 [64]
0.050543774 -0.022386726 -0.031108607 -0.009373554 -0.10303422 -0.041106623 0.117361076 -0.054042865
0.10320199 -0.06543587 -0.010350855 -0.06924082 0.038103744 -0.09583247 0.031043716 -0.07081795
0.023294762 -0.12191483 -0.09942969 -0.044555403 0.028141776 0.09299514 -0.09179401 0.083116926
-0.0168412 -0.09854394 0.09134239 0.1007697 -0.041510176 -0.025371622 -0.12447886 0.10303549
0.0590167 0.074287966 0.11717392 0.08269747 0.07060664 0.009982446 -0.06771044 -0.040370286
0.04116269 -0.07772664 0.049626093 0.05820887 0.07112735 0.019967638 -0.06515545 -0.01791099
-0.099833734 -0.11492606 -0.0032423509 0.080123514 0.08833693 0.07772048 0.0884972 -0.014971612
0.022550099 0.0015193758 0.10241363 -0.025621245 -0.04812844 0.017825274 0.125478 -0.106482856
00000000: fd06 4f3d 5e64 b7bc 7ad7 febc 8993 19bc
00000010: 9b03 d3bd 6b5f 28bd 015b f03d 0d5c 5dbd
00000020: 915b d33d 3e03 86bd a296 29bc 22ce 8dbd
00000030: ac12 1c3d d043 c4bd 644f fe3c 0009 91bd
00000040: a8d4 be3c 7bae f9bd cba1 cbbd ba7f 36bd
00000050: 9589 e63c 3c74 be3d 7ffe bbbd 3539 aa3d
00000060: 8ef6 89bc 68d1 c9bd b811 bb3d 5860 ce3d
00000070: 9306 2abd 26d8 cfbc c6ee febd 4504 d33d
00000080: 7fbb 713d 4a24 983d e1f8 ef3d 4b5d a93d
00000090: 379a 903d 6a8d 233c c5ab 8abd 505b 25bd
000000a0: 359a 283d 252f 9fbd bb44 4b3d 6d6c 6e3d
000000b0: 37ab 913d 2c93 a33c 3870 85bd 12ba 92bc
000000c0: a175 ccbd 5b5e ebbd 9f7d 54bb cc17 a43d
000000d0: fee9 b43d ea2b 9f3d 053e b53d 7e4b 75bc
000000e0: fcba b83c cb25 c73a 3dbe d13d a5e3 d1bc
000000f0: 5422 45bd 4f06 923c 4e7d 003e af13 dabd

rnn.bias_hh_l0 f4 [64]
0.09575351 0.114110634 0.041448496 -0.13630958 0.010701457 0.09519227 -0.037901286 0.12198945
-0.0013354077 0.013868724 0.02258544 -0.1071564 -0.05212611 0.04516402 0.065322906 -0.05087128
-0.028168714 -0.017156824 0.09518019 0.06427942 0.024251977 0.018083218 -0.028922465 0.09342766
-0.11302806 -0.13064997 -0.10437847 0.0103771575 0.074418604 -0.08297061 0.029647626 0.03995682
-0.030837465 0.0050744843 -0.0020402623 -0.10058445 0.011843277 0.092375204 -0.06898902 -0.03149123
0.090327755 -0.05852064 0.10993247 0.06524763 0.03679037 0.037879717 -0.008611559 -0.040629443
0.0054705986 0.0083575575 -0.075711764 0.10399358 -0.096800834 -0.07130338 0.0366826 -0.09644964
-0.13476181 -0.1023489 -0.020758193 0.048277855 0.13002498 -0.03389646 -0.015334452 0.07091712
00000000: 6b1a c43d d6b2 e93d e6c5 293d bd94 0bbe
00000010: 2a55 2f3c 2af4 c23d 613e 1bbd 9bd5 f93d
00000020: d908 afba a539 633c 1a05 b93c d174 dbbd
00000030: 3082 55bd e8fd 383d 04c8 853d 675e 50bd
00000040: 13c2 e6bc 788c 8cbc d5ed c23d eea4 833d
00000050: 15ac c63c 4223 943c ceee ecbc 0057 bf3d
00000060: 417b e7bd 1bc9 05be 61c4 d5bd f404 2a3c
00000070: c868 983d 7fec a9bd 94df f23c c3a9 233d
00000080: da9e fcbc dc47 a63b ecb5 05bb 38ff cdbd
00000090: 4e0a 423c 362f bd3d 1e4a 8dbd f3fc 00bd
000000a0: c2fd b83d 57b3 6fbd 4624 e13d 8da0 853d
000000b0: 80b1 163d c327 1b3d 7f17 0dbc 0f6b 26bd
000000c0: b542 b33b 23ee 083c c50e 9bbd 96fa d43d
000000d0: 843f c6bd 8207 92bd 7e40 163d 6487 c5bd
000000e0: 00ff 09be 4d9c d1bd 160d aabc 00bf 453d
000000f0: 4525 053e 04d7 0abd 5a3d 7bbc ff3c 913d

linear.weight f4 [32, 64]
0.041559204 -0.0679911 -0.053313434 -0.036351934 0.016936896 0.04272451 0.11666638 0.10072238
0.02718497 0.073714785 -0.051041484 -0.04809262 -0.086886376 0.0015258517 0.060320817 0.08283011
-0.07722534 1.8435348e-05 0.084069975 -0.067964815 -0.029600902 -0.029299563 0.045355875 -0.0983367
-0.02511804 -0.13550104 -0.022200298 -0.00898113 -0.057176605 0.030028034 -0.11085494 0.00041333318
0.052919194 -0.09187247 0.0366491 -0.14114916 0.11000577 0.044775117 -0.024128653 -0.08105576
-0.052143864 0.10630204 0.07390138 0.036735862 -0.061697017 0.047894455 -0.053232063 -0.012450829
-0.06630833 0.057657775 0.061530385 -0.09301451 -0.09557876 -0.04931536 0.02766696 0.07155784
-0.05622276 -0.0739941 0.023001734 0.049703255 0.13197464 0.0549641 0.046504077 -0.0574568
0.068382174 -0.075042896 -0.057420935 0.039399553 0.09406843 0.08943165 -0.089827485 -0.018620936
0.07875399 0.031023918 -0.038190708 0.06751175 0.076689616 0.10201282 -0.06303955 0.12060851
-0.025468132 -0.06735785 -0.038101137 -0.12514114 -0.09986949 -0.025966901 -0.054791547 -0.058860015
-0.0027631868 0.01201683 -0.0916113 0.04158155 -0.04700249 0.029601123 -0.062189855 0.048288178
-0.053175334 0.04289291 -0.11508829 0.093151845 -0.059979983 -0.07204791 -0.018430442 -0.063364364
0.006913971 0.08393747 0.07277096 -0.1087366 -0.10728343 -0.04846772 -0.06296427 0.062422443
0.048695702 0.03583567 0.024173338 -0.025341174 -0.022909792 0.046054285 -0.12565665 0.0684785
0.04280414 0.040296923 0.090377085 0.07238185 -0.075959474 0.028248439 -0.11967345 -0.080420814
-0.07970222 0.043089073 -0.059082765 0.056717403 -0.06579105 -0.065372355 -0.023326179 0.12991942
0.036271162 -0.14104731 0.06589096 0.023277557 -0.04823811 -0.13147745 -0.036598157 0.07936196
0.12366884 0.0071496 -0.10347349 0.05148396 0.126763 -0.106440715 0.042087164 0.08821632
0.100380406 -0.035159238 -0.0615157 -0.09253226 0.0054488634 -0.045638774 -0.06362041 0.016210506
-0.07067373 -0.0772051 -0.04997464 0.0858131 -0.03274608 -0.013896619 -0.00997569 0.022914397
-0.088081665 0.07004974 0.10237876 0.03660021 0.0949799 0.04149567 -0.07735897 0.089576796
-0.13985977 -0.06563086 0.08086704 0.13685717 -0.048412804 0.09055629 -0.08319561 -0.11697694
0.034886785 -0.011101606 -0.06799231 0.047410376 0.033621825 0.07450187 0.03069279 -0.09729297
0.015216506 -0.07414361 0.016602753 -0.07174529 0.07826238 -0.0048353234 0.0073640198 0.018680044
-0.072010085 -0.13423797 0.13788949 -0.07114603 -0.087183885 -0.044112906 -0.080941014 0.100793764
0.051503893 0.031540003 0.09825621 0.014392334 0.13052656 -0.047184624 -0.1042164 -0.04276933
0.070788406 -0.11713108 0.03813565 0.10227 0.08004201 -0.13638085 -0.040708285 0.11993455
-0.09177583 -0.12219663 -0.08293315 -0.0643868 -0.040007453 0.10207362 0.06532424 0.06209335
-0.06786105 -0.044849392 0.04948525 -0.014613339 -0.06791486 0.12729162 -0.11706645 -0.09900853
0.04913893 0.07939831 -0.106925555 0.08512513 0.0012956734 -0.075271174 -0.03394995 -0.055746656
0.07243261 0.032720268 0.009299743 0.03489676 0.08841177 -0.002671665 0.085600644 0.09254935
00000000: fc39 2a3d eb3e 8bbd 305f 5abd c4e5 14bd
00000010: 3fbf 8a3c e5ff 2e3d c8ee ee3d 8947 ce3d
00000020: 04b3 de3c c7f7 963d e010 51bd c4fc 44bd
00000030: 7cf1 b1bd 16ff c73a f612 773d d5a2 a93d
00000040: 5228 9ebd 9ca5 9a37 e12c ac3d 2331 8bbd
00000050: 977d f2bc a305 f0bc 15c7 393d c064 c9bd
00000060: 59c4 cdbc c9c0 0abe 66dd b5bc 9725 13bc
00000070: 0432 6abd 5afd f53c ea07 e3bd a4b4 d839
00000080: ccc1 583d a227 bcbd 5e1d 163d 6889 10be
00000090: b54a e13d 1d66 373d 74a9 c5bc 9000 a6bd
000000a0: ce94 55bd e2b4 d93d 9b59 973d 5878 163d
000000b0: 03b6 7cbd fa2c 443d dd09 5abd 90fe 4bbc
000000c0: a9cc 87bd 8f2a 6c3d 4907 7c3d 647e bebd
000000d0: ccbe c3bd e7fe 49bd d2a5 e23c eb8c 923d
000000e0: d649 66bd 388a 97bd 226e bc3c a495 4b3d
000000f0: 5c24 073e 0922 613d 0f7b 3e3d d257 6bbd
00000100: f40b 8c3d 17b0 99bd 3732 6bbd 6d61 213d
00000110: f3a6 c03d f127 b73d 79f7 b7bd ef8a 98bc
00000120: c649 a13d df25 fe3c dc6d 1cbd 9a43 8a3d
00000130: 720f 9d3d 19ec d03d e11a 81bd 9801 f73d
00000140: 8ba2 d0bc eaf2 89bd f00f 1cbd 0025 00be
00000150: 6088 ccbd 8ab8 d4bc 1a6d 60bd 3317 71bd
00000160: 9516 35bb 3de2 443c b59e bbbd 6a51 2a3d
00000170: af85 40bd 0e7e f23c caba 7ebd d3c9 453d
00000180: 61ce 59bd 7ab0 2f3d 69b3 ebbd 65c6 be3d
00000190: 92ad 75bd db8d 93bd 70fb 96bc 2dc5 81bd
000001a0: 988e e23b 69e7 ab3d f108 953d 4bb1 debd
000001b0: 6ab7 dbbd 1786 46bd 69f3 80bd adae 7f3d
000001c0: 2575 473d 6cc8 123d 2a07 c63c 4b98 cfbc
000001d0: 51ad bbbc 6ba3 3c3d 23ac 00be 753e 8c3d
000001e0: 6553 2f3d 630e 253d 9f17 b93d ef3c 943d
000001f0: a490 9bbd 4569 e73c 5b17 f5bd abb3 a4bd
00000200: eb3a a3bd 2b7e 303d c500 72bd 8250 683d
00000210: 75bd 86bd f1e1 85bd 8b16 bfbc 9909 053e
00000220: 1291 143d b56e 10be d7f1 863d 93b0 be3c
00000230: 5395 45bd 06a2 06be f3e7 15bd 8688 a23d
00000240: 1746 fd3d 3147 ea3b e9e9 d3bd d8e0 523d
00000250: 29ce 013e 97fd d9bd 9763 2c3d c2aa b43d
00000260: 3e94 cd3d 2203 10bd e3f7 7bbd 8e81 bdbd
00000270: 618c b23b b9ef 3abd 6b4b 82bd e5cb 843c
00000280: 63bd 90bd b51d 9ebd 35b2 4cbd c7be af3d
00000290: c120 06bd a5ae 63bc 1471 23bc f9b6 bb3c
000002a0: 2964 b4bd 3d76 8f3d f5ab d13d 1aea 153d
000002b0: d284 c23d 5df7 293d 616e 9ebd 0a74 b73d
000002c0: 6637 0fbe 7969 86bd 9e9d a53d 4924 0c3e
000002d0: 814c 46bd 9375 b93d 7662 aabd 9b91 efbd
000002e0: 72e5 0e3d 83e3 35bc 8d3f 8bbd 6231 423d
000002f0: 0ab7 093d 7094 983d 726f fb3c 8941 c7bd
00000300: a74e 793c 9bd8 97bd 7f02 883c 32ef 92bd
00000310: 0748 a03d a271 9ebb e04d f13b e406 993c
00000320: 067a 93bd ae75 09be e732 0d3e 03b5 91bd
00000330: 778d b2bd bcaf 34bd 67c4 a5bd f66c ce3d
00000340: bff5 523d 1730 013d 8d3a c93d d3cd 6b3c
00000350: c1a8 053e aa44 41bd 686f d5bd e52e 2fbd
00000360: 83f9 903d 6be2 efbd 2134 1c3d ef72 d13d
00000370: 11ed a33d 6ca7 0bbe bbbd 26bd 3fa0 f53d
00000380: f7f4 bbbd 3a42 fabd dbd8 a9bd 3add 83bd
00000390: dbde 23bd f90b d13d b7c8 853d 9955 7e3d
000003a0: bcfa 8abd ffb3 37bd 0cb1 4a3d c96c 6fbc
000003b0: f216 8bbd bc58 023e 89c0 efbd fcc4 cabd
000003c0: e745 493d 959b a23d c9fb dabd 1656 ae3d
000003d0: 96d3 a93a c627 9abd 1a0f 0bbd 9b56 64bd
000003e0: 8c57 943d b005 063d f35d 183c e8ef 0e3d
000003f0: 3b11 b53d 1a17 2fbb 644f af3d 838a bd3d

linear.bias f4 [32]
0.09290862 0.105558686 -0.046452437 -0.057664488 -0.02092741 0.11144172 -0.042507797 0.052043434
-0.060178384 0.05003178 0.037883144 0.014164593 0.10264567 0.056003615 -0.11845019 -0.121993445
-0.120404504 0.08642584 -0.036930937 -0.0040740212 -0.07944176 0.043142207 0.0075272126 -0.115945786
0.105328046 0.02106382 -0.092334196 0.08204577 -0.04833559 -0.091270626 0.08113925 0.051532995
00000000: e046 be3d 272f d83d e944 3ebd 9931 6cbd
00000010: f66f abbc 8e3b e43d a81c 2ebd 7f2b 553d
00000020: 9c7d 76bd 20ee 4c3d 5b2b 1b3d 9c12 683c
00000030: e537 d23d 0c64 653d 0396 f2bd b3d7 f9bd
00000040: a396 f6bd 0800 b13d e544 17bd 5e7f 85bb
00000050: 5db2 a2bd e2b5 303d d6a6 f63b fc74 edbd
00000060: 3bb6 d73d 088e ac3c b619 bdbd 9d07 a83d
00000070: 8afb 45bd 18ec babd 562c a63d 4314 533d
