LTC_A2C/training_results/CfC_a2c_result_281_202437_learningrate_0.0005_selectiomethod_range_evaluation_all_params_trainingmethod_original_numneurons_48_tausysextraction_True_mode_neuromodulated_neuromod_network_dims_3_192_96_48/checkpoint_CfC_A2C_7.pt (torch, 155508 bytes, 16 tensors)

cfc_model.rnn_cell.w_tau f4 [1, 48]
000000 9a 7b 04 3d e5 b5 6b 3d 9d 49 1a 3e a6 e9 a6 3d
       0.032344438 0.057546515 0.15067144 0.08150034
000010 66 39 4e 3e 1b 99 52 be b6 df 28 3c db 11 2f be
       0.20139083 -0.20566218 0.010307243 -0.17096655
000020 4c d2 8b bb fa a7 c4 3d 12 1b 1c be c4 69 49 3b
       -0.0042670127 0.096023515 -0.15244702 0.0030733207
000030 db 5d a5 bd 51 21 b8 3b 2b 74 b8 3a 76 84 3f be
       -0.08074542 0.005619206 0.0014072707 -0.18702874
000040 f2 6d ab 3d 0e 9d de 3d e2 61 a7 bb 63 f1 a1 bb
       0.0837058 0.108697996 -0.005108104 -0.0049421056
000050 8b 6a f2 3a a3 5a 42 be b7 bf 16 be 11 a0 3d bd
       0.0018494887 -0.18979888 -0.14721571 -0.04629523
000060 41 83 23 bd 1c 96 04 be a5 83 7f 3e e4 cb 2d be
       -0.039920095 -0.12947887 0.24952562 -0.1697231
000070 94 6f 9d bb 0e 02 24 3c 33 07 ff 3b c5 7e f2 bd
       -0.004804561 0.0100102555 0.0077828406 -0.118405856
000080 48 a3 06 3e ce 05 b3 bb 03 0b 48 bb 68 dc e3 bd
       0.13148224 -0.0054633385 -0.0030524142 -0.111260235
000090 f6 a1 92 3d 82 23 61 be a5 3c be bd c6 09 e2 bc
       0.07159798 -0.21986201 -0.09288911 -0.027592551
0000a0 94 47 12 bd 91 23 7d 3e 71 38 8f 3c a8 f2 cb 3a
       -0.035712793 0.24720599 0.017482968 0.0015559988
0000b0 e8 2e 91 bd 80 08 ef 3d 05 48 31 3e 27 97 c2 38
       -0.07089025 0.11671543 0.1731263 9.278795e-05

cfc_model.rnn_cell.A f4 [1, 48]
000000 7c ac ca 3d 09 ae 94 3e 2c ca 22 be 5f 61 c6 bd
       0.0989618 0.29039028 -0.15897435 -0.09686541
000010 70 f1 bf be 35 85 2f 3e 6e cb 7a 3e ab 26 8c be
       -0.3748889 0.17140658 0.24491665 -0.2737325
000020 94 b7 0c be 50 6c a7 3e 75 88 19 be 3d d0 2b 3e
       -0.13741904 0.32699823 -0.1499346 0.16778655
000030 5d 29 0e be f4 00 27 3e 50 1c 18 3e 3d c1 93 3e
       -0.13882966 0.16308957 0.1485455 0.28858367
000040 31 ce 87 be 70 7d 03 3e 8b 98 47 3e d2 2e 8d 3e
       -0.265245 0.1284082 0.19491784 0.27574784
000050 1b a0 84 3e 5e e8 0c be f4 9f b2 3e ce f1 b0 be
       0.259034 -0.13760516 0.3488766 -0.34559482
000060 d5 37 2d be 4f 5e 05 3e 86 52 b7 be ec db db bd
       -0.1691583 0.13024257 -0.35805148 -0.10735306
000070 f7 32 7b be 33 b1 3b be e4 15 8f be d6 9c bd 3e
       -0.2453116 -0.18329315 -0.2794639 0.3703372
000080 42 ce 11 3d 6c 1e 4a 3e 85 9b a0 be d2 70 4e be
       0.035597093 0.19738168 -0.31368652 -0.20160225
000090 52 8b ad 3e be cc 99 be ff e0 73 be e2 b2 65 be
       0.33895355 -0.30039018 -0.23816298 -0.2243152
0000a0 85 2a 09 be 95 dd d4 bd 74 d6 73 be f7 f8 9e be
       -0.13395126 -0.10393826 -0.23812276 -0.3104932
0000b0 be bc b9 be 9a 9f 94 3e 69 0c 28 be d1 7a 8f be
       -0.3627681 0.29028016 -0.16410984 -0.2802339

cfc_model.rnn_cell.tau_system f4 [1, 48]
000000 f5 15 7c 3f 15 c1 7d 3f 64 f5 82 3f 4e 1f 74 3f
       0.98471004 0.99122745 1.0231137 0.9536027
000010 21 71 5f 3f f0 cb 56 3f e8 d6 80 3f ed ec 68 3f
       0.87281996 0.83904934 1.0065584 0.9098652
000020 27 47 88 3f bf 8d 7a 3f 86 59 64 3f ae c0 84 3f
       1.0646714 0.9787254 0.891991 1.0371301
000030 7a b3 77 3f 19 20 8a 3f 4b 84 87 3f b8 1b 5b 3f
       0.96758235 1.0791045 1.0587248 0.8558917
000040 25 a1 6c 3f 1d 91 6e 3f 64 b6 80 3f 0a 6a 8c 3f
       0.9243339 0.93190175 1.0055661 1.096986
000050 2d bf 80 3f cd 9a 5e 3f 63 91 62 3f 16 19 75 3f
       1.0058342 0.8695496 0.8850309 0.95741403
000060 aa f7 7d 3f 45 4f 66 3f 29 2b 4e 3f 3b 36 66 3f
       0.9920603 0.89964706 0.8053461 0.899265
000070 39 0d 84 3f 88 72 89 3f f9 7e 7f 3f a8 1d 66 3f
       1.0316535 1.0738077 0.9980312 0.89889
000080 38 db 7b 3f 5c 8e 93 3f e0 7d 8b 3f b1 e4 6b 3f
       0.98381376 1.152782 1.0897789 0.9214583
000090 1c 80 6f 3f b6 f9 52 3f 51 4e 6e 3f c9 fa 94 3f
       0.93554854 0.8241228 0.9308825 1.1639034
0000a0 c1 24 84 3f ec 90 4e 3f 48 80 8e 3f eb 2e 9b 3f
       1.0323716 0.80689883 1.1132898 1.2123693
0000b0 81 97 7a 3f 12 67 6b 3f c5 a8 5f 3f 4c 4a 82 3f
       0.97887427 0.9195415 0.87366897 1.0178924

cfc_model.rnn_cell.backbone.0.weight f4 [128, 52]
000000 1a 38 a8 3d 48 5e 41 bc 58 13 05 bd e0 ac e7 bc
       0.082138255 -0.011802264 -0.03248915 -0.028280675
000010 57 10 e8 3d b9 1c 3a bd 03 4d 50 3c cd 21 41 be
       0.113312416 -0.04543755 0.0127136735 -0.1886055
000020 26 e1 0d bd a1 e2 07 3e 0a db dd 3c 7e 3f 79 be
       -0.034638546 0.13270046 0.027081985 -0.24340627
000030 f1 31 d9 bd d4 ab f9 bc 7f 7b 2e be d1 db 6a bd
       -0.10605229 -0.030477442 -0.17039298 -0.05733854
000040 73 6b ba 3d 23 02 24 3e 00 b4 0b 3e 39 3d 32 bd
       0.091025256 0.1601644 0.13642883 -0.043515418
000050 17 ea 24 be b9 9a 21 3d dc 42 3a be dc 83 59 3e
       -0.16104923 0.039454196 -0.18189567 0.21241707
000060 cb 6c 03 be 69 74 6f 3a ce 65 36 3e 5a a1 27 3d
       -0.1283447 0.0009134473 0.17812273 0.04092536
000070 fa 74 04 be e0 63 c7 bd 51 c1 bf bd dc 08 f2 3d
       -0.12935248 -0.097358465 -0.09363044 0.11818096
000080 1b 62 7f be 5e ad 5f 3c 2e dd 39 3d 89 1e db bc
       -0.24939768 0.013652174 0.04537695 -0.026747959
000090 15 96 3f be 34 ed 87 3d ed 83 97 bd dc ed 5e bd
       -0.18709596 0.0663704 -0.0739821 -0.05442606
0000a0 a9 bd 11 3d 60 01 a7 3d 7c db 81 bd 91 6b 57 3b
       0.035581265 0.08154559 -0.063406914 0.003287051
0000b0 a9 fc 0e be 8c 2b 5e bd 3e ca 02 be c2 77 17 be
       -0.1396357 -0.05424075 -0.12772462 -0.14791778
0000c0 b8 a2 61 bc 1d 0b 45 bd 00 2b 43 be e9 18 11 be
       -0.013771705 -0.0481063 -0.19059372 -0.14169659
0000d0 a4 b0 57 bd 45 51 b4 3d 93 e9 86 be 23 2b 83 be
       -0.052658692 0.088045634 -0.26350078 -0.25618848
0000e0 12 bb 19 be 8e dc 07 3e 0b 77 99 3d ae 66 c6 3d
       -0.15012768 0.13267729 0.07493409 0.09687553
0000f0 ac b6 2c 3e 0f ca 67 3d 6e 2e b3 bc 6f 18 bb bd
       0.16866559 0.056589182 -0.021872725 -0.0913552
000100 25 5b be 3c 14 8f 8c 3c 6d b4 90 bc c2 b8 e2 bd
       0.02323682 0.017158069 -0.017664159 -0.11070396
000110 fe a7 3f bd 88 04 4e 3c 03 47 e1 3c 1e 15 c9 bd
       -0.04679107 0.0125743225 0.027499681 -0.09818481
000120 cf 14 e3 bd f9 1a 04 be 7e 48 8e bd f4 7e 18 3d
       -0.11087953 -0.12900914 -0.069474205 0.037230447
000130 c7 3c 98 bd 47 99 5f bd f1 bb 26 bd 8d 0f 34 3e
       -0.07433467 -0.054589536 -0.04070658 0.17584057
000140 e7 0a ae 3d 6c 8f 70 bd 32 12 66 3c 5e de 01 3e
       0.08498173 -0.058730528 0.014042424 0.12682483
000150 93 e7 81 bd 0c ef eb bd 84 28 c4 3d 8b 5f 73 bc
       -0.063429974 -0.11520204 0.0957804 -0.014854322
000160 c1 2c 91 39 dc 5d 19 3e db 9b 2e 3e 3c b9 5a 3d
       0.000276899 0.14977211 0.17051642 0.05339931
000170 5a ba 34 be 5b e8 c6 bc 9d bb 83 3c 1d 51 2f 3e
       -0.17649212 -0.024280718 0.016080672 0.17120786
000180 fb 93 df bd ed ee e1 3d 1e 73 f8 bd 7d 90 47 be
       -0.10916897 0.110318996 -0.12131332 -0.19488712
000190 b6 d1 d2 bd 8a 4f a8 bd b8 2d 03 be eb e6 2f 3e
       -0.102939054 -0.08218296 -0.12810409 0.17177932
0001a0 f7 b9 8f be 43 71 61 bd dd d7 7f 3e dc 1f 04 3e
       -0.28071567 -0.055039655 0.24984689 0.12902778
0001b0 37 8d 28 3d b7 03 04 3e be 45 7c 3d f7 bf 6a be
       0.041150298 0.12892042 0.06158995 -0.22924791
0001c0 6c 72 58 be 17 b4 e3 3d 98 3e fd bd bd f4 57 be
       -0.21137398 0.11118334 -0.123654544 -0.21089454
0001d0 58 64 5a be aa 3e 72 3c 04 4c c4 bd 39 d1 5e 3e
       -0.2132734 0.014785448 -0.09584811 0.217595
0001e0 9a 62 7a bd d3 df 4a 3d 19 a5 fd 3d 2c 13 69 3e
       -0.06112919 0.04952986 0.123850055 0.2276122
0001f0 fb cc cb bd dc 6b 6d 3e 02 6b 4a bd f6 29 1f 3e
       -0.09951206 0.23185676 -0.049418457 0.1554335
000200 a8 c4 0c 3e 74 0c 59 be fd 3a 25 3e 24 d3 94 3d
       0.13746893 -0.21196157 0.16135783 0.072668344
000210 5f f6 2d 3d 08 70 fb 3c 5b a0 4c be 8c 6e b6 bd
       0.042471286 0.03069307 -0.19983046 -0.08907804
000220 ae f6 50 be c7 ec 98 3d ea a2 a7 3d 53 f5 43 be
       -0.20406601 0.07467037 0.0818537 -0.19136553
000230 ee 22 18 3e 8d 0a 18 be 99 72 bb bc e7 67 80 3b
       0.14857075 -0.14847775 -0.022881793 0.003918636
000240 7c f4 7e 3d 10 e8 67 bd 41 8c 9c bd ec 20 d4 3d
       0.062244877 -0.056617796 -0.07643939 0.10357842
000250 bf cf af bd 18 04 8f bd 11 81 13 3b 4b cd 16 3e
       -0.08584546 -0.06983203 0.002250735 0.1472675
000260 60 af 15 3d e7 57 0c 3e 69 27 77 be 54 f2 2e be
       0.036544204 0.13705407 -0.24136128 -0.17084628
000270 c2 77 bd bd 07 33 5c bc e2 60 86 bd 37 7c 18 bb
       -0.092513576 -0.0134399 -0.06561448 -0.0023267397
000280 ec 9a 4c 3e 05 28 2b bd cc 5a 0c be 34 87 75 be
       0.19980973 -0.041786212 -0.13706511 -0.23977357
000290 7e a4 53 3d 08 a8 1b bd 77 6e 42 bd c4 46 3a be
       0.051670544 -0.038002044 -0.04746863 -0.18191057
0002a0 45 9c 5a be db 70 6d bd 41 09 86 be 1d 92 3d 3e
       -0.21348675 -0.057968955 -0.26178935 0.18512769
0002b0 93 cf 50 3e 6e 05 26 bd 8d bd 85 3d 7c ec 20 3e
       0.20391683 -0.040532522 0.065302946 0.15715212
0002c0 bc 5e 33 3e da e7 65 3e 86 cf 22 be c3 09 85 3e
       0.17516607 0.22451726 -0.15899476 0.2598401
0002d0 4e f3 55 3c 9d 1a 0c be c6 fa 59 ba a6 f5 e8 bd
       0.013058497 -0.13682027 -0.0008315261 -0.11374979
0002e0 6f e7 79 3b 6a f2 f9 3c c7 0b 80 be 7e bc 28 be
       0.003813233 0.0305111 -0.25008985 -0.16478154
0002f0 ef 9e d4 bd 1b 86 3a be ce fc 52 3e a2 6b 8b bd
       -0.10381877 -0.1821522 0.2060425 -0.06807639
000300 d0 34 f1 3d dd cd 36 be 24 29 4b bb 3b f5 46 be
       0.11777651 -0.17851968 -0.0030999864 -0.19429485
000310 5f d2 4b 3d f6 f4 c1 bd 3f 67 ec bd bd 17 51 be
       0.049761172 -0.09470551 -0.1154313 -0.20419212
000320 9a c9 53 3d e9 fb b7 bd 93 cb 15 be bf 49 b4 3c
       0.051705934 -0.08983595 -0.14628439 0.022007821
000330 c5 a9 48 3e a6 dd 2a 3e 8e 47 04 be b9 84 12 be
       0.19596012 0.16686115 -0.12917921 -0.14308442
000340 bf 38 8a be ca ab 8a be 5e 16 b4 3e af 36 3a 3e
       -0.2699642 -0.2708419 0.35173315 0.18184923
000350 d9 83 d4 bc 74 1c 85 3c c0 46 9c 3d b4 8e 3c bc
       -0.025941776 0.01624892 0.07630682 -0.011508632
000360 f2 81 fd 3d 37 49 22 3e 89 2f 82 bd cb 6e d2 bd
       0.12378301 0.15848242 -0.06356723 -0.10275038
000370 b3 32 03 be bd 8b 58 3d e6 4c 10 3d 58 6b 74 3d
       -0.12812309 0.05286764 0.035229586 0.059672683
000380 1d d9 cb bd 9e 03 87 3d 4d 20 4d be b2 1c 33 3d
       -0.099535204 0.06592487 -0.20031853 0.043728538
000390 75 fd 22 be 80 42 8f bd 66 fb 86 3e 30 6c c0 bc
       -0.15916999 -0.06995106 0.26363677 -0.023489088
0003a0 d1 08 4d 3e ea b2 3c bd 39 c9 a7 3d 06 e2 5c bd
       0.20022894 -0.046069063 0.08192677 -0.05392649
0003b0 02 55 1a bc 54 4d 20 3e a3 9e 09 bd 5d cc 78 bd
       -0.0094196815 0.15654498 -0.033598553 -0.06074177
0003c0 1d 6d 08 be 83 91 92 3d 29 86 0d 3e 5e cb 6c ba
       -0.13322873 0.071566604 0.1382071 -0.00090329896
0003d0 67 4d c0 3c ca ae b2 3d b7 90 5c bc 23 d3 9e 3d
       0.023474408 0.087247446 -0.013462237 0.07755115
0003e0 0c 54 ae bd d9 76 37 3e 6c 8d c2 3d fc 8c 06 bd
       -0.085121244 0.1791643 0.0949963 -0.032849297
0003f0 fb 6b 66 bc 7d 1e 3e be e1 e5 1e bd b9 35 d5 bd
       -0.0140638305 -0.18566318 -0.03879345 -0.104106374

cfc_model.rnn_cell.backbone.0.bias f4 [128]
000000 6f 4c c6 bd 48 95 9e 3d 3e e9 38 be f6 8d c5 bd
       -0.09682547 0.07743317 -0.18057725 -0.096462175
000010 df 96 98 bd 3c 12 cc 3d 6c 5b 0f 3e 19 62 7f bd
       -0.074506514 0.099644154 0.13999718 -0.062349413
000020 92 9b 3e bd 96 46 da 3c ce 4a f7 3d 53 b6 84 bc
       -0.046535082 0.026644986 0.12074815 -0.01620022
000030 29 56 0b 3d 4b 08 29 be 92 77 ae bc ea c4 1e be
       0.034017716 -0.1650707 -0.02129725 -0.15504804
000040 f0 af 05 3d d2 aa 1c b9 83 4e a0 3d e8 de 49 3d
       0.03263849 -0.00014940955 0.07827475 0.049284846
000050 85 f3 d8 3c 71 99 d2 3d 9c 83 03 be 71 65 fc bc
       0.026483307 0.10283173 -0.12843174 -0.03081009
000060 ee a4 8d 3b d1 84 8a bd 6d b1 ae bd 68 09 ab bd
       0.0043226397 -0.06763614 -0.08529935 -0.083514035
000070 c1 93 31 3e d8 f8 07 be a5 d5 9d 3d 11 aa 0f 3b
       0.1734152 -0.1327852 0.07706765 0.0021921436
000080 ba 70 22 3b 2a db 91 3d 59 1b c5 3d 0b d2 f5 bd
       0.0024786429 0.0712188 0.09624357 -0.12002953
000090 2a 39 e3 bd 43 56 f6 bc ee f4 aa bd 64 2c cd 3d
       -0.110948876 -0.03007043 -0.08347498 0.100182325
0000a0 57 aa 1d bb f8 e8 d0 3d 38 3f 04 3e 8f 6f 43 be
       -0.002405783 0.10200685 0.12914741 -0.19085525
0000b0 13 fd e2 bb 1d a3 e2 3d 70 60 34 3d fe f9 99 3c
       -0.0069271415 0.11066268 0.044037282 0.018795963
0000c0 94 bb c2 bd bd 8e 85 3d f2 fa 31 3d 57 a4 34 bd
       -0.09508434 0.06521366 0.04345221 -0.04410204
0000d0 f3 2b 14 3c a3 3a 34 3c f0 1d 25 3e 78 38 d8 bd
       0.009043681 0.011000308 0.16124701 -0.105576456
0000e0 39 fa b3 bc c8 73 a1 3d 2e a9 52 3d 73 60 0c 3e
       -0.021969901 0.07883412 0.051430874 0.13708667
0000f0 d0 4b 11 bc a1 14 b2 bd 46 a7 c1 bd 13 96 34 be
       -0.008868173 -0.08695341 -0.09455733 -0.17635374
000100 0c bb 03 bd 59 04 22 3e 76 45 6b 3d a1 c0 0a bd
       -0.032160804 0.15821971 0.05743929 -0.03387511
000110 f2 7f c7 3d 74 d8 87 bd 7c db 06 3d 8b ec 33 be
       0.097412005 -0.06633082 0.03292416 -0.17570703
000120 a0 60 85 3c 1c e5 a3 3d c0 08 26 3d 4b 83 b6 3d
       0.016281426 0.080026835 0.04053569 0.08911761
000130 ef bb 37 bd af 4a fa bb 03 09 bc 3d 2f 37 9e 3d
       -0.04485696 -0.0076382975 0.09181406 0.07725369
000140 99 a3 f5 bc c0 5e 2f 3e e5 4a 72 3c 48 ce 24 be
       -0.029985236 0.17125988 0.014788364 -0.16094315
000150 dd ec 41 bd 71 0a 12 3e 82 2f 78 3d 2e c2 26 bc
       -0.04734503 0.14261796 0.060592182 -0.010178132
000160 5b 2b 19 3e 43 a0 26 3e 4f 3e d0 bc e3 e5 a1 bd
       0.14957945 0.16272072 -0.025420336 -0.079051755
000170 95 bf dc bc c3 f9 14 3e ec 83 69 3d e7 17 1e 3e
       -0.026946822 0.14548402 0.057010576 0.15438806
000180 1c 02 1d 3e a3 b2 27 3e 3a 7f 3e 3d 80 ea c2 bc
       0.15332836 0.16376738 0.04650805 -0.023793459
000190 82 6e 1f 3d 95 da a4 b9 89 2c 6a bd b9 9b 37 3e
       0.038923748 -0.00031443374 -0.05717138 0.17930497
0001a0 06 28 e5 bd 17 32 15 be fa fe 37 3e 43 a9 c5 3d
       -0.111892745 -0.14569889 0.1796836 0.09651425
0001b0 ea 99 12 3e 10 9a c7 3d 84 3e b4 3d fd bc 3a 3e
       0.14316526 0.09746182 0.088009864 0.18236156
0001c0 47 a4 8b bd 7d e1 dc 3b 10 e2 fa bc 29 09 01 bd
       -0.06818443 0.0067407475 -0.030625373 -0.031502876
0001d0 67 35 28 3e 85 98 40 3d 4d b1 7d 3d 63 3a 92 3d
       0.16426621 0.047020454 0.061936665 0.07140043
0001e0 6c b5 2d be b8 21 f3 3c 43 f6 eb bd 95 90 1a 3e
       -0.16963738 0.029679164 -0.1152158 0.15094216
0001f0 57 23 21 be fd 5f de 3c d5 5a 7c bd 08 d1 05 bd
       -0.15736137 0.02714538 -0.06161006 -0.03267005

cfc_model.rnn_cell.ff1.weight f4 [48, 128]
000000 96 06 12 be ca 1a 12 3e 51 d5 88 bd 9c 38 b1 3d
       -0.14260325 0.14268032 -0.06681312 0.086533755
000010 9e e1 1e be 01 0c a8 3d 05 0a 34 bd 19 9d 88 bd
       -0.15515754 0.082054146 -0.043954868 -0.06670589
000020 5a 6b 0c 3c 14 c9 07 3e 44 3f f2 3d 77 0f f6 3d
       0.0085705165 0.13260299 0.11828473 0.120146684
000030 55 e0 ad 3d a9 12 c0 3d e2 d0 64 3c b0 d1 40 3e
       0.084900536 0.09378559 0.013965817 0.1882999
000040 17 00 97 3d dd c9 03 be 6c 3a 7e 3d 6b 30 85 3d
       0.07373064 -0.12869973 0.062067434 0.065033756
000050 b6 09 c9 3c e7 56 78 3e b5 15 97 be 74 fc e0 3d
       0.024540763 0.242519 -0.2950875 0.109856516
000060 33 11 59 bc ef 90 3c be 81 44 e0 bd e4 df 09 bc
       -0.0132487295 -0.18414663 -0.10950566 -0.008415196
000070 97 13 f2 bd f7 16 5b be c4 03 05 3e 12 78 99 3b
       -0.11820143 -0.21395479 0.12989718 0.004683503
000080 bd 43 30 3e ab 00 3f 3d ee 40 64 bc fa 00 2c be
       0.1721334 0.046631496 -0.013931496 -0.16797248
000090 7a e4 b4 3d b5 49 91 be e6 bf c1 bd 6d ec 8f 3e
       0.08832641 -0.28376547 -0.0946043 0.28110066
0000a0 a3 34 03 be f5 93 5a 3e 31 46 ad 3d b0 c0 92 bd
       -0.12813048 0.21345504 0.084606536 -0.071656585
0000b0 55 e1 39 be d6 df 8e 3e 47 77 06 be 42 57 9a bd
       -0.18152364 0.27905148 -0.13131438 -0.07536174
0000c0 03 3a e3 3c a3 63 ff bd 57 51 4d be ae 07 68 3e
       0.027737623 -0.12470176 -0.2005056 0.2265918
0000d0 11 fc 65 3e 54 d1 88 3e 6f f3 0e 3e 1d 96 27 be
       0.22459437 0.26722205 0.1396005 -0.16365857
0000e0 3d 68 ae 3d f3 d4 fe bc 3f c3 21 bd 44 42 8b 3c
       0.085159756 -0.031107401 -0.03949284 0.016999371
0000f0 8b 93 0e 3d 8b 08 73 3e 4e 95 3a be 67 9e f2 bd
       0.034808677 0.23733728 -0.18221018 -0.11846619
000100 3e fb 93 3e 5a f3 35 3e f0 37 a5 be 45 49 90 bd
       0.2890262 0.17768613 -0.3226924 -0.07045225
000110 18 aa 43 bd c5 ab cf 3d fd 96 0c 3d 6d c7 ad 3c
       -0.047769636 0.10140184 0.03432368 0.021213258
000120 3c 82 0c 3e 50 83 02 3e 29 04 d6 bd 53 ca 63 3e
       0.13721555 0.12745404 -0.10450012 0.2224515
000130 98 5e 4b 3e df 59 6c be b4 fd 10 3e 4d 11 64 3e
       0.19860303 -0.23081158 0.1415928 0.22272225
000140 87 df 8c bb 93 cf a9 bd f6 d5 30 be 24 ea 40 3e
       -0.0042991075 -0.08291545 -0.1726912 0.18839318
000150 fe 36 81 3d 77 f0 aa 3c 34 bc 03 be b3 75 90 bd
       0.06309317 0.020866616 -0.12864763 -0.07053699
000160 69 03 6a 3e 48 15 2f bc 8f 5c 5b 3e 25 a1 81 3d
       0.22852863 -0.010686226 0.21422027 0.06329564
000170 29 07 28 be e0 65 91 3e 7f 15 67 3d 6c c9 ee bc
       -0.16408981 0.28398037 0.056416985 -0.02914878
000180 cf 20 03 bd b9 cc 04 3d 51 d3 8e 3d 39 50 19 3c
       -0.03201371 0.0324218 0.06973899 0.0093575055
000190 12 eb 98 3e 0a e8 2b 3e 6f fe 96 be e3 5f 3b 3e
       0.29866844 0.16787735 -0.29490992 0.18298297
0001a0 e0 37 ad bd 89 4d 2d be 7a cc e0 bd 26 1f b5 3c
       -0.08457923 -0.16924109 -0.10976501 0.02210958
0001b0 8c 7e b6 3c b4 4c 52 3c 80 96 1c be e8 22 a1 bd
       0.02227714 0.01283567 -0.15291786 -0.07867986
0001c0 c4 ee 02 bd 56 28 bc bc 76 81 6f 3e 32 03 35 bd
       -0.031965986 -0.022968452 0.23389229 -0.0441925
0001d0 ae 53 3f 3e 67 6c 18 be 3f 15 8e 3c 7a f8 a9 bd
       0.18684265 -0.14885102 0.017344115 -0.08299346
0001e0 b6 a8 83 bb f1 d1 b1 3d 30 1e 43 3d 32 30 a6 3d
       -0.0040179146 0.08682621 0.04763621 0.08114661
0001f0 d8 21 22 3d f9 78 57 3d 64 02 6e bd ff c8 00 3e
       0.039583057 0.052605603 -0.05810775 0.12576674
000200 c0 86 8c 3c ce 87 42 be 57 39 17 bc 9e 72 a7 bd
       0.017154098 -0.18997118 -0.0092299795 -0.08176158
000210 83 76 d3 3d 01 7b 61 3e 02 6c 52 be ff 43 4c be
       0.10325339 0.22019579 -0.20549014 -0.19947813
000220 79 1c a9 bd 59 f6 b4 3d cc c7 93 3d 6a ed 6e bd
       -0.08257384 0.088360496 0.072158426 -0.058331884
000230 53 f5 87 b9 c6 c1 40 3e 87 03 e8 bd 8c 3d dd bd
       -0.00025931987 0.18823919 -0.11328798 -0.10802755
000240 85 a5 3b be aa be 91 bd 74 09 23 3d 59 57 80 bd
       -0.1832486 -0.071164444 0.039803937 -0.0626666
000250 68 91 73 3e df b4 5a be d3 26 89 3e bb 8e 50 bd
       0.23785937 -0.2135806 0.26787433 -0.05091737
000260 2d c6 85 3d b9 bb b7 bd 71 37 04 bd ec ad da 3c
       0.0653194 -0.08971352 -0.032279436 0.02669426
000270 7b 96 64 be f9 3f 27 bb fe e1 4d be 04 71 33 3c
       -0.22323029 -0.0025520308 -0.2010574 0.010952238
000280 5a 31 c4 bd fa 6d 63 be ab f3 36 bd 9e a6 57 3e
       -0.095797256 -0.22209921 -0.044665974 0.21059653
000290 eb f8 be bd 57 4a ea bc e1 6b 1b 3c 03 27 1f bd
       -0.09324821 -0.028599901 0.00948617 -0.038855564
0002a0 81 6f 8a 3d 8c 71 0d bd e5 68 4e bd 91 b0 99 3d
       0.06759549 -0.034532115 -0.050393004 0.075043805
0002b0 12 ee 82 3d 3c 43 e2 bd e3 b9 6b 3e 86 09 6c be
       0.063930646 -0.1104798 0.23020129 -0.23050508
0002c0 b5 88 02 be 71 22 1a be ed 8d a6 bd c4 32 6a bd
       -0.12747462 -0.15052201 -0.08132539 -0.05717732
0002d0 44 09 0b 3d 5c b0 a9 3d 6d 96 77 bd 49 87 f0 bd
       0.033944383 0.08285591 -0.06044619 -0.117445536
0002e0 b9 c8 34 be ca 58 87 bd fc ea e1 3d 73 c3 2f be
       -0.17654695 -0.06608732 0.11031148 -0.17164402
0002f0 7b fa 64 bd 80 bf 5c be 30 fa db 3d e2 d5 9c 3e
       -0.05590294 -0.21557426 0.10741079 0.3063193
000300 1e f7 5e be 0d a4 f8 3d 31 6b 92 3e 65 c3 ea 3d
       -0.21773955 0.12140665 0.28597406 0.1146305
000310 50 92 c2 3d 64 36 50 3d cf dc 1e be 87 a7 4d 3d
       0.09500563 0.05083312 -0.1551392 0.050208595
000320 ba dc 9b be a2 af 38 be 29 58 a1 3d 7d 15 f1 bd
       -0.30441839 -0.18035749 0.07878143 -0.11771677
000330 a4 f9 90 be 14 e0 0e bc b3 f7 db bd 07 ff c2 3c
       -0.2831546 -0.008720417 -0.10740604 0.023803247
000340 9e 3c bb bd 59 30 84 3d af ed 80 3e d3 bc fb bd
       -0.09142421 0.06454534 0.25181338 -0.12291875
000350 ba 97 89 3e ae 0b 88 be 00 54 82 3e 40 90 b3 bc
       0.2687357 -0.2657141 0.25454712 -0.02191937
000360 4b 8e e2 3d 76 fe c1 bd 73 be 94 bd 73 55 ad 3d
       0.110622965 -0.09472363 -0.07262888 0.08463564
000370 8d 36 21 3e 6f 15 07 be c5 88 65 be 4a a9 97 3c
       0.15743466 -0.1319177 -0.22415455 0.01851334
000380 61 a6 5d be d5 09 fd 3c 26 40 b0 bd ca 12 8c 3e
       -0.216455 0.030888477 -0.08605985 0.27358085
000390 52 33 c4 3a ac d5 06 bd e1 43 1d 3b 6b 44 92 be
       0.0014968908 -0.032918617 0.0023996758 -0.28567824
0003a0 2a 80 5d 3d de 28 db bc b8 b6 bf bd ef ac 02 be
       0.054077305 -0.026752885 -0.09361023 -0.12761281
0003b0 59 df d1 3d ac 90 d1 bd 25 b2 00 3d 25 02 10 3e
       0.10247678 -0.10232672 0.031419892 0.14063318
0003c0 84 36 83 3d ac f6 74 bc 5c 38 d2 39 5a 6c 4b 3e
       0.064068824 -0.014951389 0.00040096312 0.19865552
0003d0 8d 43 71 bc ef e7 01 bd e6 ec 17 bd 59 97 5b be
       -0.014725578 -0.03171533 -0.03709116 -0.21444453
0003e0 6f 7c 12 bc 74 2d c0 3d bd b6 03 bd 4e fa b1 3d
       -0.0089408 0.093836695 -0.032156695 0.0869032
0003f0 78 e1 58 3e 55 e5 38 bd 48 59 3f bd 7c 8f 7a 3c
       0.2117976 -0.045140583 -0.046716005 0.015292998

cfc_model.rnn_cell.ff1.bias f4 [48]
000000 57 8b d0 3d d0 9d cc bd aa 13 6d 3d ec d3 f6 3d
       0.10182827 -0.09991038 0.05788008 0.1205214
000010 cb 2f 7f 3c 11 d6 59 3c e9 ad f5 38 3c e0 c3 3d
       0.01557536 0.013295666 0.00011714904 0.09564254
000020 65 11 26 bc 01 86 c3 3c 17 16 90 bc 08 86 15 39
       -0.010135983 0.023867609 -0.017588658 0.00014259678
000030 45 77 24 bd db 41 32 bd dd 87 62 3d 52 ce bb 3c
       -0.040152807 -0.043519836 0.05530535 0.02292553
000040 93 94 18 3c f4 0e c1 bb ac 11 0e be 44 e6 3b bc
       0.009312767 -0.005891675 -0.13873929 -0.011468474
000050 2d 26 86 ba 1f 03 58 bd 9c 52 e5 3d 1f a1 5b bc
       -0.0010234766 -0.05273735 0.11197397 -0.0134051135
000060 e0 52 a5 bb bb 65 88 bd 19 b5 50 3c c5 0d dd bc
       -0.00504528 -0.066600285 0.01273849 -0.026984105
000070 88 53 32 3d 57 d6 5b bb f2 fe f6 3c 15 44 ad bd
       0.043536693 -0.0033544505 0.030150864 -0.08460251
000080 66 9c 84 3d 4b 54 14 bd 2b 74 12 3d 07 3c 51 bd
       0.06475143 -0.0362132 0.035755318 -0.051082637
000090 7e fe 3b bd 80 57 33 3d 5a 02 ca 3c 50 77 94 bc
       -0.045897 0.04378462 0.024659324 -0.018123299
0000a0 7f f8 ae bd 09 72 ca 3c 7f 69 32 bd 4d 3a 38 bd
       -0.085434906 0.02471258 -0.04355764 -0.044977475
0000b0 2d 44 9c bd 67 07 39 bc d0 89 06 bd 86 0c 8a 3b
       -0.07630191 -0.011293269 -0.032846272 0.0042129187

cfc_model.rnn_cell.neuromod.0.weight f4 [192, 3]
000000 4e 74 b5 3d dc cf 3b 3b ee 29 71 3d 8a bd 50 3d
       0.08860074 0.002865783 0.058877878 0.05096201
000010 cc ef cc 3d 24 02 d9 bd 68 8a 72 bd b1 99 8a bd
       0.10006675 -0.105961114 -0.059214026 -0.067675956
000020 27 7b 39 3e f8 c4 74 bd 74 77 94 bd fb 1c 0a 3e
       0.18113385 -0.059758157 -0.072493464 0.13487618
000030 2a 77 1e 3e 50 27 d7 3b 7b 50 ae 3d 58 92 5d bd
       0.15475145 0.0065659657 0.08511444 -0.054094642
000040 0d fd 1f be bc 48 da 3c c3 d2 f5 3c 66 dc ba bc
       -0.15623875 0.02664601 0.030007726 -0.022810172
000050 ab d0 b0 bc c6 e8 ea bc 5e 6a 88 3d f9 ba 34 3d
       -0.021583876 -0.028675448 0.06660913 0.044123624
000060 fd e9 18 be eb 63 00 bd bb 46 d7 bd 4f a0 bc bd
       -0.1493301 -0.03134529 -0.10511538 -0.09210264
000070 d3 cf b6 bd 56 a2 4d 3d 0e 37 41 3c 30 63 f4 3b
       -0.08926358 0.050203644 0.011792911 0.007458113
000080 61 04 c4 bc 53 30 30 be 59 7a 22 be bf b9 69 bd
       -0.02392787 -0.17205934 -0.15866984 -0.057061907
000090 5b 07 e5 3d b6 7f 8f bb 2a dd 84 3c c5 95 86 bd
       0.111830436 -0.004379238 0.01621874 -0.06571535
0000a0 0e 7e 53 bc 15 56 1d 3d 65 df 02 3e 52 df 03 3e
       -0.012908472 0.038412172 0.12780531 0.12878159
0000b0 d4 a6 0b be 2e 5f 09 bd 3b d9 2d be 35 b0 ed 3d
       -0.13637859 -0.033538036 -0.16977398 0.116058744
0000c0 5d f5 30 be 80 df 95 bc 11 7b 93 3c d8 5a 47 bd
       -0.17281099 -0.01829505 0.018003019 -0.04867062
0000d0 98 a1 df 3d 5c 45 2e bd 79 6d e0 3c de 7c b2 3d
       0.109194934 -0.042546615 0.02739595 0.08715223
0000e0 34 2a c6 3d 7c 87 d2 bc 72 4e 60 3d 1f 3e 01 3e
       0.09676018 -0.02569937 0.05476231 0.12621354
0000f0 fd aa 1c bc 90 07 2c bc 39 30 b2 bd 9b 03 19 3e
       -0.009562251 -0.01049985 -0.08700604 0.14942782
000100 25 ae 11 3e 50 5b 2b bd b6 a1 1c 3e bb 6d 03 3e
       0.14226587 -0.04183513 0.15296063 0.12834828
000110 9b ad 49 bc b2 85 fd 3d 58 e2 90 bd f4 13 43 3e
       -0.012309457 0.12379016 -0.07074422 0.1905058
000120 e9 10 e3 3d 19 03 ff bd 57 7a d1 3d 39 64 b2 bc
       0.1108721 -0.12451763 0.102284126 -0.021776306
000130 21 c1 e6 ba 1b ec 00 be bd 72 ea bd 16 52 72 bd
       -0.0017605164 -0.12590067 -0.11447666 -0.059160315
000140 ba a9 a3 3c 18 f6 e8 3d 9c a2 71 bd d2 93 d9 bd
       0.019978393 0.11375064 -0.058992967 -0.106238976
000150 75 52 9a bc 5d f3 f0 bb a6 cc 0a 3c 6a 53 bb bc
       -0.018838147 -0.00735323 0.008471644 -0.022866923
000160 f9 9e 86 bd 24 76 50 bd 66 6b a8 3d ed 4f d5 3d
       -0.065732904 -0.050893918 0.082236096 0.10415635
000170 be 35 13 3e 32 20 05 be a2 9a 1c be d9 86 93 bd
       0.1437597 -0.13000563 -0.15293363 -0.072034545
000180 f4 f5 59 3e 83 ca 96 bd 0f b4 31 bb 5d c8 05 3b
       0.2128523 -0.07362845 -0.002711538 0.0020413615
000190 da 0c 18 3e ea a5 1e be 78 6b 63 ba 02 90 93 3d
       0.14848652 -0.15492979 -0.0008675377 0.07205202
0001a0 d8 d3 1c 3e 6d f0 07 3e c7 7c 2a 3d e4 23 32 3e
       0.15315187 0.13275309 0.041622903 0.17396504
0001b0 83 cd 11 3e 0d 5e 83 bd ae 8e 87 3b 62 2c 2a 3d
       0.14238553 -0.06414423 0.004136882 0.041546233
0001c0 0b 49 fd 3d e4 37 47 3d 1d 6a f2 3d b0 41 4d 3d
       0.123674475 0.048637286 0.11836646 0.050111473
0001d0 49 9a 1f 3d df c3 89 bc 61 e8 93 3d 62 48 77 3d
       0.038965497 -0.016817031 0.07222057 0.060371764
0001e0 2d 13 25 3d 48 c1 12 3d 6e 9a bb 3d fb d8 cb bd
       0.04030149 0.03582886 0.091603145 -0.09953495
0001f0 65 9a af bd 2b 33 98 bd 65 06 65 bd 12 5e 38 be
       -0.0857437 -0.074316345 -0.0559143 -0.18004635
000200 af 05 d6 bc 08 f0 58 3b f2 2a 87 3c 6c d8 40 bd
       -0.026125757 0.0033102054 0.01649997 -0.047081396
000210 ac c4 de bc 80 52 13 be 8b 14 ba bd 42 d1 10 be
       -0.02719339 -0.1438694 -0.090859495 -0.14142326
000220 2c d6 36 bd 24 85 32 be f3 c3 da 3d a8 0c b7 bc
       -0.044637844 -0.17433602 0.106819056 -0.022344902
000230 d8 d1 43 be df d3 b7 3d c8 ce 10 3d 15 1e 22 3e
       -0.19123018 0.08975958 0.035353452 0.15831788
000240 81 f1 51 bd c4 5b 3b 3b 75 bd bd 3c 4e 93 1a be
       -0.051255707 0.0028588632 0.02316163 -0.15095255
000250 e5 11 60 3d 77 4e 78 3d b3 bb 17 be 91 7c f3 bd
       0.054704566 0.060621705 -0.14817695 -0.118889935
000260 7f ca 3d 3e 16 0f 36 3e 3e 02 2b 3e 5a 5a 8c bc
       0.18534277 0.17779192 0.16700074 -0.017132927
000270 5e 91 fe 3c 1b 74 3a 3e a2 12 10 be b2 44 35 3e
       0.031075176 0.18208353 -0.14069608 0.17701986
000280 32 eb e8 3d 19 a2 5a 3e 14 06 15 bd 0f 1a 3d bd
       0.11372985 0.21350898 -0.03638275 -0.04616743
000290 5d 39 17 be ad c5 c8 bd 77 25 08 3d 51 ce ff bc
       -0.14767976 -0.09803329 0.033238854 -0.031226309
0002a0 8d 67 e9 3d ac 96 44 bd 60 a2 53 3c 6c ed 1f 3d
       0.11396704 -0.047995254 0.012917131 0.039044783
0002b0 74 b2 04 bc 6c a8 2d 3c e5 43 cb bd 4d 23 dc 3d
       -0.008099187 0.010599237 -0.09925059 0.107489206
0002c0 dc 14 0f 3e 22 1e 10 3a d8 98 d0 bd 2f a5 51 bd
       0.13972801 0.0005497654 -0.10185403 -0.051182922
0002d0 59 33 2e 3e 4f c2 51 bd 64 cd 9a bc 97 b5 8b 3d
       0.17011775 -0.051210698 -0.018896766 0.06821745
0002e0 6d 63 4e bb 40 ca 15 bc d7 fc f1 3d 5f c4 a3 3c
       -0.0031492368 -0.009142458 0.118158035 0.019991098
0002f0 f0 2a 22 3d 69 2c d7 bd ff 1a 93 bd 39 ef 40 bd
       0.03959173 -0.105065174 -0.071828835 -0.04710314
000300 e6 d8 66 bc dd 94 14 3e 94 be 0d bd d3 09 27 be
       -0.014089799 0.14509912 -0.034605578 -0.16312341
000310 0b 5e 95 3d 8e 34 a2 3d 3f 29 ff 3c c4 ef b9 bd
       0.07293328 0.0792018 0.031147597 -0.09078935
000320 03 5c ee 3b 12 a6 7c 3c e9 8c a3 3d 4b 46 0a be
       0.0072741522 0.015420454 0.07985861 -0.13503377
000330 6d fa d8 3d 13 91 fa bc b6 14 c8 3b 6a 55 fb bd
       0.1059464 -0.030586755 0.0061059846 -0.12272151
000340 7d 3a 26 3e c2 a0 63 3d 69 94 28 be 86 6f 15 3d
       0.16233249 0.055573232 -0.16462864 0.03648331
000350 42 42 bb 3d 33 06 20 3e 85 cc 13 be ff f4 e9 3c
       0.09143497 0.15627365 -0.14433487 0.028559206
000360 4f 69 a9 bd 9a b8 19 3e 28 c0 91 bd cb 84 1c be
       -0.08272039 0.15011826 -0.07116729 -0.15285031
000370 31 1e 67 3c c4 41 40 bd 34 fa 3a be 41 d4 d3 3c
       0.014106319 -0.04693772 -0.18259507 0.025858046
000380 3a cc e6 bb a4 cd 1d 3e 63 58 a9 3c 91 fb 3b 3e
       -0.0070433887 0.15410477 0.020672029 0.18357684
000390 bf 36 03 bc 60 60 0e 3e c7 af 92 3d c3 c2 29 bd
       -0.008008658 0.13903952 0.07162433 -0.041445505
0003a0 9a b3 20 3e c3 a9 c3 3c 4d b0 45 3d fb aa eb bd
       0.15693513 0.02388466 0.048263837 -0.11507221
0003b0 b9 45 15 be 9d 8d 17 bb ba 4d 07 be 4f 79 97 3d
       -0.14577378 -0.002312518 -0.13213244 0.07396185
0003c0 e6 7f 1f be f2 10 b5 bc a7 87 e1 bd c3 d6 1c bd
       -0.15576133 -0.022102807 -0.11012202 -0.03829075
0003d0 b1 c6 37 3e 8a 9e 9a bc 40 35 ee bd d9 35 29 be
       0.17946889 -0.018874425 -0.116312504 -0.16524448
0003e0 fa b8 07 be fc 5f a5 bc d0 fc 7e 3c dd bb af 3c
       -0.13254157 -0.02018737 0.015563205 0.021451885
0003f0 a5 2b bc bc db 7f a7 3d 39 1c 2a 3e 99 ed a9 3d
       -0.02297003 0.08178683 0.16612329 0.08297271

cfc_model.rnn_cell.neuromod.0.bias f4 [192]
000000 e9 10 81 be 58 a0 ab 3e 9d a8 13 bd 1d ba 0c be
       -0.25208214 0.3352077 -0.036049474 -0.13742872
000010 f9 51 f2 be 02 63 87 be 24 3a c9 3d c9 98 94 3e
       -0.47328165 -0.26442724 0.098255426 0.29022816
000020 fd 78 83 3e c6 c5 9b 3e 68 24 01 bf 71 d7 b4 bd
       0.25678244 0.30424327 -0.50446177 -0.08830155
000030 92 e7 fd be 9e 77 86 bd 03 96 38 bc dc 3d 07 3f
       -0.49590737 -0.06565784 -0.011266234 0.52828765
000040 b3 8b 70 bd 15 37 42 be 89 af dc 3e e1 78 0b bf
       -0.058726978 -0.18966325 0.43102673 -0.5448132
000050 81 e6 c3 be e6 be 7c be d2 8a 2b be f8 e8 78 3e
       -0.38261798 -0.24682197 -0.16752174 0.2430762
000060 b6 54 56 3e 50 bd b2 be c6 0d 4d be 53 d1 24 3d
       0.20930752 -0.3491006 -0.20024785 0.04023869
000070 7c 8c 86 be fd 53 d9 3e c2 75 ca be bb 2a e9 3e
       -0.26279056 0.4244689 -0.39542967 0.45540413
000080 14 d9 fb be 33 ab cd 3e 00 4e 95 be c9 a3 10 bd
       -0.49189055 0.40169677 -0.29161072 -0.035312448
000090 76 16 09 3f 6d ea 56 3e 6f 8b 56 bd 43 f0 60 be
       0.535499 0.20987864 -0.052379068 -0.21966653
0000a0 a5 9d 0f 3f 54 97 25 3e a3 31 44 be b3 38 03 3f
       0.5609992 0.16171008 -0.1915956 0.5125839
0000b0 ef 97 9f 3e 02 0a c3 bd 91 29 f7 be 68 c7 cb 3d
       0.31170604 -0.09523393 -0.482739 0.09950143
0000c0 ec c6 cf be a2 c7 19 bf e0 5d 24 be d4 88 97 be
       -0.40581453 -0.6007024 -0.16051435 -0.2959658
0000d0 79 d3 5f 3e a6 7d ea 3e e9 f3 f9 3e dd 53 48 3e
       0.21858014 0.45798987 0.488189 0.19563241
0000e0 6a 2b 15 3e 5a 15 03 3f 6c a5 f4 be b4 63 9c 3e
       0.14567342 0.51204455 -0.47782457 0.30544817
0000f0 49 81 2f be 78 39 a5 3e 97 1c da 3e 03 cd ca bd
       -0.17139162 0.32270408 0.42599937 -0.09902384
000100 85 5f 8f 3e dc a2 9d be a2 52 1d be 52 05 11 bf
       0.28002563 -0.30788314 -0.15363553 -0.56648743
000110 4c ac 1b bd 71 90 92 be b2 7e a0 be 83 28 fd bd
       -0.038006112 -0.28625825 -0.3134666 -0.123612426
000120 1d 41 79 bd 20 2e 0b bf 1e 1e 09 3e d7 5a ea be
       -0.060853112 -0.54367256 0.13390395 -0.4577243
000130 0e 3a 26 3e 73 92 77 be 66 4a 09 be f7 dd 07 bf
       0.16233084 -0.2417696 -0.13407287 -0.53073066
000140 f9 8f 63 3e ca 7c e5 3e 97 d2 8c 3d 69 bd 01 3d
       0.2222289 0.4482177 0.06876104 0.031674776
000150 3d a8 f5 be 62 9e 8c be ae d2 e6 bb 90 05 a8 bd
       -0.47979918 -0.27464586 -0.007044158 -0.08204186
000160 5c 4c 65 3e e3 84 8f be 66 30 35 3e 51 ac f3 3e
       0.2239241 -0.28031072 0.17694244 0.47592404
000170 00 ae d9 be ff 74 9a be 7f 4d fc 3e b3 91 68 3e
       -0.42515564 -0.30167386 0.49277875 0.2271183
000180 14 6b 03 3f a7 20 8f 3e bf 48 c9 bc c6 7a 95 3e
       0.51335263 0.279546 -0.02457082 0.2919523
000190 5a cc cd 3e 5a c5 db 3e fd 24 98 be 9f e0 c0 be
       0.4019497 0.42924005 -0.2971572 -0.37671372
0001a0 56 c2 a9 3d 90 4c a3 be 88 64 66 3d a3 11 8b be
       0.0828902 -0.3189435 0.056248218 -0.27161893
0001b0 9b af c0 be a0 46 e2 3e 5e ff a9 be 24 78 80 3e
       -0.37633976 0.44194508 -0.33202642 0.2509166
0001c0 36 b5 ed be f7 e2 04 3e 5f cc 13 3f 51 e9 47 be
       -0.46427315 0.12977205 0.5773372 -0.19522597
0001d0 89 23 95 3b 46 d3 f6 be 51 68 fd 3e 18 8b 65 3e
       0.0045513553 -0.48208064 0.4949365 0.22416341
0001e0 0d e6 c6 be 39 d2 7c 3e 7d 08 e0 be 83 03 c1 bc
       -0.3884739 0.24689569 -0.43756476 -0.023561245
0001f0 61 5c 86 3e b1 a3 23 3e cb b5 9f be 6c d7 b3 be
       0.26242355 0.15980412 -0.31193385 -0.3512529
000200 7e f3 db be 2b 69 53 be 13 8c 01 3f 6e 4a f0 be
       -0.42959207 -0.20645587 0.5060436 -0.46931785
000210 a0 4f 8c 3d 2f d7 ac be c1 cb c5 3d e4 e8 0b bf
       0.06851125 -0.33757922 0.096580036 -0.5465224
000220 0e c1 9d bd 85 fa 6e 3e 2c ff 1b 3e db 8b f9 be
       -0.07702838 0.23337753 0.15234059 -0.48739514
000230 1d d3 9f 3e fa 52 0a be 5d 78 0b 3f 05 50 82 3e
       0.31215754 -0.13508216 0.54480535 0.25451675
000240 18 7c 9f 3e b1 79 c0 3e cd a6 52 be 0c 7a 83 3e
       0.31149364 0.37592843 -0.20571442 0.25679052
000250 c2 19 cf 3e 56 60 f4 3e 98 05 08 3f d0 9c 00 3f
       0.4044934 0.47729748 0.53133535 0.50239277
000260 21 19 fa be ca 2b 6a 3e d5 42 5f 3e bd 83 a5 bd
       -0.48847297 0.22868267 0.21802838 -0.08081768
000270 93 67 08 be 68 2c e7 3e 71 c5 20 3d 30 c5 00 3f
       -0.1332076 0.45151067 0.039250795 0.50300884
000280 fd 23 c7 be 85 78 a7 bd c5 01 88 3e 93 da 9f be
       -0.38894644 -0.08177284 0.2656385 -0.31221446
000290 a5 b9 05 3f 83 3f c8 be 00 22 05 bf 89 98 0e 3f
       0.52236396 -0.39110956 -0.52005005 0.557015
0002a0 01 6d b9 be 20 1f 84 3d 40 ca 65 be 78 54 92 bd
       -0.36215976 0.06451249 -0.22440434 -0.071450174
0002b0 fb 58 93 be 45 fd 92 be 57 af 5a 3e 00 f3 00 bf
       -0.28778824 -0.28708854 0.2135595 -0.5037079
0002c0 3a fb 9f be 69 da f3 3d 1b c2 a2 bd 32 2d aa be
       -0.31246358 0.11906893 -0.07947179 -0.33237606
0002d0 49 40 09 be 3b c8 d6 be 0b a6 c2 3e 32 78 f6 bd
       -0.13403429 -0.4194964 0.38017306 -0.12034644
0002e0 74 48 cb be 9b d5 d7 bd 86 c4 93 bd 62 81 4e bd
       -0.39703715 -0.10538789 -0.07215218 -0.050416358
0002f0 a5 23 a5 be 8f ce 83 be 20 17 b2 bd 5e 8f f7 3d
       -0.32253757 -0.2574353 -0.08695817 0.12087892

cfc_model.rnn_cell.neuromod.2.weight f4 [96, 192]
000000 b6 e4 78 3c 19 99 4f 3a b2 32 b4 bb 40 0f 6c 3d
       0.015191248 0.00079192367 -0.0054992074 0.05763173
000010 1b 5c 49 3d 09 bd 15 be a5 a2 02 be 53 de 00 bb
       0.049160104 -0.14622892 -0.12757356 -0.0019663766
000020 28 ac d0 bd 33 2c 54 bd 19 d8 fa bd de b6 d5 bb
       -0.10189086 -0.051799964 -0.122482486 -0.0065220436
000030 13 ad bd 3d dc ce 8a bd b1 cd a3 3c 6a 82 c2 3c
       0.09261527 -0.067777365 0.019995542 0.023743827
000040 6b 88 a4 3d be ac 0f 3c 82 a3 53 bd 20 aa 87 3d
       0.08033832 0.008769212 -0.051669605 0.06624246
000050 5a 59 71 bd 02 c6 04 3d 2d e4 ba 3d a3 c7 12 3e
       -0.058923103 0.032415397 0.09125552 0.14333968
000060 a8 f5 b6 bd 9f 05 7c bd cc 2b b6 3d 7a ca 29 be
       -0.08933574 -0.0615288 0.08895072 -0.16581145
000070 c0 69 b5 bd 83 9f 97 3d b2 4d 15 3e 3c 9b bf 3c
       -0.08858061 0.07403471 0.1458042 0.023389451
000080 16 3a 00 be e1 71 c2 3d 98 41 26 3b 9a 13 a5 bd
       -0.12522158 0.09494377 0.0025368687 -0.08060379
000090 7b 10 9f 3c cc fb ec 3d b7 d3 63 bb e7 0a 50 3d
       0.019417038 0.11571464 -0.0034763643 0.050791647
0000a0 aa 95 7c 3c 01 2e fb bd bc 49 cb 3d cd e0 08 be
       0.015416542 -0.12264634 0.09926173 -0.13367005
0000b0 91 70 1b be 2b 2f 22 bd 89 aa 94 bb 8c ca f1 bd
       -0.1517966 -0.039595764 -0.004536931 -0.11806211
0000c0 eb f0 1e be 09 97 91 bc b3 36 03 3e de 8a 60 bd
       -0.1552159 -0.017772214 0.12813835 -0.054819934
0000d0 bb 94 c3 3d da 80 6e bc a4 d9 84 3c 89 0b 04 be
       0.095498525 -0.014557088 0.01621706 -0.12895025
0000e0 1e f7 0a 3e af 49 f3 3d 69 32 cb 3c 55 05 1f be
       0.1357083 0.118792884 0.02480431 -0.15529378
0000f0 14 b6 ea 3d f2 af ee 3d cd 9a 59 bd ab 9e 9d bd
       0.1146051 0.11654653 -0.053126145 -0.07696279
000100 a6 ec f1 3d de fb a5 3d 87 d9 2f 3c 6b 76 2b 3d
       0.11812715 0.081046805 0.010733015 0.04186098
000110 76 be 2d 3c 28 c3 fc 3d 28 8f fe bc 90 4f 27 3e
       0.010604491 0.123419106 -0.031074122 0.16338944
000120 32 8f 99 bb 7b 91 a2 bb 7a 7c 1f be 57 d6 96 3c
       -0.0046862597 -0.0049611903 -0.15574828 0.018412752
000130 83 ba 93 3d 14 1b 1b be 9a fe 00 be 6f 26 9a 3d
       0.07213309 -0.15147048 -0.12597123 0.07526862
000140 d1 89 9a 3d e3 de 58 3c 8a b1 cd bb f3 78 dd 3d
       0.07545818 0.013236734 -0.006277268 0.10814085
000150 e3 b5 07 3e e1 46 b5 bd 95 b3 c7 3d 35 81 ac bd
       0.13252978 -0.0885141 0.097510494 -0.08423082
000160 d1 1b db bd a1 0d f3 3c 18 b2 8d bd dc 8c 2e 3d
       -0.10698665 0.029669585 -0.06918734 0.042614803
000170 35 df aa 3d bb 66 93 bd e6 3f 20 bd 57 8e de bc
       0.083433546 -0.07197329 -0.03912344 -0.027167482
000180 c6 5a 38 3d 4d 87 7f bd 2b 46 d5 3d 5f 19 0f bd
       0.045008443 -0.062384892 0.10413774 -0.034936305
000190 17 45 e2 3c 70 09 c8 3d e7 1c 80 bc 2f 3e 66 bb
       0.027620835 0.09767425 -0.015638782 -0.003513228
0001a0 9d ff 19 3e 8c 3a d6 bc 44 36 0c 3e 60 7e c7 bc
       0.15038915 -0.026150964 0.13692576 -0.024352252
0001b0 1a b2 0b be f7 3f ab 3c 6d 61 0c be 11 aa bd 3b
       -0.13642159 0.020904524 -0.1370904 0.0057880958
0001c0 49 8d 4f bd 80 4f 16 3e 9a 01 25 3e 66 65 15 bd
       -0.05067185 0.14678764 0.16113892 -0.036473654
0001d0 e5 66 9c bc 22 8b cd 3d c0 48 e2 3d 18 e9 7d bd
       -0.019092033 0.10036303 0.11049032 -0.061989874
0001e0 cf 11 2e 3e 10 c0 34 bd 73 d9 af 3d 57 34 77 3c
       0.16998981 -0.044128478 0.08586397 0.015088162
0001f0 44 18 a8 bd 0a c9 da 3c db b4 ad bd 53 2e a5 3c
       -0.08207753 0.026707191 -0.08481761 0.02016369
000200 1f 98 a2 bd 9f 4f e6 3b 0d 75 a8 bd a1 6e 8a bd
       -0.07939171 0.0070285345 -0.08225451 -0.06759382
000210 bb 5a 53 3c fa 2c 99 bc bb 15 cd 3d cc 02 48 bc
       0.01290005 -0.018698204 0.100139104 -0.012207698
000220 79 b8 6c bd 26 e1 6c 3d eb be 9a bd 70 72 d9 3d
       -0.057793114 0.057831906 -0.07555946 0.1061753
000230 9d 5f ca 3d 57 da ad 3d a7 73 c8 bd c0 af 84 bd
       0.09881518 0.08488911 -0.09787684 -0.06478834
000240 69 9c de 3d 6a f3 99 3b 85 34 68 bd ea ab c4 bd
       0.108696766 0.0046982067 -0.05669071 -0.096031025
000250 25 f8 0e bd 72 21 74 bd 4e 5b 09 3e cd f7 d6 3d
       -0.034904618 -0.05960221 0.13413736 0.10496483
000260 56 fb 4e bd d6 13 e2 3d 0d 3a ba bc 6c cd d6 3d
       -0.05053266 0.1103894 -0.022732759 0.104884
000270 53 a2 48 3d 49 73 94 bd f8 70 01 3e ce 20 df bd
       0.04898293 -0.072485514 0.1264075 -0.10894929
000280 84 6b eb 3d 37 79 c5 bc 93 64 e2 3d c6 08 a5 3d
       0.11495116 -0.024105651 0.11054339 0.08058314
000290 56 48 8d 3d 4a 2d a5 bd 32 04 b9 bd cc bd 30 3c
       0.068985626 -0.08065279 -0.09034003 0.010787439
0002a0 4c 97 07 be f9 f5 95 bd 69 1b 3d 3d a0 47 c7 3d
       -0.13241309 -0.07322306 0.04616872 0.09730458
0002b0 f1 c9 96 bd 5b c8 1c 3e 90 51 74 3d e3 36 e4 3d
       -0.07362736 0.15310805 0.059648097 0.11143281
0002c0 6b 1e 05 3e 3f 00 ea bd 39 32 b6 bd 89 39 28 3e
       0.12999885 -0.11425828 -0.08896298 0.16428198
0002d0 11 5d 94 bd 4b ae 29 3d 4e 18 01 3e 9d 45 a7 bd
       -0.072443135 0.041425984 0.12606928 -0.081675746
0002e0 4b 1e 8a bd eb 66 16 be e2 5e d7 3d 80 39 c5 bc
       -0.06744059 -0.14687698 0.10516144 -0.02407527
0002f0 da 0b 40 3c af 2e e6 bd ac 32 25 3e 61 29 26 be
       0.011721576 -0.11239373 0.16132611 -0.16226722
000300 26 f7 4c 3d 0f 8e 5c 3d 5f 56 59 3d d0 32 f0 bc
       0.050040387 0.053846415 0.053060886 -0.029321104
000310 d6 19 f7 3d f2 0f e8 bc 22 f3 f7 3d 04 b5 0d 3d
       0.12065475 -0.028327916 0.12106921 0.034596458
000320 30 c8 90 bc 51 69 d3 3d 90 25 66 bd a2 47 d4 bd
       -0.017673582 0.10322822 -0.056188166 -0.103652254
000330 bb e0 e4 bd 19 53 fd 3c 8f 8c 21 be 36 00 24 3d
       -0.111756764 0.030923413 -0.15776275 0.040039264
000340 17 18 e8 bd d9 6a 05 be 2e 60 6e bb 8e be 61 3d
       -0.1133272 -0.1302904 -0.0036373246 0.055113368
000350 c3 3e 09 be 1e fc a5 bd eb 40 ed bd 42 76 e1 bd
       -0.13402848 -0.08104728 -0.11584648 -0.11008884
000360 d6 5b 0e 3e c9 75 04 be 95 a5 02 be 04 30 42 3d
       0.1390222 -0.12935556 -0.12758477 0.047409073
000370 08 a7 3c 3d 5b 84 72 bd 70 8b 95 3d 99 92 df 3d
       0.04605773 -0.059208255 0.07301986 0.10916633
000380 18 85 8b bd 35 4b 4b 3d 7e b2 97 3d 74 5c 30 3c
       -0.06812495 0.04963227 0.074070916 0.01076423
000390 5f 86 8a bd 03 85 06 3e 64 7a 8c 3d 4c 09 bc 3b
       -0.067639105 0.13136677 0.06859282 0.005738413
0003a0 f7 7f 9b bd 3e a1 20 be 62 9d c4 3c a8 20 f1 bd
       -0.07592767 -0.15686509 0.024000827 -0.11773807
0003b0 66 79 83 bc 18 fb 12 be 31 79 48 3a 89 8c 7a bd
       -0.016049098 -0.14353597 0.00076474535 -0.06116918
0003c0 e6 bf 1a bd 48 bd 56 bc 20 fe 27 3c b3 7a 1e 3d
       -0.037780665 -0.013106652 0.010253459 0.038691234
0003d0 3d 41 f6 bd e8 80 0f 3d b5 72 8f bc 68 d4 89 3a
       -0.12024162 0.035035044 -0.017510751 0.0010515573
0003e0 62 cd 00 bd 31 21 c6 3d 9e c9 a4 bd b8 4e 0f be
       -0.03144587 0.096742995 -0.08046268 -0.13994873
0003f0 f2 b3 d2 bd 2c 4c db 3d b0 e6 de bd f9 a7 ab bc
       -0.10288228 0.10707888 -0.10883844 -0.020954119

cfc_model.rnn_cell.neuromod.2.bias f4 [96]
000000 3e eb f0 3c 6a b2 07 3d 13 73 62 3d 5c 07 b5 3c
       0.029409047 0.033129133 0.055285525 0.022098236
000010 bf 8e 7b bd 23 0b b6 3d 77 8d a7 bc a4 a2 be 3c
       -0.06141543 0.08888843 -0.020453198 0.023270912
000020 47 24 e0 3c 8e cb 12 bd 4b 50 34 bb 1a cb 75 3d
       0.027361048 -0.035838656 -0.0027513679 0.060008146
000030 60 1c e3 3c 28 c0 a7 3c f6 4f bd 3c 4c 52 b9 3d
       0.027723491 0.02047737 0.023109417 0.090489
000040 da da 46 3c 1c b7 80 bc 6d 53 bd 3d ed 0e 50 3d
       0.012137139 -0.015712313 0.09244428 0.050795484
000050 a8 80 87 3d 7d 58 8b bc 5a e7 14 bc 99 99 ba 3c
       0.06616336 -0.017009968 -0.009088362 0.02277832
000060 39 1c 25 bc 29 dd e9 3c 1b 43 84 bd 29 79 82 3d
       -0.01007753 0.02854784 -0.06458112 0.06370766
000070 2e 9f 93 bc d8 2d 18 3d 85 eb 02 bd 63 2d 18 3d
       -0.018020239 0.037153095 -0.03196289 0.03715266
000080 c3 b9 37 bd 56 05 d8 bc e5 3f ae bd 79 34 96 3d
       -0.04485489 -0.026369732 -0.08508281 0.07334227
000090 47 2a 59 bb 82 93 b6 3c 0f 76 42 3d db ff 92 bd
       -0.0033136772 0.022287134 0.04747587 -0.07177707
0000a0 b7 56 f0 3c bf ab 81 3b 33 13 49 bc a8 e6 15 3d
       0.029338224 0.0039572413 -0.012272644 0.036596924
0000b0 26 e6 93 3d 84 7a 39 3b 4a 51 21 bc 5d b4 9e bd
       0.07221632 0.0028301785 -0.009846041 -0.07749245
0000c0 53 f7 ec bb 9b 0a 59 3d 13 7c a1 3c ff 34 04 bd
       -0.007231632 0.05298863 0.019712484 -0.032277104
0000d0 54 16 a8 3d e5 6f 38 bd 40 ce bb 3d 15 c0 65 3d
       0.08207384 -0.045028586 0.091701984 0.056091387
0000e0 29 fa 21 bd b1 cb 21 bd c0 c2 fb bc db f3 de 3c
       -0.039545212 -0.039500896 -0.030732512 0.027215889
0000f0 13 d9 43 3d 9c 9b 06 bd 06 ee db bb 93 64 aa bc
       0.04781444 -0.032863244 -0.006711724 -0.02079991
000100 59 cf 28 3d b8 6e 38 3d 1e 20 e4 bc 4b 14 9b 3d
       0.041213367 0.045027465 -0.027847346 0.0757223
000110 60 95 fe bc c5 32 71 3c 08 be 2b bd 9e e2 06 bd
       -0.031077087 0.014721577 -0.041929275 -0.032930963
000120 52 09 c1 bc 07 f9 57 3d 75 25 73 bd 8d 81 19 3d
       -0.023564015 0.052727725 -0.059361894 0.037477065
000130 24 01 cc 3c c2 51 db bc 2c 72 7c 3c fb 3b ac 3d
       0.024902888 -0.026772384 0.01540808 0.08409878
000140 86 3a af 3d d5 04 90 bd 3d 59 1f 3d d1 54 28 3d
       0.08556084 -0.07032172 0.038903464 0.041096512
000150 e9 de 93 bd 93 9d 63 bd 01 09 10 bc eb 94 58 bd
       -0.07220251 -0.055570196 -0.008791209 -0.052876394
000160 dc 36 b6 bd 0e af 18 3d 5b b8 a3 3d 1d bb 7c 3d
       -0.08897182 0.03727632 0.079941474 0.061701883
000170 78 fa 3a 3d 44 49 b6 3d d2 1b 06 3d 4b 44 7e bb
       0.045649022 0.08900693 0.032741375 -0.003879803
