LTC_A2C/training_results/CfC_a2c_result_409_2024323_learningrate_1e-05_numneurons_64_encoutact_relu_neuromod_network_dims_3_256_128_64_randomization_params_[(0.775, 5.75), (1.0, 2.0), (0.8, 2.25)]/checkpoint_CfC_A2C_8.pt (torch, 74488 bytes, 10 tensors)

cfc_model.rnn_cell.w_tau f4 [1, 64]
00000000: 8f5d 433e 8f1d 33be db96 a63d 9019 f3bb
00000010: fbd3 543e 2f63 f03d 0896 853e 5678 3fbe
00000020: 350f 13be 5746 3b3e 7546 2f3e 172b 11bd
00000030: f632 163e 38f1 883e b884 4a3e 31f3 88be
00000040: 952d 9ebe 4ace 87be 15fb 69be 2dfa 21be
00000050: 88ca 113d fa14 82be 120f 1cbe e609 13bd
00000060: ea2f 07b8 cb53 13be c46a dabd 199b ef3d
00000070: fde9 f13b 912e 5abe d4d3 153c 271b 453e
00000080: ff11 08be 1e3a bf3c 1d6d 143e 548a a4bd
00000090: 5595 073e 05a9 afbd 2818 ce3d e190 df3d
000000a0: 9650 e0bb c09e 1d3e f2d4 b6bd 5233 3fbd
000000b0: c583 bebd e874 75be 4a70 4ebc 8227 7f3e
000000c0: 0351 ab3d 1c89 883d b25c d6bd 1959 4ebe
000000d0: 73ef f1bc a895 0d3e 7bfb d7bd 66f9 33be
000000e0: 629e b33d b1fb b5bd b2d3 74be afa2 f5bd
000000f0: 1deb 5f3e 8d28 6a3d ace9 95be e09c f63d
0.19078659 -0.17491744 0.08134242 -0.007418819 0.20783989 0.11737668 0.26091027 -0.18698248
-0.1436127 0.18288551 0.17116721 -0.035441484 0.14667878 0.26746535 0.1977719 -0.2674804
-0.3089415 -0.26524574 -0.22849686 -0.1581809 0.03559354 -0.2540663 -0.15240124 -0.03589811
-3.223113e-05 -0.14387433 -0.10664895 0.116995044 0.00738263 -0.21306826 0.009144742 0.19248639
-0.13288115 0.023343142 0.14494748 -0.080341965 0.1324056 -0.0857716 0.10063201 0.10916305
-0.006845544 0.1539259 -0.08927335 -0.046679802 -0.09302477 -0.23970377 -0.012600014 0.24917415
0.08365061 0.066667765 -0.10466899 -0.20151176 -0.029533124 0.1382662 -0.10546013 -0.17575607
0.087704435 -0.08885897 -0.2390888 -0.1199392 0.21867032 0.05716758 -0.2927984 0.1204164

cfc_model.rnn_cell.A f4 [1, 64]
00000000: fedd 2d3e 3893 d4bc c160 81be 045a 8abe
00000010: 0cac 65be 20fe 1ebe f67a 92be 96f1 873e
00000020: fb1f 8b3e df76 86be 6893 04be 3428 5f3d
00000030: bfd0 563e b5d3 abbc 8474 29be 1116 0ebd
00000040: 0fa0 d7bd 95ac 5a3e c403 f6bd ea6d 653e
00000050: cf99 f9bd 0ea2 253e 5cab 153e a6fb 563e
00000060: 06dd 783e e8c0 8bbe ec19 eb3d 4e4a 51be
00000070: 6cc1 da3d ae04 9abd 21d9 15be 88b4 10be
00000080: a647 49be 45b0 5a3e 109e 203e 0546 b73d
00000090: a19e f7bd 3923 4e3e d751 a9bc 12ee 8c3e
000000a0: 9ce4 643e 1937 ab3d 509d e9bd 78c6 4e3e
000000b0: 88e8 e8bd fa74 27be 1db4 0abe 0790 80be
000000c0: e136 b43c 621b 763e f6f6 9bbc a4b6 19be
000000d0: 3255 95be 0282 5dbe c25a 3bbe 34e8 003e
000000e0: b74a 8f3d 3bf7 8f3e 965f 983e 9430 a03d
000000f0: 14ab 93be 96e1 643e e5f0 13bd c273 9abd
0.16979215 -0.025949106 -0.2526913 -0.270218 -0.22428912 -0.15526628 -0.28609437 0.26551503
0.27172837 -0.26262566 -0.12946856 0.0544817 0.20978068 -0.020974973 -0.16548353 -0.034689013
-0.10528576 0.21354897 -0.12012437 0.2240521 -0.1218754 0.161751 0.1461615 0.20994434
0.24303064 -0.27295613 0.114795536 -0.20438501 0.106814235 -0.07520424 -0.1463361 -0.14131367
-0.19656238 0.21356304 0.15685296 0.08948902 -0.12090803 0.20130624 -0.020668907 0.27525383
0.22352833 0.083601184 -0.11406958 0.20192897 -0.11372477 -0.16353217 -0.1354527 -0.25109884
0.021998825 0.24033883 -0.019038659 -0.15011078 -0.2916656 -0.21631625 -0.1829634 0.12588578
0.069966726 0.2811831 0.29760426 0.078217655 -0.2884146 0.22351679 -0.036118407 -0.0754161

cfc_model.rnn_cell.tau_system f4 [1, 64]
00000000: bd4c 4040 86f1 b640 f505 d040 dc83 8640
00000010: 4430 2a40 7130 fe40 894b 7540 9723 ab40
00000020: 8b1f 3640 0df9 ae40 a2f3 ba40 64b9 e141
00000030: c75c d740 8848 6f40 74cd a140 db30 1940
00000040: b128 4f40 8396 be3f b20b 8c40 ce4c ca40
00000050: 88c2 e041 1be7 7b40 d8f8 d140 5bda de41
00000060: facc 9b40 946a de40 df62 3240 08c2 0841
00000070: fd73 0743 c62f 9640 5fbd d640 da3e a640
00000080: 5bbd 1940 465b 2b42 03ce 5940 1326 4741
00000090: f649 ed40 bc8a 3a41 c1fe 1e41 da91 1241
000000a0: a309 0b40 6ae4 cf40 f9e8 df40 2df2 db40
000000b0: 49ff 2b41 847f 8540 e0ba 9e42 9b6c 8040
000000c0: 9245 3f41 ffb9 0141 e4dc 1841 b7cc 9e40
000000d0: 1b2b f13f c982 8640 fd5e 8040 0e12 b640
000000e0: ff34 1640 5d8b b53f 6bd7 8540 a366 0541
000000f0: ca56 9240 85c2 3740 9794 5a40 4ddf 0441
3.0046837 5.716983 6.500727 4.203596 2.659196 7.9434133 3.8327353 5.3480945
2.8456752 5.4679017 5.8422403 28.215523 6.7300754 3.738802 5.0563297 2.393607
3.2368586 1.4889683 4.3764277 6.3218756 28.094986 3.9359806 6.5616264 27.856619
4.8687716 6.95051 2.7872846 8.547371 135.45308 4.6933317 6.7106166 5.1951723
2.4021823 42.839134 3.403199 12.446795 7.4152784 11.658871 9.937196 9.160608
2.1724632 6.4966326 6.997189 6.8733125 10.7498255 4.171816 79.36499 4.0132575
11.954485 8.107909 9.553928 4.9624896 1.884128 4.203465 4.0115952 5.689704
2.3469846 1.4183155 4.182546 8.337558 4.5730944 2.8712475 3.4153192 8.304517

cfc_model.rnn_cell.backbone.0.weight f4 [128, 68]
00000000: 8b99 543d 522c 8dbd 5e46 303e aadb 5bbd
00000010: 9ed1 863d 06be ae3d 34e9 01be d713 a03d
00000020: 5f45 50bc aaba e13d a351 633c 7cf1 da3d
00000030: 5daf 953d 4261 17be 9167 b03c fa14 24bd
00000040: 035b 373e 3dea dfbd 0f7e b2bb cf07 cc3d
00000050: 0e93 dcba 6696 b2bd 7aea 9a3d 398d c5bd
00000060: a0f4 2abe 9cb9 f0bc 7d4d fc3d a4af 923d
00000070: 1919 96bc 30e6 0e3d f49c 07be 4d73 17be
00000080: 7721 813d b102 0b3c ad45 f4bd b456 19be
00000090: c99a 1cbe 62a8 a6bb 953d 133d d8d9 133e
000000a0: 793c d4bd a6d5 8f3d 96c7 1a3d cfda 293e
000000b0: 9d44 1dbd ef0a 2f3c 54da 15be eb73 1bbe
000000c0: 3c87 493b 474a f4bd daf5 09be 2de8 933c
000000d0: 76ad 3c3d 21f6 de3d 6414 df3c cbd2 e83d
000000e0: 32ab 183e c184 dcbd a16c edbc 77f7 ccbd
000000f0: f11b 28bc 229c 333e 6138 1c3e 76de c83c
00000100: c1e6 febd 60ff 09bc a47c bb3d 188f e53d
00000110: f910 ffbd 4ea6 4a3d 2528 a7bc 84ef d1bc
00000120: df24 1fbe c560 c13c 9f6f 963d dd57 073e
00000130: 042d 113e 2493 3abd 6721 a6bd 1e6b 293d
00000140: eb31 ad3d 7bc5 01bb a62b 47bd 7622 a63c
00000150: a7a7 26be f700 09be b0d0 13bb 0241 de3d
00000160: 7bc4 1dbe 91fb 0cbd a39d 10be 0daf c03b
00000170: bfe8 48bd fc25 e1bd 7a58 36bd ddb1 1c3e
00000180: 6569 c2bd 678b fabd 125a f43d cccd d43d
00000190: 4eb9 973d 3ac7 1ebe 0116 98bc 6dc8 29be
000001a0: f854 f53d 9d0e 3abe 84da fa3d dd87 70bd
000001b0: 2f63 333e 1e12 be3d fceb f33c f712 1fbd
000001c0: d377 903d 6d21 e3bc 4ba1 393e c620 243e
000001d0: 7d0b 96bd 42d7 1d3e 4f0b 113d 249d bdbd
000001e0: 59a1 323d ca91 ff3d d440 323e 18ab 213c
000001f0: 76ec 123e c515 5fbd 59c3 f63d eacc 00be
00000200: 3ffc 01be a980 85bd 1b84 073e ad24 1ebe
00000210: ed17 e7bd b3ce 78bd f610 5e3d 6ecd 153d
00000220: 0345 0abe dbc8 15bd c09b 19be 2c2d 1fbe
00000230: c204 053e 4743 aa3b a86b 053e adf6 8fbd
00000240: 2e77 72bc b266 b6bd c830 1b3e a17f c7bd
00000250: 0d1e 173d c0bd 163e 3ec8 0d3d 4225 523c
00000260: 8292 b93d 215b d3bd 2cdc 19be 3407 eebc
00000270: 22f7 5dbd 231b b2bd 1d01 21be 14e4 be3c
00000280: ef8c 7ebd 180c 1a3e c00c 713d ba99 213e
00000290: 2f5f 0d3e 09d4 353d 3c97 f4bc 17bc c2bd
000002a0: 2a2a b0bd 5285 1cbe 8159 e13d 6361 c6bd
000002b0: 5338 6cbc d241 a53c e9e7 cd3d c52a 243e
000002c0: 56ea e1bc 6b07 cbbd 951a 053e aaeb bf3d
000002d0: df44 153e 5205 263e 29b9 25bd e11a 24be
000002e0: 606f c6bc d1a9 083e 631d 223e 69cb a73d
000002f0: 4358 173e 4925 063e 028a 413c 4297 113d
00000300: 2bba 4abc 2a11 28be 776e 46bd 3e11 163d
00000310: ca0f 133e d294 b73d e390 67bd 3d2b 163d
00000320: 819f dabd d151 fd3d 57a5 98bc ba64 18be
00000330: 0b23 18be ab46 72bd 3ec9 fd3d 7a90 a2bd
00000340: f0ec 1d3e 9079 083e d2f6 f6bd e285 e83d
00000350: 43f8 db3d 4830 613d 8a47 9bbd 164b eebc
00000360: 1e1e a93c 21a1 d73d f2f5 eabd 7793 b53d
00000370: acd8 2e3d 55c4 143e 83d5 183e e511 643c
00000380: b1ab 00be 57aa 7cbd e403 ddbd 2e9b 3a3e
00000390: 4969 a3bd b6cd 01be 91e4 2b3e f805 e7bc
000003a0: 6384 683d f293 5a3d 8c9a c93d 1cce 62bd
000003b0: d463 b5bc 4c9f 503d 1378 40bd e790 1c3e
000003c0: 9f3a 73bd 0f5c 21be 1591 0fbe 1c24 ddbd
000003d0: dc39 363d b3d2 c9bd 6a12 2b3e 88ba 2c3e
000003e0: 4d49 993c 5f9d 48b9 162e 01be ccbe 2a3e
000003f0: ab3a bb3d 7334 c6bd 2da3 3fbc ba9c 2cbe
0.051904242 -0.06893219 0.17214343 -0.053676285 0.0658295 0.08532338 -0.12686616 0.07816284
-0.012711852 0.110219315 0.013874444 0.10690591 0.073088385 -0.14783195 0.02153376 -0.040059067
0.17905812 -0.10933349 -0.0054471563 0.09962427 -0.0016828494 -0.087200925 0.07564254 -0.09646077
-0.1669488 -0.02938538 0.12319467 0.07162407 -0.018322514 0.034887493 -0.13243467 -0.14790078
0.06305211 0.008484528 -0.11927352 -0.14974481 -0.15293421 -0.0050859908 0.0359474 0.1443857
-0.10363097 0.07023172 0.037787996 0.16587375 -0.038395513 0.010683759 -0.14634067 -0.15180938
0.0030750772 -0.1192823 -0.13472691 0.018055046 0.046063863 0.10886789 0.027231403 0.113683306
0.14909056 -0.10767508 -0.028982462 -0.10008138 -0.010260568 0.17540029 0.15255882 0.02452014
-0.124463566 -0.008422703 0.09154633 0.112089336 -0.12454409 0.049475007 -0.020404885 -0.025626905
-0.15541409 0.023605714 0.07345509 0.13217111 0.14177328 -0.04555048 -0.0811184 0.04136192
0.08456787 -0.0019801545 -0.04862561 0.020280104 -0.16274892 -0.13379274 -0.0022554807 0.10852243
-0.15406983 -0.0344196 -0.14122634 0.0058802427 -0.04905009 -0.10993573 -0.04451797 0.15302224
-0.09492759 -0.1223362 0.11931242 0.10390815 0.07408391 -0.15505686 -0.01856518 -0.16580363
0.11979097 -0.18169637 0.1224871 -0.05872332 0.17518304 0.09280799 0.029775612 -0.038836446
0.07054105 -0.0277259 0.18127935 0.16028127 -0.0732641 0.15414146 0.035411175 -0.09258488
0.043610904 0.12478979 0.17407542 0.009867452 0.14348015 -0.05446412 0.12048978 -0.12578169
-0.1269388 -0.065186806 0.13233988 -0.15443678 -0.1128386 -0.060744 0.054215394 0.036572866
-0.13502888 -0.036568504 -0.1500082 -0.15544575 0.12990096 0.0051960084 0.13029349 -0.070294715
-0.014798922 -0.08906306 0.15155327 -0.0974114 0.036893893 0.14720821 0.034614794 0.012826266
0.09061147 -0.10320116 -0.15025395 -0.02905617 -0.054190762 -0.08696582 -0.15723081 0.023302115
-0.062146123 0.15043676 0.05885005 0.15781298 0.13805841 0.044391666 -0.02985727 -0.095085315
-0.08601792 -0.15285233 0.110034 -0.09686544 -0.014417726 0.020172987 0.10053999 0.1603194
-0.02757756 -0.09913524 0.12998421 0.09371121 0.14577053 0.16212967 -0.040459786 -0.16025878
-0.02422303 0.1334603 0.15831523 0.08193094 0.14779763 0.1310016 0.011812689 0.03554464
-0.012373487 -0.16412798 -0.04844519 0.036637537 0.14361492 0.08963932 -0.05653466 0.03666233
-0.10674954 0.12369121 -0.018633528 -0.14882174 -0.14857118 -0.059149425 0.123918995 -0.07937713
0.15422416 0.13327622 -0.12058796 0.11353661 0.107407115 0.054977685 -0.07582004 -0.029088538
0.020644244 0.1052878 -0.114726916 0.08866017 0.042687103 0.1452802 0.14925198 0.013920282
-0.12565495 -0.061685886 -0.10791758 0.18223259 -0.07979066 -0.12676129 0.1678641 -0.028201088
0.05676688 0.053363748 0.098439306 -0.055372342 -0.022142328 0.050933167 -0.04698951 0.15289651
-0.059382077 -0.15757774 -0.14020188 -0.10797903 0.044488773 -0.09854641 0.16706243 0.16868031
0.01871171 -0.00019132112 -0.12615237 0.16674346 0.091420494 -0.09677973 -0.011696619 -0.16856661

cfc_model.rnn_cell.backbone.0.bias f4 [128]
00000000: 913a 9d3d a486 f2bc 271b b93d 3c0a 5cbc
00000010: b302 b1bb 282f 75bd 1db7 86bd 9f7e d0bc
00000020: 0ad6 f53d 1402 d33c f840 60bc 0834 a2bd
00000030: 8769 6ebd 21b5 a83d 5500 1e3d 8a56 483d
00000040: 455f a2bd a44e 973d 78c7 2f3d 1b50 ae3d
00000050: a1da b9bd 6a5d 9b3d 3afd cfbd ab7c 823d
00000060: e218 fbbd ad31 773c 6139 acbc ad95 933d
00000070: 877a 7abd 1be3 a7bd 7ae9 35bd 7acd b53d
00000080: 684d e83d a9c3 cc3d 6986 cf3d f92f 01be
00000090: f1cf e8bd df66 953d f3ca f73c 82d5 883c
000000a0: 3096 f93d 2736 633d 13b3 98bd bf03 593d
000000b0: 0df9 b3bd b47f 6a3b c4cd 9f3d 47c2 723d
000000c0: 9bf5 0ebd ac58 9d3c 20ea e2bd 005a d2bc
000000d0: a033 bebd 2f65 e03d 78ec be3d b6c4 893d
000000e0: bf88 063a 24c3 a63c 0b90 7e3d 4ede 443d
000000f0: 5614 5abd 21ac 863c a799 703d d4ba 75bd
00000100: ddf2 f8bd 2263 de3d 6a14 17bd 8172 1cbc
00000110: 19dd a63d 29cd d5bd f16f cebd 21d8 43bd
00000120: adfa 8abd 18ac dc3c 8a31 8a3d efe9 00be
00000130: 964b ef3d 3e9f df3b 634d dd3d e177 f73d
00000140: 4913 e4bd 21bb c23d c1c3 633c 21a0 f93d
00000150: 9fb8 7bbd cc20 ec3b b11a e23b 2fd9 813d
00000160: b3f8 e9bc 1e18 cb3c 04a1 ac3d 742f a03c
00000170: 4072 9abd 95e2 a4bd d0b3 7f3d 498a c63d
00000180: 698f eabd 529a 073d fe0e d53d c37d fabd
00000190: 60bc b3ba 5b7c b53d 534c 7abd 3885 9bbd
000001a0: 12a5 763d 49f8 e33d 8a2e c5bd 1547 8dbd
000001b0: 5c69 a83c 474f 163c 1b05 ba3d 6e98 2abc
000001c0: ec84 e9bd a4f1 96bd 8c19 913d 83c5 cebd
000001d0: 497e 963d 8d9f 0f3d 04ee 573d b056 e03d
000001e0: c1f4 8b3d 7a31 463d 944d bf3d a30d 9c3d
000001f0: 10fd cbbd cf83 92bd f093 76bd 07a9 b7bd
0.07677186 -0.029605217 0.09038382 -0.013430174 -0.005401933 -0.059859425 -0.06577895 -0.025451003
0.12003715 0.025757827 -0.013687365 -0.079200804 -0.058206107 0.082376726 0.038574535 0.048910655
-0.079283275 0.073880464 0.042914838 0.08511373 -0.09074903 0.07586177 -0.10155721 0.06371435
-0.122606054 0.015087527 -0.021023454 0.07206283 -0.061152007 -0.08197614 -0.044412114 0.08877082
0.11342889 0.09998257 0.101330586 -0.12615956 -0.11367787 0.07295012 0.03024814 0.016703371
0.12186849 0.055471566 -0.07456031 0.05298209 -0.08787737 0.0035781683 0.078029186 0.05926731
-0.034902196 0.019207321 -0.11079812 -0.025677681 -0.092871904 0.10956799 0.093224466 0.06726973
0.0005132071 0.020356722 0.06214909 0.04806357 -0.05324205 0.0164395 0.058740284 -0.059992626
-0.121556975 0.10858752 -0.036884703 -0.009548784 0.0814764 -0.10439522 -0.10079945 -0.04781354
-0.06786094 0.02693753 0.0674773 -0.12589239 0.11684339 0.006824403 0.10805776 0.12083412
-0.11136491 0.09508348 0.013901652 0.12188745 -0.061455365 0.007206058 0.0069001545 0.063402526
-0.028560972 0.024791773 0.08429149 0.019553877 -0.07541323 -0.080510296 0.062427342 0.096943446
-0.114531346 0.033106156 0.1040325 -0.122310184 -0.0013712756 0.088616095 -0.061107945 -0.07593769
0.060216017 0.11131341 -0.09628017 -0.068983234 0.020558052 0.009174175 0.09083005 -0.010412319
-0.11402306 -0.07370308 0.07084951 -0.10096266 0.07348306 0.03506427 0.052717224 0.10954034
0.068337925 0.04838703 0.09340969 0.076197885 -0.09960377 -0.07154047 -0.060199678 -0.08967786

cfc_model.rnn_cell.ff1.weight f4 [64, 128]
00000000: 7e1e b1bc b7ac 6b3d 56a4 00be d258 243c
00000010: 91b8 153e 5935 af3d a140 16bd 7dc7 073e
00000020: 4a4a a8bd 0e02 9cbd 2efa 03be 86c7 f83d
00000030: a105 ccbd 7dc0 00be 1c39 a63d 0edf 193e
00000040: 9689 333e 09b8 19be 78fa 523d 27ed 0fbe
00000050: 4420 273e 9b7b c23d 76b9 ecbd efa3 11bb
00000060: e241 373e a9e5 ef3d 93a5 e1bd d0dd 3f3c
00000070: 7431 243d a20c 3f3c 53a2 123e 2ed4 91bd
00000080: 2ef6 323e 651f c8bd ecbd 17bd a16a 243e
00000090: 2911 30bd 5349 173e c2bf 06be 0cdf dc3c
000000a0: 0cb1 23be 324b e83d 9f0f 0f3e 8b62 0fbd
000000b0: b595 25be 85dc 8a3d 1dc7 8ebd 181c ed3c
000000c0: cf84 a7bd 7593 6abc db10 11be 4ee1 98bd
000000d0: f10c 093d 6017 03be 9ce2 153e 62a7 923c
000000e0: c477 313b 462d 67bb 38f2 e9bd 0442 023e
000000f0: 804c e4bd 02c5 eabd 122e 0f3e 95ec f13d
00000100: 73f4 323e 2f49 413d e952 8cbd 12f9 10be
00000110: a610 1dbe e417 b83c e616 25be ac83 2d3d
00000120: 9222 0fbe f517 2d3d e873 41bd 11db 0c3d
00000130: f8db b83d db5c e9bd 23a7 033d 2707 093e
00000140: df2b 333e b8a2 84bc d9a3 ad3d ea85 0f3e
00000150: cf46 2f3d 4dec dcbd 3e60 803d 23eb c83d
00000160: 6a46 2bbe bf03 383e 258c d2bc f468 4ebc
00000170: 7a0d 9bbd 1c4b 743b f42c 74bd 36f4 8cbc
00000180: 8edd 043c d77d 463d a12d cabd d1f2 f5bc
00000190: ccb7 f1bd b95a 8ebc cb65 0a3e 2db0 973d
000001a0: e088 2c3e 0730 fabc 19a3 12bd d9eb d93d
000001b0: b7d0 ac3d 41f5 0b3e 339c 2dbd fb30 07be
000001c0: e063 93bd c30a fbbb 70e8 353e 8e43 2a3e
000001d0: 1815 99bd fcec 57bd d880 0dbe ad9b acbd
000001e0: 63d5 3abe 1e47 823d bd3b 283e 6f95 12be
000001f0: 0685 2abe 0a1a 0f3d d65d 3fbc f805 e9bd
00000200: 1ab7 23be 6b5e 0e3e 80f5 29be 26d0 163e
00000210: 7019 02be 87a8 d43d 96a0 acbd a3ae 17be
00000220: baed f8bd c8e2 2e3e 7a54 7d3d 27fe 05bd
00000230: 3b04 b7bd 9a69 d73c a1fe 2f3e 5b3c a33d
00000240: 73ef f33d 7a0a 033e b299 1cbe 549a 073d
00000250: 0a3b bdbd 5627 10be 11a7 6abc be1f 233d
00000260: be50 5ebd 3980 d13d 568c b63d 3ec2 9bbc
00000270: fa43 babd 00fa 1b3e 3755 96bd d8e8 c23d
00000280: afcb 6b3d be59 153e 603a 2f3e a244 303e
00000290: 34db fc3d f5b8 dbbd ff40 7f3d 7c6e 063e
000002a0: 36ef 5dbd abc0 08be 3dd0 103e 9eba 193e
000002b0: c15e 2b3d 25ab ae3d cfc9 9b3d 328e 683d
000002c0: 4230 bbbd 3d30 a63d bf98 a1bd d6b0 2c3e
000002d0: b777 62bd c5e9 8dbc e6fe e6bd 25b0 a5bc
000002e0: 7373 57bc ee7c 003e 9f50 cabd 8e42 ffbd
000002f0: 1677 95bd 714e febd 4bb4 18be 6d2a debd
00000300: 4a1d d43c 922e 013e f156 d93d b64c cd3d
00000310: 7fab 3d3d 84b8 d53d 3f11 573d f661 1abe
00000320: be8e 1bbe 3037 6dbd a706 8a3d 9433 7fbc
00000330: 85ff 003c 12aa e03d d7ce 103e a81b 02be
00000340: 8cab a0bc 39a1 a5bd 0994 d8bd bf8c 813d
00000350: db5f 9abd d0da fc3c 3c25 8d3d df88 2b3d
00000360: a18a f2bd 27d3 0c3e 1403 b93d c0e4 46bd
00000370: d131 29be c1d4 7d3d fe55 edbd a7b0 e5bd
00000380: 5c47 08bd aa91 a03d 579f 8abc 96bd 1f3d
00000390: a3fe 093e 29e2 13bd 8520 103d b872 1ebe
000003a0: 11fc 2f3d 1138 233e 2ca4 033e 2c68 11bd
000003b0: 6514 e93d 0565 9c3d 9bbc 083d 360a 69bd
000003c0: 0d00 c73b a9c6 1abe 42ab 0bbe 5df7 2bbe
000003d0: 1b78 a8bd 15e8 b5bd c3cb 0fbe fade c73c
000003e0: 0fdd d4bd b80d fabd 35ce e8bd 6e20 193e
000003f0: 04fe 843c d4d4 7d3d f2d8 fc3c d73f 4ebd
-0.021620985 0.05753776 -0.12562689 0.010030942 0.14621188 0.08555097 -0.03668273 0.13259692
-0.082172945 -0.076175794 -0.12888405 0.12147431 -0.09962011 -0.12573428 0.081163615 0.15026495
0.17532954 -0.1501161 0.051508397 -0.1405531 0.16320902 0.09496232 -0.11558811 -0.0022222956
0.17896226 0.11713726 -0.11017909 0.011710599 0.040086225 0.011660727 0.14319734 -0.07120548
0.17476723 -0.09771613 -0.037046358 0.160563 -0.042985115 0.14774065 -0.13159087 0.026961826
-0.15985507 0.11342467 0.13970803 -0.035006087 -0.1617039 0.06780342 -0.069715716 0.02894406
-0.08179628 -0.014317383 -0.14166586 -0.074648485 0.033459608 -0.12801886 0.14637226 0.01790208
0.0027079443 -0.0035274788 -0.11423153 0.12720495 -0.11147404 -0.114633575 0.13982418 0.118127026
0.17476062 0.047188934 -0.06851751 -0.14157513 -0.15338382 0.02247233 -0.16122016 0.0423619
-0.13978031 0.042259175 -0.047229677 0.034388606 0.09026331 -0.11394664 0.032141816 0.13381635
0.17497204 -0.016190872 0.08478517 0.14015928 0.042792138 -0.10787258 0.06268357 0.09810474
-0.1672608 0.17970179 -0.025701592 -0.012598265 -0.0757093 0.0037276214 -0.059613183 -0.017206293
0.008109463 0.048459854 -0.09871984 -0.03002301 -0.118026346 -0.017377244 0.13515393 0.0740665
0.16849089 -0.03054048 -0.035800073 0.106406875 0.08438247 0.13667776 -0.04238529 -0.13202278
-0.07196784 -0.007661195 0.17764449 0.16627333 -0.074747264 -0.05271624 -0.13818681 -0.0842813
-0.18245463 0.06361221 0.16429038 -0.14314817 -0.16652307 0.034936942 -0.011680087 -0.113780916
-0.15987816 0.13903205 -0.16597557 0.1472784 -0.12705016 0.103837065 -0.08429067 -0.14812712
-0.12154718 0.17078698 0.06184814 -0.03271308 -0.08936354 0.026295472 0.17186977 0.07970496
0.11910906 0.12796965 -0.15293005 0.033106163 -0.092397764 -0.14077505 -0.014322058 0.039825194
-0.05427622 0.10229535 0.08913486 -0.01901352 -0.09094997 0.15232086 -0.07340472 0.09517068
0.057567295 0.14585015 0.17112112 0.17213681 0.12346497 -0.10728637 0.062317844 0.13128084
-0.054183207 -0.13354747 0.14141937 0.15012595 0.04183841 0.08528737 0.07606851 0.056776233
-0.09140064 0.081146695 -0.07890462 0.16864333 -0.05528995 -0.017323384 -0.11279087 -0.020225594
-0.013150084 0.12547657 -0.098786585 -0.12463866 -0.072981045 -0.12417305 -0.14912526 -0.10847936
0.025892872 0.12615421 0.10612286 0.10024397 0.04630613 0.10435584 0.05250668 -0.15076432
-0.1519117 -0.05791396 0.0673955 -0.015576262 0.007873421 0.10969938 0.14141403 -0.12705863
-0.01961305 -0.080873914 -0.105751105 0.06325673 -0.07537814 0.030866057 0.068918675 0.041878577
-0.118428476 0.13752423 0.0903379 -0.048557997 -0.1652291 0.061970476 -0.11588667 -0.112153344
-0.03327118 0.07840283 -0.016921682 0.038999163 0.13476042 -0.036104355 0.035187263 -0.15473449
0.042965 0.15939356 0.12855595 -0.035499737 0.11380843 0.076364554 0.033382993 -0.056894504
0.006073004 -0.15114845 -0.13639548 -0.1679358 -0.08226033 -0.08882157 -0.14042573 0.024398316
-0.10393726 -0.12209648 -0.11367456 0.14953777 0.016234405 0.061970547 0.030865166 -0.05035385

cfc_model.rnn_cell.ff1.bias f4 [64]
00000000: 7571 743d acf4 92bd d173 943d 2ed5 0b3d
00000010: f8eb fc3a f8c9 c83c d9d5 01bd c24e dbbc
00000020: d910 6ebd 95e3 a7bd a696 393c 141f 8f3d
00000030: 4372 c3bd 804a 27bd 6f19 cd3b 421f ba3d
00000040: 5bee 5e3d 94e3 903d 52c3 b7bc 89da 353c
00000050: 71e9 f8bc a35e 553d fc95 983d db9e 01bc
00000060: 29d5 8dbc e92f c6ba 82a9 963d 2a73 9bbd
00000070: 62a2 253d 2f13 843d 2f18 dd3c 2b82 5a3d
00000080: 7bec 34bd 7734 113d 3bd3 5bbd 3a49 bfbc
00000090: 6c38 663c edcd a6bc 3854 be3d d643 f43c
000000a0: 1772 dfbc 5343 f13b 1212 b9bd 212c 5abd
000000b0: 4977 47bd 7bf1 3bbd aa1f a63d 0aba 073d
000000c0: 0038 703d d4b8 673d 707b d13c 8dfb acbd
000000d0: bfc9 13bd 0fdb b03d 4405 623d ce49 86bd
000000e0: e25d 8d3c 2e78 863d 50bc 19bc 8210 793c
000000f0: 165a 26bd 900c c03a fe76 a1bd 2213 ee3c
0.059678514 -0.07175574 0.07248653 0.03413885 0.0019296398 0.024510369 -0.03169808 -0.026770953
-0.058121536 -0.08197705 0.011327421 0.069883496 -0.09543278 -0.040842533 0.0062591354 0.09087993
0.054426532 0.07074657 -0.022432003 0.011099466 -0.030384751 0.052092206 0.07450482 -0.007911409
-0.017313557 -0.001512048 0.0735655 -0.07590325 0.040438063 0.064489715 0.02698907 0.053346794
-0.044170838 0.035450425 -0.053668242 -0.023350347 0.014051538 -0.020361865 0.09293407 0.029817503
-0.027276082 0.007362762 -0.0903665 -0.05326474 -0.048697744 -0.04588459 0.08111508 0.033136405
0.058647156 0.05657275 0.025571555 -0.08446417 -0.036081072 0.08635532 0.055180803 -0.06557046
0.01725668 0.06565891 -0.009383276 0.01520169 -0.040613256 0.0014652181 -0.07884024 0.029061858

h2o.weight f4 [2, 64]
00000000: 6b3b f33c d46b 283d 1f54 cbbd 224b 2fbb
00000010: fa30 f43c 67fc bc3d 637d a7bd 23f5 b5bd
00000020: 3cb2 d83d ac65 663d e731 92bd 05fb b3bd
00000030: 9f21 d6bc 46d8 463c 58bc 873d b2bc e4bd
00000040: 36c4 1a3d 0115 8a3d e13b 2cbd 35c9 2abd
00000050: 2e5d 84bd 2d29 d0bd 57be de3c c273 653d
00000060: f83d 68bd 6c72 cfbd 605d f2bd 4531 fd3d
00000070: f8bb 92bc 97c8 8cbd 6184 0b3d cfae a5bd
00000080: 3258 c33d ac0e 01be 3311 d93d 4579 3bbd
00000090: 0c98 4ebd cf9d a1bd 15e6 92bc 7657 0e3d
000000a0: 5b07 6cbd caec ca3d 9fca 683d 19fe 573d
000000b0: b866 4ebd 8d76 f33d 4d57 59bd 6abe 46bb
000000c0: 00d7 55bd 8c87 bc3d 77e8 7bbd 2da5 28bc
000000d0: a906 1abd c2b1 99bd 0dc3 dfbd 3f62 d5bd
000000e0: ded0 c3bd 8f5c 913d 2eee eb3d b256 ec3d
000000f0: 4acb 213d d4bb 9f3d d6b1 043d dabb 9a3c
00000100: a53c df3c f479 b13d 4345 e53d 28a1 d7bd
00000110: 0124 e8bd c709 893d b5ea 20bc 3b8c 72bd
00000120: 83eb 133d 2c52 003d 0e8b 123d 67f1 833d
00000130: 2095 debc 24e7 c83d dd09 f53c 3e41 8c3d
00000140: 0cda 893d 35bb b93d be6d 01be 5caa ffbc
00000150: cea2 b6bd f9bf 05bd 0d21 50bd 7b68 afbd
00000160: c003 b6bc 5d24 863d 5010 a2bd 3b67 b13d
00000170: 0b65 753d eb56 b6bd 082f 68bd dff5 4e3c
00000180: ae71 a8bd fb1c 42bd d954 36bb 4cdb 84bd
00000190: a457 383d ac5d 5ebd ea85 a73d 0d70 51bd
000001a0: 783c c0bc 45c3 303c 42e8 fabd a7c9 da3d
000001b0: 8542 cbbd a1a4 c8bd f59c 4e3d 974e 913d
000001c0: 20a0 c7bd a082 f2bd 2973 e2bd ef10 c238
000001d0: 6e32 24bc 09d3 d1bc 93ee 253d e6d0 823d
000001e0: 05e5 5ebc 9e65 efbd 7447 dcbd f811 f23d
000001f0: 1365 9cbd f200 50bd 350b 8b3d 37a3 b23d
0.029691419 0.041118458 -0.09928154 -0.0026747664 0.02980851 0.092278294 -0.081782125 -0.08884647
0.105808705 0.056249306 -0.07138424 -0.087881126 -0.026139079 0.012136525 0.066277206 -0.11168803
0.037784778 0.067422874 -0.042049292 -0.041695792 -0.06463085 -0.10164104 0.02719037 0.0560186
-0.056699723 -0.10129246 -0.11834216 0.12362913 -0.017911896 -0.06874197 0.034061793 -0.08089983
0.09538306 -0.12603253 0.105989836 -0.04576995 -0.050437972 -0.07891428 -0.017931977 0.034751378
-0.057624202 0.09908445 0.05683386 0.05273256 -0.05039093 0.11887846 -0.053061772 -0.0030325898
-0.052206993 0.09205541 -0.061500993 -0.010293287 -0.037604008 -0.07504608 -0.10925875 -0.104191296
-0.09561323 0.07097732 0.115200385 0.11539973 0.039500512 0.07799497 0.03239616 0.018888403
0.027250597 0.08665839 0.11194851 -0.10528785 -0.11334992 0.06691318 -0.0098215835 -0.059215765
0.036113273 0.031328365 0.035777144 0.06442528 -0.027170718 0.098097116 0.02991193 0.068483815
0.06731042 0.0906891 -0.1263952 -0.031209163 -0.08917771 -0.032653783 -0.05081277 -0.0856485
-0.022218585 0.065499045 -0.079132676 0.08662268 0.059910815 -0.08903297 -0.056685477 0.012631862
-0.08224808 -0.04739092 -0.002782157 -0.0648714 0.045005456 -0.05428855 0.08179839 -0.05113225
-0.023466334 0.010788743 -0.12251331 0.106829934 -0.09924797 -0.097970255 0.050442655 0.07095068
-0.09747338 -0.11841321 -0.11057121 9.253795e-05 -0.010021789 -0.025613325 0.040510725 0.063875005
-0.013604407 -0.11689304 -0.10755816 0.118198335 -0.07636466 -0.05078215 0.06789247 0.08722537

h2o.bias f4 [2]
00000000: c54f a73c 0ad0 e8bd
0.02042378 -0.11367805

h2v.weight f4 [1, 64]
00000000: 1c42 b33d 1656 8f3d 8872 ec3c 5809 8abd
00000010: 1885 8d3c 62b1 8d3d f480 cfbd e8cd 83bc
00000020: ac26 163d 40a2 dbbb 0094 d53c b81c c73c
00000030: 5a99 bdbd 763f a2bd 0057 6abd e893 32bd
00000040: 58ea 1b3d 7055 dd3c 2293 bdbd 2092 6f3d
00000050: e05e 623c 982d f73d acd4 0ebd 3c0f a6bd
00000060: 401b f9bc 30d0 26bc 20d3 97bd c47e e73d
00000070: e06d 673c c8b4 bfbc 8c0c e03d 3056 b0bd
00000080: 904d 943d d475 77bd 78d9 363d 8ce5 c1bd
00000090: 806b ac3a 90fe a93d 5c89 4cbd be42 b23d
000000a0: d49c 91bd 105d 6a3c 6893 bf3c 504b 2ebc
000000b0: 405e 083d 3037 93bd 783f a5bc 3c97 533d
000000c0: 8c7d 99bd d86c 5a3d 901c febc 702e 8c3d
000000d0: e836 a7bc a0fc e33c 0842 1ebd 40bf 4f3c
000000e0: 8a99 f6bd c0ff 4c3c 106f 3cbc 9c6f 3f3d
000000f0: 2a4b e5bd 0697 ccbd 26f8 93bd 38e5 7cbd
0.08752844 0.069988415 0.028863207 -0.067400634 0.017275378 0.06918599 -0.10132018 -0.016089395
0.036657974 -0.0067026913 0.026071548 0.024305686 -0.09257765 -0.079222605 -0.057211876 -0.043598086
0.038065284 0.027018279 -0.09256579 0.058488965 0.013816565 0.12069243 -0.03487079 -0.081083745
-0.030408502 -0.010181472 -0.07413316 0.113034755 0.014125317 -0.023401633 0.10939893 -0.08610189
0.072413564 -0.060415104 0.044640988 -0.09467611 0.0013154596 0.08300507 -0.049935684 0.08704136
-0.07109991 0.014304414 0.023385718 -0.010638073 0.03329301 -0.071882606 -0.020171866 0.0516579
-0.07494649 0.053326458 -0.031019479 0.06844795 -0.020411924 0.027830422 -0.03863719 0.012679875
-0.12041004 0.012512147 -0.011501089 0.0467373 -0.11195977 -0.09989743 -0.07225065 -0.061742038
