LTC_A2C/adaptation_module/training_results/adaptation_module_StandardRNN_result_24_2024321_CfC_result_296_202437_numneuronsadaptmod_48_lradaptmod_0.0001_wdadaptmod_0.0/best_adaptation_module_loss_CfC_A2C_4.pt (torch, 19828 bytes, 6 tensors)

rnn.weight_ih_l0 f4 [48, 5]
0	0x3daaf117	0.083467655
1	0xbdda00c7	-0.106446795
2	0x3dd67346	0.104712054
3	0x3d7143bb	0.058902483
4	0x3dbb2d62	0.091395155
5	0xbdfb4aa1	-0.12270094
6	0xbdd4e311	-0.10394872
7	0x3d57efc7	0.052718904
8	0xbe299074	-0.1655901
9	0x3decd03e	0.115631565
10	0x3d158b1d	0.036509622
11	0x3ccafb2c	0.024777971
12	0xbde2c0ae	-0.11071907
13	0x3d6dc39d	0.05804788
14	0x3daf2ef2	0.08553876
15	0x3d0c147c	0.034199223
16	0x3e177388	0.14790165
17	0x3d77ef72	0.060531087
18	0xbdcc57d7	-0.099776916
19	0x3e172884	0.14761549
20	0x3d305213	0.043047022
21	0xbd86bdd9	-0.06579179
22	0xbe09d7b3	-0.13461189
23	0x3d4a1e28	0.049345165
24	0x3dfc6a72	0.1232499
25	0xbdec25ec	-0.115306705
26	0x3c418130	0.011810586
27	0x3d362acd	0.04447441
28	0xbdc774f1	-0.09739102
29	0xbd4915e8	-0.049093157
30	0xbddd2503	-0.10798075
31	0xbd9fc397	-0.07800978
32	0xbe158305	-0.14600761
33	0xbcf3c193	-0.02975539
34	0x3d81e7bb	0.06343027
35	0x3d64e766	0.05588474
36	0x3df9dc0f	0.12200176
37	0xbe129bfe	-0.14317319
38	0xbce20f7a	-0.02759527
39	0x3df05e74	0.117367655
40	0x3d11a993	0.03556211
41	0xbceabcbe	-0.028654452
42	0xbdeaaf59	-0.11459226
43	0x3d741925	0.059594292
44	0x3e06e532	0.13173369
45	0x3dde4abd	0.10854099
46	0x3de6eb3c	0.11275336
47	0x3d11a160	0.03555429
48	0x3e03dfdb	0.12878363
49	0xbc799ab3	-0.015234637
50	0x3dfee628	0.124462426
51	0xbbc5f9ee	-0.006041757
52	0xbc784fcc	-0.015155744
53	0xbd35b921	-0.044366006
54	0x3dcf3499	0.10117454
55	0x3d60750c	0.054799125
56	0x3dbf3348	0.09335953
57	0xbdaf96e6	-0.085737035
58	0xbdacace1	-0.084314115
59	0x3e193820	0.14962816
60	0xbdad916f	-0.08475005
61	0xbd9f9d04	-0.0779362
62	0xbd185dee	-0.037198953
63	0xbd9d194b	-0.0767084
64	0xbde4a241	-0.1116376
65	0x3de0f7d6	0.10984771
66	0x3bdbccd0	0.006707765
67	0x3d58c96b	0.052926462
68	0x3dbef3d9	0.09323854
69	0xbde59467	-0.11209946
70	0x3df779e3	0.12083795
71	0xbd75db9f	-0.0600239
72	0xbc198189	-0.0093692625
73	0x3dae9310	0.08524144
74	0x3e1aa8ed	0.15103503
75	0x3def9eb9	0.11700196
76	0x3d960edd	0.07327054
77	0x3df8035e	0.12110017
78	0xbd6f0be6	-0.058360957
79	0xbce8a413	-0.02839855
80	0xbd6ff245	-0.058580656
81	0xbc96fdae	-0.01843151
82	0xbcf1d0b1	-0.029518457
83	0x3d488083	0.048950683
84	0x3da672ff	0.081274025
85	0xbdbff81b	-0.09373494
86	0xbd92c21b	-0.07165929
87	0xbd13a9a4	-0.036050454
88	0x3cf9daec	0.030499898
89	0xbd22ebde	-0.03977572
90	0xbda9949b	-0.08280297
91	0xbca9a869	-0.020710187
92	0xbd9aea20	-0.07564187
93	0xbcef33b0	-0.029199451
94	0xbe009e49	-0.12560381
95	0xbd486a48	-0.048929483
96	0xbd80c819	-0.062881656
97	0xbd127b65	-0.03576221
98	0x3dafa6b0	0.08576715
99	0x3d906166	0.07049827
100	0xbd6da662	-0.058020003
101	0xbe1158ef	-0.14194082
102	0xbdf1c779	-0.118056245
103	0xbdfdcaa1	-0.12392164
104	0xbd20bac1	-0.039240602
105	0xbd349717	-0.044089403
106	0xbda9e556	-0.082956955
107	0x3d2e62df	0.04257476
108	0x3c4f7b35	0.012663652
109	0xbc5e9dd6	-0.013587436
110	0xbd87b1c3	-0.06625702
111	0x3de022a5	0.10944108
112	0xbe1fb4d6	-0.15596327
113	0xbbb1e8bc	-0.0054293554
114	0x3d2f6cea	0.042828478
115	0x3db1e65d	0.086865164
116	0xbe0bd913	-0.13657026
117	0xbd21b429	-0.039478455
118	0x3dac1b94	0.084036976
119	0xbb5662e4	-0.0032712752
120	0x3d5db9fd	0.05413245
121	0xbd56351f	-0.052296754
122	0x3deb18eb	0.11479362
123	0xbd7ac414	-0.06122215
124	0xbd62a4a0	-0.05533278
125	0x3ded23e7	0.115791135
126	0x3cc5c18c	0.024140142
127	0xbc901c7d	-0.01759171
128	0xbde2e4a7	-0.11078768
129	0xbd623997	-0.055230703
130	0xbdbe5761	-0.0929401
131	0xbda5406d	-0.08068929
132	0xbc105b9b	-0.008810903
133	0x3cb8a316	0.022538703
134	0xbddd2489	-0.10797984
135	0x3e18826d	0.14893503
136	0x3de8de0d	0.11370478
137	0xbdf906a9	-0.121594734
138	0x3def5c35	0.11687509
139	0xbd8ac684	-0.06776145
140	0xbdd7b682	-0.105328575
141	0x3e121d40	0.1426897
142	0xbd3f4bd3	-0.04670317
143	0xbcae595f	-0.02128285
144	0x3d21c351	0.03949291
145	0x3db5dcd6	0.08880012
146	0x3c8ad313	0.016946351
147	0xbcc9505d	-0.024574453
148	0x3d22f6ac	0.039786026
149	0xbd52b11d	-0.05143844
150	0xbdec894a	-0.11549623
151	0x3ce01638	0.027354345
152	0xbb154c6e	-0.0022781151
153	0x3d42076f	0.04737037
154	0xbda545a5	-0.08069924
155	0xbe1ba701	-0.15200426
156	0xbd39ebe0	-0.045390964
157	0xbe1ea9c6	-0.15494451
158	0xbd2d61a3	-0.04232944
159	0x3d40efc3	0.047103655
160	0xb88e9fdf	-6.800866e-05
161	0x3d959022	0.07302882
162	0x3c52119f	0.012821584
163	0x3d132b78	0.035930127
164	0x3dddcb28	0.108297646
165	0x3ce8b232	0.028405283
166	0x3d011087	0.031509902
167	0xbd3501c8	-0.04419115
168	0x3ddb8dc3	0.10720398
169	0x3e13b1d0	0.14423299
170	0xbdaf7d55	-0.08568827
171	0x3e1ab7ee	0.15109226
172	0x3d806aaa	0.062703446
173	0x3c5b26bb	0.013375933
174	0xbdd112ac	-0.102086395
175	0xbdf9e8d7	-0.12202614
176	0xbdc6b19b	-0.09701844
177	0xbdca0614	-0.098644406
178	0xbd8a2d88	-0.06746966
179	0xbc0dcad3	-0.008654314
180	0xbddc0ffb	-0.107452355
181	0xbde03274	-0.10947123
182	0xbb6b2cd4	-0.0035884874
183	0xbdaf5100	-0.085603714
184	0x3baae6ea	0.0052155154
185	0x3d161e6f	0.036650117
186	0x3d1d5087	0.038406875
187	0x3dda19f5	0.10649482
188	0x3ddf533d	0.10904548
189	0xbd673553	-0.05644734
190	0xbd79c75a	-0.060981132
191	0xbc0f6589	-0.008752235
192	0x3ddb6e5a	0.10714407
193	0x3d36e883	0.044655334
194	0xbdd2492b	-0.10267862
195	0xbc471d4c	-0.012152981
196	0x3cf30547	0.029665602
197	0x3d75ab4e	0.059977822
198	0xbcf99dbb	-0.03047072
199	0xbddd30f1	-0.108003505
200	0xbd998996	-0.074969456
201	0x3c66acd2	0.0140792895
202	0xbda901e8	-0.08252317
203	0x3d9a4997	0.075335674
204	0x3df209d0	0.11818278
205	0xbc3edcfc	-0.0116493665
206	0x3d832f0f	0.0640546
207	0x3daf216e	0.08551298
208	0x3d99459b	0.07483979
209	0xbe24a16b	-0.16077201
210	0x3df484b9	0.11939377
211	0x3cd4eeb8	0.025992736
212	0xbe16f16b	-0.14740531
213	0x3d907c94	0.070550114
214	0xbdba219b	-0.09088441
215	0x3e134086	0.14380082
216	0x3dfcf0ad	0.12350593
217	0xbda79ba7	-0.08183985
218	0xbda1d6f0	-0.07902324
219	0x3cf72dd5	0.030173222
220	0xbcce3fbe	-0.025176879
221	0x3d970936	0.07374804
222	0xbdf1604e	-0.11785947
223	0x3de0fa88	0.10985285
224	0x3d1b4dc9	0.03791598
225	0x3c726077	0.014793507
226	0xbda23db5	-0.07921926
227	0x3cd2bbb4	0.02572427
228	0x3da3d153	0.0799891
229	0x3e29cdd1	0.16582419
230	0xbdd30788	-0.10304171
231	0xbd8fe0ba	-0.07025285
232	0x3cbf2368	0.023332313
233	0x3d9b313d	0.07577751
234	0xbdfb252a	-0.12262948
235	0xbd257ca3	-0.040402066
236	0xbdcf977d	-0.10136316
237	0x3e11326c	0.1417939
238	0xbda2b3d8	-0.07944459
239	0x3dc226b4	0.09480038

rnn.weight_hh_l0 f4 [48, 48]
0	0x3dd8c3be	0.1058421
1	0x3d1f4517	0.03888425
2	0x3b03da6d	0.0020119206
3	0x3d8d20bf	0.068910114
4	0x3c06699e	0.008203892
5	0x3ddd6243	0.108097576
6	0x3c322320	0.010872632
7	0x3d1aee72	0.037825055
8	0x3c913a9a	0.017728139
9	0xbe1f6fba	-0.15569964
10	0xbdc0e17f	-0.0941801
11	0xbe12c083	-0.1433125
12	0xbc8602e0	-0.016358793
13	0x3cc6afb4	0.024253704
14	0x3ce85358	0.028360054
15	0xbdae6a05	-0.08516315
16	0xbdbdc03c	-0.092651814
17	0x3d98d6d6	0.07462852
18	0x3c1d2f10	0.00959374
19	0xbd3aeeca	-0.045637883
20	0xbc27561b	-0.0102134
21	0x3cafc88e	0.021457937
22	0xbd8d2177	-0.068911485
23	0xbded7815	-0.115951695
24	0xbe00287f	-0.12515448
25	0x3e115a43	0.14194588
26	0x3d817552	0.06321205
27	0xbe2d9d9d	-0.16954656
28	0xbdcbe9b1	-0.099566825
29	0x3daca498	0.08429831
30	0x3e2bd774	0.16781408
31	0x3d623640	0.055227518
32	0x3de07b13	0.109609745
33	0xbb86ceff	-0.0041140313
34	0x3d749c80	0.059719563
35	0xbe088b3b	-0.13334362
36	0xbc49255e	-0.012276975
37	0xbe219ecc	-0.15783232
38	0xbde3b747	-0.11118942
39	0x3dce4686	0.10072045
40	0xbc5e31f3	-0.0135617135
41	0x3dbbf090	0.09176743
42	0xbd313564	-0.043263808
43	0xbe14d9f3	-0.14536266
44	0x3d99c1e5	0.075076856
45	0xbe26298a	-0.16226783
46	0xbde97086	-0.11398415
47	0x3ce4cd54	0.02792994
48	0xbcc2c895	-0.023777286
49	0x3d8ed3e1	0.069740064
50	0xbe28754a	-0.16450992
51	0x3cd02378	0.025407538
52	0xbd864a2a	-0.065571144
53	0x3de0548b	0.10953625
54	0x3c904f8d	0.017616058
55	0xbdafbcc8	-0.08580929
56	0xbd8060de	-0.06268476
57	0xbd55a436	-0.052158557
58	0x3d805573	0.06266298
59	0xbdc528e8	-0.09626943
60	0x3d2426ae	0.04007595
61	0xbd16807a	-0.03674362
62	0xbcc0db00	-0.023541927
63	0x3e17eb48	0.14835846
64	0x3daa6e83	0.0832186
65	0x3c7b7133	0.015346813
66	0xbdd39fa5	-0.10333184
67	0x3deb18f8	0.11479372
68	0x3e27b2eb	0.16376846
69	0x3d697127	0.056992676
70	0x3e1c4bd7	0.15263306
71	0x3dc5fd6c	0.09667477
72	0x3dd3e3e4	0.10346201
73	0x3c1a5ac3	0.009421053
74	0xbcd87501	-0.02642298
75	0x3d4108c2	0.047127493
76	0xbd58b5b3	-0.052907657
77	0xbd23d2ad	-0.039995838
78	0x3c52cbfb	0.012866016
79	0xbcbfcced	-0.023413146
80	0x3d6a6817	0.057228174
81	0xbd67ce43	-0.05659319
82	0xbe03f25f	-0.12885426
83	0x3df58a9e	0.1198933
84	0xbe2feb31	-0.17179562
85	0xbdd7f1cf	-0.10544168
86	0x3e277220	0.16352129
87	0xbdcb6f6a	-0.0993336
88	0xbe1b9d7b	-0.15196793
89	0x3deddca5	0.1161435
90	0x3de6a5e7	0.11262112
91	0x3d96c3e1	0.0736158
92	0xbe025316	-0.12727007
93	0xbe2f2338	-0.17103279
94	0xbe1b6b72	-0.15177706
95	0xbc279575	-0.010228504
96	0x3c3bb18d	0.011455906
97	0xbcd7de3a	-0.026351083
98	0x3d811194	0.06302181
99	0xbd2395d1	-0.039937798
100	0xbcbdb9e9	-0.023159938
101	0x3ddba5a8	0.10724956
102	0xbd92b4e7	-0.07163411
103	0xbe08279f	-0.13296364
104	0x3e195727	0.14974652
105	0x3df10640	0.1176877
106	0x3e1f14f6	0.1553534
107	0x3e160d68	0.14653552
108	0xbc96f11f	-0.018425522
109	0x3d35b551	0.04436237
110	0x3d34d1bb	0.044145327
111	0x3ca747ce	0.020419981
112	0xbc87f311	-0.016595395
113	0x3dcf630d	0.10126314
114	0xbd8331db	-0.064059936
115	0xbd1c3bbc	-0.038142905
116	0x3d5eba56	0.054376923
117	0x3d1e4e1a	0.038648702
118	0x3db8625c	0.090031356
119	0xbd8a1144	-0.067415744
120	0xbb83132e	-0.004000089
121	0xbdf9394f	-0.12169134
122	0xbda780a2	-0.08178832
123	0xbde7f2a0	-0.11325574
124	0x3e166698	0.14687574
125	0xbdadd402	-0.08487703
126	0xbd9881b5	-0.07446615
127	0x3cc17579	0.023615586
128	0x3da7fb44	0.08202222
129	0x3de32d42	0.110926166
130	0x3e1f7657	0.15572487
131	0x3c142f85	0.009044533
132	0xbcf32932	-0.02968273
133	0xbdf15e99	-0.11785621
134	0x3987cafa	0.00025900436
135	0x3d828fd0	0.06375086
136	0x3c7b6595	0.015344043
137	0x3d660ec1	0.056166414
138	0x3a91c254	0.0011120536
139	0x3d0d2fe2	0.034469493
140	0xbdcdac2c	-0.10042605
141	0x3d6ade57	0.057340946
142	0x3d76991f	0.06020462
143	0xbd0eb366	-0.034839056
144	0x3c9476cc	0.018123053
145	0xbe26bb59	-0.16282405
146	0x3e0dde96	0.13854441
147	0xbdd8d59a	-0.10587616
148	0x3d8806a1	0.06641889
149	0xbd8ae266	-0.06781463
150	0xbe291a53	-0.16513948
151	0xbd4babdc	-0.049724445
152	0x3ddeafd8	0.10873383
153	0x3c9fac69	0.019491391
154	0xbd9236d6	-0.071393654
155	0xbd88f738	-0.06687778
156	0x3db3ef63	0.08785894
157	0xbe1d927c	-0.1538791
158	0xbd427c66	-0.047481917
159	0xbe16f028	-0.1474005
160	0xbe1a7770	-0.15084624
161	0x3e11d355	0.14240773
162	0xbdb0fbd9	-0.08641786
163	0xbceaabff	-0.028646467
164	0xbd2948bf	-0.04132914
165	0xbe1087b1	-0.14114262
166	0xbd2d055a	-0.04224143
167	0xbe19e774	-0.15029699
168	0xbd622c07	-0.05521777
169	0x3da2f559	0.079569526
170	0xbdf032d5	-0.117284454
171	0x3da568ae	0.08076607
172	0xbd172888	-0.036903888
173	0x3d963271	0.0733384
174	0xbd6a1b30	-0.057154834
175	0x3d827b7e	0.063712105
176	0x3dc89f8f	0.097960584
177	0x3e1c40fd	0.15259166
178	0x3e0f1fb0	0.13976932
179	0xbd4f57fb	-0.050621014
180	0x3deefffe	0.116699204
181	0xbd94b15f	-0.07260393
182	0xbe2a042d	-0.16603155
183	0x3e021bb7	0.12705885
184	0x3bd0fa76	0.0063775135
185	0x3d9f8f84	0.07791045
186	0x3dcad367	0.09903603
187	0xbb6f6253	-0.0036527112
188	0x3bd581a7	0.0065157
189	0x3b82caba	0.003991452
190	0xbdd2fea8	-0.10302478
191	0x3de0632e	0.10956417
192	0xbd95e511	-0.073190816
193	0x3d873213	0.06601348
194	0x3dfe6725	0.12422017
195	0xbe052c7d	-0.13005252
196	0xbd98ebee	-0.07466875
197	0x3e09fe5e	0.1347594
198	0x3bdd796d	0.00675886
199	0xbdeb8e23	-0.1150172
200	0x3d0521b2	0.032502837
201	0x3dbe6746	0.092970416
202	0xbddc808f	-0.10766708
203	0x3db54943	0.08851864
204	0x3e138afc	0.14408487
205	0x3e28ac39	0.16471948
206	0x3d90b0c0	0.070649624
207	0x3d044c13	0.032299113
208	0x3d9e0c53	0.077171944
209	0xbd8a6aed	-0.06758676
210	0x3d02826f	0.031862672
211	0xbd6edc54	-0.05831559
212	0x3dfc459e	0.12317966
213	0xbd24be47	-0.040220525
214	0xbd8180ec	-0.06323418
215	0xbc136cfc	-0.008998152
216	0x3c941b4e	0.018079426
217	0x3cfbacf2	0.030722115
218	0xbd96e223	-0.07367351
219	0xbdcb0230	-0.099125266
220	0xbe0580c6	-0.13037404
221	0xbd8b4d12	-0.06801809
222	0x3b4cc27a	0.0031243847
223	0x3df3af07	0.11898618
224	0xbd71285a	-0.058876373
225	0xbc5c0669	-0.013429263
226	0xbda6b950	-0.08140814
227	0xbdaeb626	-0.08530836
228	0xbdc329dc	-0.095294684
229	0xbe1ea6b0	-0.15493274
230	0xbd983826	-0.074325845
231	0xbcffcb9e	-0.031225022
232	0x3c8a64ba	0.016893733
233	0x3d9526a0	0.07282758
234	0xbde021a1	-0.10943914
235	0xbe1e1fef	-0.15441869
236	0xbdc2f188	-0.09518725
237	0xbdbd3e60	-0.09240413
238	0xbdacb371	-0.08432663
239	0x3d850618	0.06495303
240	0x3d2b9a0b	0.041894954
241	0x3bc8df24	0.006130116
242	0xbdd72195	-0.10504452
243	0xbdd6261a	-0.10456486
244	0x3e09139f	0.13386391
245	0xbde2e882	-0.110795036
246	0x3b2d80cc	0.0026474474
247	0xbde0219b	-0.1094391
248	0xbe21f0a2	-0.1581445
249	0x3c407260	0.011746019
250	0xbd7d0157	-0.061768856
251	0xbe18d9a2	-0.1492677
252	0xbdc017c1	-0.09379531
253	0x3e218ca8	0.15776312
254	0xbda3e017	-0.08001726
255	0x3e02cb08	0.12772763

rnn.bias_ih_l0 f4 [48]
0	0xbe305b4f	-0.17222331
1	0x3d7f3b74	0.06231256
2	0x3d573241	0.05253816
3	0x3dd62278	0.10455793
4	0xbdfaea1d	-0.12251685
5	0x3d30f845	0.04320552
6	0xbd4f6c4e	-0.050640397
7	0xbddc7b0d	-0.107656576
8	0xbd2a5c14	-0.04159172
9	0xbd8fc431	-0.070198424
10	0x3d6de917	0.05808362
11	0x3dc0381f	0.09385704
12	0xbce93d5b	-0.02847164
13	0xbd1668da	-0.036721088
14	0x3cb96b0d	0.022634054
15	0x3dd7cb60	0.105368376
16	0x3d3e4475	0.046452004
17	0x3dd7ce50	0.10537398
18	0x3da3fdff	0.0800743
19	0xbe0918ae	-0.13388321
20	0x3de60c15	0.11232773
21	0x3d4740cf	0.04864579
22	0xbdd0fdf1	-0.102046855
23	0xbe1100c3	-0.14160447
24	0x3cb82e32	0.022482965
25	0xbde1b8b5	-0.11021558
26	0x3dcd47ba	0.100234464
27	0x3e22e9a4	0.1590944
28	0xbcf65af0	-0.03007266
29	0x3e05e152	0.13074234
30	0xbdd225b3	-0.10261097
31	0xbdcbbcb9	-0.09948105
32	0xbe01a2ee	-0.12659809
33	0x3e26daf3	0.1629446
34	0x3e2b35a0	0.16719675
35	0x3d2b7f81	0.041869644
36	0xbb8a7b6c	-0.004226139
37	0x3e28711f	0.16449402
38	0xbdbe19c8	-0.09282261
39	0xbdac51d0	-0.08414042
40	0x3dce3565	0.10068778
41	0x3d92c5c5	0.07166628
42	0xbdc01dc1	-0.09380675
43	0x3e0586a5	0.13039644
44	0xbd274950	-0.0408414
45	0xbdc5aa8d	-0.096516706
46	0x3d148f5c	0.03626953
47	0xbd0a4d47	-0.033765104

rnn.bias_hh_l0 f4 [48]
0	0x3c38818d	0.011261356
1	0xbe2e4183	-0.17017178
2	0xbc8af887	-0.01696421
3	0x3d8982dd	0.06714413
4	0xbe1e0d59	-0.15434779
5	0x3c96b8fc	0.018398754
6	0xbd473d06	-0.04864218
7	0xbda1002d	-0.07861362
8	0x3e232ea9	0.15935768
9	0x3e1a807d	0.15088077
10	0x3cab3949	0.02090134
11	0xbd910544	-0.070810825
12	0x3c4b4f3e	0.0124090295
13	0xbd043bbf	-0.03228354
14	0x3e259016	0.16168246
15	0xbdce2f40	-0.10067606
16	0x3d99db4a	0.07512529
17	0xbdbe8e3f	-0.09304475
18	0xbdef95f0	-0.1169852
19	0xbd2922ea	-0.041293062
20	0x3cee5914	0.02909521
21	0xbe0fec8b	-0.14055078
22	0x3c6068e3	0.013696882
23	0x3d0d3c8a	0.034481563
24	0xbcd0cd21	-0.025488438
25	0xbe28c786	-0.16482362
26	0x3c734c25	0.014849697
27	0x3db462b0	0.08807886
28	0xbde7c894	-0.11317554
29	0x3d65a120	0.056061864
30	0xbda97d7f	-0.082758896
31	0xbcb1dc45	-0.021711478
32	0xbdaf5350	-0.085608125
33	0x3db57aa7	0.08861285
34	0xbbb20298	-0.005432438
35	0xbdaa45de	-0.08314107
36	0x3d05ef54	0.032698944
37	0x3b1523ff	0.002275705
38	0xbdecbced	-0.11559472
39	0xbc53e9b6	-0.012934139
40	0x3dd44137	0.10364001
41	0xbda27126	-0.079317376
42	0x3d83c7d1	0.06434596
43	0xbd2076a1	-0.039175633
44	0x3e236c77	0.15959345
45	0x3e133cfd	0.14378734
46	0x3d868858	0.06568974
47	0xbda755c6	-0.08170657

linear.weight f4 [32, 48]
0	0x3d9b4f74	0.07583514
1	0x3d2ee554	0.042699173
2	0x3d90c57f	0.070689194
3	0x3dc05c33	0.093925856
4	0x3dd65f41	0.10467387
5	0x3d722885	0.059120674
6	0x3d005882	0.031334408
7	0xbdba8bb2	-0.09108676
8	0xbdd1103b	-0.10208174
9	0x3d913d4b	0.07091769
10	0x3df6f4dd	0.12058423
11	0x3df10acb	0.11769637
12	0xbcfedc40	-0.031110883
13	0x3dae4e9e	0.08511089
14	0x3d871203	0.06595232
15	0xbd654422	-0.05597318
16	0xbe14c720	-0.14529085
17	0xbd50b5b0	-0.05095452
18	0xbda71824	-0.08158901
19	0x3dabaab2	0.08382167
20	0x3dd93590	0.10605919
21	0xbd9981ae	-0.074954376
22	0xbdd40b94	-0.10353771
23	0x3cffd90c	0.031231426
24	0x3b1c47d4	0.0023846524
25	0xbd14bc8f	-0.036312636
26	0xbdae10eb	-0.084993206
27	0x3d129e87	0.035795715
28	0xbdc86088	-0.09784037
29	0x3e26fa80	0.16306496
30	0x3cc4e6ab	0.024035772
31	0xbe125bca	-0.14292827
32	0x3d643c02	0.05572129
33	0xbd0f22f5	-0.034945447
34	0x3deab5fd	0.11460493
35	0xbdb766fd	-0.0895519
36	0x3e358d30	0.1772964
37	0x3e1efe01	0.15526582
38	0xbda646de	-0.081189856
39	0x3dd4b61d	0.10386298
40	0x3d059e35	0.03262158
41	0x3db2af57	0.0872485
42	0xbdca49a9	-0.09877331
43	0x3df7fab8	0.12108368
44	0x3d3f2eef	0.04667562
45	0x3e2c6a47	0.16837417
46	0xbd79413e	-0.060853235
47	0x3ad73804	0.0016419892
48	0xbbc0e9f2	-0.0058872635
49	0x3dcb8285	0.09937004
50	0x3cf30c1b	0.029668858
51	0xbd10ec6b	-0.035381716
52	0x3db2083d	0.086929776
53	0xbc979952	-0.018505726
54	0x3d1b430d	0.03790574
55	0x3d0f45f7	0.034978833
56	0xbc542360	-0.012947887
57	0xb7af1617	-2.0871912e-05
58	0xbd9a113f	-0.07522821
59	0xbda6e0f7	-0.081483774
60	0xbd869184	-0.06570724
61	0x3d89472c	0.06703028
62	0xbcf36164	-0.029709525
63	0x3e0e732f	0.13911127
64	0x3db71941	0.08940364
65	0xbc80030e	-0.015626457
66	0xbd07a916	-0.033120237
67	0xbdf58788	-0.11988741
68	0xbd92ded8	-0.0717141
69	0x3d9c5501	0.07633401
70	0x3dbeb29a	0.09311409
71	0xbd3e7071	-0.04649395
72	0xbe023588	-0.12715733
73	0x3e0f3475	0.13984855
74	0xbc854171	-0.016266556
75	0xbd9f0c47	-0.077660136
76	0x3c64ded8	0.013969146
77	0xbdd293a6	-0.10282068
78	0xbdfe2fee	-0.124114856
79	0x3dec665a	0.115429595
80	0x3c78a08e	0.015174998
81	0xbde949ad	-0.11391006
82	0x3df6db2f	0.12053525
83	0x3c5fafb8	0.013652734
84	0xbd20ef93	-0.039290976
85	0x3cffbeae	0.031218853
86	0xbc54a233	-0.012978124
87	0xbd4bac38	-0.049724787
88	0xbd2febf2	-0.042949624
89	0x3d798934	0.060921863
90	0x3d7def25	0.061995644
91	0xbbe28a3f	-0.006913453
92	0xbdbab89e	-0.09117244
93	0xbdbae039	-0.09124798
94	0x3d0ebeb0	0.034849823
95	0xbd1369c3	-0.035989534
96	0x3d0aa62b	0.033849876
97	0x3dbcfc9c	0.09227869
98	0x3c372f00	0.011180639
99	0x3dd4aa1b	0.103840075
100	0x3cc1cfb8	0.023658618
101	0x3df4af6d	0.11947522
102	0x3dd809de	0.10548757
103	0xbd9256be	-0.07145451
104	0x3df17ade	0.11791013
105	0xba5ea3b5	-0.0008493022
106	0x3db8a79b	0.09016343
107	0x3cc0e91e	0.023548659
108	0x3c0ba9d8	0.008524381
109	0x3de58474	0.11206904
110	0x3cd0423f	0.025422214
111	0xbd16e4b5	-0.036839206
112	0xbe06feaf	-0.13183092
113	0x3d6dad1a	0.05802641
114	0xbe00e3f8	-0.12586963
115	0xbd948195	-0.07251278
116	0x3ccfd2d0	0.025369078
117	0x3de8facd	0.113759615
118	0xbdb82315	-0.08991066
119	0x3d201d8c	0.039090678
120	0x3e1db0bc	0.1539945
121	0xbdd464a9	-0.10370762
122	0x3dce932e	0.10086666
123	0x3dad0e76	0.08450024
124	0x3ce5755d	0.028010065
125	0x3d859a3b	0.06523558
126	0xbd98f027	-0.074676804
127	0xbcfb8f22	-0.0307079
128	0x3d264d62	0.04060114
129	0x3d6dbe60	0.058042884
130	0x3dfdc837	0.123917036
131	0xbe06aba0	-0.13151407
132	0xbda03814	-0.07823196
133	0x3e23a9ed	0.1598279
134	0xbdc26191	-0.094912656
135	0xbdb1bc76	-0.08678524
136	0x3d969edb	0.07354518
137	0x3d14314a	0.03617982
138	0xbd5c1b4c	-0.05373697
139	0x3db2d1ae	0.087313995
140	0x3dc5e6ee	0.09663187
141	0x3d04518f	0.032304343
142	0x3da2b8da	0.07945414
143	0x3cd5671b	0.026050141
144	0x3c83fb3b	0.016111007
145	0xbcaa34cf	-0.020777134
146	0xbc4c589c	-0.012472298
147	0x3dab282a	0.0835727
148	0x3c071e42	0.00824696
149	0x3d6178e4	0.05504693
150	0xbda6fb54	-0.08153406
151	0xbe2e2416	-0.17005953
152	0xbd84f0d0	-0.06491244
153	0xbdf621b9	-0.12018151
154	0x3de6f2ec	0.112768024
155	0xbd9136ac	-0.07090506
156	0xbbc2fa47	-0.0059502455
157	0xbd9602d8	-0.07324761
158	0x3e076756	0.13223013
159	0x3de9c1df	0.11413931
160	0xbd36c68e	-0.04462295
161	0x3e12585a	0.14291516
162	0x3d76aa6f	0.060221132
163	0xbd8ace9d	-0.067776896
164	0xbd33706d	-0.04380839
165	0xbcd87af8	-0.026425824
166	0xbdd55d41	-0.104181774
167	0x3d335114	0.043778494
168	0x3e2d114a	0.16901127
169	0xbd997875	-0.074936785
170	0x3b2b14ff	0.0026105044
171	0x3e1720f4	0.14758664
172	0x3e0035f2	0.12520579
173	0xbdf61226	-0.1201518
174	0x3d9c674a	0.07636888
175	0xbc91ef5b	-0.017814329
176	0xbd22c51a	-0.039738752
177	0x3d0ebb59	0.034846637
178	0xbdb09e7c	-0.086239785
179	0xbd957bb1	-0.07298983
180	0x3d519950	0.0511716
181	0x3e158b4b	0.14603917
182	0xbd7a0cf3	-0.061047506
183	0x3dc9669b	0.098340236
184	0x3cc8aa23	0.02449519
185	0xbe267bb1	-0.16258122
186	0xbd932b3e	-0.07185982
187	0xbdc4a21f	-0.09601235
188	0x3d3258f1	0.043541852
189	0x3d0bbfa6	0.034118317
190	0x3b85d2fa	0.0040839883
191	0xbdf771f9	-0.120822854
192	0x3d115052	0.03547699
193	0x3d2cac2c	0.042156383
194	0x3d1cd664	0.038290396
195	0xbd23d535	-0.039998252
196	0xbd95f568	-0.07322198
197	0xbc0f58e5	-0.008749221
198	0x3cfe2e7c	0.031028025
199	0x3c0cc177	0.0085910475
200	0xbd259d2b	-0.04043309
201	0xbe0526d6	-0.13003096
202	0x3c0fc0f1	0.008774028
203	0x3d84924a	0.06473215
204	0x3df084a8	0.11744052
205	0x3d5386b5	0.05164214
206	0x3c9ec81f	0.019382535
207	0x3d97a198	0.074038684
208	0x3dff89db	0.12477466
209	0x3d319b3d	0.043360937
210	0xbdf50fc7	-0.119659
211	0x3d7b231c	0.06131278
212	0x3e10bbaf	0.14134096
213	0x3e187e71	0.14891984
214	0x3dc7d123	0.097566865
215	0x3d61a427	0.05508819
216	0xbe26a650	-0.1627438
217	0x3bf290c6	0.0074025122
218	0x3ca3e881	0.020008327
219	0xbddc3356	-0.10751979
220	0x3de79734	0.113081366
221	0xbe089dfa	-0.13341513
222	0x3cc72b44	0.024312623
223	0xbbbd2f96	-0.005773495
224	0x3ddefb8b	0.10887822
225	0xbc8d5780	-0.017253637
226	0xbda30142	-0.07959224
227	0xbcb502e3	-0.022096103
228	0x3ccd044e	0.025026467
229	0xbe1d3c9d	-0.15355153
230	0xbd2e095b	-0.04248939
231	0xbcd25461	-0.025675
232	0xbd145cb4	-0.03622122
233	0x3dc01e4e	0.0938078
234	0x3d8805bc	0.06641719
235	0x3acdc3eb	0.0015698647
236	0xbddb1e8b	-0.10699185
237	0x3c237444	0.00997645
238	0xbcbff6ec	-0.023433171
239	0x3dd4400d	0.10363779
240	0x3cfacc5f	0.03061503
241	0xbdddcdc1	-0.1083026
242	0x3c8e7005	0.0173874
243	0x3d6469f9	0.055765126
244	0x3d99a43f	0.075020306
245	0xbd5ebe34	-0.05438061
246	0x3dd69106	0.1047688
247	0x3da65cd9	0.08123178
248	0x3c39f675	0.011350264
249	0x3d213946	0.03936126
250	0x3d7502e0	0.059817195
251	0x3c645d70	0.013938293
252	0x3c42bda9	0.011886039
253	0xbdde9e96	-0.108700916
254	0x3db4e7e0	0.08833289
255	0xbe0e0d58	-0.13872278

linear.bias f4 [32]
0	0x3c7b2f08	0.015331037
1	0xbcdcaa21	-0.026936593
2	0xbdc1948c	-0.09452161
3	0x3d918821	0.07106043
4	0x3d37fc2c	0.044918224
5	0xbd7c5106	-0.061600707
6	0x3b5f3fca	0.003406512
7	0xbdacdc6d	-0.084404804
8	0xbde9ede8	-0.1142233
9	0xbd411967	-0.047143366
10	0x3c7f3f91	0.01557912
11	0xbdad3151	-0.08456672
12	0xbc3e3ff1	-0.0116119245
13	0xbdf30e8c	-0.11868009
14	0xbd10c118	-0.0353404
15	0xbd39041c	-0.045169935
16	0xba681c01	-0.00088542706
17	0x3de93ba8	0.11388332
18	0x3df9db39	0.122000165
19	0x3e205235	0.1565636
20	0x3e08ae6d	0.13347788
21	0xbca79584	-0.020457037
22	0xbd597a45	-0.05309512
23	0xbddc4b31	-0.10756529
24	0xbdf6ab86	-0.12044434
25	0xbe0e9f0f	-0.13927864
26	0x3d67dff2	0.056610055
27	0x3d892360	0.066962
28	0x3dfa5bac	0.12224516
29	0x3de895ec	0.1135672
30	0x3d7fb92a	0.062432446
31	0x3ce18ee1	0.02753395
