LTC_A2C/training_results/CfC_a2c_result_310_202438_learningrate_0.001_selectiomethod_range_evaluation_all_params_trainingmethod_quarter_range_numneurons_48_tausysextraction_True_mode_pure/checkpoint_CfC_A2C_8.pt (torch, 57656 bytes, 10 tensors)

cfc_model.rnn_cell.w_tau f4 [1, 48]
0	0x3ca8c458	0.020601436
1	0x3c08711d	0.00832775
2	0x3ba043c8	0.0048908927
3	0x3ba3e482	0.0050016055
4	0xbc24f5c2	-0.010068359
5	0xbbf0aded	-0.0073449523
6	0x3c2afcac	0.010436218
7	0xbba12da7	-0.0049187723
8	0x3cec59c8	0.028851405
9	0x39e0ae56	0.000428545
10	0xbb97cfc5	-0.0046329224
11	0x3c665728	0.014058866
12	0xbae18998	-0.0017207144
13	0xbb0b13cc	-0.0021221517
14	0x3ba6b6b0	0.005087696
15	0xbc223549	-0.0099003995
16	0x3d673784	0.05644943
17	0x3bf66a20	0.0075199753
18	0x3d7c81c4	0.06164719
19	0xbbf6ab89	-0.007527773
20	0xbc096eaa	-0.008388201
21	0x3ebeb68f	0.37248656
22	0xbab6ce6d	-0.0013947018
23	0xba71a578	-0.0009218077
24	0x3b7f40c4	0.0038948515
25	0x3cd3cc6e	0.025854316
26	0xba857d2d	-0.00101844
27	0xba233646	-0.0006226044
28	0xba7e423a	-0.00096991996
29	0x3c2713c5	0.0101975845
30	0xba7593d5	-0.0009368037
31	0xbbf60295	-0.007507632
32	0xba5943b2	-0.00082879805
33	0x3a9f1ce7	0.0012139351
34	0xbc9ed870	-0.019390315
35	0xbc1d912c	-0.009617131
36	0xbb10d279	-0.0022098108
37	0xbbe83216	-0.007086049
38	0xbb81b08a	-0.0039578127
39	0xbcafc137	-0.021454437
40	0xbb912ce5	-0.0044304007
41	0xb9b585be	-0.00034622656
42	0x3bbe6d26	0.0058113514
43	0x3ae0961e	0.0017134582
44	0xbc52414e	-0.012832953
45	0xbbcc65dd	-0.006237729
46	0xb9b2e2fe	-0.00034119928
47	0x3bf5a966	0.0074970005

cfc_model.rnn_cell.A f4 [1, 48]
0	0x3ea26f27	0.31725428
1	0xbe0ab2ca	-0.13544765
2	0x3e67569a	0.2259163
3	0xbec90fe1	-0.39269927
4	0x3e2fae7f	0.17156409
5	0x3e83b351	0.25722745
6	0xbee3b9d1	-0.44477704
7	0x3eea38ec	0.45746553
8	0xbea1d187	-0.3160517
9	0x3ee142fa	0.43996412
10	0xbe6589cb	-0.22415845
11	0xbebcdf4e	-0.36889118
12	0x3d17c057	0.037048664
13	0x3e427645	0.18990429
14	0x3ee1948d	0.44058648
15	0xbe91944e	-0.2843346
16	0x3d8ef43a	0.06980176
17	0xbe06e36d	-0.13172694
18	0xbe9d8aee	-0.30770057
19	0xbf00a50e	-0.50251853
20	0x3e829638	0.25505233
21	0xba78792f	-0.0009478507
22	0x3e248b85	0.16068847
23	0x3ea16c65	0.3152801
24	0x3e62cae3	0.22147708
25	0x3eb521f1	0.35377458
26	0xbed07d1e	-0.40720457
27	0xbeb271bd	-0.348524
28	0xbe6b96e8	-0.23006785
29	0xbe3c5dc8	-0.1839515
30	0x3e767c42	0.24070838
31	0xbec960e2	-0.39331728
32	0xbe9a9d1b	-0.30197987
33	0xbe53c81a	-0.20681801
34	0xbeba8225	-0.36427417
35	0xbed44cb4	-0.4146477
36	0xbe8b1218	-0.27162242
37	0xbec88e4b	-0.3917106
38	0x3e9162e7	0.2839577
39	0x3ebbcc58	0.3667934
40	0xbe48711c	-0.19574398
41	0x3eee799f	0.46577165
42	0xbe7efb0f	-0.24900459
43	0x3ecf217b	0.4045523
44	0x3b9b85c7	0.004746172
45	0x3e9a7f45	0.30175224
46	0x3eb55b2b	0.35421118
47	0xbe9b4b1a	-0.30330735

cfc_model.rnn_cell.tau_system f4 [1, 48]
0	0x3ee527a7	0.44756815
1	0x3f40d186	0.7531971
2	0x3f7c9054	0.9865773
3	0x3f28a09d	0.65870076
4	0x3f25b743	0.6473276
5	0x3f535784	0.82555413
6	0x3f008e01	0.5021668
7	0x3f41e38f	0.7573785
8	0x3ee99604	0.45622265
9	0x3f2bfd40	0.67183304
10	0x3f31b084	0.69409966
11	0x3f28a21a	0.6587235
12	0x3f631d1a	0.8871628
13	0x3f616d26	0.8805717
14	0x3f21638f	0.6304254
15	0x3f1903cd	0.59771425
16	0x3fc4221c	1.5322909
17	0x3f144c8f	0.5792932
18	0x3f801902	1.0007632
19	0x3f3290a5	0.6975196
20	0x3f07df7e	0.53075397
21	0x3fcfbd3c	1.6229625
22	0x3f9e0ef5	1.2348315
23	0x3f4da463	0.8032896
24	0x3f308cb6	0.6896471
25	0x3eb08fc6	0.3448469
26	0x3f3cca21	0.73745924
27	0x3f39db15	0.7259992
28	0x3f5fcf0c	0.87425303
29	0x3f35c151	0.709981
30	0x3f3b4025	0.7314475
31	0x3ebe5897	0.37176964
32	0x3f5be886	0.8590168
33	0x3f398dfd	0.7248228
34	0x3fd25777	1.6432942
35	0x3f25f612	0.648286
36	0x3fa77a41	1.3084184
37	0x3f1aa97e	0.60414875
38	0x3f22711c	0.6345384
39	0x3edf1498	0.435704
40	0x3f2aa1fa	0.66653407
41	0x3f455db3	0.770961
42	0x3f446106	0.76710546
43	0x3f257acf	0.64640516
44	0x3f3e3bef	0.743102
45	0x3fd0461d	1.6271397
46	0x3f8ea10d	1.1142899
47	0x3f28fada	0.6600777

cfc_model.rnn_cell.backbone.0.weight f4 [128, 52]
0	0xbcba096e	-0.022709575
1	0x3ebdc36f	0.37063166
2	0x3da91cde	0.08257459
3	0xbdcf3d27	-0.10119086
4	0xbe419bb7	-0.18907057
5	0xbe64af81	-0.22332574
6	0x3dc5da66	0.09660797
7	0xbdbbd37c	-0.09171197
8	0x3de6dc51	0.11272491
9	0xbd5b23e1	-0.053501014
10	0x3d443591	0.047902647
11	0xbda6de55	-0.08147875
12	0xbc89fc32	-0.016843889
13	0xbe1145d8	-0.141868
14	0x3debfb43	0.11522534
15	0xbd5347da	-0.051582195
16	0x3cd51800	0.02601242
17	0xbca1ee24	-0.019766875
18	0xbd7d5c87	-0.06185582
19	0xbd4e9837	-0.050438132
20	0x3e389fc4	0.18029696
21	0x3d87437f	0.06604671
22	0xbd1767f6	-0.03696438
23	0x3e08bb76	0.1335276
24	0x3de903f5	0.11377708
25	0x3d205ea9	0.039152775
26	0xbe4b916b	-0.19879691
27	0xbc894302	-0.016755585
28	0x3e2cb723	0.16866736
29	0x3c8c380b	0.017116567
30	0xbe0e13f1	-0.13874795
31	0x3a1d6842	0.00060046103
32	0xbddf82e7	-0.109136395
33	0xbe13bf3e	-0.14428422
34	0x3e0d57f2	0.1380308
35	0x3c61fd1e	0.013793258
36	0x3c926e42	0.01787484
37	0xbd910bdf	-0.07082342
38	0x3dd0907d	0.10183809
39	0xbe17f585	-0.14839752
40	0x3cdc7ce0	0.026915014
41	0x3d05433e	0.03253483
42	0x3e357549	0.17720522
43	0xbda2527d	-0.0792589
44	0x3d154292	0.03644044
45	0x3c377573	0.011197436
46	0x3db7db71	0.08977402
47	0xbd4e144b	-0.05031232
48	0xbe06d7c3	-0.13168244
49	0xbc93a2b3	-0.018021917
50	0xbccec934	-0.025242426
51	0xbd765cb7	-0.060147014
52	0x3d911f08	0.07085997
53	0xbd9f229c	-0.07770273
54	0xbc29b470	-0.010357961
55	0x3d7a8e87	0.06117108
56	0xbe08fd90	-0.13377976
57	0xbe1b78d5	-0.15182813
58	0xbe212abc	-0.15738958
59	0x3e0238b3	0.12716942
60	0xbd6c6fc0	-0.05772376
61	0x3d026999	0.031838987
62	0xbe057f79	-0.13036908
63	0x3e7652a1	0.24054958
64	0x3db10c79	0.08644957
65	0xbde84c03	-0.11342623
66	0x3df205e4	0.1181753
67	0xbd80baab	-0.06285604
68	0xbbba9bc3	-0.005694838
69	0xbc85a469	-0.016313748
70	0xbcf3dcd4	-0.029768385
71	0x3d885baa	0.066581085
72	0x3db0f29a	0.086400226
73	0xbe08f177	-0.13373362
74	0xbc89f0ef	-0.016838519
75	0xbdcb428c	-0.09924802
76	0xbd5beda2	-0.05369342
77	0xbdfb4add	-0.122701384
78	0x3d8ae92f	0.067827575
79	0x3e11e8e1	0.14248993
80	0xbd063ac1	-0.032770876
81	0x3debd0c3	0.115144275
82	0xbcca8a75	-0.024724225
83	0xbda32c71	-0.07967461
84	0xbd73640f	-0.059421595
85	0xbd79b7e3	-0.060966384
86	0x3e5d4863	0.21609645
87	0x3e048231	0.12940289
88	0x3e5681af	0.20947908
89	0xbcd389d2	-0.025822554
90	0x3e1af5ea	0.15132871
91	0x3e5607c6	0.20901403
92	0xbd3a1f3f	-0.045439955
93	0x3d1c130e	0.03810411
94	0xbe42575e	-0.1897864
95	0x3d00b798	0.03142509
96	0x3da07344	0.07834485
97	0xbde65847	-0.11247306
98	0xbc857467	-0.016290857
99	0xbdd66bf2	-0.10469808
100	0x3d0a1f76	0.03372141
101	0x3dc23c44	0.09484151
102	0x3d4a2cfa	0.0493593
103	0x3dda5629	0.10660965
104	0xbe4be5f6	-0.19911942
105	0x3e7cf2fb	0.24702065
106	0x3d373f85	0.04473831
107	0xbe1c4521	-0.15260746
108	0xbe244e35	-0.16045459
109	0x3db4e1ab	0.08832105
110	0xbdce9aeb	-0.10088142
111	0xbce0c4cc	-0.02743759
112	0xbd410b40	-0.04712987
113	0x3d6770ff	0.056504246
114	0xbe59ab2f	-0.21256708
115	0xbd59824f	-0.053102788
116	0x3d50f61b	0.051015954
117	0xbce1d729	-0.027568417
118	0x3e0740ea	0.13208356
119	0x3ddc7538	0.10764545
120	0xbbb7faaf	-0.0056146006
121	0x3d07a883	0.03311969
122	0x3deff66b	0.117169224
123	0x3cc6c29a	0.024262715
124	0xbbc54a3c	-0.0060208123
125	0x3c45d97c	0.012075778
126	0xbdaf8c37	-0.08571666
127	0x3d5e9b8e	0.054347567
128	0xbd9a9725	-0.0754836
129	0xbe15c4aa	-0.14625803
130	0xbe15b2f1	-0.14619042
131	0x3bfda03c	0.0077400487
132	0xbda3a061	-0.07989574
133	0x3d17a8fc	0.03702639
134	0x3d9952f5	0.07486526
135	0xbdb500bf	-0.08838033
136	0x3dc29f45	0.095030345
137	0x3d86f96c	0.06590542
138	0xbd5ef973	-0.054437112
139	0x3d46b13c	0.048508868
140	0x3d9d2fc8	0.07675129
141	0x3d619839	0.05507681
142	0xbdbfb661	-0.09360958
143	0xbd92da85	-0.071705855
144	0xbe12e836	-0.14346394
145	0x3db028a0	0.086014986
146	0x3e1cd5cc	0.15315932
147	0xbdb36566	-0.087595746
148	0xbe54c479	-0.20778073
149	0x3ccb0bb4	0.024785854
150	0x3ddae1f7	0.106876306
151	0xbd6c31da	-0.05766473
152	0xbd9dca50	-0.07704604
153	0xbc88d1df	-0.016701637
154	0xbdc47dc4	-0.095943004
155	0xbe3bfab6	-0.18357357
156	0x3dfdda0f	0.12395107
157	0xbe9e5ba0	-0.3092928
158	0xbdaf3bf6	-0.085563585
159	0x3e9dddd8	0.30833316
160	0x3e2b3f57	0.16723381
161	0x3db48dcb	0.08816107
162	0xbb74aadf	-0.0037333292
163	0x3e25535f	0.16145085
164	0xbda70b20	-0.08156419
165	0x3e1c96f2	0.15291956
166	0xbdbe2e23	-0.09286144
167	0xbd52cca6	-0.0514647
168	0x3b83fe08	0.0040280856
169	0xbdacdbc8	-0.084403574
170	0xbe126ce4	-0.14299351
171	0xbd5c3e42	-0.05377031
172	0xbdfa4c8d	-0.12221632
173	0xbe2582f4	-0.16163236
174	0xb8bc0154	-8.964786e-05
175	0x3e1f30b0	0.15545917
176	0xbe3b7a9f	-0.18308495
177	0x3e0aa989	0.13541235
178	0x3d648653	0.055792164
179	0xbb786dab	-0.0037907164
180	0x3e0b8451	0.13624693
181	0xbe274c2c	-0.16337651
182	0x3dd1d915	0.10246483
183	0x3c55283f	0.013010084
184	0xbcf333fc	-0.029687874
185	0xbde40506	-0.11133771
186	0xbd76d316	-0.0602599
187	0xbe04cd6c	-0.12968987
188	0xbdb577c2	-0.088607326
189	0xbdb37c94	-0.08763996
190	0x3d3b526d	0.045732904
191	0xbe0a2edb	-0.13494436
192	0xbdb9c72f	-0.090711944
193	0xbcbbc14c	-0.02291932
194	0x3dd52956	0.10408275
195	0x3d852caf	0.06502663
196	0x3dec3c83	0.11534979
197	0xbe2e3a8a	-0.17014518
198	0x3df0ebca	0.11763723
199	0x3d63e29c	0.055636033
200	0x3e0efe19	0.13964118
201	0x3dfbcd8e	0.12295066
202	0xbe5476e7	-0.20748483
203	0xbe2863fe	-0.16444394
204	0xbda7b7fb	-0.08189388
205	0x3e2ff3fd	0.17182918
206	0x3e14237a	0.14466658
207	0xbdaaf432	-0.08347358
208	0xbe165d8b	-0.14684121
209	0x3e9fda7e	0.31221384
210	0x3da8be2e	0.08239399
211	0xbe57abe9	-0.21061672
212	0x3c3d6541	0.011559785
213	0xbe47a3a6	-0.1949602
214	0x3dd02b86	0.101645514
215	0x3db677aa	0.08909543
216	0x3d8f6ec2	0.07003547
217	0x3da73ec9	0.08166272
218	0x3db843ff	0.08997344
219	0x3db71d03	0.089410804
220	0x3e206644	0.15664011
221	0x3daf774f	0.08567678
222	0xbc980a9a	-0.018559743
223	0xbe031dbd	-0.12804313
224	0xbc948ae2	-0.01813263
225	0x3e05024b	0.12989156
226	0xbdfb85e6	-0.122813985
227	0xbe3953bc	-0.18098348
228	0x3df1ace7	0.11800557
229	0x3da29a70	0.07939613
230	0xbd35a205	-0.044343967
231	0x3df20dff	0.11819076
232	0xbd8a6306	-0.067571685
233	0x3d8f4b25	0.069967546
234	0xbd6fb60d	-0.058523227
235	0xbcf790e6	-0.03022046
236	0x3cc2af17	0.02376513
237	0x3dbcef53	0.09225335
238	0xbe2dae8c	-0.16961116
239	0x3e104707	0.14089595
240	0x3d4824d9	0.048863266
241	0xbdbc22a4	-0.09186295
242	0xbd853f2f	-0.06506192
243	0x3d257f6c	0.040404722
244	0x3e1a5c74	0.1507433
245	0xbe30ac4e	-0.17253229
246	0x3e1206c1	0.14260389
247	0xbe04503e	-0.12921235
248	0xbd1b888c	-0.037972018
249	0x3e36f197	0.17865597
250	0xbe2d5788	-0.16927922
251	0xbe43ce08	-0.19121563
252	0x3da61279	0.08108992
253	0x3c5dc4b3	0.013535666
254	0xbcf9e808	-0.030506149
255	0xbe1c3d4e	-0.15257761

cfc_model.rnn_cell.backbone.0.bias f4 [128]
0	0x3ddacbe7	0.106834225
1	0x3e15c087	0.14624225
2	0x3decb933	0.115587614
3	0xbe2eb2de	-0.1706042
4	0x3c83c32c	0.016084276
5	0x3c43b162	0.011944147
6	0xbd142d22	-0.036175855
7	0xbd38818a	-0.045045413
8	0x3d9ee625	0.0775874
9	0x3e04123b	0.1289758
10	0xbcf7e741	-0.030261638
11	0x3d2214bd	0.03957056
12	0x3e24e95c	0.16104645
13	0xbe1627f7	-0.14663683
14	0xbd1c1f99	-0.03811607
15	0x3dfcb9a7	0.12340098
16	0x3c488817	0.012239478
17	0xbda21c1d	-0.079155184
18	0xbd24daec	-0.040247843
19	0x3d5d65c3	0.054052126
20	0x3e79ad3f	0.24382494
21	0xbd314046	-0.043274187
22	0xbbb5ecb6	-0.0055519
23	0xbe52ec70	-0.20598006
24	0xbd29f733	-0.041495513
25	0x3dab5303	0.083654426
26	0x3c1fc30f	0.009751095
27	0xbd74c237	-0.05975553
28	0x3b48c05b	0.003063223
29	0xbdce1fc5	-0.10064653
30	0xbda3d37b	-0.07999321
31	0x3e412829	0.18862976
32	0xbcc94a08	-0.024571434
33	0xbda9c3a9	-0.08289272
34	0xbdbc3e93	-0.091916226
35	0xbe04ebaa	-0.12980524
36	0xbe6c4aa3	-0.23075347
37	0xbe012402	-0.12611392
38	0x3dafeede	0.08590482
39	0xbb9b5b49	-0.0047411066
40	0xbe0e6c9d	-0.1390862
41	0xbcfe5e6c	-0.031050883
42	0x3e067430	0.1313026
43	0x3ce720b9	0.028213846
44	0x3d0ad29c	0.03389226
45	0x3e129a6c	0.1431672
46	0x3c7400f0	0.014892802
47	0xbe252c8b	-0.16130273
48	0xbcd78df6	-0.02631281
49	0x3e0d030e	0.13770697
50	0xbdb17246	-0.08664374
51	0x3e11cf52	0.14239243
52	0xbe377ca0	-0.17918634
53	0xbd494c76	-0.049145184
54	0x3dc3157a	0.09525581
55	0x3d177cf4	0.0369844
56	0xbe62201b	-0.2208256
57	0x3dc5fdd5	0.09667555
58	0xbdea689a	-0.114457324
59	0xbe270522	-0.16310552
60	0xbdc12023	-0.09429958
61	0xbd92324e	-0.07138501
62	0xbd2c70fb	-0.042099934
63	0xbe3e28f4	-0.1857031
64	0xbdc0faec	-0.094228595
65	0x3ca38a2e	0.01996335
66	0x3d630d71	0.05543274
67	0x3cb39365	0.02192087
68	0x3df6f07e	0.12057589
69	0x3e2a91ea	0.16657224
70	0xbc3848b0	-0.011247799
71	0xbdd2e15e	-0.10296892
72	0xbd0f93d4	-0.03505309
73	0xbd904f71	-0.07046402
74	0x3d3bd759	0.04585967
75	0xbe173095	-0.14764626
76	0x3d195fd1	0.037444893
77	0xbd24971f	-0.040183183
78	0xbbc24482	-0.005928577
79	0x3e7b3a6f	0.2453401
80	0xbdb19ff0	-0.08673084
81	0x3bbced50	0.0057655945
82	0x3da6f42a	0.08152039
83	0xbc107c9c	-0.008818772
84	0x3db3d0af	0.087800376
85	0x3d884675	0.066540636
86	0xbc6a23f6	-0.0142908
87	0xbca9ebe9	-0.020742374
88	0x3e136854	0.14395267
89	0x3da91fa0	0.08257985
90	0x3db90262	0.090336576
91	0x3d8d57f8	0.06901544
92	0x3df0cd01	0.117578514
93	0x3cf153ec	0.029458962
94	0x3c15f16e	0.0091518
95	0xbd60fe4c	-0.054930016
96	0x3dc11f97	0.094298534
97	0xbe5d7310	-0.21625924
98	0x3cafc5b8	0.021456584
99	0xbda11e97	-0.07867163
100	0x3e35552f	0.17708276
101	0x3e2b06ed	0.1670186
102	0xbd3296be	-0.04360079
103	0xbdd84b57	-0.10561245
104	0x3dd4d832	0.103927985
105	0xbe50cc2b	-0.20390384
106	0xbda77b4b	-0.08177813
107	0x3a4ab7b6	0.00077330635
108	0xbd628111	-0.05529887
109	0xbd83374b	-0.06407031
110	0x3d623e89	0.05523542
111	0x3d4e5844	0.050377145
112	0xbd7f5e92	-0.06234605
113	0x3d0ce44f	0.03439742
114	0x3e1f27b4	0.1554249
115	0xbe319733	-0.17342834
116	0x3b005692	0.001958285
117	0xbdfc8419	-0.12329883
118	0x3e080952	0.13284805
119	0x3bda57db	0.006663305
120	0x3e02d293	0.1277564
121	0x3dbf90a6	0.093537614
122	0xbe40ad8c	-0.18816203
123	0xbd64af5d	-0.055831302
124	0xbc80a98d	-0.015705848
125	0x3e280eaf	0.16411851
126	0xbe49bfeb	-0.19702117
127	0x3e247753	0.16061144

cfc_model.rnn_cell.ff1.weight f4 [48, 128]
0	0xbdaba1e1	-0.08380485
1	0x3c891ab1	0.01673636
2	0xbdaf0c2e	-0.08547245
3	0x3d63bfb5	0.055602748
4	0xbd2b51bb	-0.04182599
5	0x3c4edb48	0.012625523
6	0x3e0f006c	0.13965005
7	0xbddc379d	-0.10752795
8	0xbe1b7d8e	-0.15184614
9	0xbd2f234d	-0.042758275
10	0x3bd00c10	0.006349094
11	0x3d4201c0	0.04736495
12	0xbd92c81d	-0.07167075
13	0x3d589bf7	0.052883115
14	0x3e0d7c8c	0.13817042
15	0xbd477e59	-0.04870448
16	0x3e1788f2	0.14798334
17	0x3e73b347	0.23798858
18	0x3e015dc6	0.12633428
19	0xbe0c9b5a	-0.13731137
20	0x3caafe85	0.020873317
21	0xbdf6beb0	-0.120480895
22	0xbd042fb2	-0.03227205
23	0xbd265f40	-0.04061818
24	0xbe5553fa	-0.20832816
25	0x3e1ca087	0.15295611
26	0xbcce607e	-0.025192495
27	0x3e22befb	0.15893166
28	0x3e07ae43	0.1325007
29	0xbd8bc46e	-0.06824575
30	0xbca5cc1a	-0.020238925
31	0x3c798258	0.01522883
32	0xbdf4fc9c	-0.11962244
33	0xbd389c83	-0.045071136
34	0x3e12c239	0.14331903
35	0x3dd15d1a	0.10222836
36	0x3d855041	0.06509448
37	0xbd923fa8	-0.07141048
38	0xbc29c6e6	-0.0103623625
39	0xbd4d5ecb	-0.05013923
40	0xbd962896	-0.0733196
41	0xbdf6dff8	-0.120544374
42	0xbe93568c	-0.28776968
43	0x3dd46af1	0.1037196
44	0x3d6d1536	0.057881556
45	0x3c176220	0.009239703
46	0xbe8c4f22	-0.27404124
47	0x3e0e2f85	0.13885315
48	0x3e1553e0	0.14582777
49	0xbd9e2fcd	-0.07723961
50	0x3b88bd59	0.0041729626
51	0xbde6a030	-0.11261022
52	0x3d902c58	0.07039708
53	0xbe21fc1f	-0.15818833
54	0xbd51b4d3	-0.051197838
55	0xbe3aefb8	-0.18255508
56	0xbd5d8fc2	-0.054092176
57	0x3c4229d6	0.011850795
58	0x3ddebf86	0.10876374
59	0x3d5fd57b	0.05464695
60	0x3dddf9c9	0.10838658
61	0xbd3a571d	-0.045493234
62	0x3e301fd0	0.17199636
63	0x3e13d292	0.14435795
64	0x3dc222ba	0.0947928
65	0xbe0618b0	-0.13095355
66	0x3d29f225	0.041490693
67	0xbe209487	-0.15681659
68	0x3d7b7581	0.061391357
69	0x3d31b790	0.04338795
70	0x3e152a87	0.14567004
71	0xbc9311b6	-0.017952781
72	0xbe1db7e6	-0.15402183
73	0x3d8ca68a	0.06867702
74	0x3c850a3c	0.016240232
75	0x3e06ec3e	0.13176057
76	0x3e8a3915	0.26996675
77	0x3d96ace3	0.07357194
78	0x3ddcbc01	0.107780464
79	0xbe416efb	-0.18889992
80	0xbce229c3	-0.027607804
81	0xbdc618e5	-0.09672717
82	0xbdc8a54d	-0.097971536
83	0xbdfa9dde	-0.12237142
84	0x3dc988f7	0.09840577
85	0x3d81207e	0.063050255
86	0xbdd763fe	-0.10517119
87	0xbd3e7419	-0.046497438
88	0x3d6a4d38	0.057202548
89	0x3d20bb66	0.039241217
90	0xbd8d3681	-0.068951614
91	0x3d919e44	0.07110265
92	0xbe04db85	-0.12974365
93	0x3d8b0fda	0.06790133
94	0xbdfa8135	-0.122316755
95	0x3e23c3a1	0.15992595
96	0xbdd9de4c	-0.10638103
97	0x3e339d82	0.17540553
98	0x3e9f62d1	0.31130078
99	0x3e2872f4	0.16450101
100	0xbe2f0466	-0.17091522
101	0x3c98dd7d	0.018660301
102	0xbd781e48	-0.060575753
103	0xbcf2b078	-0.029625162
104	0xbd10cdd9	-0.03535256
105	0xbc3a5f86	-0.011375314
106	0x3dcf9993	0.10136714
107	0xbd99b374	-0.07504931
108	0xbdd355fd	-0.10319135
109	0xbe5ea2c4	-0.21741778
110	0xbe0883da	-0.13331547
111	0xbd18501b	-0.03718577
112	0xbc90095b	-0.017582586
113	0x3af1b45f	0.0018440596
114	0xbd97d23b	-0.07413145
115	0xbd918ef6	-0.07107346
116	0x3e2e996a	0.1705071
117	0xbcaa86f2	-0.0208163
118	0xbc78913e	-0.015171347
119	0xbd6bfc3d	-0.0576136
120	0xbd8e9c95	-0.069634594
121	0xbd8fc9ef	-0.07020938
122	0xbd1fd172	-0.039018102
123	0xbe048094	-0.12939674
124	0xbdb135b1	-0.08652819
125	0xbe138fad	-0.14410277
126	0x3e8d83bd	0.2763957
127	0xbd974271	-0.073857196
128	0x3bb50f1e	0.0055254837
129	0x3e1c0175	0.15234931
130	0x3d97577b	0.073897325
131	0x3d8c764a	0.06858499
132	0xbd4b9f91	-0.04971272
133	0xbd47bfd3	-0.048766922
134	0xbde6230a	-0.11237152
135	0x3dfe1f76	0.124083444
136	0xbda0ed50	-0.07857764
137	0x3d93f49b	0.07224389
138	0x3e5b214c	0.2139942
139	0x3dd22568	0.10261041
140	0xbd5e4b56	-0.054271065
141	0xbe1d3d43	-0.153554
142	0xbe0a24d2	-0.13490608
143	0xbde7ec6f	-0.11324393
144	0xbe45895b	-0.19290678
145	0xbe6fb7d9	-0.23409976
146	0xbe57da20	-0.21079302
147	0xbe7273da	-0.23677006
148	0xbcdffc31	-0.027341934
149	0x3e49403c	0.1965341
150	0xbe48b1ac	-0.19599026
151	0x3d9095b4	0.070598036
152	0xbe197edd	-0.14989801
153	0x3e417f2a	0.18896165
154	0x3e002ff4	0.12518293
155	0xbdfa702f	-0.122284286
156	0x3e0a8bf6	0.13529953
157	0xbe7578e7	-0.23971902
158	0x3e162315	0.1466182
159	0x3e05aae9	0.13053478
160	0xbdbf61fc	-0.09344861
161	0x3df88d37	0.121363096
162	0xbb8d873a	-0.004319099
163	0xbe925685	-0.28581634
164	0xbdc9af38	-0.098478734
165	0xbe8d7a42	-0.27632338
166	0x3e4bc0b9	0.19897737
167	0xbe17bd49	-0.148183
168	0xbd4df6cd	-0.050284196
169	0x3e4606ae	0.19338486
170	0xbe332dc0	-0.17497921
171	0xba88dba2	-0.0010441432
172	0x3cb1b5ec	0.021693192
173	0xbdf73247	-0.120701365
174	0xbd43b4c7	-0.047779825
175	0xbe23e58a	-0.16005531
176	0xbda12097	-0.07867544
177	0xbdbe7153	-0.09298959
178	0x3d47675b	0.04868255
179	0x3dbb944c	0.09159145
180	0x3b1e0791	0.0024113397
181	0x3ca923b3	0.020646906
182	0x3e5a7643	0.21334176
183	0xbd469394	-0.048480585
184	0x3d8a35b0	0.06748521
185	0x3dc9fc2f	0.09862553
186	0xbd492c22	-0.049114354
187	0xbe198b36	-0.14994511
188	0xbe817512	-0.2528463
189	0xbda022a4	-0.07819107
190	0x3df213eb	0.11820205
191	0x3d1a6107	0.03769019
192	0xbd73aef1	-0.05949301
193	0x3d85776b	0.06516918
194	0x3e053ec1	0.1301222
195	0xbe053c59	-0.13011302
196	0x3e1d66cb	0.15371244
197	0x3e1d27c2	0.15347198
198	0xbe0ca696	-0.13735422
199	0x3dbde534	0.09272233
200	0xbd2c1707	-0.042014148
201	0x3da21a6b	0.07915195
202	0xbd1ee010	-0.0387879
203	0x3d14f49a	0.036366083
204	0xbd9203e5	-0.07129649
205	0xbacb7031	-0.0015521107
206	0xbe000037	-0.12500082
207	0x3bd02387	0.0063518914
208	0x3e2ad716	0.16683611
209	0x3df7f83b	0.12107893
210	0xbe56d439	-0.20979394
211	0xbd729921	-0.059228066
212	0x3d3c0d57	0.04591116
213	0xbcb3320e	-0.021874454
214	0x3ac22d3e	0.0014814509
215	0xbe719033	-0.23590164
216	0xbd30b51f	-0.04314148
217	0x3d79101d	0.060806382
218	0xbac7048d	-0.0015183851
219	0x3e2ba0dc	0.16760582
220	0x3d025bb6	0.031825744
221	0xbd8b691b	-0.06807157
222	0x3c451847	0.012029714
223	0xbe3064a8	-0.17225897
224	0x3e4e7c6a	0.20164648
225	0xbe4926c9	-0.19643702
226	0xbcda9846	-0.026683938
227	0xbce41326	-0.027841162
228	0xbb85db77	-0.004085
229	0x3de39741	0.11112834
230	0x3e17ec43	0.1483622
231	0xbd6321ef	-0.055452283
232	0x3e0607e2	0.13088945
233	0xbe46a938	-0.1940049
234	0xbda2b176	-0.07944004
235	0xbd8d3a9e	-0.06895946
236	0xbdcabb19	-0.09898967
237	0x3c08796d	0.008329731
238	0xbd4b9c97	-0.049709883
239	0x3e03304d	0.12811394
240	0x3d288832	0.04114551
241	0x3d2eb80c	0.04265599
242	0x3d45eb9b	0.048320394
243	0xbe53a98e	-0.20670149
244	0xbe29a12f	-0.16565393
245	0x3de5f0fa	0.11227603
246	0xbe53c312	-0.20679882
247	0xbd7022b6	-0.058626853
248	0x3d7775f7	0.060415234
249	0xbc3a24f6	-0.011361351
250	0x3d9ba280	0.07599354
251	0x3cc1dab1	0.02366385
252	0x3d1a80e2	0.03772057
253	0xbe05f93b	-0.13083355
254	0x3c4a0e50	0.012332514
255	0x3e344ba8	0.17606986

cfc_model.rnn_cell.ff1.bias f4 [48]
0	0xbd9d383d	-0.07676742
1	0x3e41d711	0.18929698
2	0x3ca28a10	0.019841224
3	0xbdc612a0	-0.09671521
4	0x3d9ab661	0.07554317
5	0xbc10c678	-0.008836381
6	0x3d8f0478	0.06983274
7	0x3dc02d25	0.09383611
8	0xbe114a15	-0.14188416
9	0x3dbf1a5d	0.093312
10	0x3da033b9	0.07822365
11	0x3d2845a3	0.041082036
12	0x3dfb13da	0.12259646
13	0xbcf0641c	-0.02934461
14	0x3d3f6e9d	0.04673635
15	0xbe211bc5	-0.1573325
16	0x3e1d08be	0.15335366
17	0x3dbfd5c8	0.093669474
18	0xbc0d06f6	-0.008607617
19	0x3dd9d706	0.106367156
20	0x3db7ce33	0.08974876
21	0xbcf34c85	-0.029699573
22	0xbdb83c9c	-0.08995935
23	0x3da8a7a5	0.08235101
24	0x3cb41b43	0.021985656
25	0xbc9f3b27	-0.019437386
26	0x3d24531e	0.04011833
27	0x3db7d1ee	0.08975588
28	0xbc891494	-0.016733445
29	0x3d728799	0.059211347
30	0x3d1c6a6d	0.038187433
31	0x3e117049	0.1420299
32	0xbc28d0f8	-0.010303728
33	0xbcc8381e	-0.024440821
34	0xbd9a5349	-0.07535417
35	0xbd5b493f	-0.05353665
36	0xbdd7c8f3	-0.10536375
37	0xbce8dcb2	-0.028425548
38	0x3cd8f6d3	0.026484882
39	0x3d20b8b5	0.03923865
40	0x3dcc0f97	0.09963911
41	0x3da5088b	0.0805827
42	0xb9629676	-0.0002160909
43	0xbd5522b4	-0.05203505
44	0x3e80d98b	0.25165972
45	0xbcef43ab	-0.029207071
46	0xbd85ac75	-0.06527034
47	0x3d31d467	0.043415453

h2o.weight f4 [2, 48]
0	0x3e062525	0.13100107
1	0x3e90f907	0.28314993
2	0x3ea099bd	0.31367293
3	0xbe956c97	-0.2918441
4	0xbe8e39ec	-0.27778566
5	0xbe8466c4	-0.25859654
6	0x3e96429f	0.29347703
7	0xbe8abed7	-0.27098724
8	0xbe3d568c	-0.18490046
9	0xbe9d1228	-0.30677915
10	0xbea2f2bc	-0.31825817
11	0x3e49216b	0.19641654
12	0xbe2b3a2c	-0.1672141
13	0x3dcdafa6	0.10043268
14	0x3eaabd83	0.3334771
15	0xbe587235	-0.21137317
16	0xbd2e67e3	-0.042579543
17	0x3e07c171	0.13257386
18	0xbd301b58	-0.042994827
19	0x3e874e14	0.26426756
20	0x3b524bc1	0.003208861
21	0x3dc9bef5	0.09850875
22	0x3d99f80a	0.07518013
23	0xbea74c0c	-0.32675207
24	0xbea3ab1d	-0.31966487
25	0x3e7bf40d	0.24604817
26	0x3e522a9f	0.20524071
27	0x3e61ac58	0.220384
28	0xbe40d4ea	-0.1883122
29	0x3ea88218	0.32911754
30	0xbe347ef7	-0.17626558
31	0x3e3dba7d	0.18528171
32	0xbe670a8d	-0.22562619
33	0xbea5e550	-0.32401514
34	0xbe2ce79d	-0.16885228
35	0xbe484c5d	-0.1956038
36	0xbe9e9a0d	-0.30976906
37	0xbe639f71	-0.22228791
38	0x3e74ae83	0.23894696
39	0x3e455076	0.19268975
40	0x3e8cf05a	0.27527124
41	0xbe8c8bb9	-0.2745035
42	0xbe8c3f40	-0.27392006
43	0x3e68c49c	0.2273125
44	0xbe197778	-0.1498698
45	0x3e6cf98c	0.2314207
46	0x3e398158	0.18115747
47	0x3eab8ac2	0.335043
48	0xbde578a0	-0.11204648
49	0xbe07bb33	-0.13255005
50	0xbea8ef72	-0.32995182
51	0x3e64414f	0.22290538
52	0x3e9b11d3	0.30287036
53	0x3e891d18	0.2678001
54	0xbe717781	-0.23580743
55	0x3ea42c30	0.32064962
56	0x3ca56208	0.020188347
57	0x3df8d201	0.1214943
58	0x3d7bb74c	0.061454102
59	0xba35df24	-0.00069378526
60	0x3ac19f5e	0.0014772227
61	0xbe874775	-0.26421705
62	0xbe03a83c	-0.12857145
63	0x3e554bfe	0.2082977
64	0x3e0d9cbf	0.13829325
65	0xbea90a72	-0.33015782
66	0x3d6a82a8	0.05725351
67	0xbe9cf441	-0.306551
68	0x3e30f7a9	0.17281975
69	0x3d6fad14	0.05851467
70	0xbe80819a	-0.25098878
71	0x3e59f87c	0.21286196
72	0x3eb71edb	0.35765728
73	0xbc52819d	-0.012848285
74	0xbe9400f6	-0.28906983
75	0xbe343317	-0.17597614
76	0x3e3caab7	0.18424498
77	0xbe4c80d9	-0.19971026
78	0x3ea1680e	0.315247
79	0xbe35fbca	-0.17771831
80	0x3ebd3083	0.36951074
81	0x3df4cb10	0.119527936
82	0x3dc079c0	0.09398222
83	0x3e9f7668	0.31145024
84	0x3e1192d0	0.14216161
85	0x3ea0516f	0.3131213
86	0xbea6f38a	-0.3260768
87	0xbd98619a	-0.07440491
88	0xbeb1df00	-0.34740448
89	0x3e920fdd	0.28527728
90	0x3eaf6f85	0.3426477
91	0xbe660c8f	-0.22465728
92	0xbe054d0c	-0.13017672
93	0xbd9efaf6	-0.07762711
94	0xbe751c1e	-0.23936507
95	0xbe3e38de	-0.1857638

h2o.bias f4 [2]
0	0xbd9853b5	-0.07437841
1	0xbc864a7e	-0.016392943

h2v.weight f4 [1, 48]
0	0xbdfbb117	-0.122896366
1	0xbd8c51f7	-0.06851571
2	0x3cb63f6c	0.022247039
3	0xbdca6d61	-0.098841436
4	0x3dfe7a13	0.124256276
5	0x3c2794e1	0.010228367
6	0x3bde6d06	0.006787899
7	0xbbe444f1	-0.0069662263
8	0xbdc5b44d	-0.0965353
9	0x3de0e60b	0.10981377
10	0xbdc8699e	-0.0978577
11	0xbdb059d3	-0.086108826
12	0x3dfaa1c6	0.12237887
13	0x3dcf0391	0.10108102
14	0x3e0accc5	0.13554676
15	0x3d2bb261	0.041918162
16	0xbd709bdb	-0.058742385
17	0xbdfd0696	-0.12354772
18	0xbe04ac44	-0.12956339
19	0x3c67cbea	0.014147738
20	0xbe04e873	-0.12979297
21	0x3d23c87e	0.039986126
22	0xbde604c8	-0.11231381
23	0x3cf0528d	0.029336238
24	0xbcfb2644	-0.030657895
25	0x3cc59748	0.024119988
26	0x3da1fe9c	0.07909891
27	0xbdb155e1	-0.08658958
28	0x3d0a9da0	0.03384173
29	0x3deda4de	0.116037115
30	0x3e0ab62c	0.13546056
31	0xbc8576c2	-0.01629198
32	0x3d81c6db	0.06336757
33	0x3df76b95	0.120810665
34	0x3ce49af7	0.027905924
35	0xbdacaa55	-0.08430926
36	0x3d607877	0.054802384
37	0x3da0bb08	0.078481734
38	0xbe06dca1	-0.13170101
39	0x3e13b0c0	0.14422894
40	0xbc93123d	-0.017953033
41	0xbc6cc2f4	-0.014450777
42	0xbd8bd331	-0.06827391
43	0xbb1f901c	-0.002434737
44	0xbd594521	-0.053044442
45	0xbbc44208	-0.005989317
46	0x3ade7b9a	0.0016974092
47	0x3d34c739	0.044135306
