BP_A2C/training_results/BP_RNN_a2c_result_72_202436_entropycoef_0.01_valuepredcoef_0.1_learningrate_0.0005_numtrainepisodes_20000_selectionmethod_range_evaluation_all_params_trainingmethod_quarter_range_numneurons_48_randomizationparams_[(0.775, 5.75), (1.0, 2.0), (0.8, 2.25)]/checkpoint_BP_RNN_A2C_3.pt (torch, 25074 bytes, 10 tensors)

w f4 [48, 48]
00000000: fc7b d43c eb44 10bd 039a 123d 0c40 433d
00000010: 09fa 8dbd 0f45 5c3d d963 d2bd daec 17bd
00000020: c54c 59bc 978e 31be 2929 423d 8859 d03c
00000030: 2958 83bc e6ee 8cbd 8e7b 4d3d cd0c 1c3e
00000040: 75b5 1b3e f97d 243e 2eac 3abc d840 90bd
00000050: 3ae9 1b3d 4656 6bbd 8a07 2f3e 212d 073d
00000060: 248f 93ba d41c babd 6a05 edbd 4669 09be
00000070: 5181 35bd a38e ebbc b176 dd3c 4d84 a3bd
00000080: 6375 c1bd 90a4 3abd ec3f cbbd cb6a 73bd
00000090: 9c10 5cb9 6b11 abb9 9605 c33d 5f77 c13c
000000a0: c6f3 3ebc 4121 18be 0656 fbbc 58ed b0bd
000000b0: f5bb 17bc 7626 2f3d 439d c4bd e6d4 7d3d
000000c0: 4368 2f3d 97ee 4c3e 984f 053e acb1 1a3d
000000d0: 477d 293c 1cbd b43d b0f0 3b3d b164 64bd
000000e0: 7b6d 6cbd 5162 203d f1f1 bbbd a8b3 023e
000000f0: 26c5 2abe 2c2f 35bd b0a6 0bbd b3b2 30bc
00000100: b178 18bd 47e8 f6bc e043 49bd 8ec2 b63d
00000110: 47a3 11be b056 9abd 02fb bf3c c232 33bc
00000120: b031 863d 3d3e 67bd 8d45 e73b 77a3 07b9
00000130: f96c 7c3d 9b71 05be e924 fcbd 63b5 3e3d
00000140: 06eb 8b3d ceaa 96bc 171b 16be f768 e03d
00000150: 7cae e23c 3f8a 753d 1a8f e93c c094 b5bd
00000160: 3680 0ebe 13cd 07bd de5b 053e 8d04 3a3e
00000170: f041 e8bd a09c 80bd 0a81 e23d efb5 c5bc
00000180: 9764 8b3d f049 babb 9101 103e 178b d73c
00000190: d876 54bd c041 633c 44ea c0bd aaf7 6fbc
000001a0: 593b b9bc d516 21be ce06 5abd 3e03 763d
000001b0: d3a5 17bd d7d9 31be 040d 633c 51be 943d
000001c0: 500c 223e ac2a 893e f95d 55bd eae5 d0bb
000001d0: 6ee4 0ebd 1413 14bd fdff 963e f0f5 a13d
000001e0: 2e48 183c 790c fdbc 22f0 9dbd bff1 a6bd
000001f0: fb72 613b 5266 c1bd 4308 973b d9c9 52bd
00000200: 927e 07be 0e29 903c 3412 10be 4981 06bd
00000210: ba8c aa3b 438d c63b 4992 923d 63d6 1e3d
00000220: 6efc ebbb 697c 34be 467f 07bd bd28 adbd
00000230: f184 00bd 689b 693c 2323 26bd 67e2 e33d
00000240: fa64 35bd 0c0c 88bd b6b5 3dbd a3bb 0f3d
00000250: 47aa 8bbd e2f5 69bc dc49 91bd 1954 963d
00000260: 1c3d cd3c 39b3 34be 2571 f93d faca b0bd
00000270: fd70 433c 7593 66bc c707 ad3c 3579 2d3e
00000280: 51e2 313e e3c5 00bd f711 163d e52f f5bd
00000290: f737 543d fd70 62bd da45 983c 3e6f 663d
000002a0: 854c 5ebd 4d9e 67bc 7a6f 39bd 5861 03be
000002b0: f8a1 ad3c e00f ce3c bf0e 1a3e 82e7 83bc
000002c0: fe9d c8bd dcf3 c33b d4d4 7d3d e53f 8bbd
000002d0: d402 4b3d f5d7 ebba 8a90 1c3d 0db9 d13d
000002e0: fead 783c d1b2 bdbd 8615 82bd cb56 e6bd
000002f0: 16e6 1e3d 05ef ad3d bb2b eabd 3842 153e
00000300: 90a9 abbb 15dd 103e 8a51 3a3d cdfe 73bd
00000310: 1a70 e93d 4454 8cbc d1da 7a3d dbc2 22bd
00000320: eb6c 70bc 9bae 093e ccf0 babd 3c14 4c3d
00000330: 50dc 3abc aa08 bf3c 82e1 87bd b70f 2bbe
00000340: eba8 cfbd 2200 1cbd 92f9 03bd ae8a 303e
00000350: 3908 5bbd 429b 36bc d400 f8bc e1ca b73c
00000360: e702 6c3d 47c0 8c3d a3d9 893d 897b fa3d
00000370: d5df 303c 472e c5bc 981a d6bd 6d77 e23d
00000380: 7c05 263d 7488 d93c 244c 11bb d8ea 3c3d
00000390: 685c f83a 6752 fbbc 2b2d 8dbd 8c7d 06be
000003a0: c4db e8bc 69e2 bd3d a633 573d 17fe 113e
000003b0: a714 41bc c0c9 06be 3a17 eb3d e9ed 87bd
000003c0: 1d88 fc3b 908b 563a 8280 093d 224c 123d
000003d0: fa38 843c 7220 83ba 6123 e1bd 57ae 2cbc
000003e0: 5617 b13d 2fea 49bd f77d d13c dc70 15bd
000003f0: f1bf 083c a773 4d3d 87cc a03d 025c 2d3d
0.025938027 -0.035221975 0.03579141 0.0476685 -0.06932456 0.053776797 -0.10272951 -0.037091114
-0.013262932 -0.1733955 0.047402535 0.025433317 -0.016033249 -0.06881504 0.05016666 0.15239258
0.15205939 0.1606368 -0.01139359 -0.07043618 0.03806422 -0.057455324 0.1709272 0.033002023
-0.0011257869 -0.0908753 -0.11573298 -0.13419065 -0.04431278 -0.028754538 0.027034136 -0.07984219
-0.09446218 -0.045567095 -0.099243015 -0.059428018 -0.00020987022 -0.0003262864 0.0952255 0.02361649
-0.0116548 -0.14856435 -0.030680668 -0.0863902 -0.009261121 0.04276129 -0.09600308 0.061970614
0.04282404 0.2001289 0.13018644 0.037767097 0.01034481 0.08825132 0.045883834 -0.05576009
-0.057721596 0.03915626 -0.09177006 0.12763846 -0.16676769 -0.04423444 -0.034094512 -0.010784793
-0.037224475 -0.030140055 -0.049136996 0.08923827 -0.14222442 -0.075360656 0.02343512 -0.010937395
0.06552446 -0.05645584 0.0070578516 -0.00012935499 0.061627362 -0.13031618 -0.123117276 0.046559703
0.068319365 -0.018391993 -0.14658771 0.109575205 0.027671091 0.059946295 0.028510619 -0.088662624
-0.13916096 -0.03315456 0.13023326 0.18165798 -0.113407016 -0.06279874 0.110597685 -0.024134604
0.06806295 -0.0056850836 0.14063098 0.02631144 -0.05187115 0.0138706565 -0.094196826 -0.01464645
-0.022611307 -0.15731366 -0.053229146 0.060061686 -0.037023377 -0.17368256 0.013858084 0.072628625
0.1582501 0.2679037 -0.052091572 -0.006375064 -0.034885816 -0.036151007 0.2949218 0.07908237
0.009294553 -0.030889736 -0.07711817 -0.08151578 0.003440081 -0.09443344 0.004609139 -0.05146203
-0.13231876 0.017597701 -0.14069444 -0.03283814 0.005204764 0.00605932 0.07156808 0.038778674
-0.007201723 -0.17625584 -0.03308036 -0.08455036 -0.031376783 0.014258243 -0.040560853 0.11127167
-0.044285752 -0.06642923 -0.04631587 0.035091054 -0.06819587 -0.014279814 -0.07094166 0.07340259
0.025053553 -0.17646493 0.12179784 -0.08632465 0.011928794 -0.014073242 0.021121873 0.16940768
0.17371489 -0.03143872 0.036638226 -0.11972026 0.051811185 -0.055283535 0.018587995 0.056258433
-0.054272193 -0.014136863 -0.045272328 -0.12830102 0.021195397 0.025154054 0.15044688 -0.016101602
-0.097957596 0.005979998 0.061970547 -0.06799296 0.049563244 -0.0017993437 0.03822378 0.10240374
0.015178202 -0.09262622 -0.063517615 -0.11247023 0.038793646 0.08492855 -0.11434122 0.14576042
-0.0052387193 0.14146836 0.045487918 -0.05956917 0.11398335 -0.017130025 0.061243836 -0.03973661
-0.014674406 0.13445513 -0.091279596 0.049823985 -0.011405066 0.023319561 -0.06634809 -0.16705213
-0.101396404 -0.038086064 -0.03222043 0.17240402 -0.05347464 -0.011145415 -0.030273832 0.022435607
0.057619955 0.068726115 0.06730964 0.12230594 0.010795553 -0.024069918 -0.10454291 0.11057935
0.040532574 0.026554324 -0.0022170627 0.046122402 0.0018948438 -0.030678941 -0.06893381 -0.1313383
-0.028425105 0.092717 0.05253949 0.14257084 -0.011784709 -0.13162899 0.114790395 -0.06637175
0.0077066557 0.00081842486 0.03356982 0.035717137 0.01614045 -0.0010004176 -0.10993076 -0.010539613
0.08647029 -0.0492956 0.02557276 -0.036484584 0.008346544 0.050159123 0.078515105 0.042324074

alpha f4 [48, 48]
00000000: abb6 d9bd cdbd 0cbd cf1b 3ebd fac4 95bc
00000010: c8a0 3b3c 5edc 4cbb 107f 23bd f715 01be
00000020: bd98 53bd 510c f73c fd1c 9c3c e573 a9bc
00000030: 9c16 b5bc 88cf 493d 5453 c5bd 3c29 ea3b
00000040: daf8 db3a 66a8 743d 2434 8a3d 4234 5bbc
00000050: 9de4 0c3e 6795 2ebc 46b7 da3d 1a3c 103e
00000060: 77b6 073e 5212 153d 5088 7a3d d2f2 28bd
00000070: 850d f63d b22f e13d 27f1 fdbd 0367 cb3c
00000080: 5214 c1bd 74b5 a63d b352 e0bd 3648 2e3e
00000090: 1e89 263e 5bd2 dcbb 6bcd 883d e02e cd3c
000000a0: 3424 96bd 1216 1abd 6010 59b9 42fb b73d
000000b0: 24da 113e bf81 7ebd 5836 7ebc f19b be3c
000000c0: e0cd 2bbe 17f8 97bd f3fb 19bd 011e 29be
000000d0: dcc0 b03d ecf8 d7bc f7a3 dbbd b31d a63c
000000e0: 9fda a23d c43a 54bd 2274 a4bd 8e23 15bd
000000f0: 7aaa 4ebc b250 ca3b 49ad 96bd 1a16 73bb
00000100: 7b2c ea3d 6bc2 4f3d 4ce4 df3b a14e 493d
00000110: 9ee6 03be fe53 f73d 4656 bd3d 90b4 3b3d
00000120: 24fd 5abd 60f3 dbbb db85 0b3c 5d99 7cbd
00000130: 6e90 943d 5231 6e3c 2c57 45bd 4fac 153e
00000140: b184 1bbe a4d7 513c c5d5 7ebc c509 84bd
00000150: 9ade 95bd 4100 e1bd b079 b73d ccec 1bbe
00000160: 5495 69bd 071b c1bd f78e 6b3d 1eea f33c
00000170: 5ade 26be ad91 733d 747a db3d 9a71 d9bc
00000180: ef95 57bd b04e 0a3d df15 d23c e9f8 bcbb
00000190: 80f8 4bbd 6d43 9abd 9da2 083d d94e 76bd
000001a0: 198c 02be c6b2 883d 6a82 2d3c c528 a83c
000001b0: a935 463d 988b c5ba fc2e 90bc 89dd b1bd
000001c0: b9f4 f7bc 06d3 6e3d 57be 6a3c 3c43 a9bd
000001d0: 90c3 cb3d c706 85bd 3bb8 02be 07bb 103d
000001e0: 8fb5 ec3d 9a00 e83d d7a0 3f3d da19 56bc
000001f0: 58da b13d 63ba d33d 13f3 10be ca78 d93c
00000200: 5eaa c6bd cfa1 a83d 49c9 2abe 1c41 253e
00000210: 4098 283e 62cf 043d 976d fb3a 71fe 0ebd
00000220: 03db 2abd 65c1 2cbd c467 b73c 2228 153e
00000230: 6c3d ed3d 494f 2d3c a659 88bd 3f6d b1bb
00000240: 7647 09be 800c a9bc b2b0 6fbd 1a94 0ebd
00000250: 762f 073d b877 c1bb fe60 0fbe e0c8 d7bd
00000260: 0536 863d 00ab 80bd 43d6 073e 11a1 b33d
00000270: f687 b3bd 6ae1 463d 8c69 b1bd 1acc 5fbd
00000280: aaa4 033e b9b6 e63d 3041 633d 92f3 813d
00000290: bc6e 553d 537c f53c 4f86 213e 0d08 f23d
000002a0: 2e06 7f3d 97d3 5c3d 024b d8bc 182e 6cbd
000002b0: aed8 113d 2b08 be3d 2709 0dbe 2ab5 b63d
000002c0: 18b0 25be b1cd db3d 3ee8 89bd 24c0 f63b
000002d0: 8219 f53d 4af7 90bd 6d04 16bd a7d2 093c
000002e0: fc6f cbbd 46bb ddbc fe4d 7b3d ae18 523d
000002f0: d6c5 13bd 2eb0 2dbd a736 22b9 d2f9 063e
00000300: c9a4 f6bd c72f 0dbe 111f 00be dc6a 823c
00000310: 51ff 24ba 7625 bf3d f763 2ebe 071c 80be
00000320: e466 a9bd 28fc a3bd bf77 ea3d 5a0d d93d
00000330: 0034 19be 8af9 e53d 80bc 2bbe 5f73 033d
00000340: 5600 c23d cacd 003e d3e7 bc3d 325a 433d
00000350: 72d8 2e3d 5fa6 473d 1029 7e3e 20a5 5a3e
00000360: e6bf f83d 7051 69bd fb0b 8d3b 2bcf 03be
00000370: d739 2d3e b5ca 5e3e 5a3b 33be e953 c2bc
00000380: dd87 13be cb17 363e ac5b 4dbe 9b56 a83d
00000390: f52a 8b3d 61b1 94bd 10d3 f0b9 0939 1b3e
000003a0: 6a7e 02bc 57ba ccbd dda9 fb3c e20c 123e
000003b0: 1ca3 033e 3f5f 0ebe 862f 073d a483 8c3d
000003c0: 59d0 b0bc a362 593d f3f4 ce3d b4aa 4ebe
000003d0: d75b fb3d 2bb2 323d 4ed3 12be 9e8e 71bd
000003e0: 301e 10bc 9040 54bd 07c2 5a3d cd48 d3b9
000003f0: 4379 52bd 6b6a f13d da35 6d3d f591 3cbd
-0.10630544 -0.034360696 -0.04641324 -0.018282402 0.011451907 -0.0031259279 -0.039916098 -0.12606035
-0.051659334 0.03015724 0.019056791 -0.020685146 -0.022105508 0.049270183 -0.09635034 0.007146029
0.0016782538 0.05973091 0.06748226 -0.013379158 0.13759084 -0.0106557375 0.10679488 0.14085427
0.13253199 0.036394425 0.061165154 -0.041247196 0.120142974 0.10995425 -0.12399512 0.024829393
-0.09427704 0.08140078 -0.109532736 0.17019734 0.16263244 -0.0067389435 0.06679805 0.025046766
-0.07331124 -0.037618704 -0.00020700833 0.089834705 0.1424337 -0.062135454 -0.015515886 0.023267718
-0.16777754 -0.07420366 -0.037593793 -0.16515352 0.08630535 -0.026363812 -0.10724633 0.020277834
0.07951855 -0.051813856 -0.08029963 -0.03641086 -0.012613887 0.0061741704 -0.0735727 -0.003709203
0.11434265 0.05072252 0.006832635 0.049147252 -0.12880942 0.12076567 0.09244971 0.045826495
-0.05346407 -0.006712362 0.0085158 -0.061669696 0.0725411 0.014538126 -0.048178837 0.14616512
-0.15187337 0.01280776 -0.015553896 -0.06447176 -0.073178485 -0.109863766 0.08958757 -0.1522705
-0.057027176 -0.09428983 0.05750939 0.029774722 -0.16295758 0.0594651 0.107167155 -0.026543427
-0.052633222 0.03376645 0.025645195 -0.005766977 -0.049797535 -0.07532392 0.033358205 -0.06013379
-0.12748756 0.06674723 0.010590175 0.020527253 0.048391018 -0.0015071509 -0.017600529 -0.086848326
-0.03026806 0.058306716 0.014327607 -0.08264777 0.0994941 -0.06495433 -0.12765591 0.035334613
0.11558067 0.1132824 0.04678425 -0.013067687 0.08684224 0.10338285 -0.14155225 0.026546855
-0.09700464 0.082339875 -0.16678347 0.16138119 0.16464329 0.03242434 0.0019182441 -0.034910623
-0.041712772 -0.042176623 0.022388346 0.1456609 0.11583981 0.010577985 -0.06657724 -0.0054146345
-0.13406166 -0.020635843 -0.05851812 -0.03480921 0.033004247 -0.005904164 -0.14001843 -0.10536361
0.06553272 -0.06282616 0.13265328 0.08770955 -0.08766167 0.048554815 -0.086627096 -0.054638006
0.12855783 0.1126532 0.05548209 0.063452855 0.052107558 0.029966509 0.15773891 0.11817942
0.062261753 0.053912725 -0.026402954 -0.057661146 0.035607032 0.09278902 -0.13773023 0.08921273
-0.16180456 0.10732592 -0.0673375 0.007530229 0.11967756 -0.07078417 -0.036625315 0.00841204
-0.09933469 -0.027066838 0.061353676 0.051293068 -0.036077343 -0.042404346 -0.00015469884 0.13181236
-0.12043149 -0.13787757 -0.12511851 0.015920095 -0.00062941486 0.09333317 -0.17030321 -0.25021383
-0.08271578 -0.08007079 0.11448621 0.1059825 -0.14961243 0.112292364 -0.16771126 0.03209245
0.0947272 0.12578502 0.092239045 0.04769344 0.042686887 0.04874265 0.24820352 0.21352053
0.12145977 -0.05696243 0.0043044067 -0.12871997 0.16916595 0.21757014 -0.1750311 -0.023721652
-0.14407296 0.17782514 -0.20054501 0.08219644 0.06795303 -0.07260395 -0.0004593362 0.15158476
-0.00796471 -0.09996479 0.030720646 0.14262727 0.1285519 -0.13903521 0.033004306 0.06861046
-0.021583723 0.053072583 0.10105314 -0.20182306 0.122733764 0.043626945 -0.14338419 -0.0589739
-0.00879626 -0.051819384 0.053407695 -0.00040299297 -0.051385175 0.11787876 0.057912685 -0.046037633

i2h.weight f4 [48, 4]
00000000: 9777 ac3e 59c3 283e 185a fa3e a25f a0bd
00000010: d3e5 00bf 8873 ea3e e8d2 7c3d 7deb 483e
00000020: 8d5f 643d 3a3e d73e ba9b 5d3f 5d75 993d
00000030: cf7b 0d3e 3d35 263c 3215 26bf 2fde 03bf
00000040: 7fd4 e8be 3b27 e33e 1335 083f 53e0 f23e
00000050: b4b5 aabe 654e 09be 9fec 7e3e 8c39 513c
00000060: 55b4 23bd 0e06 723e 76ad e0bc 1eee a23e
00000070: 8b6e d13e 9803 4cbe 9188 b4be acf0 86be
00000080: 698e e5bd 4c9e b13d fb18 12be f7f8 09bf
00000090: c84c 403d ca50 babd 1118 30bf ca0f 663d
000000a0: 7f86 9fbc c8bb b93e b7f3 59bf 9928 1dbf
000000b0: 8425 dabe d359 efbe 467c db3e 8586 f23e
000000c0: 2429 943e 3cb5 ecbe c6bf ccbc 45e1 95be
000000d0: 63f2 283d 0d4e 42be f111 a83e 8eca a63c
000000e0: b2f3 e5be 9add e73e 8714 553e 369a 1bbe
000000f0: 199e 52bd 0bb9 a5bd 08a0 0cbe 222c f7be
00000100: ea62 15be 2b9d fa3e ed15 1f3e 86ac 8a3e
00000110: 2312 823e 6f47 70be 5fec 193f 812f d73c
00000120: 2dee c73e d1dd c13e 0f52 5bbe 8e5e d9be
00000130: 42a7 fbbe 2d5b 16bf 62b1 723e 2939 fa3b
00000140: 14e4 c03d 86fa 903e 5e8a 4d3e fdd1 00bf
00000150: 2826 c83e 1a8b e8be 57b7 09bf 32a8 f3bd
00000160: 7124 253e 0042 9a3e d605 803f e8b9 a43e
00000170: bdc3 e7be e452 2abd a2a6 1cbe 414c d33e
00000180: 6880 2d3c 5860 cebe 76d9 483e a974 e33e
00000190: 5cdc babe d786 9fbe f23f cabc 96fd 87bd
000001a0: c221 003e 8acb 033f d370 c3be 758f 5ebe
000001b0: 5c4b cabe c0f3 bcbe a623 1d3f 89b6 af3e
000001c0: c997 8a3e 700d aa3e 1315 f2be 3b6d adbd
000001d0: 3260 5ebd 5a7d ffbd 31f3 f8be 9602 e4be
000001e0: 3ced 32be fcdc 0cbe 2b66 4cbd 0366 29bf
000001f0: d635 133d 1af5 b73e 254e 5c3e c4c2 ea3e
00000200: f28f 663d 584c 6fbe 5c66 ecbe f7ac 2cbe
00000210: 2ae3 74be 2e71 0a3e 5898 0dbf f093 4cbe
00000220: 6d6c bf3e 2174 b7be bd57 c0be 5b7f e13c
00000230: 91e1 62bc 418d 99be fc7d 463c 7123 f63e
00000240: 46f4 df3d 68b2 ddbe 598a de3e c0b6 c53e
00000250: b5af e53e e777 95be dcbd 003f be2a c1bd
00000260: 6f76 cabe 1c31 8a3e 6cde 083f 1591 093e
00000270: a634 a73c 90e4 c9bd c51f 09bf 4a9c e2be
00000280: fa3a ffbe c3f9 9dbe 3df8 513e bb6f b4bd
00000290: 8ff9 813d 3f62 68be cfd1 16be ce09 aebe
000002a0: 0c23 65be 9ec7 05bf 90c4 4a3e aada 3f3e
000002b0: 317a 113e 6ef6 8abe d6eb 31be 6f72 2a3e
000002c0: e890 74bc 386f 0b3f 4ff9 183e ddf8 dbbd
000002d0: af35 4ebe 014d 823c eac1 5dbe 056c 18bf
000002e0: d75f 38be 7712 cebe be1a b53e 161d 2a3e
000002f0: 8db4 163f de15 f73d e4e9 24be 5e01 6e3c
0.3368499 0.16480769 0.4889686 -0.078307405 -0.50350684 0.45791268 0.061724573 0.19621082
0.055755187 0.42039663 0.86565745 0.074930884 0.1381676 0.010144529 -0.6487609 -0.515109
-0.45474622 0.44365868 0.53205985 0.4743677 -0.33341753 -0.13408811 0.24894951 0.012770068
-0.0399669 0.23635122 -0.027426463 0.31822294 0.4090465 -0.19923246 -0.35260442 -0.26355493
-0.11208803 0.08672771 -0.14267342 -0.53895515 0.046948224 -0.090974405 -0.6878672 0.0561674
-0.019473312 0.36276078 -0.85137504 -0.6139007 -0.42606747 -0.46748218 0.4286825 0.47368255
0.28937638 -0.4623202 -0.024993788 -0.2927343 0.041246783 -0.18975087 0.32826188 0.020360257
-0.44912487 0.45286256 0.20808612 -0.15195546 -0.051420305 -0.08091935 -0.13732922 -0.48275858
-0.14588514 0.48948035 0.15535708 0.2708475 0.25404462 -0.2346475 0.601263 0.026267769
0.390489 0.37864545 -0.21418022 -0.42454952 -0.49151045 -0.58732873 0.23700479 0.0076362086
0.094185024 0.28316134 0.20072314 -0.50320417 0.3909161 -0.45418626 -0.5379538 -0.11897315
0.16127183 0.3012848 1.0001781 0.32173085 -0.45266524 -0.041582957 -0.1529794 0.41269115
0.0105896965 -0.4030788 0.19614205 0.44424942 -0.36496246 -0.31157562 -0.024688695 -0.066401646
0.12512878 0.5148245 -0.38172016 -0.21734412 -0.3951062 -0.36904716 0.6138252 0.3431895
0.27068928 0.33213377 -0.47281703 -0.084681 -0.054290958 -0.12475081 -0.4862304 -0.44533223
-0.1747331 -0.13756174 -0.049902122 -0.6617128 0.035940014 0.35929185 0.21514185 0.4585172
0.05628962 -0.23368967 -0.46171844 -0.16862856 -0.23914781 0.13519737 -0.55310583 -0.19978309
0.3738741 -0.35830787 -0.3756694 0.027526548 -0.013847725 -0.2999058 0.012114998 0.48073915
0.10935263 -0.43300176 0.43464926 0.3861599 0.44860616 -0.2919304 0.502897 -0.094319806
-0.39543483 0.26990592 0.5346439 0.1343425 0.020410847 -0.09858048 -0.535641 -0.44259864
-0.49849683 -0.30854616 0.20504852 -0.088103734 0.06346428 -0.22693728 -0.14728473 -0.33991855
-0.2237665 -0.52257717 0.19801545 0.18735757 0.14206769 -0.27141136 -0.1737512 0.16645215
-0.0149271265 0.5446658 0.14938854 -0.10740826 -0.20137666 0.015905859 -0.21656004 -0.59539825
-0.1800531 -0.40248463 0.35371965 0.16612658 0.5886925 0.12064718 -0.16104847 0.014526693

i2h.bias f4 [48]
00000000: b4a8 bf3e 1b9a a03e 1c99 953e 45aa 1c3e
00000010: 37bb 24be 6296 e1be 5590 8e3e 32ec 9cbe
00000020: a24d 1cbf 5aaf b0bc d294 9ebc e4ae 99be
00000030: c7bf cc3e 9761 03bf eeb5 9dbd a839 7abe
00000040: b980 b3be cb8e 103f b560 66be 0cda 063f
00000050: a7de 5dbd 5f2e 9f3e d6d5 fc3e a25d 743e
00000060: 3bc2 933e 7ee6 d03e 4608 443b 3b70 a23e
00000070: 0d84 33be 2cd5 09bf f514 cb3e 862b ecbe
00000080: 6e7b c13e a582 9abd 2e33 eebe d873 8e3e
00000090: 8bde a73e 159b 18be a383 393e cfdd 1d3d
000000a0: 2136 06bd 09c3 c83e bce9 023f 9173 9fbe
000000b0: 8255 a8be b94e b3bd b6d1 0bbd 51d7 a9be
0.37433398 0.31367573 0.29218376 0.15299328 -0.16087042 -0.44060045 0.27844492 -0.30648953
-0.6105596 -0.02156799 -0.019358072 -0.30016243 0.39990065 -0.51320785 -0.07700716 -0.24436057
-0.35059145 0.56467885 -0.22497828 0.52676463 -0.054167416 0.31090066 0.49381894 0.23863843
0.28859124 0.40800852 0.0029912158 0.3172625 -0.17530842 -0.538409 0.39664426 -0.46126956
0.37789482 -0.0754445 -0.46523422 0.27822757 0.32786974 -0.14902909 0.18116622 0.03854161
-0.032766465 0.392113 0.511379 -0.31142858 -0.32877737 -0.087552495 -0.034135543 -0.33172086

h2mod.weight f4 [1, 48]
00000000: b779 88bb 2819 f43c 7423 c9bc 785c b93d
00000010: ce40 0e3c 17f8 78bd 8f72 f13d a8a9 043e
00000020: 37ee c43d 608f 803d 7fa3 913d ecf3 a7bd
00000030: dd6a 363e df58 8abd d818 dbbc c453 083e
00000040: f854 34be 61b6 e43d e5af d33c 4aa3 5fbc
00000050: f073 c53d 3de9 9c3d a53d 1e3e 2d6c 6c3d
00000060: 845d 4dbd 3140 1b3e f5b4 083d 5c66 72bd
00000070: 6e5d b63d bf72 273d 550e d83d 5f75 3d3c
00000080: 2230 cd3d 2a76 143e abe9 f9bd 925f debb
00000090: 7236 b13b 4dc8 40bd 7e3d fa3d 568b 5d3e
000000a0: 7965 c7bc 1d45 12bd 3c86 2a3e b883 27be
000000b0: 7a58 053e fba7 463d 7914 b5bd 5430 98bd
-0.0041649 0.029797152 -0.024553038 0.0905084 0.008682443 -0.060783472 0.117894284 0.12955344
0.096157484 0.062773466 0.071112625 -0.08200821 0.17814203 -0.06755232 -0.026745245 0.13313204
-0.17610538 0.111675985 0.025840709 -0.013649771 0.09641254 0.07661674 0.15453203 0.057720352
-0.05013801 0.15161206 0.0333757 -0.05917965 0.08904539 0.040880915 0.105496086 0.011563628
0.10018946 0.14498201 -0.12202772 -0.006786295 0.0054081017 -0.04706602 0.1221876 0.21635184
-0.024340378 -0.035710443 0.16652769 -0.1635884 0.13022032 0.048500042 -0.088417955 -0.07431093

modfanout.weight f4 [48, 1]
00000000: 22b3 d03c 97ac 34bf 4594 8fbe eeb0 703f
00000010: adb7 55bf e4c2 0c3f 9fed 2bbf 0b04 3cbf
00000020: 773b 523f ef00 4f3f 619a 283f b752 1fbd
00000030: 2394 63bf 6567 76bf aeaa 90be 619e babe
00000040: 225f 12bf f52a 843f b3cd e43e 76dc aabe
00000050: a41d 43bf 942f e0be 344c 17bf 185a 6ebf
00000060: 67a4 3ebf 2ae1 aabc 8922 05bf 24d9 9f3e
00000070: 4ef8 3bbf 99da 9cbd d7f9 4f3f 8ebc 80be
00000080: 514f 9f3e f1ab 12bf f8a7 ac3e ef37 44bf
00000090: 10c7 c6bc 9e5f e13e c0df c6be 3c22 e63c
000000a0: 5380 81be ff5a 133f 09be 4b3f 8f07 493f
000000b0: 26d9 11bf 0a9c c03c 6ebb 55bf f7f7 0e3e
0.025476042 -0.7057585 -0.28042808 0.94019973 -0.8348339 0.5498488 -0.67159456 -0.7344367
0.82121986 0.808608 0.65860564 -0.038897242 -0.88897914 -0.9625152 -0.28255218 -0.3644896
-0.5717641 1.032561 0.44688186 -0.33371323 -0.76217103 -0.437863 -0.5910065 -0.9310622
-0.7446961 -0.02085932 -0.5200582 0.31220353 -0.7342576 -0.07658882 0.812406 -0.25143856
0.311152 -0.5729361 0.337219 -0.7664785 -0.024264842 0.44018263 -0.38842583 0.028092496
-0.25293216 0.57560724 0.79586846 0.7852716 -0.5697197 0.023511905 -0.8348912 0.13961779

modfanout.bias f4 [48]
00000000: 000e c93e 8b9c 1abf d37a a73e 56d3 3b3f
00000010: d60e 65bf 0f95 9d3e 6dd2 73be 3354 4d3f
00000020: b54b 333f b73e c4be d745 483f 18f1 7f3f
00000030: 2418 bdbe eee2 50be 68a2 65bf b5f2 4c3e
00000040: 73f2 963e 88a4 20bf bf4d 1abf fa2f f33e
00000050: dd16 39bf a025 273f dadb 1bbf cc5b f1be
00000060: d773 57bf 1b02 0fbf 8bda 5abf 961a 8abe
00000070: 1380 54bf 6a2a 9fbd 2b38 66bf 3bf1 ebbe
00000080: e3a7 cdbe 0ddf 40bf 4a32 823f d06c 04bf
00000090: 71e4 6ebf 02d4 1dbe 2c63 1d3f a998 443f
000000a0: d4b6 5c3f 1e74 16bf 1bf0 a8bd c162 19be
000000b0: 906a 9fbe 8605 58bd e5f0 073f b267 47bf
0.39268494 -0.60395116 0.32710895 0.7336935 -0.8947576 0.30777785 -0.2381074 0.802066
0.70037395 -0.38329098 0.7823157 0.99977255 -0.3693248 -0.20399067 -0.8970094 0.2001446
0.2948185 -0.62751055 -0.6027488 0.4749754 -0.7230051 0.65291786 -0.6088234 -0.47140348
-0.8416113 -0.5586259 -0.8548972 -0.26973408 -0.83007926 -0.07771762 -0.89929456 -0.46082482
-0.4016715 -0.7534035 1.0171597 -0.51728535 -0.93317324 -0.15412906 0.6147945 0.7679544
0.86216474 -0.5877093 -0.082489215 -0.14979078 -0.31135988 -0.052739643 0.5310195 -0.778926

h2o.weight f4 [2, 48]
00000000: 2731 db3c 0cab 43be 4fd1 3fbe 841d 303e
00000010: 1fab 19bd 74f8 d0bd 6069 653e 2991 243e
00000020: 2129 e93d a332 a53e 8b25 993e 243d 52be
00000030: 2089 1c3e 87db 103e f9c5 89bd 879a 223e
00000040: c311 a5be 4d95 58be e506 4c3e 22fc 373e
00000050: 50c3 5fbe fed6 ff3e 76f5 3cbf 40f2 2dbe
00000060: c3d2 acbc d619 e53e 715a 093e 6117 72be
00000070: 9a5b 8a3e 9abd 4e3e c174 c33d 37b8 d63d
00000080: 65f5 8d3e 3711 ce3e 33d6 2bbe 309f 5b3e
00000090: bed1 8a3d 7077 ad3d 056b 9fbe bc05 d93d
000000a0: 2ebc fa3d e382 163e 6bf1 b93d 48b6 f73d
000000b0: 21d5 613d 3b42 333e 0bf7 02bd 9073 be3d
000000c0: 64c3 a33d 254a de3e b939 8a3e 73b5 6dbe
000000d0: 76ee c83d 3378 803e 47f1 32be 3d26 12be
000000e0: 48c6 d2bc 071d dabe 3682 82be 305b a03e
000000f0: 8c96 29be 90ce 14be e00b 42bd d413 e4bd
00000100: 612b a43e 55f0 4c3e 3c02 89be 153e 833c
00000110: 8c0e 383e dfa1 85be ab81 293f 6d8d ac3e
00000120: 1716 09bd 4244 d7be 6f3f 88bd e8ce c13d
00000130: f8b5 97be 3f28 8cbe 8a01 763d a0df 903d
00000140: ca7a 33be fc0f e3be 97cf 92bd 4412 94bb
00000150: 68ee 4abe a73e 67bd 1a71 a13d 20a9 b9be
00000160: 5f73 84be bb45 713b 1837 3b3d e33a 83bd
00000170: 5d6e cfbc 3632 a8be b78a 99bc 3cb2 4f3d
0.026756836 -0.19108218 -0.18732189 0.1719876 -0.03751671 -0.10203639 0.22403479 0.16070999
0.11384798 0.32265195 0.29911456 -0.20531136 0.15286684 0.14146243 -0.067272134 0.1587926
-0.32240114 -0.21150704 0.19924505 0.17967275 -0.2185185 0.49968714 -0.73812044 -0.16986942
-0.021096593 0.44746274 0.13413407 -0.23641731 0.2702301 0.20189515 0.095437534 0.10484355
0.27726284 0.4024751 -0.1678093 0.21447444 0.067782864 0.084700465 -0.31136337 0.10596797
0.12242924 0.14698367 0.0907925 0.12095314 0.055134896 0.17505734 -0.03197388 0.092993855
0.07996252 0.43415943 0.26997164 -0.23213749 0.09811108 0.25091705 -0.17474853 -0.14272399
-0.025729313 -0.4260027 -0.25489968 0.3131957 -0.16561335 -0.14531922 -0.047374606 -0.111365944
0.32064345 0.20013554 -0.26759517 0.016020814 0.17974299 -0.2610006 0.6621348 0.3370165
-0.033468332 -0.42044264 -0.06652724 0.09463292 -0.2963102 -0.27374455 0.06006006 0.07073903
-0.17527309 -0.44348133 -0.07168501 -0.004518779 -0.19817507 -0.056456234 0.078829005 -0.36261845
-0.2586927 0.0036815244 0.04570684 -0.06407716 -0.02532118 -0.32850808 -0.018742902 0.050707087

h2o.bias f4 [2]
00000000: dd14 903e 092a e5be
0.28140917 -0.44758633

h2v.weight f4 [1, 48]
00000000: 9a64 00be e747 04bc 0dfe 4abd 3280 87bd
00000010: fdfb 0d3d 1eb0 bebd 98cd 9d3c 6199 4f3d
00000020: af99 fc3d 73e3 103e 9490 c7bd ef31 8ebd
00000030: 31d9 18bc 3b6f 09be c686 c63c e146 23bd
00000040: 22d4 3ebc aac1 ca3c fa38 4abc 27b5 d9bd
00000050: 3b30 08be d8d4 ff3c 47dc bcbd 978c b8bd
00000060: b6b7 083e 7f6f f6bb 1c29 5abc 6d93 67bd
00000070: 205c 4c3d 12b3 4e3d 5c74 0dbe 4678 e73d
00000080: bb9d ed3c 264f 15bd 0ad6 203d 43bf aabc
00000090: 146b 2c3d 0806 06bd bb87 ee3d 4f79 59bc
000000a0: 1701 d4bd 65c1 fb3d 4469 fd3d e6c0 e5bd
000000b0: 8dcf ce3d dfcc 35bd ee74 31bd 7045 0fbd
-0.12538376 -0.0080737835 -0.049558688 -0.06616248 0.034664143 -0.093109354 0.019263074 0.050683383
0.12334 0.14149265 -0.09744373 -0.06943118 -0.009329126 -0.13421337 0.024234187 -0.039862517
-0.011647256 0.02475055 -0.012342686 -0.10630255 -0.13299648 0.031229421 -0.09221702 -0.090111904
0.1335133 -0.0075206156 -0.013315465 -0.05653708 0.049892545 0.050463744 -0.13813919 0.11302237
0.029005876 -0.036452435 0.039266624 -0.020843154 0.042094305 -0.032720596 0.11646982 -0.013273551
-0.1035177 0.122927465 0.123735934 -0.11218433 0.10098181 -0.044384833 -0.043324403 -0.03497833
