LTC_A2C/training_results/LTC_a2c_result_112_2024214_learningrate_0.001_selectiomethod_evaluation_gamma_0.99_trainingmethod_standard_numneurons_64_tausysextraction_True/checkpoint_LTC_A2C_2.pt (torch, 96870 bytes, 21 tensors)

ltc_model.rnn_cell.gleak f4 [64]
0.34002337 0.7613132 0.4885462 0.6404046 0.33763763 0.6762561 0.14886633 0.86515415
0.7774281 0.43890664 0.1227329 0.73828214 0.27113095 0.839428 1.0502878 0.94176626
0.97407264 0.9321374 0.06559743 0.24685125 0.47978202 0.18636777 0.17590463 0.6592661
0.7534834 0.4875829 0.036044456 0.5781901 0.7477546 0.31832197 0.57402223 1.0143968
-0.008438679 0.23111683 0.27910388 0.78487474 0.9193567 0.6926858 0.37206122 0.46632695
0.5896113 0.049714457 0.21085314 0.22740804 0.6869288 0.35588574 0.5902848 0.6842294
0.2730442 0.49626306 0.73912585 0.7736259 0.345739 0.7894819 0.43546766 0.80500174
0.42858762 -0.018050842 0.44478005 0.3834392 0.5621699 0.35236698 0.16570097 0.32488903
00000000: 8b17 ae3e 6ce5 423f ba22 fa3e 8ef1 233f
00000010: d7de ac3e 1f1f 2d3f 6a70 183e be7a 5d3f
00000020: 8705 473f 5fb8 e03e 635b fb3d 0f00 3d3f
00000030: add1 8a3e c1e4 563f d56f 863f 9817 713f
00000040: d35c 793f 8fa0 6e3f f257 863d 93c6 7c3e
00000050: fda5 f53e 31d7 3e3e 5820 343e aac5 283f
00000060: 4ae4 403f 77a4 f93e 5aa3 133d 4404 143f
00000070: d86c 3f3f 19fb a23e 1ff3 123f c1d7 813f
00000080: 6342 0abc e4a9 6c3e b4e6 8e3e 8ded 483f
00000090: f65a 6b3f db53 313f cf7e be3e 68c2 ee3e
000000a0: c4f0 163f 63a1 4b3d e3e9 573e a7dd 683e
000000b0: 91da 2f3f a836 b63e e81c 173f a829 2f3f
000000c0: 73cc 8b3e 3116 fe3e 5a37 3d3f 590c 463f
000000d0: b404 b13e 7c1b 4a3f 9ef5 de3e 9814 4e3f
000000e0: d66f db3e 5cdf 93bc 36ba e33e 2552 c43e
000000f0: 5eea 0f3f 7269 b43e 84ad 293e db57 a63e

ltc_model.rnn_cell.vleak f4 [64]
-0.060828727 -0.08913404 -0.10600101 0.1428651 -0.06573512 0.094439805 -0.114528276 -0.14086178
-0.19083391 -0.04452645 0.12148433 -0.14114301 -0.17139782 0.034105554 -0.2957918 -0.24557072
-0.15129285 -0.0074987905 0.012173942 -0.031874087 0.09424077 -0.24038358 -0.010679892 -0.23263645
0.025077771 -0.17283794 -0.054606944 -0.032708384 -0.02026948 -0.14659306 -0.05906541 0.11264317
-0.0871332 -0.1241909 -0.016142245 -0.089423686 -0.3432498 0.07074255 -0.048893735 -0.14106269
0.15626478 -0.08096176 -0.057401508 -0.009828069 0.07684408 -0.19745246 0.014451427 0.11252582
-0.087484255 0.057877254 0.048474636 -0.05634991 -0.2333474 0.20063649 0.059523024 -0.14787139
-0.21467343 0.099081695 0.05214985 -0.22635412 0.10199713 -0.23432116 -0.019913238 -0.10329575
00000000: 8b27 79bd e88b b6bd 0f17 d9bd 3b4b 123e
00000010: 22a0 86bd a869 c13d cd8d eabd 123e 10be
00000020: f769 43be 5e61 36bd c7cc f83d cb87 10be
00000030: e982 2fbe 44b2 0b3d 0672 97be e476 7bbe
00000040: 83ec 1abe 6ab8 f5bb 3775 473c 678e 02bd
00000050: 4e01 c13d 1d27 76be b7fa 2ebc 4038 6ebe
00000060: e66f cd3c 6efc 30be 88ab 5fbd 3af9 05bd
00000070: 2e0c a6bc 7e1c 16be 92ee 71bd 76b1 e63d
00000080: e472 b2bd cc57 febd be3c 84bc c423 b7bd
00000090: 70be afbe 78e1 903d cc44 48bd bd72 10be
000000a0: e003 203e 47cf a5bd d81d 6bbd e905 21bc
000000b0: 6e60 9d3d fa30 4abe aec5 6c3c f073 e63d
000000c0: f22a b3bd b310 6d3d 578d 463d 2acf 66bd
000000d0: 9ff2 6ebe a773 4d3e 6ace 733d 996b 17be
000000e0: 5ad3 5bbe 58eb ca3d 159b 553d 60c9 67be
000000f0: dfe3 d03d e3f1 6fbe 1621 a3bc b98c d3bd

ltc_model.rnn_cell.cm f4 [64]
0.37892333 0.52636826 0.47964835 0.4194398 0.3578626 0.50021315 0.43447733 0.31493253
0.4670106 0.6590067 0.46636987 0.48293152 0.512687 0.37949187 0.41783312 0.48004776
0.48379692 0.2593261 0.53955936 0.42348412 0.52491075 0.42186952 0.60024536 0.5722865
0.4694331 0.54301745 0.5289258 0.498448 0.52331215 0.5758171 0.4401952 0.37305763
0.6034732 0.49246678 0.53542584 0.35135335 0.43455368 0.35522336 0.32555953 0.610359
0.4128008 0.6095586 0.5161698 0.38331512 0.37266594 0.59405446 0.45240358 0.49492174
0.4344822 0.37513325 0.4051442 0.46181625 0.57100284 0.38667464 0.43217134 0.4686789
0.47410372 0.29176372 0.32655442 0.3748896 0.4545337 0.61263764 0.43857437 0.5968591
00000000: 3d02 c23e 12c0 063f 7894 f53e d0c0 d63e
00000010: c439 b73e f80d 003f d073 de3e d63e a13e
00000020: 031c ef3e aab4 283f 08c8 ee3e cd42 f73e
00000030: 753f 033f c24c c23e 39ee d53e d2c8 f53e
00000040: 3bb4 f73e 64c6 843e 9020 0a3f e9d2 d83e
00000050: 8d60 063f 48ff d73e aea9 193f 5e81 123f
00000060: 8959 f03e 3103 0b3f ae67 073f 9434 ff3e
00000070: c9f7 053f c068 133f 4461 e13e 6901 bf3e
00000080: 387d 1a3f 9b24 fc3e ab11 093f 96e4 b33e
00000090: d27d de3e d6df b53e bdaf a63e 7d40 1c3f
000000a0: a05a d33e 080c 1c3f b423 043f e141 c43e
000000b0: 12ce be3e f413 183f 71a1 e73e 6266 fd3e
000000c0: 7374 de3e 7711 c03e 106f cf3e 2e73 ec3e
000000d0: 3e2d 123f 38fa c53e 9045 dd3e aef6 ef3e
000000e0: b9bd f23e 0e62 953e 2432 a73e 88f1 bf3e
000000f0: a4b8 e83e d2d5 1c3f d28c e03e c2cb 183f

ltc_model.rnn_cell.sigma f4 [64, 64]
7.5555944 5.73601 6.2775292 7.739703 7.522413 5.6628137 3.8256521 5.210578
7.0821342 6.9231524 7.7578907 4.6709013 4.3303423 4.810013 4.4491324 4.441516
3.4718113 4.381535 4.6220894 4.8273015 3.273245 5.71587 5.3492618 6.206698
7.845113 5.8211207 4.6952763 6.835903 4.2326636 3.4615798 5.952933 3.1063776
5.5040045 5.6506867 3.9152174 5.722525 5.006383 3.6873538 7.1436567 3.9751265
3.2225811 4.0469055 5.0843563 4.839302 7.3390083 7.6004615 8.035922 3.1078625
4.499163 3.6873848 5.3743606 4.923264 3.7799723 4.4424605 3.4031932 7.373935
3.935887 2.9989386 8.046639 6.278365 6.2197943 5.5232015 3.5333295 5.4763527
5.4336023 6.56586 6.343073 3.6983964 3.4841595 3.6133149 5.813317 3.37382
5.1589923 3.3263555 7.353393 3.6333559 5.452342 6.877361 5.9640875 3.6593022
5.0714793 7.222692 4.761804 7.4000907 7.3323684 5.6877885 6.085599 3.1036694
6.811701 5.872943 7.707111 3.6444366 7.782804 5.966145 4.2178817 4.684407
7.8183265 3.9749594 6.3243566 5.3029823 6.1283326 3.5350804 6.447537 3.8501058
6.2514234 7.0083313 7.346035 4.191309 7.9309616 5.8644934 4.363384 7.364847
7.9667287 3.3757608 5.2712693 8.06123 6.618278 5.2299266 7.9476905 3.3013296
7.662121 3.8516526 4.416529 3.4657664 7.2113657 7.044786 7.8472238 6.379097
5.9347115 3.4671416 3.2213984 3.324412 7.81779 4.382755 6.4393606 3.5740616
7.0766153 4.1570177 8.006823 6.681775 4.4632707 4.9367933 5.734916 4.65462
3.7567396 5.0219803 5.5843067 6.888754 5.409149 4.798503 3.3066652 4.7319884
3.8830771 8.018017 7.1544905 4.6938367 3.1666262 4.3112535 7.017052 6.4182014
6.278673 7.4356403 3.8933222 4.7673616 6.4966693 4.788192 4.737297 5.8298397
7.060805 3.1349645 4.848889 7.4818153 3.2604349 4.977345 6.496365 3.7974522
4.52433 7.9573727 7.2911983 7.4519386 7.0883365 4.4023905 4.752108 6.8521614
7.2426653 3.5036259 7.446106 4.0559816 7.1029134 5.5681868 3.4533815 6.862706
7.784428 5.3835325 4.865384 7.0646977 3.745889 3.5725577 3.230799 3.5527136
7.457344 7.5628066 3.8946939 7.406965 7.352514 7.3731923 5.1361876 3.5264902
5.705503 7.9345055 7.929329 6.5883536 6.269025 4.0418296 5.022736 5.6227465
7.120786 4.927602 6.6832414 7.0080843 3.4561782 3.3791072 4.4666204 6.0895853
3.9961262 7.1621046 6.2772365 6.2751546 6.973857 5.9577055 7.4636745 7.303354
6.9380703 5.455488 7.852316 5.25641 6.644794 7.166953 5.0763874 7.675577
3.7659373 7.8547335 4.817317 4.8037715 6.7820873 5.6634226 4.425085 4.6816726
6.7461076 7.2978673 5.516018 5.567445 4.584282 6.946639 3.423427 7.4146185
00000000: 6ec7 f140 658d b740 85e1 c840 a6ab f740
00000010: 9bb7 f040 c535 b540 7cd7 7440 0ebd a640
00000020: d8a0 e240 778a dd40 a440 f840 0678 9540
00000030: 2a92 8a40 a0eb 9940 4b5f 8e40 e620 8e40
00000040: 2832 5e40 8935 8c40 28e8 9340 4179 9a40
00000050: d97c 5140 68e8 b640 272d ab40 459d c640
00000060: 2a0b fb40 9f46 ba40 b43f 9640 b8bf da40
00000070: fb71 8740 868a 5d40 6d7e be40 e4ce 4640
00000080: ce20 b040 6dd2 b440 ec92 7a40 ed1e b740
00000090: 4a34 a040 9bfd 6b40 d698 e440 7968 7e40
000000a0: c53e 4e40 4080 8140 0cb3 a240 90db 9a40
000000b0: 28d9 ea40 fb36 f340 2393 0041 38e7 4640
000000c0: 25f9 8f40 1dfe 6b40 c3fa ab40 618b 9d40
000000d0: 11eb 7140 a328 8e40 ebcd 5940 47f7 eb40
000000e0: 93e5 7b40 9cee 3f40 09bf 0041 5ee8 c840
000000f0: 8e08 c740 11be b040 1222 6240 483e af40
00000100: 12e0 ad40 861b d240 74fa ca40 87b2 6c40
00000110: 78fc 5e40 8d40 6740 b106 ba40 abec 5740
00000120: 7716 a540 02e3 5440 ff4e eb40 e788 6840
00000130: 9679 ae40 5713 dc40 ced9 be40 0232 6a40
00000140: 8f49 a240 4b20 e740 b360 9840 8bcd ec40
00000150: c3a2 ea40 5d02 b640 3abd c240 85a2 4640
00000160: 74f9 d940 26ef bb40 a7a0 f640 733e 6940
00000170: bb0c f940 a9ea be40 e3f8 8640 aae6 9540
00000180: bb2f fa40 bc65 7e40 2161 ca40 08b2 a940
00000190: 4d1b c440 c23e 6240 3952 ce40 2268 7640
000001a0: a90b c840 4044 e040 b812 eb40 341f 8640
000001b0: 70ca fd40 eea9 bb40 d7a0 8b40 d4ac eb40
000001c0: 71ef fe40 770c 5840 3dae a840 ccfa 0041
000001d0: efc8 d340 8f5b a740 7b53 fe40 fc48 5340
000001e0: 1830 f540 7a81 7640 3554 8d40 1ecf 5d40
000001f0: 82c3 e640 e36e e140 751c fb40 9021 cc40
00000200: 28e9 bd40 a6e5 5d40 642b 4e40 2bc3 5440
00000210: 562b fa40 873f 8c40 3e0f ce40 6dbd 6440
00000220: a273 e240 4a06 8540 f21b 0041 1ad1 d540
00000230: 1dd3 8e40 36fa 9d40 6f84 b740 a6f2 9440
00000240: 6c6e 7040 10b4 a040 a4b2 b240 ac70 dc40
00000250: c017 ad40 568d 9940 67a0 5340 736c 9740
00000260: 5684 7840 cc49 0041 96f1 e440 e933 9640
00000270: 01aa 4a40 caf5 8940 b18b e040 e861 cd40
00000280: e4ea c840 c4f0 ed40 312c 7940 3a8e 9840
00000290: b7e4 cf40 de38 9940 f097 9740 0c8e ba40
000002a0: 1df2 e140 42a3 4840 192a 9b40 086b ef40
000002b0: f7aa 5040 6946 9f40 39e2 cf40 7509 7340
000002c0: 50c7 9040 cca2 fe40 7f51 e940 4876 ee40
000002d0: a7d3 e240 62e0 8c40 4511 9840 e844 db40
000002e0: eac3 e740 683b 6040 8046 ee40 9aca 8140
000002f0: 114b e340 962e b240 3404 5d40 4a9b db40
00000300: 091a f940 e645 ac40 3ab1 9b40 0112 e240
00000310: a5bc 6f40 c9a4 6440 69c5 4e40 a95f 6340
00000320: 90a2 ee40 8302 f240 aa42 7940 db05 ed40
00000330: cb47 eb40 31f1 eb40 a65b a440 04b2 6140
00000340: 7b93 b640 78e7 fd40 10bd fd40 cbd3 d240
00000350: da9b c840 ab56 8140 41ba a040 8aed b340
00000360: 7bdd e340 eaae 9d40 1ddd d540 3a42 e040
00000370: 0632 5d40 4b43 5840 8eee 8e40 e2dd c240
00000380: 88c0 7f40 f62f e540 1fdf c840 11ce c840
00000390: d629 df40 86a5 be40 6cd6 ee40 13b5 e940
000003a0: ac04 de40 5c93 ae40 2c46 fb40 8334 a840
000003b0: 27a2 d440 ae57 e540 c471 a240 549e f540
000003c0: 1e05 7140 fa59 fb40 7627 9a40 7fb8 9940
000003d0: dc06 d940 c23a b540 4c9a 8d40 43d0 9540
000003e0: 1de0 d740 2188 e940 3883 b040 8228 b240
000003f0: 70b2 9240 de4a de40 6e19 5b40 8e44 ed40

ltc_model.rnn_cell.mu f4 [64, 64]
0.7587218 0.55393714 0.7875418 0.5607197 0.47282913 0.35062054 0.6299784 0.464503
0.7548451 0.62627786 0.4686384 0.39774907 0.49733794 0.41701058 0.5233262 0.46521997
0.6190031 0.7878251 0.42973736 0.522437 0.6189115 0.51261836 0.55022013 0.6979992
0.75944406 0.6610633 0.8697282 0.29544842 0.80589396 0.7432399 0.5211035 0.67443085
0.51223737 0.620098 0.8466365 0.6224542 0.658608 0.84613097 0.809886 0.7211863
0.35804754 0.5322985 0.5214521 0.8567727 0.8941272 0.37958908 0.62392294 0.36511326
0.8118311 0.33774358 0.6418794 0.57190645 0.58355486 0.7133813 0.5675591 0.5118605
0.551098 0.7279633 0.5581706 0.41852638 0.3440037 0.59124863 0.6864906 0.78963006
0.29921815 0.7890326 0.59745646 0.82742316 0.69945043 0.47194234 0.4798003 0.7060276
0.41116044 0.47694692 0.6190504 0.49223417 0.47158086 0.6742663 0.70977706 0.78672564
0.55946255 0.4516858 0.2652455 0.72668654 0.74886036 0.6411178 0.52794737 0.55185604
0.78221613 0.403539 0.3657816 0.39324299 0.39912257 0.38362658 0.6663675 0.5771654
0.6874601 0.40352392 0.7693521 0.48078376 0.55873156 0.7975307 0.7282409 0.8168485
0.62526137 0.36313277 0.5521089 0.7976166 0.7151181 0.43828157 0.64853793 0.3536261
0.52434134 0.5523711 0.7700738 0.36555254 0.6999163 0.43236834 0.6774483 0.56149065
0.53695786 0.7742962 0.799536 0.57987493 0.8859798 0.49908882 0.41678837 0.723542
0.5840514 0.5748291 0.47973856 0.70684135 0.5401603 0.51767474 0.5105313 0.5616078
0.5266254 0.40951332 0.38493854 0.5807204 0.52545696 0.54061174 0.4688239 0.54983896
0.50255257 0.78168094 0.40569627 0.5232136 0.5698764 0.7088356 0.6183616 0.59870476
0.692541 0.6863496 0.41338122 0.33560875 0.34335434 0.6939843 0.86878896 0.81686664
0.73725677 0.73429614 0.1556208 0.6797286 0.55742294 0.4168144 0.2242543 0.48512918
0.65626574 0.523442 0.40597257 0.5429717 0.63501203 0.6785726 0.41401455 0.4328711
0.3900283 0.78681463 0.44402763 0.34494805 0.7325368 0.34295025 0.57308817 0.5992979
0.28186208 0.45439985 0.3835294 0.54679734 0.80606705 0.56313443 0.5984013 0.6029592
0.4562693 0.7908657 0.9349924 0.71520096 0.29123595 0.4221564 0.7101469 0.76301134
0.35424748 0.6703697 0.78807724 0.55656874 0.382722 0.4248341 0.26252243 0.62696236
0.82352716 0.41365823 0.36495525 0.526584 0.4474892 0.6694927 0.5373083 0.66476417
0.76223683 0.80351424 0.5212595 0.6021677 0.39229432 0.7405557 0.66791517 0.45451328
0.44847074 0.82879287 0.77703583 0.5137554 0.61876065 0.6339142 0.71754646 0.5656868
0.5003047 0.7907284 0.5174962 0.66263825 0.38702744 0.55164254 0.5347526 0.47442707
0.7358253 0.7011871 0.59521234 0.71490586 0.7556769 0.4355475 0.6106704 0.7682089
0.6953171 0.5020488 0.31672263 0.8069407 0.2708525 0.71841836 0.4443147 0.79572475
00000000: 983b 423f d3ce 0d3f 579c 493f 548b 0f3f
00000010: a916 f23e 8984 b33e 4446 213f 56d3 ed3e
00000020: 873d 413f bf53 203f 5ff1 ef3e c4a5 cb3e
00000030: 14a3 fe3e 6982 d53e b5f8 053f 5031 ee3e
00000040: fd76 1e3f e8ae 493f 8906 dc3e 6ebe 053f
00000050: fc70 1e3f f53a 033f 3adb 0c3f 13b0 323f
00000060: ed6a 423f 723b 293f 82a6 5e3f 0445 973e
00000070: 114f 4e3f f844 3e3f 0a67 053f 80a7 2c3f
00000080: fd21 033f bebe 1e3f 2bbd 583f 2959 1f3f
00000090: 899a 283f 0a9c 583f b054 4f3f aa9f 383f
000000a0: 0252 b73e b744 083f e37d 053f 7555 5b3f
000000b0: 85e5 643f 8059 c23e 6ab9 1f3f 20f0 ba3e
000000c0: 2ad4 4f3f baec ac3e 3552 243f 7668 123f
000000d0: da63 153f 28a0 363f 8e4b 113f 4a09 033f
000000e0: c214 0d3f ce5b 3a3f 45e4 0e3f 1749 d63e
000000f0: 4121 b03e 125c 173f d9bd 2f3f 3225 4a3f
00000100: 1f33 993e 0afe 493f e8f2 183f 01d2 533f
00000110: 2f0f 333f 6da2 f13e 63a8 f53e 3abe 343f
00000120: 9f83 d23e 6332 f43e 167a 1e3f 1e06 fc3e
00000130: 0c73 f13e b79c 2c3f f3b3 353f da66 493f
00000140: f038 0f3f 5c43 e73e 42ce 873e 2108 3a3f
00000150: 50b5 3f3f 4c20 243f 8f27 073f 7046 0d3f
00000160: 513f 483f aa9c ce3e ba47 bb3e 2557 c93e
00000170: cb59 cc3e b46a c43e 0f97 2a3f 1dc1 133f
00000180: 63fd 2f3f b09a ce3e 42f4 443f 4a29 f63e
00000190: 0809 0f3f f92a 4c3f ff6d 3a3f fc1c 513f
000001a0: 2111 203f 8aec b93e 0257 0d3f 9a30 4c3f
000001b0: fb11 373f 7166 e03e 9506 263f 7b0e b53e
000001c0: 3c3b 063f 3168 0d3f 8e23 453f b429 bb3e
000001d0: b72d 333f 625f dd3e 406d 2d3f dabd 0f3f
000001e0: 1276 093f 4738 463f 64ae 4c3f af72 143f
000001f0: 92cf 623f 9288 ff3e 4965 d53e 0c3a 393f
00000200: 6484 153f 0028 133f 4ba0 f53e 8ef3 343f
00000210: f247 0a3f 5586 043f 2eb2 023f 87c5 0f3f
00000220: ecd0 063f bbab d13e aa16 c53e 18aa 143f
00000230: 5984 063f 8865 0a3f b009 f03e 3fc2 0c3f
00000240: 49a7 003f 3e1c 483f 6cb7 cf3e 54f1 053f
00000250: 6be3 113f 4076 353f f24c 1e3f b744 193f
00000260: 5e4a 313f 9bb4 2f3f b4a6 d33e e9d4 ab3e
00000270: 24cc af3e f5a8 313f f468 5e3f 2c1e 513f
00000280: dcbc 3c3f d5fa 3b3f 0f5b 1f3e b202 2e3f
00000290: 45b3 0e3f b268 d53e eba2 653e da62 f83e
000002a0: 0801 283f 4b00 063f a3db cf3e 3100 0b3f
000002b0: 2690 223f efb6 2d3f b7f9 d33e 48a1 dd3e
000002c0: cab1 c73e af6c 493f 9757 e33e 089d b03e
000002d0: 8887 3b3f 2d97 af3e e8b5 123f 966b 193f
000002e0: 3a50 903e 19a7 e83e f75d c43e e9fa 0b3f
000002f0: 695a 4e3f 9429 103f d430 193f 895b 1a3f
00000300: 219c e93e 2d76 4a3f a95b 6f3f 6917 373f
00000310: e11c 953e e224 d83e 30cc 353f b654 433f
00000320: ed5f b53e 599d 2b3f 6ebf 493f 4a7b 0e3f
00000330: 23f4 c33e db83 d93e 5769 863e 9b80 203f
00000340: add2 523f 03cb d33e 6adb ba3e 36ce 063f
00000350: 4e1d e53e e063 2b3f 098d 093f fc2d 2a3f
00000360: f421 433f 1cb3 4d3f 4371 053f aa27 1a3f
00000370: cdda c83e 0f95 3d3f 7dfc 2a3f f7b5 e83e
00000380: f59d e53e c52b 543f d2eb 463f 7985 033f
00000390: 1967 1e3f 3348 223f 20b1 373f dad0 103f
000003a0: f813 003f 2d6d 4a3f a27a 043f a9a2 293f
000003b0: 7628 c63e 7238 0d3f 8ce5 083f 1be8 f23e
000003c0: 0c5f 3c3f ff80 333f d65f 183f 1204 373f
000003d0: 0b74 413f 1500 df3e e554 1c3f 57a9 443f
000003e0: 4d00 323f 4586 003f 7829 a23e aa93 4e3f
000003f0: 2ead 8a3e 44ea 373f 377d e33e 9eb4 4b3f

ltc_model.rnn_cell.w f4 [64, 64]
0.18535408 0.29783115 0.4728926 0.33058774 0.36785588 0.10850052 0.33526936 0.013531628
0.61380976 0.726661 0.37022448 0.00516472 0.4788283 0.46874666 0.5958857 0.45619965
0.0312533 0.6421702 0.9014054 0.4510781 -0.036664464 0.55555075 0.8951563 0.8010842
0.54441696 0.44897214 0.37088016 0.55195975 0.166402 0.4349638 0.39639524 0.28290033
0.098150454 0.56041837 0.50817245 0.18040684 0.5131567 0.043130282 0.63812715 0.77824247
0.3689725 0.7685376 0.80277413 -0.03689926 0.701492 0.36872044 0.050583575 0.20592691
0.4385071 0.7612982 0.21764588 0.16414852 0.3681411 0.70718724 0.93748254 0.29365265
0.7597003 0.6486977 0.85820717 0.25267816 0.6007958 0.61259156 0.17604184 0.12947595
0.62754244 0.6511485 0.4481398 0.47550014 0.3638514 0.25641033 0.49550173 0.014749203
0.5355416 0.87816995 0.8885079 0.6033703 0.70965075 0.19424967 0.91014653 0.11028306
0.070330076 0.59556234 0.56486857 0.17412047 0.17891431 0.77902687 0.075804316 0.99254894
0.9504334 0.36990547 0.4271567 0.88729066 0.99708164 0.7474635 0.45819172 0.006485226
0.3318581 0.13618141 0.20624942 0.6200575 0.52617455 0.2158631 0.2622196 0.7098285
0.5683159 0.63021475 0.7484617 0.3911183 0.8393018 0.51308495 0.86206573 0.18873742
0.641917 0.33401164 0.33642444 0.5597933 0.7491055 0.63118976 0.816064 -0.005396499
0.5659457 0.95056427 0.7617542 0.3457411 0.1664291 0.9685953 0.3608708 0.35479543
0.19053374 0.60726655 0.4625151 0.90404373 0.69719505 0.37894925 0.59857816 0.95605063
0.7928598 0.35577318 0.876333 0.93515736 0.922274 0.69241554 0.9699943 0.097375855
0.90322083 0.66015536 0.11706111 0.03357919 0.7148701 0.052741252 0.38547176 0.21741414
0.9113461 0.12217846 0.21510261 0.4287264 0.5229531 0.110457 0.24824506 0.40615374
0.22240041 0.016649254 0.44314367 -0.004966841 0.2579684 0.4489628 0.2932219 0.2076497
0.29671255 0.12762536 0.26798844 0.5079079 0.77544874 0.50468886 0.47492096 0.42976788
0.41166267 0.020929627 0.30520245 0.90007585 0.71898544 0.5550923 0.45498216 0.9131922
0.70658624 0.59111905 0.3266613 0.8125105 0.47556865 0.7807808 0.8602476 0.6559686
0.8550216 0.016808711 0.6295149 0.1403601 0.09989471 0.083208635 -0.047930438 0.818903
0.2673804 0.09712473 0.37626794 0.2839996 0.5737162 0.7812525 0.66386926 0.2046128
0.25823748 0.94693995 0.53016764 0.50352854 0.6300705 0.6711339 0.41996706 0.789451
0.18773893 0.9158585 0.4958474 0.99912953 0.92043597 0.5545855 0.5543148 0.9320487
0.15087262 0.36145318 0.12298306 0.51589465 0.7962577 0.10731619 0.40128753 0.064521946
0.6033736 0.8124539 0.98054796 -0.07095004 0.3613237 0.82039225 0.20971848 0.35502762
0.9213561 0.44044852 0.20255339 0.4675627 0.1644997 0.41538897 0.056884933 0.15863888
0.7852009 0.8098807 0.4453284 0.33412117 0.7848637 0.799812 0.58110416 0.37040976
00000000: 76cd 3d3e 537d 983e fb1e f23e cc42 a93e
00000010: 9b57 bc3e 8535 de3d 6da8 ab3e c3b3 5d3c
00000020: a322 1d3f 7506 3a3f 108e bd3e d03c a93b
00000030: fc28 f53e 90ff ef3e f78b 183f 0093 e93e
00000040: 7603 003d 4465 243f 81c2 663f b5f3 e63e
00000050: 7a2d 16bd 9338 0e3f f728 653f db13 4d3f
00000060: e95e 0b3f addf e53e 01e4 bd3e 3c4d 0d3f
00000070: 4965 2a3e 93b3 de3e 51f4 ca3e 50d8 903e
00000080: 1b03 c93d 9477 0f3f 9717 023f 92bc 383e
00000090: 3d5e 033f 61a9 303d 4d5c 233f e63a 473f
000000a0: f7e9 bc3e e1be 443f 9b82 4d3f ae23 17bd
000000b0: fb94 333f edc8 bc3e b930 4f3d 81de 523e
000000c0: 0184 e03e 70e4 423f 90de 5e3e 8d16 283e
000000d0: fe7c bc3e 390a 353f dbfe 6f3f a459 963e
000000e0: b87b 423f 0d11 263f 77b3 5b3f 085f 813e
000000f0: c1cd 193f cdd2 1c3f 5044 343e 5895 043e
00000100: 9fa6 203f abb1 263f 9472 e53e c174 f33e
00000110: bb4a ba3e 3748 833e 67b2 fd3e a4a6 713c
00000120: 4119 093f bfcf 603f 4175 633f 7a76 1a3f
00000130: acab 353f 63e9 463e 5dff 683f 16dc e13d
00000140: 3709 903d c676 183f 3a9b 103f a34c 323e
00000150: 5035 373e 4e6e 473f 4b3f 9b3d b017 7e3f
00000160: 9a4f 733f 4064 bd3e 48b4 da3e 7b25 633f
00000170: be40 7f3f c559 3f3f 1b98 ea3e 0582 d43b
00000180: 4ee9 a93e 2473 0b3e 0c33 533e 17bc 1e3f
00000190: 60b3 063f 370b 5d3e a641 863e 52b7 353f
000001a0: 277d 113f c155 213f 309b 3f3f a840 c83e
000001b0: 7cdc 563f 8959 033f 57b0 5c3f 6244 413e
000001c0: ac54 243f 9303 ab3e d33f ac3e 9d4e 0f3f
000001d0: 61c5 3f3f a795 213f 92e9 503f 1dd5 b0bb
000001e0: d1e1 103f 2e58 733f 5302 433f fa04 b13e
000001f0: 646c 2a3e ddf5 773f 0fc4 b83e bfa7 b53e
00000200: 471b 433e d275 1b3f c7ce ec3e 696f 673f
00000210: 607b 323f a305 c23e 6b3c 193f bcbf 743f
00000220: dcf8 4a3f e727 b63e 5c57 603f 7966 6f3f
00000230: 261a 6c3f 2542 313f 8c51 783f fe6c c73d
00000240: 7b39 673f f1ff 283f bcbd ef3d 558a 093d
00000250: ba01 373f 3607 583d 8e5c c53e d0a1 5e3e
00000260: fa4d 693f b338 fa3d dc43 5c3e 0782 db3e
00000270: 41e0 053f 4837 e23d f433 7e3e 62f3 cf3e
00000280: efbc 633e 0464 883c bae3 e23e e2c0 a2bb
00000290: 6f14 843e 74de e53e 2e21 963e 1fa2 543e
000002a0: b5ea 973e 39b0 023e c835 893e 4106 023f
000002b0: cf83 463f 4a33 013f d728 f33e 890a dc3e
000002c0: 73c5 d23e 9c74 ab3c 7f43 9c3e 5f6b 663f
000002d0: 6e0f 383f 871a 0e3f 6cf3 e83e f7c6 693f
000002e0: d6e2 343f 9453 173f 2640 a73e b000 503f
000002f0: bc7d f33e 40e1 473f 3039 5c3f 8fed 273f
00000300: b2e2 5a3f 6cb2 893c e327 213f 8fba 0f3e
00000310: 9995 cc3d 4a69 aa3d b552 44bd a1a3 513f
00000320: 15e6 883e 55e9 c63d 31a6 c03e 6568 913e
00000330: 11df 123f 2a00 483f 56f3 293f 0586 513e
00000340: b437 843e a86a 723f 11b9 073f 3fe7 003f
00000350: 4d4c 213f 6ecf 2b3f ec05 d73e 7619 4a3f
00000360: a23e 403e b475 6a3f b6df fd3e f4c6 7f3f
00000370: b1a1 6b3f 51f9 0d3f 93e7 0d3f be9a 6e3f
00000380: 5a7e 1a3e 6410 b93e 8bde fb3d ac11 043f
00000390: 8bd7 4b3f 97c8 db3d 8f75 cd3e 1524 843d
000003a0: b176 1a3f fbfc 4f3f 3105 7b3f 414e 91bd
000003b0: 6cff b83e 3a05 523f 71c0 563e 2ec6 b53e
000003c0: fedd 6b3f 7882 e13e 286a 4f3e 6164 ef3e
000003d0: 9c72 283e ddad d43e 2d00 693d 3b72 223e
000003e0: ed02 493f 5754 4f3f 1602 e43e ee11 ab3e
000003f0: d4ec 483f 7bc0 4c3f 3ec3 143f 59a6 bd3e

ltc_model.rnn_cell.erev f4 [64, 64]
1.0621953 0.9825723 0.82588696 0.92026937 1.0270927 0.9498398 0.8716053 0.9655325
1.03113 1.0387057 0.8942286 0.94205225 0.91644335 0.9925473 0.9322111 -1.1721662
0.9180525 0.9238291 0.93220276 -0.97473323 0.94187015 0.86196715 -0.9390789 1.008466
1.0233582 0.9068555 0.92128056 -1.0297573 -0.9742613 0.8968647 0.9434686 0.9233243
0.9319012 1.0182992 0.8603115 1.029429 0.9247418 0.9010142 0.902269 0.96199
-1.076919 -1.0447794 0.9454813 0.9049561 0.83769727 1.0786463 1.0026536 -0.9869283
0.94418126 1.0075096 -1.0702974 1.0050876 -1.0734935 0.97718555 0.9739769 1.0699672
-1.0950242 -1.0286295 0.9200254 -1.164088 -1.1409308 0.9746009 0.89545166 0.95799214
-1.0754498 0.998068 0.8314737 0.9056702 -1.0256984 0.97247225 -1.1065313 1.0009736
0.9845225 0.9689813 0.91841996 0.8980095 0.9211106 0.99852747 0.9392317 0.880434
0.9182551 0.91834474 -1.0699825 1.0132766 1.0155493 0.9011595 -0.948824 -1.0471487
0.9975507 0.9433413 -1.0643673 1.0246037 1.0256016 -1.069405 0.97622085 0.9443482
0.92026544 0.9450995 0.9158214 1.0316012 -1.0705842 0.9171239 0.9448139 0.9600001
-1.108102 -1.0717672 0.93526226 0.92001355 0.8644593 1.0272015 0.90421677 -1.0117606
-0.9830145 0.99695385 -0.9957626 1.0117286 0.97360027 1.0220056 -0.970155 0.99361074
-1.1188424 0.97946644 0.9034213 -1.0903598 0.89210534 -1.0033464 0.90053964 -0.98045725
1.0016043 0.9656222 0.8480054 -1.0761234 -0.99473673 0.9615934 0.93635195 0.98825574
1.0223101 -0.99444556 0.94487077 -1.029195 0.95167035 0.9984558 0.9739704 0.9431638
0.9408663 0.9645415 0.96051925 1.0140779 1.0000982 0.911502 1.0122176 0.99804175
-1.0020177 0.9830237 0.9586934 -1.0002611 -0.9996069 0.94587195 0.95016074 0.9602708
0.9617142 0.9929536 -1.1224481 -0.9545328 0.96187 0.90391254 -1.0576539 -0.9812555
-1.0536226 0.9286822 0.96306956 -1.076331 0.877908 -0.96740866 0.9714142 0.9851138
0.9901626 1.0125515 0.9820834 1.0184765 -1.0341946 0.9810642 -0.9894396 1.0219121
-1.1192553 0.9853863 -1.04191 0.90623826 0.9213255 0.9868678 0.9240473 -0.9907794
-1.0522717 -1.0165938 0.8628589 0.9489929 -1.063005 0.9762205 0.90618575 1.0023589
-0.9897928 -0.9913124 0.94788027 -1.0728086 0.95130146 0.9828998 -1.09826 0.90269756
0.92033374 -1.0598246 -1.02925 0.98849595 -1.0140595 0.8690651 -0.98953795 -1.016961
-0.9958161 0.92543876 0.8829178 1.0400954 0.9679796 0.91304845 0.98137414 -1.0589218
-1.0191252 0.9716955 0.8953648 1.0072281 0.925152 0.9043521 -1.0688277 0.9910114
0.9369064 0.92652106 -1.04435 0.9159347 -1.1043577 -0.97406316 0.8828583 0.9531842
0.956082 1.0111983 -1.0045793 0.9896031 0.9301901 1.0216872 0.9677664 1.002418
-1.0993456 0.97971034 -1.0833523 0.9125109 -1.0737978 -1.0149215 0.91647106 -0.98216856
00000000: 04f6 873f dc89 7b3f 546d 533f c696 6b3f
00000010: c677 833f b328 733f 8621 5f3f 232d 773f
00000020: 11fc 833f 4ff4 843f 2aec 643f 562a 713f
00000030: 089c 6a3f 9417 7e3f 63a5 6e3f 8b09 96bf
00000040: 7d05 6b3f 1080 6c3f d7a4 6e3f 1e88 79bf
00000050: 671e 713f e1a9 5c3f 7a67 70bf 6a15 813f
00000060: 67fd 823f af27 683f 0bd9 6b3f 16cf 83bf
00000070: 3069 79bf ed98 653f 2887 713f fb5e 6c3f
00000080: 1491 6e3f a157 823f 603d 5c3f 54c4 833f
00000090: e1bb 6c3f dea8 663f 1afb 663f fa44 763f
000000a0: 7bd8 89bf 55bb 85bf 100b 723f 34ab 673f
000000b0: 5473 563f 1511 8a3f f456 803f 55a7 7cbf
000000c0: ddb5 713f 13f6 803f 81ff 88bf b6a6 803f
000000d0: 3c68 89bf d528 7a3f 8d56 793f aff4 883f
000000e0: c129 8cbf 22aa 83bf c986 6b3f d600 95bf
000000f0: 050a 92bf 727f 793f 523c 653f f93e 753f
00000100: 57a8 89bf 6281 7f3f 76db 543f 01da 673f
00000110: 164a 83bf f1f3 783f d1a2 8dbf e71f 803f
00000120: ab09 7c3f 290f 783f 921d 6b3f f3e3 653f
00000130: e7cd 6b3f 7f9f 7f3f 7d71 703f 1f64 613f
00000140: c412 6b3f a418 6b3f 30f5 88bf 0cb3 813f
00000150: 85fd 813f 64b2 663f 21e6 72bf f808 86bf
00000160: 7c5f 7f3f d17e 713f 303d 88bf 3726 833f
00000170: ea46 833f 43e2 88bf 9ce9 793f cec0 713f
00000180: 8496 6b3f 0af2 713f 4573 6a3f 820b 843f
00000190: e708 89bf a2c8 6a3f 53df 713f 91c2 753f
000001a0: 49d6 8dbf ab2f 89bf 596d 6f3f 0286 6b3f
000001b0: 344d 5d3f 577b 833f c07a 673f 5f81 81bf
000001c0: d7a6 7bbf 5e38 7f3f 4cea 7ebf 5380 813f
000001d0: de3d 793f 14d1 823f 145c 78bf 465d 7e3f
000001e0: 3a36 8fbf 50be 7a3f 9e46 673f e990 8bbf
000001f0: 0461 643f a86d 80bf c489 663f 3fff 7abf
00000200: 9234 803f 0433 773f e216 593f 69be 89bf
00000210: 11a7 7ebf fc2a 763f c3b4 6f3f 54fe 7c3f
00000220: 0fdb 823f fc93 7ebf 0de3 713f a9bc 83bf
00000230: aba0 733f cd9a 7f3f 2056 793f 2f73 713f
00000240: 9ddc 703f 31ec 763f 97e4 753f 4ecd 813f
00000250: 3803 803f 3258 693f 5990 813f aa7f 7f3f
00000260: 1e42 80bf 71a7 7b3f ee6c 753f 8e08 80bf
00000270: 3de6 7fbf aa24 723f bc3d 733f 4fd4 753f
00000280: e732 763f 3532 7e3f 61ac 8fbf 435c 74bf
00000290: 1d3d 763f d066 673f 3461 87bf 8f33 7bbf
000002a0: 1bdd 86bf 1ebe 6d3f ba8b 763f 37c5 89bf
000002b0: 94be 603f 18a8 77bf 9aae 783f 6b30 7c3f
000002c0: 4c7b 7d3f 4a9b 813f d169 7b3f 705d 823f
000002d0: 7d60 84bf 0627 7b3f ea4b 7dbf 04ce 823f
000002e0: c243 8fbf 4742 7c3f 4f5d 85bf 3bff 673f
000002f0: fddb 6b3f 5ea3 7c3f 5d8e 6c3f b8a3 7dbf
00000300: d7b0 86bf bf1f 82bf 52e4 5c3f 33f1 723f
00000310: 8c10 88bf 96e9 793f cafb 673f 4c4d 803f
00000320: 1063 7dbf a6c6 7dbf 48a8 723f cb51 89bf
00000330: 7e88 733f 529f 7b3f c993 8cbf 3017 673f
00000340: fe9a 6b3f 55a8 87bf 77be 83bf 120e 7d3f
00000350: b4cc 81bf 0d7b 5e3f 5c52 7dbf c72b 82bf
00000360: ceed 7ebf 8ee9 6c3f e706 623f d921 853f
00000370: 83cd 773f 8bbd 693f 563b 7b3f c08a 87bf
00000380: b272 82bf 09c1 783f a136 653f daec 803f
00000390: c3d6 6c3f 9f83 673f 59cf 88bf ecb2 7d3f
000003a0: 19d9 6f3f 7c30 6d3f 43ad 85bf b27a 6a3f
000003b0: 985b 8dbf 345c 79bf 0003 623f e103 743f
000003c0: cac1 743f f26e 813f 0e96 80bf a156 7d3f
000003d0: f020 6e3f a5c6 823f 8abf 773f 3c4f 803f
000003e0: 5bb7 8cbf 4cce 7a3f 4aab 8abf 509a 693f
000003f0: 3572 89bf f3e8 81bf d99d 6a3f 666f 7bbf

ltc_model.rnn_cell.sensory_sigma f4 [4, 64]
6.4977827 3.5533404 4.9717283 3.0699708 5.158011 7.401322 8.083617 6.6269064
4.2603064 6.987355 7.9340377 5.1147885 7.8720665 5.11611 7.932495 6.8091617
3.328591 3.8521156 6.8380723 7.5101743 4.515715 7.202999 6.753125 4.8337264
5.686519 7.1262684 4.997835 5.748982 3.3270257 5.630364 7.79568 6.385906
6.6051197 5.767127 7.307919 4.5355873 3.2227077 4.554738 4.213366 6.678317
7.4921575 7.7373977 4.9368668 6.459969 6.945239 5.3554697 6.1617084 6.4938827
4.210348 6.553558 3.7837486 5.651367 4.841437 5.713901 6.183575 5.5709825
5.99407 7.9569926 3.6781182 7.049438 6.315356 3.5153694 4.2745004 7.78838
4.3656464 6.5711703 4.927999 7.21043 5.6756263 4.5480433 5.0870194 7.038123
6.886386 6.7767305 5.644477 4.668689 6.4125094 7.998934 6.4466753 6.231427
7.955433 4.34405 4.506484 3.855678 6.2674437 6.5193896 7.535103 7.546771
7.4834146 5.2090077 7.5005846 7.1371813 3.6828063 3.7479565 3.320068 6.634779
5.9840674 6.5023017 3.9489827 5.918428 7.1595306 3.4575942 7.0474935 3.616675
6.7009153 4.755129 5.3720827 4.2270837 7.1917567 7.2836323 3.4935205 3.1791384
4.509535 6.0502 5.675537 5.8636956 7.4733973 5.2727165 4.9269805 3.1087034
5.731844 4.639774 4.8129525 6.732159 7.2600303 4.4616327 6.1947856 6.4113717
6.1171703 2.8511708 6.218767 3.9304109 5.7914305 3.3494103 8.199212 7.358802
7.6177473 7.5766535 7.4110518 4.36487 6.378114 3.6633036 4.678017 6.059313
4.664443 5.055114 5.3689213 5.783203 3.9157753 3.1064348 4.563708 4.766371
4.2379665 3.0770478 6.0796494 5.271859 7.009906 5.9434853 5.419795 5.088079
4.1232877 4.5308247 5.9903765 4.770892 7.9977794 4.684726 3.8838804 6.8532395
5.3929954 3.0871503 7.548879 3.7702374 7.526664 8.111284 7.414788 3.5493026
3.3141966 6.3810854 3.698596 7.2651095 5.5223594 4.682381 5.4779015 4.23661
7.8212466 5.9780183 7.501031 7.1077967 5.7855883 6.9352846 5.6561894 3.3166287
7.5891695 3.8833768 5.308454 6.0503526 6.3647323 3.721402 4.081238 4.706837
4.551019 4.8899565 5.983239 3.6550837 3.6886225 7.0499163 3.2158759 4.6698728
6.7978454 4.1660767 3.4420812 5.1756063 4.133223 3.59445 7.4751744 5.071002
5.589348 6.1593432 6.59451 4.5450826 4.324801 4.1992803 4.448073 6.843721
4.8831983 7.281687 6.0579524 5.5136905 5.848674 3.175695 5.3838964 3.2104998
6.032728 7.5203533 5.1116786 5.4320774 6.1558037 5.6768866 5.068241 6.896579
5.8445864 6.3774204 6.951738 4.5415373 6.688511 6.1037407 4.3511305 3.2583296
3.070273 3.6718416 8.042818 4.222989 7.1103163 5.7163315 4.0738106 7.407698
00000000: d6ed cf40 ee69 6340 6618 9f40 677a 4440
00000010: 6d0e a540 a1d7 ec40 7f56 0141 9e0f d440
00000020: 6e54 8840 6a98 df40 a3e3 fd40 59ac a340
00000030: f8e7 fb40 2cb7 a340 00d7 fd40 a7e4 d940
00000040: a307 5540 1089 7640 7dd1 da40 5953 f040
00000050: bd80 9040 f87e e640 9a19 d840 e3ad 9a40
00000060: f7f7 b540 640a e440 44ee 9f40 a9f7 b740
00000070: fded 5440 f12b b440 3676 f940 5859 cc40
00000080: 245d d340 4e8c b840 79da e940 8823 9140
00000090: d840 4e40 6ac0 9140 e5d3 8640 c6b4 d540
000000a0: c1bf ef40 c398 f740 d0fa 9d40 11b8 ce40
000000b0: 663f de40 0260 ab40 b72c c540 e3cd cf40
000000c0: 2cbb 8640 bfb6 d140 f028 7240 00d8 b440
000000d0: 0ded 9a40 47d8 b640 d9df c540 7d45 b240
000000e0: 6ccf bf40 af9f fe40 4a66 6b40 ff94 e140
000000f0: 6517 ca40 d0fb 6040 b5c8 8840 693a f940
00000100: 60b3 8b40 0747 d240 2bb2 9d40 d8bb e640
00000110: bb9e b540 9289 9140 ddc8 a240 4e38 e140
00000120: 465d dc40 fada d840 8e9f b440 e665 9540
00000130: 4733 cd40 44f7 ff40 2a4b ce40 da67 c740
00000140: e892 fe40 7502 8b40 1e35 9040 6ec3 7640
00000150: e68e c840 d79e d040 901f f140 267f f140
00000160: 2278 ef40 31b0 a640 ca04 f040 ca63 e440
00000170: 19b3 6b40 85de 6f40 fe7b 5440 1c50 d440
00000180: 7b7d bf40 db12 d040 22bc 7c40 c363 bd40
00000190: e01a e540 3949 5d40 1185 e140 9a77 6740
000001a0: e66d d640 042a 9840 1ae8 ab40 4544 8740
000001b0: df22 e640 8413 e940 d795 5f40 0177 4b40
000001c0: 1c4e 9040 3d9b c140 009e b540 65a3 bb40
000001d0: 1226 ef40 18ba a840 d3a9 9d40 fff4 4640
000001e0: 446b b740 0779 9440 b503 9a40 d96d d740
000001f0: 2b52 e840 b2c5 8e40 af3b c640 f529 cd40
00000200: dcbf c340 9579 3640 2400 c740 da8b 7b40
00000210: 6653 b940 bd5c 5640 f92f 0341 4e7b eb40
00000220: 96c4 f340 f273 f240 5627 ed40 04ad 8b40
00000230: 8319 cc40 9173 6a40 51b2 9540 e4e5 c140
00000240: 1e43 9540 7ec3 a140 34ce ab40 0010 b940
00000250: 109c 7a40 d4cf 4640 e509 9240 1c86 9840
00000260: 6c9d 8740 5aee 4440 7d8c c240 12b3 a840
00000270: 2651 e040 0831 be40 f66e ad40 8bd1 a240
00000280: f9f1 8340 84fc 9040 2ab1 bf40 26ab 9840
00000290: cfed ff40 47e9 9540 7f91 7840 bd4d db40
000002a0: 6b93 ac40 df93 4540 6b90 f140 924b 7140
000002b0: 6eda f040 d2c7 0141 f145 ed40 c627 6340
000002c0: cc1b 5440 da31 cc40 ccb5 6c40 c77b e840
000002d0: 2bb7 b040 11d6 9540 f84a af40 4f92 8740
000002e0: a747 fa40 ed4b bf40 7208 f040 1273 e340
000002f0: 8a23 b940 daed dd40 81ff b440 a543 5440
00000300: 7ada f240 3f89 7840 dbde a940 7d9c c140
00000310: e3ab cb40 732b 6e40 8099 8240 699e 9640
00000320: f3a1 9140 867a 9c40 b276 bf40 e4ec 6940
00000330: 6412 6c40 ea98 e140 e9d0 4d40 996f 9540
00000340: f387 d940 8050 8540 0f4b 5c40 919e a540
00000350: 5d43 8440 780b 6640 a134 ef40 a645 a240
00000360: f0db b240 5719 c540 3a06 d340 5171 9140
00000370: c564 8a40 8160 8640 9d56 8e40 c3ff da40
00000380: 2943 9c40 9403 e940 bfda c140 2770 b040
00000390: 5628 bb40 963e 4b40 e148 ac40 d478 4d40
000003a0: 1c0c c140 bca6 f040 df92 a340 94d3 ad40
000003b0: 58fc c440 0ea9 b540 082f a240 c6b0 dc40
000003c0: da06 bb40 d413 cc40 a374 de40 4654 9140
000003d0: 4808 d640 d851 c340 763c 8b40 7988 5040
000003e0: 5a7f 4440 74ff 6a40 62af 0041 ba22 8740
000003f0: b687 e340 30ec b640 a85c 8240 dd0b ed40

ltc_model.rnn_cell.sensory_mu f4 [4, 64]
0.6662448 0.7686254 0.49465472 0.3380927 0.49088112 0.23364498 0.5486802 0.3930315
0.36082104 0.65946627 0.39041647 0.5047848 0.7137592 0.36764368 0.5974786 0.7061827
0.89427096 0.56577945 0.5277998 0.5503703 0.60590976 0.63385314 0.6313964 0.8795517
0.79380417 0.82854617 0.39827952 0.60035014 0.35929418 0.6773138 0.69185585 0.9238496
0.7438341 0.6409924 0.6472587 0.43133074 0.1995894 0.5281001 0.5387627 0.56492096
0.74340415 0.7766905 0.34483367 0.527245 0.7947991 0.5182988 0.8565384 0.3515003
0.3642983 0.39650387 0.8897048 0.55737096 0.92563003 0.71359247 0.7227297 0.7094818
0.55398566 0.564383 0.4102763 0.49113026 0.6585833 0.8473906 0.6035314 0.5988698
0.59627485 0.52753997 0.7170948 0.79702336 0.6240858 0.79759425 0.9421722 0.3044772
0.6637197 0.35127494 0.5553287 0.8717994 0.7612992 0.93890387 0.42246875 0.69366425
0.52515393 0.67552596 0.6916053 0.72248393 0.5330905 0.68403465 0.5143974 0.4262838
0.5504621 0.9952679 0.68452936 0.30115116 0.47169706 0.72968376 0.5853117 0.2583325
0.3570565 0.9040677 0.6119236 0.35363042 0.4669365 0.38506845 0.48990422 0.4238444
0.6908011 0.37223276 0.53955597 0.33065724 0.6182268 0.5459707 0.6046145 0.3660905
0.45897794 0.8372067 0.9795343 0.9220476 0.87643075 0.5609221 0.9172613 0.42607746
0.8909005 0.380698 0.3729665 0.7412791 0.6995926 0.7602036 0.35195476 0.824709
0.4925814 0.43603078 0.8241893 0.4517789 0.5729687 0.36341268 0.89811414 0.24025506
0.34338877 0.23727392 1.0449904 0.64746916 0.35264787 0.3281883 0.5452721 0.17679727
0.51882505 0.8427029 0.35351932 0.30192402 0.44833812 0.5754898 0.47359282 0.39567608
0.5863679 0.60225785 0.46800944 0.9048515 0.25617886 0.94610035 0.35430202 0.2649587
0.56761384 0.46736935 0.7028295 0.52203906 0.32631695 0.3312193 0.6362878 0.36602154
0.7179626 0.83438027 0.30137596 1.0394627 1.2018785 1.0163251 0.4531982 0.57259804
0.54195297 0.36984485 0.37266487 1.151529 0.30017093 0.3709611 0.40987322 0.44365227
0.34458575 0.3402316 0.90709233 0.9463214 0.6326706 0.6326874 1.1242648 0.35928607
0.55125976 0.32319686 1.0731522 0.48704842 0.38756365 0.43555146 0.41207573 0.458506
0.4387241 0.32491454 0.2756879 0.6129203 0.448784 0.39823607 0.7343526 1.0197142
0.5456543 0.46834776 0.44577888 0.3361112 0.3719243 0.48518747 0.49454862 0.29638553
0.29159698 0.62664837 0.3551325 0.37427038 0.34742492 0.4205838 0.4402093 0.6871572
0.47853383 0.6004072 0.59664154 0.40684703 0.40884233 0.50153536 0.7257328 0.5465051
0.44045508 0.8566994 1.1462576 0.20953476 1.1700468 0.25545523 0.55181336 0.36886647
0.89052534 0.2992845 0.6380463 0.3020057 0.4381044 0.34218788 0.43544775 0.47476247
0.38844067 0.36187747 0.9005467 1.0360101 1.0227213 0.49253643 1.1856005 0.37133422
00000000: 058f 2a3f a2c4 443f 6243 fd3e 7d1a ad3e
00000010: c554 fb3e a140 6f3e 4e76 0c3f 6d3b c93e
00000020: 89bd b83e c8d2 283f abe4 c73e 9439 013f
00000030: ecb8 363f cb3b bc3e 5cf4 183f 64c8 343f
00000040: f1ee 643f ecd6 103f e31d 073f 11e5 0c3f
00000050: e71c 1b3f 3344 223f 32a3 213f 4d2a 613f
00000060: c036 4b3f 9a1b 543f 4beb cb3e 8cb0 193f
00000070: 68f5 b73e 7064 2d3f 771d 313f 6881 6c3f
00000080: e96b 3e3f 1418 243f bfb2 253f 62d7 dc3e
00000090: 2a61 4c3e 9131 073f 5aec 093f a99e 103f
000000a0: bc4f 3e3f 30d5 463f 0a8e b03e 87f9 063f
000000b0: f477 4b3f 3baf 043f 1a46 5b3f d9f7 b33e
000000c0: 4f85 ba3e 8e02 cb3e b2c3 633f ddaf 0e3f
000000d0: 17f6 6c3f ffad 363f d004 393f 99a0 353f
000000e0: 01d2 0d3f 677b 103f bc0f d23e 6d75 fb3e
000000f0: ea98 283f 97ee 583f 0981 1a3f 884f 193f
00000100: 78a5 183f dc0c 073f 8693 373f b909 4c3f
00000110: 16c4 1f3f 232f 4c3f 3332 713f 70e4 9b3e
00000120: 89e9 293f 4fda b33e 062a 0e3f 3f2e 5f3f
00000130: 81e4 423f 015c 703f d34d d83e fb93 313f
00000140: 7d70 063f 45ef 2c3f 0c0d 313f b5f4 383f
00000150: 9e78 083f e51c 2f3f 8caf 033f df41 da3e
00000160: 16eb 0c3f e1c9 7e3f 513d 2f3f 7c30 9a3e
00000170: 4782 f13e 8ecc 3a3f fdd6 153f 2844 843e
00000180: 1cd0 b63e fb70 673f 06a7 1c3f 0c0f b53e
00000190: 4d12 ef3e b127 c53e bad4 fa3e 2202 d93e
000001a0: 57d8 303f 4b95 be3e 5720 0a3f e84b a93e
000001b0: 1d44 1e3f bcc4 0b3f 04c8 1a3f 3770 bb3e
000001c0: 28ff ea3e 2e53 563f c3c2 7a3f 500b 6c3f
000001d0: c45d 603f 9798 0f3f a3d1 6a3f d326 da3e
000001e0: 0e12 643f d9ea c23e 77f5 be3e 78c4 3d3f
000001f0: 8018 333f b49c 423f 6a33 b43e 2120 533f
00000200: a133 fc3e 6d3f df3e 12fe 523f 904f e73e
00000210: 14ae 123f 3a11 ba3e cfea 653f 6c05 763e
00000220: a7d0 af3e eff7 723e 3fc2 853f 8ac0 253f
00000230: 438e b43e 4c08 a83e f496 0b3f 580a 353e
00000240: b8d1 043f 61bb 573f 7c00 b53e c995 9a3e
00000250: 938c e53e 4d53 133f c27a f23e 0e96 ca3e
00000260: 351c 163f 922d 1a3f ef9e ef3e 59a4 673f
00000270: e029 833e a233 723f 1367 b53e aba8 873e
00000280: 244f 113f 094b ef3e a2ec 333f 5aa4 053f
00000290: 0413 a73e 9395 a93e c2e3 223f 2d67 bb3e
000002a0: 66cc 373f f299 553f f34d 9a3e 1d0d 853f
000002b0: 28d7 993f f116 823f 9809 e83e c995 123f
000002c0: 6ebd 0a3f 4e5c bd3e eecd be3e 4d65 933f
000002d0: 01b0 993e 9dee bd3e e7da d13e 6426 e33e
000002e0: 8b6d b03e d632 ae3e 3437 683f 1f42 723f
000002f0: b3f6 213f cdf7 213f e9e7 8f3f 58f4 b73e
00000300: 5c1f 0d3f 0f7a a53e 0d5d 893f 695e f93e
00000310: be6e c63e 9a00 df3e 97fb d23e 4cc1 ea3e
00000320: 72a0 e03e 335b a63e f726 8d3e 58e8 1c3f
00000330: 04c7 e53e 99e5 cb3e 88fe 3b3f ff85 823f
00000340: 00b0 0b3f 47cb ef3e 213d e43e c416 ac3e
00000350: dd6c be3e 7e6a f83e 7a35 fd3e d8bf 973e
00000360: 334c 953e 076c 203f edd3 b53e 5ea0 bf3e
00000370: aee1 b13e c356 d73e 1d63 e13e 89e9 2f3f
00000380: 6302 f53e 49b4 193f 80bd 183f 414e d03e
00000390: c853 d13e 9f64 003f a0c9 393f c2e7 0b3f
000003a0: 5483 e13e a750 5b3f 92b8 923f 4890 563e
000003b0: 18c4 953f 07cb 823e a443 0d3f 11dc bc3e
000003c0: 78f9 633f d13b 993e 0157 233f 7ea0 9a3e
000003d0: 384f e03e 4033 af3e 02f3 de3e 1114 f33e
000003e0: b2e1 c63e 0148 b93e 3b8a 663f fb9b 843f
000003f0: 88e8 823f bc2d fc3e c2c1 973f 851f be3e

ltc_model.rnn_cell.sensory_w f4 [4, 64]
0.18200313 0.8634269 0.9819809 0.6552532 0.17292899 1.0092525 0.7845841 0.6931354
0.38927898 0.18225317 0.8288426 0.8022228 0.96909446 0.65523946 0.8875681 0.13364948
0.7808628 0.78881806 0.66260153 0.24469018 0.01818369 0.3598107 0.08852517 0.5313034
0.6151581 0.33445254 0.45785004 0.26062799 1.0169891 -0.07085805 0.67566925 0.26302862
0.6710273 0.18072286 -0.18154629 0.74237233 0.82309026 0.31431758 0.07651896 0.53829056
-0.06214969 0.043941572 0.15573293 0.95040816 0.05150037 0.5120149 0.6956597 0.41351208
0.60617363 0.7418261 0.7876807 0.555777 0.34694436 0.028248811 0.20990655 0.14147969
0.54950464 0.70219636 0.69504964 0.42772156 0.7765692 0.5551975 0.98979545 0.7676881
0.3557184 0.28129393 0.13242505 0.31479943 0.67255026 0.5226314 0.5191997 0.99924403
0.9579204 0.66331506 0.33110544 0.42239058 0.115743816 0.17405926 0.7458207 0.5353526
0.07924882 0.8964587 0.81066006 0.026156178 0.402694 0.67974037 0.26637217 0.23796344
0.14567418 0.3331858 0.25036114 1.2007823 0.25613064 0.64746416 0.2610462 1.25747
0.36720842 0.078757845 0.42171666 0.76867497 0.5604825 0.39067078 0.8593337 0.6224187
0.40904295 0.627112 0.454158 0.14703959 0.81942034 0.4946858 -0.062350914 0.84572303
-0.08300924 -0.04132015 0.4979686 0.29882377 0.26520723 0.4956415 0.14232513 0.8238555
0.17334369 0.47864765 0.07788462 0.35687375 0.5087592 0.15643395 0.95618683 0.38212052
0.8627994 0.30102238 -0.2639921 0.67812663 0.049817156 0.39080185 0.5825615 0.32290694
1.0635338 0.45559195 0.39440477 0.53438276 0.9499136 0.23216398 0.9013347 1.1848598
0.9479195 -0.15423137 0.50804025 1.2436755 1.0999696 0.29027522 1.1661147 0.81692606
0.248919 0.66415787 0.5228417 0.21618067 0.29495493 0.17714295 1.1245363 0.7646785
0.7566821 0.5138779 0.7616821 0.56553006 0.6983659 0.481339 0.77353907 0.49501815
0.55891967 0.46639904 1.2513355 0.43858138 0.17666613 0.070531994 1.0874175 0.70835185
0.81959766 0.6499739 0.40044427 0.111041695 0.18481304 0.87644035 1.2079445 -0.17352769
0.5114023 0.7891743 -0.27556926 0.28128308 -0.30610248 -0.15314367 -0.03764 0.2837516
1.2362175 1.1602578 -0.14574672 0.36940843 0.6934686 0.2886615 0.672179 0.54253507
0.8167588 0.6853327 0.45616585 0.16453202 0.33629388 0.61621636 0.08505269 -0.36158374
0.023642655 1.2004564 0.46880978 1.0785135 0.7295795 -0.04627467 0.6531047 0.47043693
1.3142496 0.5569427 1.3026837 0.54346985 0.7616002 0.44238815 0.8320692 0.88404
0.5154535 0.90985864 0.9393156 1.2651216 0.34663284 -0.29903835 0.2868595 1.2017578
0.82534516 -0.07813817 0.33006647 1.3386756 -0.219878 0.59707105 0.68051875 1.201437
-0.19569196 0.47351104 0.6559018 1.382071 0.4940149 0.8761536 0.74847484 1.243468
0.52603173 0.8994526 0.15622978 -0.051130496 0.061884258 1.3192811 -0.10150928 0.32918143
00000000: 075f 3a3e 8c09 5d3f 1a63 7b3f acbe 273f
00000010: 4c14 313e 302f 813f 81da 483f 5271 313f
00000020: 934f c73e 93a0 3a3e 072f 543f 795e 4d3f
00000030: 9316 783f c6bd 273f aa37 633f 69db 083e
00000040: a0e6 473f fbef 493f 41a0 293f 1090 7a3e
00000050: f6f5 943c 1c39 b83e af4c b53d 8003 083f
00000060: 007b 1d3f 5d3d ab3e 526b ea3e 0871 853e
00000070: b32c 823f 061e 91bd a9f8 2c3f b0ab 863e
00000080: 72c8 2b3f 6a0f 393e 45e7 39be 1d0c 3e3f
00000090: 0bb6 523f 3cee a03e f9b5 9c3d 69cd 093f
000000a0: ac90 7ebd 14fc 333d 7478 1f3e f34d 733f
000000b0: 0df2 523d 6913 033f c116 323f dbb7 d33e
000000c0: 322e 1b3f 51e8 3d3f 71a5 493f 6747 0e3f
000000d0: b1a2 b13e 0d6a e73c bef1 563e 0de0 103e
000000e0: 56ac 0c3f 24c3 333f c6ee 313f 52fe da3e
000000f0: 3dcd 463f 6c21 0e3f 3c63 7d3f 3587 443f
00000100: b920 b63e c205 903e 6f9a 073e 642d a13e
00000110: 412c 2c3f 2ccb 053f 46ea 043f 75ce 7f3f
00000120: 453a 753f 04cf 293f a786 a93e 9443 d83e
00000130: 180b ed3d 973c 323e 1bee 3e3f de0c 093f
00000140: 354d a23d 517e 653f 6b87 4f3f 7b45 d63c
00000150: e82d ce3e 7703 2e3f ef61 883e b0ac 733e
00000160: 9d2b 153e 5497 aa3e 562f 803e 3cb3 993f
00000170: 8e23 833e 36c0 253f d9a7 853e c7f4 a03f
00000180: be02 bc3e cb4b a13d 3feb d73e e2c7 443f
00000190: c87b 0f3f 0006 c83e 4bfd 5b3f d556 1f3f
000001a0: 146e d13e 698a 203f 6687 e83e 8c91 163e
000001b0: 88c5 513f 7547 fd3e ac63 7fbd 4e81 583f
000001c0: c000 aabd 513f 29bd bef5 fe3e 6eff 983e
000001d0: 3ec9 873e b9c4 fd3e aebd 113e 32e8 523f
000001e0: 0281 313e 4e11 f53e f981 9f3d 28b8 b63e
000001f0: 0b3e 023f 3930 203e a9c8 743f 4da5 c33e
00000200: 6ce0 5c3f 9b1f 9a3e f929 87be b599 2d3f
00000210: 130d 4c3d 2e17 c83e c022 153f 0f54 a53e
00000220: e021 883f 5943 e93e 6cef c93e 4fcd 083f
00000230: 8a2d 733f 65bc 6d3e dfbd 663f 7ca9 973f
00000240: daaa 723f d4ee 1dbe ed0e 023f c230 9f3f
00000250: cecb 8c3f f49e 943e 3f43 953f 1122 513f
00000260: 9fe4 7e3e 4006 2a3f f4d8 053f 775e 5d3e
00000270: 5504 973e f664 353e cef0 8f3f f8c1 433f
00000280: ebb5 413f 818d 033f 99fd 423f 94c6 103f
00000290: 1cc8 323f 1172 f63e a806 463f 0573 fd3e
000002a0: 5c15 0f3f dbcb ee3e c32b a03f bd8d e03e
000002b0: f7e7 343e 1473 903d 7f30 8b3f 8c56 353f
000002c0: 27d1 513f b164 263f 0807 cd3e d469 e33d
000002d0: a13f 3d3e 655e 603f ed9d 9a3f 3eb1 31be
000002e0: 43eb 023f 5407 4a3f 6a17 8dbe 5604 903e
000002f0: 77b9 9cbe b2d1 1cbe 672c 1abd e447 913e
00000300: 603c 9e3f 5483 943f a13e 15be 1a23 bd3e
00000310: 2887 313f 71cb 933e ec13 2c3f 94e3 0a3f
00000320: 1b17 513f f771 2f3f 928e e93e 157b 283e
00000330: b62e ac3e 5bc0 1d3f 1b30 ae3d 8121 b9be
00000340: 3eae c13c 8ea8 993f d607 f03e bb0c 8a3f
00000350: b9c5 3a3f 828a 3dbd df31 273f 1cdd f03e
00000360: 5539 a83f cc93 0e3f 57be a63f d720 0b3f
00000370: 3bf8 423f b380 e23e 7d02 553f 7250 623f
00000380: c3f4 033f 7fec 683f fd76 703f 81ef a13f
00000390: dc79 b13e 8e1b 99be 40df 923e 33d3 993f
000003a0: d249 533f e806 a0bd 79fe a83e b959 ab3f
000003b0: b327 61be a6d9 183f 7a36 2e3f b0c8 993f
000003c0: 7963 48be 0a70 f23e 2ee9 273f b4e7 b03f
000003d0: 85ef fc3e 9a4b 603f 0c9c 3f3f f629 9f3f
000003e0: 04aa 063f 8742 663f b3fa 1f3e 366e 51bd
000003f0: 597a 7d3d 34de a83f 19e4 cfbd 788a a83e
