LTC_A2C/training_results/LTC_a2c_result_51_2024213_learningrate_0.001_selectiomethod_evaluation_gamma_0.99_trainingmethod_standard_numneurons_48_tausysextraction_True_wiring_AutoNCP/checkpoint_LTC_A2C_3.pt (torch, 57086 bytes, 18 tensors)

ltc_model.rnn_cell.gleak f4 [48]
00000000: 9e4b f93e fd5e 903e bf45 633f f30e 673e
00000010: bb78 5fbd 219a 463f ad22 a73e 3f58 b43e
00000020: 2b0c 123f 7995 363f 6e19 633f f1c6 c73e
00000030: 9f52 ca3e ec90 013e d4e2 0dbe 6907 77bd
00000040: df50 923d 92d3 263f ea0c 483f b686 573f
00000050: e47d d33d 387f b93e cf72 133f 6e10 dd3e
00000060: d86b 0b3f 2f9d 2b3f f012 483f 6524 243f
00000070: fe8f 273f 2d29 b03e a50f 013f f224 ed3e
00000080: 362b d23e 50bf cf3e 51e5 ea3e 7b75 293e
00000090: c338 f83e 581f 7b3e 1bfb 2cbd e6e8 013f
000000a0: 3a42 003f 2572 823f 6543 233e 163a 483e
000000b0: fef1 c7bd 26a2 11bd 708f 073f 91d5 363f
0.48690504 0.2819747 0.887783 0.22564296 -0.054558497 0.7757893 0.32643643 0.35223576
0.57049817 0.7132183 0.8871068 0.39018968 0.3951616 0.1265294 -0.1385606 -0.0603098
0.07144331 0.6516658 0.78144705 0.8418993 0.10326746 0.36229873 0.5759706 0.43176597
0.5446143 0.6703672 0.78153896 0.64118034 0.6545409 0.34406415 0.50414497 0.4631725
0.41048592 0.40575647 0.4587808 0.16548721 0.48480806 0.24523675 -0.04223166 0.50746
0.50101054 1.0191084 0.15943678 0.19553408 -0.09762953 -0.035555027 0.52953243 0.71419626

ltc_model.rnn_cell.vleak f4 [48]
00000000: 77b6 ab3d 78cd f9bd 7a4b d13d 7b7d 70bd
00000010: cce6 a1bd 3515 93be 9ce0 183e f46a eb3d
00000020: 4295 8dbe cdce 383e 3176 b23d 76a7 cbbc
00000030: e3f4 5fbb 879a 6fbd e8c0 d5bd 7a76 8abe
00000040: 17e8 8bbd dff4 823e c16f f93c 4987 9d3c
00000050: aae1 7b3d 4cc9 18be c6bb 3bbc 36a9 39be
00000060: 071d a13e ae55 8a3b 7893 9a3e 3c7f 0d3d
00000070: 8344 0a3c 522d b7be a90a a1be 31de 1dbe
00000080: bcb2 20be 9931 0e3e 8429 9f3e 638c 893c
00000090: 7e4a 7f3c d435 61be 2b96 afbe b678 013d
000000a0: 9f89 a83e 0eb8 a73d c38f 513b 3ead 413c
000000b0: fc24 01be eaaa aebb 46b1 56be 64aa 513e
0.08384412 -0.12197393 0.10219474 -0.058713418 -0.07905349 -0.28727117 0.14929432 0.11495009
-0.27652937 0.18047638 0.087139495 -0.024860125 -0.0034173063 -0.058496978 -0.104371846 -0.27043515
-0.06831377 0.25577447 0.030448796 0.019229548 0.061494507 -0.14920539 -0.011458343 -0.18130955
0.3146746 0.0042216396 0.30190635 0.03454517 0.008439186 -0.35776764 -0.31453446 -0.1541679
-0.15693182 0.13886108 0.3108636 0.016790574 0.015581725 -0.2199319 -0.34294257 0.03160926
0.32917497 0.081894025 0.0031976558 0.011821089 -0.12611765 -0.005330433 -0.20966062 0.20475155

ltc_model.rnn_cell.cm f4 [48]
00000000: ba0c b83e 749e 513e 056c 003f 3cd4 c93e
00000010: 9dab dc3e 32fc fb3e e3d8 0a3f fc8b bb3e
00000020: 6fda 053f fea4 023f 433b d53e 1deb df3e
00000030: 4f64 b83e 21d5 633e 7d5b 153f 50ba 083f
00000040: c963 dc3e 9962 cc3e 5b04 a13e fdbc f23e
00000050: ba6c ee3e d44d 833e 5654 fb3e 7b1d af3e
00000060: 93fa c63e 676c c53e eaf0 983e 4f87 dd3e
00000070: 7941 c53e 3773 193f 9953 053f 9437 f63e
00000080: 45f5 193f 0567 843e f2f6 b43e 9372 aa3e
00000090: 2256 173f cd1f fd3e 3d95 d53e 29ed 1d3f
000000a0: a807 aa3e f0b6 e13e e0ed d23e 5ea7 fe3e
000000b0: ddf5 c73e 806a a23e b7c0 043f 69bf af3e
0.3594721 0.20470601 0.50164825 0.39419734 0.4309968 0.49215847 0.5423719 0.36630237
0.5228643 0.5103301 0.41646776 0.43734065 0.3601403 0.22249271 0.58342725 0.5340929
0.4304488 0.39918974 0.31448635 0.47409812 0.46567327 0.25645316 0.4908778 0.3420218
0.38863048 0.38559267 0.29871303 0.43267295 0.38526514 0.5994143 0.52080685 0.48089278
0.60139877 0.25859848 0.35344654 0.33290538 0.59115803 0.49438325 0.41715422 0.6169
0.33208966 0.44084883 0.4119711 0.49737066 0.39054766 0.31721878 0.5185656 0.34325722

ltc_model.rnn_cell.sigma f4 [48, 48]
00000000: 2645 da40 f61f 5840 76e9 d440 0221 ea40
00000010: e22a fe40 44bf 8640 aaeb eb40 043f 9940
00000020: b172 6640 0265 d240 61ab d440 f62b c140
00000030: 6442 a940 a17b a040 934e 8140 4874 8240
00000040: d1ee 6640 7682 8440 f076 bc40 3460 a640
00000050: 3490 ab40 63b8 8540 988a cc40 6675 9640
00000060: 61e9 9840 dd30 4b40 38b2 a540 bde8 b640
00000070: e771 d840 70b6 9e40 3672 9140 328f b540
00000080: f883 a440 1770 fa40 285a f940 1493 b840
00000090: e265 a040 4e60 a540 5645 aa40 d61f 5a40
000000a0: 5e1f 9440 4307 5e40 0519 d040 d773 bb40
000000b0: 42c0 ea40 394c bb40 fe1f 9940 f3f2 bb40
000000c0: e41a d940 e0b5 db40 85c3 d740 2ab6 ba40
000000d0: b40b 9840 492c 5340 927f e340 c65e 8840
000000e0: fc02 4b40 8966 c740 229e b240 6c31 7240
000000f0: f825 ec40 2c75 6c40 2bf8 a840 a6ac 8240
00000100: 533c 5640 7e6e f940 d6f5 a240 75f2 fa40
00000110: 5f75 ab40 0fcb e840 2615 eb40 18a6 c440
00000120: 80d2 cf40 460a f440 985f c340 a840 ed40
00000130: a91a 9f40 e491 5140 c20a ee40 9f66 5840
00000140: a495 fe40 4845 aa40 4478 6540 46f7 cd40
00000150: a2b2 e140 7af7 a240 4af7 c040 42d8 ba40
00000160: 0218 af40 1053 f540 0e14 f340 5b2c 8240
00000170: c89c 7d40 61df af40 50bb ad40 b821 8340
00000180: f80c e040 f232 4d40 16e7 ae40 bedb 8540
00000190: a26d 7740 96be 8d40 1ebf c440 915e ae40
000001a0: 20ea f640 eeb0 4d40 83b0 5b40 5666 9440
000001b0: 423b ce40 fc66 c140 b95a 7c40 1a0c aa40
000001c0: bda6 9f40 9fe5 9b40 b60e 4340 e2a4 9240
000001d0: 10b8 b940 04de d740 d8d4 c140 2047 d840
000001e0: ff79 4540 2e1d d440 b61c f940 746a 6d40
000001f0: 18bd 9840 8228 9940 55ac cd40 6f70 4b40
00000200: aef8 c540 2fb0 5140 b75a bb40 83e9 6a40
00000210: 9b08 7a40 4134 da40 99fd cc40 e89a 8c40
00000220: ef68 aa40 0b93 eb40 53cf fa40 1954 4f40
00000230: d1e2 ed40 6297 8240 f882 c740 abcf ec40
00000240: f31e 9440 887d 0241 065d 9040 c4b7 e440
00000250: c57e e940 9027 a040 deee 7840 ea7e bc40
00000260: 7e43 c640 67e0 de40 9a3c ca40 8d44 eb40
00000270: b09b e040 ec8b f640 d289 df40 8aa9 a640
00000280: cd0c b340 fa87 c140 04df 9340 9495 c940
00000290: 02df 9240 94ca d040 985b bb40 f2af 7840
000002a0: 00a5 b940 6fbc ae40 060b d740 192c f340
000002b0: f6d7 8940 0234 ee40 cc90 5c40 2a2d 9340
000002c0: c6c7 f340 0c76 4a40 6694 af40 dd25 5140
000002d0: ca70 9c40 d75e fd40 50ae df40 0864 cf40
000002e0: fe38 db40 6458 ca40 28a2 9b40 b4bf fe40
000002f0: 61f8 8d40 72f6 c340 ee12 a640 9ab6 b940
00000300: 1cce 5840 69b7 9c40 9ed0 f240 ccbc b440
00000310: 946b 9640 9d7e 6140 9488 f740 0d53 e240
00000320: 2185 f240 bb7d 9540 68f9 e840 96ff e840
00000330: 5079 8e40 e8e1 9440 9559 7340 ffb0 d540
00000340: ec62 4f40 6291 9d40 405b ad40 d39e 4a40
00000350: f3c9 a440 7614 cf40 9dbb e040 960b ab40
00000360: b8e7 4b40 f3c2 ad40 365c c640 a0e9 d340
00000370: 2e65 5240 d6a2 8d40 fa5e be40 3729 f940
00000380: 4605 5c40 779f 9440 a02e bc40 b4d5 d840
00000390: 7795 9240 12e8 aa40 78de b340 f453 c840
000003a0: 460f f140 bdbd d440 7c04 6040 fad1 8a40
000003b0: 38d7 9640 ef13 8540 018c b140 c79b 4f40
000003c0: 3112 c840 71cb 8f40 e5a5 9240 758d 8640
000003d0: f345 db40 02a4 8a40 6e89 b840 8bde 8e40
000003e0: bc56 9740 c2cf 9740 af6f aa40 3467 8940
000003f0: ccf0 9d40 271e ec40 71d2 fd40 c461 9e40
6.820941 3.3769507 6.6534986 7.3165293 7.9427347 4.210848 7.3725176 4.7889423
3.6007502 6.57483 6.6459203 6.0366163 5.2893543 5.0150914 4.0408416 4.0766945
3.6083262 4.1409254 5.8895187 5.1992435 5.361353 4.178758 6.391918 4.701831
4.7784886 3.1748574 5.178005 5.7159104 6.763904 4.95977 4.545192 5.67373
5.1411095 7.826183 7.7922554 5.767954 5.012437 5.168006 5.320964 3.408193
4.628829 3.4691932 6.503054 5.8578906 7.335969 5.8530545 4.7851553 5.873407
6.7845325 6.8659515 6.742617 5.834737 4.7514286 3.299578 7.1093225 4.261569
3.1720572 6.2312665 5.5818033 3.7842665 7.379635 3.6946516 5.280294 4.0835752
3.347432 7.794738 5.0925093 7.842097 5.3580775 7.2747874 7.3463316 6.145275
6.494446 7.626254 6.105419 7.4141426 4.9720044 3.2745295 7.438813 3.3812635
7.9557667 5.320957 3.5854654 6.4364347 7.053056 5.0927095 6.0301867 5.8388987
5.4716806 7.6663895 7.596198 4.0679145 3.9626942 5.496018 5.4291153 4.097866
7.001583 3.2062345 5.4657087 4.183074 3.8660665 4.429515 6.1483297 5.4490438
7.7160797 3.213924 3.4326484 4.637492 6.4447336 6.0438213 3.9430373 5.3139772
4.989104 4.87178 3.047773 4.5826273 5.8037186 6.7458515 6.057232 6.7586823
3.085571 6.628562 7.7847548 3.7096224 4.7730827 4.786195 6.4272866 3.1787374
6.1866064 3.2763784 5.8548236 3.6705024 3.9067752 6.8188787 6.4059567 4.3939095
5.3253093 7.3616996 7.837808 3.239508 7.4339375 4.0809793 6.2347374 7.40035
4.628778 8.155647 4.5113554 7.1474323 7.296725 5.0048294 3.8895793 5.8904924
6.195739 6.964893 6.3198977 7.352118 7.019005 7.7045803 6.985574 5.2081957
5.5953126 6.0478487 4.6209736 6.299509 4.5897226 6.524729 5.854931 3.8857388
5.8013916 5.460502 6.7200956 7.599133 4.3076124 7.4438486 3.4463377 4.599263
7.6181364 3.163455 5.486865 3.267936 4.888768 7.917827 6.9900284 6.480961
6.850707 6.32329 4.8635445 7.9609013 4.4365697 6.1238337 5.1898108 5.80354
3.38758 4.897389 7.587966 5.6480465 4.700632 3.5233529 7.735422 7.072638
7.578751 4.671598 7.280445 7.2811995 4.4523087 4.6525764 3.8023427 6.677856
3.2404127 4.923997 5.417389 3.1659439 5.149652 6.4712477 7.022902 5.3451643
3.186018 5.4300475 6.198756 6.6222687 3.2874255 4.4261274 5.949094 7.786281
3.4378219 4.644466 5.8806915 6.776087 4.580745 5.340829 5.620907 6.260248
7.5331144 6.6481614 3.5002737 4.338132 4.713772 4.1586833 5.5483403 3.243883
6.2522206 4.493584 4.582751 4.2047677 6.8522887 4.3325205 5.766776 4.464666
4.7293377 4.744111 5.3261333 4.293848 4.935644 7.3786807 7.9319386 4.9494343

ltc_model.rnn_cell.mu f4 [48, 48]
00000000: 00ce 473f 3ce6 113f a066 fa3e d67a b13e
00000010: 054b 9c3e 1076 343f b03e 1b3f 3c85 b93e
00000020: 29d9 dc3e 3778 b83e bbea 473f 664e fb3e
00000030: f6b9 033f 71ce 183f d0d9 213f f2ad 103f
00000040: ba63 053f cce5 053f e200 e83e bd99 b43e
00000050: 8031 c43e b5ea c03e 657d ec3e bd09 293f
00000060: fe31 d33e fcde 2d3f e637 1e3f 7806 123f
00000070: aeb7 293f 6492 353f 0edb 0d3f f355 0e3f
00000080: 19df 013f 6458 ef3e aed6 1a3f c2e2 343f
00000090: 6278 483f 918f 443f ccb0 343f 16aa 9a3e
000000a0: 88ed 303f ee17 1f3f d486 353f 60e5 343f
000000b0: caa3 233f d1bf 0a3f c867 0b3f 3e16 fd3e
000000c0: 5b57 243f 696b 2b3f 7455 383f fc79 1b3f
000000d0: 5870 bf3e 162b 423f 2ce9 e33e 0669 463f
000000e0: 248a 153f 9472 123f 7405 173f 5fe0 c33e
000000f0: 30ea 363f 81bd 053f bf54 f73e 62d1 213f
00000100: d129 e83e 2809 3c3f da92 453f 0090 4a3f
00000110: 122f 023f 6a56 2f3f a38b 053f 93ea 373f
00000120: 24da 2c3f 037e d03e 3cd4 1b3f af2a 193f
00000130: fecd 9f3e 7c8e 2a3f 504b 1f3f 72e3 373f
00000140: ccc8 303f 697c a83e 51f6 193f c825 2e3f
00000150: be7f a33e c6c0 013f 984a 9f3e 95f3 3b3f
00000160: a391 ff3e 1cd1 0b3f 27a6 443f 1f27 df3e
00000170: a6e7 be3e d1b8 f13e 959e 403f 369a d03e
00000180: a425 dd3e d8b2 a43e e3d7 463f c43a 103f
00000190: 3560 f13e 8d92 c43e 5e56 393f cd4a eb3e
000001a0: 24d0 403f 9b7b 443f 18b0 9a3e d2d4 0b3f
000001b0: 5aaa 183f 34be 1d3f 3b73 123f 12ce 1e3f
000001c0: defe fe3e c131 2e3f 4b8a f63e c07d 443f
000001d0: d3f2 263f ab2b bd3e 1698 413f 9ec4 163f
000001e0: 2f80 cd3e 1e10 3a3f e2b3 b93e abf6 453f
000001f0: 3624 2d3f 827d d83e ba53 003f a3c0 203f
00000200: 2954 ff3e f95c 1d3f a0e2 cf3e 2bb6 373f
00000210: e990 373f f057 3b3f 50fc 3b3f 2a7b 293f
00000220: 25cd 1b3f 127d c73e 81df cb3e 75a0 e03e
00000230: 25b0 043f 46d0 203f 1987 bb3e 6ae8 323f
00000240: 62fa c93e 4a1e c13e 695c d53e 2782 ad3e
00000250: 016a d33e ea4a 163f b465 b63e 624e e43e
00000260: eafe 123f e5c8 2d3f 2484 2c3f f03d 0f3f
00000270: 6364 bd3e f074 2b3f 0893 133f 27ef da3e
00000280: 7e01 333f 11f6 133f 17e8 ec3e 4df8 a73e
00000290: 789a 173f c4ce 2d3f 765a 1f3f 5852 ea3e
000002a0: 4424 303f 8221 ff3e 5aba 123f 1cb1 233f
000002b0: 56ee 0d3f 206d 3a3f 640a 2f3f ae00 093f
000002c0: 34b2 2c3f 9cf4 3f3f 53f8 ce3e 2eab 343f
000002d0: 020f c63e 6ba6 483f 31e1 c73e 0c82 393f
000002e0: 2795 af3e 7bf4 373f 6cbd 473f 11a0 ed3e
000002f0: d150 473f 05e7 143f c09d e93e 578a c13e
00000300: ea70 4d3f 2491 093f dc22 493f bc04 aa3e
00000310: bc0e b73e 03c9 c63e 3026 023f b064 233f
00000320: de25 1f3f 6213 a93e c4c8 4a3f 86ed ad3e
00000330: 8236 2a3f 3214 9d3e 4018 1a3f fadd 2b3f
00000340: bc2f ea3e 94c3 3b3f 161f 223f 5ffa 103f
00000350: eecd 2a3f 0e9b c83e d593 c83e 9415 123f
00000360: 866b 253f 877f 033f e35b f83e d2e7 1e3f
00000370: fe77 b03e c85f 3d3f f555 ab3e 587d 073f
00000380: 04d4 413f f96e e93e 0620 373f 9c1f 123f
00000390: 40c3 4c3f 4c5f 2d3f 9e29 1d3f 6e40 1a3f
000003a0: a556 fd3e 0ae1 403f e8a9 e53e 4262 d43e
000003b0: b84a c23e f0c3 3f3f 68d9 ee3e ea89 423f
000003c0: 04a5 023f b620 533f ecdc 333f bea6 a23e
000003d0: 5c9a ef3e 96da 473f dc74 363f 3857 ac3e
000003e0: 85af 0a3f 4e06 0f3f 382e 413f 93e3 233f
000003f0: b3f7 9f3e ca5c 0d3f 5a4c 3e3f 9501 2d3f
0.78048706 0.56991935 0.48906422 0.3466403 0.30525985 0.7049265 0.6064253 0.36234462
0.4313443 0.36029217 0.78092545 0.4908325 0.5145563 0.59690005 0.6322298 0.5651542
0.52105296 0.5230377 0.45313174 0.35273543 0.38319016 0.37679067 0.46189418 0.66030484
0.4124908 0.6791837 0.61804044 0.5704112 0.662959 0.709265 0.55412376 0.555999
0.50731045 0.46747124 0.60483825 0.70658505 0.7830869 0.76781565 0.7058227 0.3020789
0.69112444 0.6214589 0.70908856 0.706625 0.639218 0.5419894 0.5445523 0.49431032
0.64195794 0.6696077 0.7200539 0.6073301 0.373904 0.75846994 0.44513834 0.77504003
0.5841391 0.5720608 0.58992696 0.3825712 0.7145109 0.52242285 0.48306844 0.6321012
0.45344403 0.7345147 0.771772 0.79125977 0.50853074 0.6849123 0.52166194 0.71842307
0.67520356 0.4072114 0.6087072 0.59830755 0.31211847 0.66623664 0.6222429 0.7183143
0.6905639 0.32907417 0.60141474 0.680264 0.31933397 0.50684774 0.31111598 0.7341855
0.499158 0.5461595 0.7681603 0.43584535 0.3728611 0.47211316 0.75241977 0.40742654
0.4319278 0.32167697 0.77673167 0.5633967 0.47143713 0.3839306 0.7239741 0.45955506
0.753176 0.76751107 0.30212474 0.54621613 0.59634936 0.6161835 0.5720708 0.6203319
0.49803823 0.6804467 0.48152384 0.7675438 0.6521427 0.3694738 0.7562269 0.58893764
0.4013686 0.7268084 0.36270052 0.7732951 0.6763338 0.42283255 0.50127757 0.6279394
0.49868897 0.6146999 0.4060259 0.7176234 0.7170549 0.73181057 0.73431873 0.6620356
0.608599 0.3896261 0.39818957 0.4387242 0.51831275 0.628178 0.3662651 0.69885886
0.3944884 0.3771842 0.41672066 0.3388836 0.41291812 0.5870806 0.35624468 0.4459105
0.5742022 0.67884666 0.6738913 0.55953884 0.3699065 0.6697531 0.57646227 0.42760584
0.6992415 0.5779734 0.4627082 0.32806626 0.59220076 0.67893624 0.6224741 0.45765948
0.68805337 0.49830252 0.573156 0.6394212 0.55441797 0.7282276 0.6837523 0.5351666
0.67459416 0.7498262 0.4042383 0.705737 0.38683325 0.78378934 0.39038995 0.7246406
0.34293482 0.7185742 0.7802341 0.46411183 0.7785769 0.5816501 0.45628166 0.37800857
0.8025042 0.5373709 0.78568816 0.33206737 0.3575343 0.38825235 0.5083952 0.6382551
0.62167156 0.330226 0.79212594 0.33970279 0.6648942 0.3067947 0.6019325 0.67135584
0.45739543 0.73345304 0.63328683 0.56632036 0.66720474 0.39180797 0.39175287 0.57064176
0.6461719 0.51366466 0.48507604 0.6207248 0.34466547 0.73974276 0.33464018 0.52925634
0.75714135 0.45592478 0.7153324 0.5707948 0.7998543 0.67723536 0.6139163 0.6025456
0.49480167 0.7534338 0.4485619 0.41481215 0.3794763 0.7490835 0.46650243 0.7599169
0.51033044 0.8247179 0.70258975 0.3176784 0.46797454 0.7806791 0.71272063 0.33660293
0.5417407 0.55868995 0.7546115 0.64019126 0.31243667 0.5521971 0.74335253 0.6758054

ltc_model.rnn_cell.w f4 [48, 48]
00000000: 206b ce3a f766 103e 3b2b 0f3f 7ef9 3d3e
00000010: 0469 263e e583 7d3e a2fa c93e 267a 183f
00000020: db98 0f3f f2fc 6e3e c219 8e3e 2fa7 a23e
00000030: 6ce1 103f 7d74 053e 32c6 6d3e fb11 253f
00000040: e347 5c3f bfef 713f fb69 083f a047 bc3e
00000050: 583d 743f f9cb 523f 5627 003f 0bc8 683f
00000060: 71a5 653f f0dc 223e 6e13 913e 5375 1d3e
00000070: ef91 2d3f 6d7e 303f 1e7b 4f3f 3d7b 2c3e
00000080: 0051 d43d 44e4 643f 9164 5c3f e03f cd3d
00000090: 75bd 823e f50d d53e 3530 583f a234 053f
000000a0: 38ae d13e 954c 633e d70c 063f cb36 2c3f
000000b0: d954 3b3f a68b fe3c 9ecf 853d baae 273f
000000c0: d541 433f bd3f a23d 65a7 7f3f 5a88 6c3f
000000d0: 29ec 913e 4138 0a3f 712f 103f 2108 da3d
000000e0: a859 0e3f fe1b 3d3f 9b2c 763e d13c 963d
000000f0: 9590 513f d59a 693f 4e42 fb3d e4ea 833e
00000100: ced7 0b3f fa77 c63e d718 1c3f b17d 2e3e
00000110: 627d 923e a3a9 a73e 37c5 2d3f 142d 563f
00000120: be72 d63e e45b 503f 7b9e b53e e79f 883e
00000130: c65e 203f 9850 043f 1ce5 5a3f 9bcd 343f
00000140: d460 303f 6870 ae3e 86b1 373f 635f 733c
00000150: d6ff 3c3e 858c 0d3f 5ea9 403f 1e4f 483f
00000160: 87bf a03d c7f2 e63e 8f93 683f fe0b 193f
00000170: fb70 683f c34c b73e 998c 783f 4abf 1a3f
00000180: c818 2b3d af67 743e 0931 763d 88e2 193f
00000190: 0bf5 6b3f a6d9 1f3f 6e53 d33e c384 7e3f
000001a0: 6a99 693f 29f2 273f be8a af3e a3ae 0e3f
000001b0: e6f2 073f ae82 383f 5559 7f3e 96f9 7a3f
000001c0: 41b5 733e 38f4 673f 7b51 0b3f 8bc7 f23e
000001d0: 0311 383f ce8d 483f 88e1 523f 4e37 253f
000001e0: b3ea aa3e 260f 393f 9c3a 803d 6045 7e3e
000001f0: a8c8 5d3f 0c1a 2b3f 94c8 043f f41d 6a3f
00000200: 9226 103f 1bf4 733f 98c1 ea3d e0a0 023f
00000210: 5418 cb3e 52de 3d3f 2af5 683f 853e 583f
00000220: 1827 973e bd72 2d3d bea9 5e3f 8014 293e
00000230: 8604 7f3f 359b 1a3f 14e6 813e a093 123f
00000240: c091 643f 53d5 243f 085f fa3d 7c4f ad3e
00000250: 7d57 643f 0024 383d 9282 3c3f c910 4f3e
00000260: 85d9 b13d 8d5e 6b3f 4f83 733f b42d 543f
00000270: 68d3 fb3e 4a77 e13d 8437 f93c 624f a23e
00000280: f5b2 953e f255 343e aecb 7c3f c9f0 423f
00000290: 17d5 a03e 4933 1c3e 2a8f 583e e459 693e
000002a0: 7fc9 5a3d f117 2d3e 1d69 073f 4f63 a23e
000002b0: 2213 2b3f 6a89 e83d 8f96 f63e f67a 773f
000002c0: d967 cd3e 4b59 413f 0372 703e 6836 333f
000002d0: 1e9b 103e 790c 0a3f 360e 383f f762 933e
000002e0: d772 d43e 40c7 a43e c1bd 543f 85f8 573f
000002f0: b845 643f 991c 633e 30a3 0a3f 28d6 a63d
00000300: c014 093f f398 193f 1d0e 4a3e e3ca 1e3f
00000310: 9797 3e3f 3a26 9e3d 3de3 203f a099 f03e
00000320: 0210 5c3f 1b2a 4f3f 9b4e b33e 4dbb 5d3f
00000330: db44 623f 0937 ae3e de80 c63e a5e0 b03d
00000340: 7a6d 0d3f b499 173f 05bb 2c3e e97d 813e
00000350: ffd8 2b3f 6ff5 6f3e 8f98 4b3f 8aba 843e
00000360: bd4b ad3e 8fda 0a3e a642 803e ea61 cb3d
00000370: 86e8 b43e c51d ac3d 7e90 fe3e 6da8 e63d
00000380: c39b 953e 10f9 cd3e bcb0 383e 3954 7a3f
00000390: b77d b33e 57eb f83d a8ce d63e 1f4f 423f
000003a0: 973e 4b3f 0bd1 663f 913f 823e bb04 d43e
000003b0: 4332 d33e 0fe2 cc3e 86a7 ff3e 386d 433f
000003c0: aa43 ed3d b766 043f b437 693f 2d89 073f
000003d0: 188f 363e ed50 3e3f 91a5 2d3f 1f56 7e3f
000003e0: bd40 233f 17dd 673f ce41 243f 3b87 313f
000003f0: 8889 273f 446e 523f 5d81 513f eb1f 6e3e
0.0015748478 0.14101778 0.5592534 0.18552205 0.16250998 0.24757345 0.3944903 0.59561384
0.56092614 0.23338678 0.27754027 0.31768176 0.56593966 0.13032718 0.23220137 0.6448056
0.8604719 0.9450645 0.53286713 0.36773396 0.95406103 0.8234249 0.5006002 0.9093024
0.8970557 0.15904593 0.28335136 0.15376787 0.678008 0.6894291 0.81047237 0.16843887
0.10367012 0.89410806 0.8609095 0.10021949 0.2553517 0.4161221 0.8444856 0.52033436
0.4095323 0.22197182 0.5236334 0.6727111 0.7317634 0.031072449 0.065337405 0.65500987
0.76272327 0.07922313 0.998648 0.92395556 0.28500488 0.53992087 0.5632239 0.10646082
0.55605555 0.7387084 0.24040453 0.073358186 0.8186124 0.9125188 0.12268506 0.25765145
0.54626167 0.3876341 0.609754 0.17040135 0.28611284 0.3274661 0.6787905 0.83662534
0.41884416 0.81390214 0.35472474 0.26684496 0.6264461 0.51685476 0.85505843 0.7062623
0.6889775 0.34070134 0.71755254 0.014854285 0.18456969 0.5529254 0.75258434 0.78245723
0.07849031 0.451071 0.90850157 0.59783924 0.90797395 0.35800752 0.97089535 0.60448134
0.04177168 0.23867677 0.060105357 0.60111284 0.9217078 0.6244148 0.4127459 0.9942133
0.91249716 0.6560388 0.3428554 0.55735224 0.5310501 0.720744 0.24936421 0.9803709
0.23799612 0.90607023 0.54421204 0.47417864 0.7190096 0.78341377 0.82375383 0.64537513
0.33382186 0.7228874 0.06261179 0.24831152 0.866343 0.6683662 0.5186856 0.91451955
0.56308854 0.9529435 0.11462706 0.51026726 0.39666998 0.7416736 0.9099909 0.844704
0.29522014 0.04234575 0.86977756 0.16511726 0.9961628 0.6039308 0.25370848 0.5725651
0.89284897 0.64388007 0.12225157 0.33849704 0.89195997 0.044956207 0.73636734 0.20221247
0.08684067 0.9194115 0.95122236 0.8288224 0.49184728 0.11009081 0.03042198 0.3170119
0.29238096 0.1761091 0.9874829 0.7614866 0.31412575 0.15253939 0.21148363 0.22788197
0.053414818 0.16903664 0.52894765 0.3171639 0.6682607 0.11354335 0.48161742 0.96672
0.40118292 0.75526875 0.23480992 0.7000489 0.14121673 0.5392528 0.71896684 0.28786442
0.41493866 0.32183266 0.8310204 0.84363586 0.8916888 0.22178878 0.54155254 0.08146316
0.53547287 0.59999007 0.19731946 0.6202833 0.7445006 0.07722135 0.6284674 0.46992207
0.85961926 0.8092362 0.3502091 0.86613923 0.88386315 0.34026363 0.38770193 0.086365975
0.5524517 0.5921891 0.16868217 0.25291374 0.67127985 0.23433469 0.7952966 0.25923568
0.33846846 0.13559936 0.2505085 0.09930785 0.3533365 0.084041156 0.49719614 0.112625934
0.292204 0.40229082 0.18036169 0.97784764 0.3505685 0.121542625 0.4195454 0.7590198
0.7939238 0.90162724 0.25439122 0.4140986 0.41249284 0.4001622 0.49932498 0.7633853
0.115851715 0.5171923 0.9110062 0.5294369 0.17828023 0.7434223 0.6783076 0.9935016
0.6377066 0.9057173 0.6416291 0.6934697 0.6544423 0.821995 0.8183802 0.23254363

ltc_model.rnn_cell.erev f4 [48, 48]
00000000: 0000 0000 0000 0000 0000 0000 0000 0000
00000010: 0000 0000 0000 0000 0000 0000 0000 0000
00000020: 0000 0000 0000 0000 0000 0000 0000 0000
00000030: 0000 0000 0000 0000 0000 0000 0000 0000
00000040: 0000 0000 0000 0000 0000 0000 0000 0000
00000050: 0000 0000 0000 0000 0000 0000 0000 0000
00000060: 0000 0000 0000 0000 0000 0000 0000 0000
00000070: 0000 0000 0000 0000 0000 0000 0000 0000
00000080: 0000 0000 0000 0000 0000 0000 0000 0000
00000090: 0000 0000 0000 0000 0000 0000 0000 0000
000000a0: 0000 0000 0000 0000 0000 0000 0000 0000
000000b0: 0000 0000 0000 0000 0000 0000 0000 0000
000000c0: 0000 0000 0000 0000 0000 0000 0000 0000
000000d0: 0000 0000 0000 0000 0000 0000 0000 0000
000000e0: 0000 0000 0000 0000 0000 0000 0000 0000
000000f0: 0000 0000 0000 0000 0000 0000 0000 0000
00000100: 0000 0000 0000 0000 0000 0000 0000 0000
00000110: 0000 0000 0000 0000 0000 0000 0000 0000
00000120: 0000 0000 0000 0000 0000 0000 0000 0000
00000130: 0000 0000 0000 0000 0000 0000 0000 0000
00000140: 0000 0000 0000 0000 0000 0000 0000 0000
00000150: 0000 0000 0000 0000 0000 0000 0000 0000
00000160: 0000 0000 0000 0000 0000 0000 0000 0000
00000170: 0000 0000 0000 0000 0000 0000 0000 0000
00000180: 0000 0000 0000 0000 0000 0000 0000 0000
00000190: 0000 0000 0000 0000 0000 0000 0000 0000
000001a0: 0000 0000 0000 0000 0000 0000 0000 0000
000001b0: 0000 0000 0000 0000 0000 0000 0000 0000
000001c0: 0000 0000 0000 0000 0000 0000 0000 0000
000001d0: 0000 0000 0000 0000 0000 0000 0000 0000
000001e0: 0000 0000 0000 0000 0000 0000 0000 0000
000001f0: 0000 0000 0000 0000 0000 0000 0000 0000
00000200: 0000 0000 0000 0000 0000 0000 0000 0000
00000210: 0000 0000 0000 0000 0000 0000 0000 0000
00000220: 0000 0000 0000 0000 0000 0000 0000 0000
00000230: 0000 0000 0000 0000 0000 0000 0000 0000
00000240: e420 983f c324 a2bf 0000 803f 0000 0000
00000250: 0000 0000 0000 0000 0000 0000 0000 0000
00000260: 0000 0000 0000 0000 0000 0000 0000 0000
00000270: 0000 0000 0000 0000 0000 0000 0000 0000
00000280: 0000 0000 0000 0000 0000 0000 0000 0000
00000290: 0000 0000 0000 0000 0000 0000 0000 0000
000002a0: 0000 0000 0000 0000 0000 0000 0000 0000
000002b0: 0000 0000 0000 0000 0000 0000 0000 0000
000002c0: 0000 0000 0000 0000 0000 0000 0000 0000
000002d0: 0000 0000 0000 0000 0000 0000 0000 0000
000002e0: 0000 0000 0000 0000 0000 0000 0000 0000
000002f0: 0000 0000 0000 0000 0000 0000 0000 0000
00000300: 5310 7fbf 8372 7f3f 0000 80bf 0000 0000
00000310: 0000 0000 0000 0000 0000 0000 0000 0000
00000320: 0000 0000 0000 0000 0000 0000 aec4 833f
00000330: 6961 6ebf 0000 0000 0000 0000 0000 0000
00000340: 0000 0000 0000 0000 0000 0000 0000 0000
00000350: 0000 0000 0000 0000 0000 0000 0000 0000
00000360: 0000 0000 0000 0000 0000 0000 0000 0000
00000370: 0000 0000 0000 0000 0000 0000 0000 0000
00000380: 0000 0000 0000 0000 0000 0000 0000 0000
00000390: 0000 0000 0000 0000 0000 0000 0000 0000
000003a0: 0000 0000 0000 0000 0000 0000 0000 0000
000003b0: 0000 0000 0000 0000 0000 0000 0000 0000
000003c0: 2a49 78bf d6c9 80bf 0000 80bf 0000 0000
000003d0: 0000 0000 0000 0000 0000 0000 0000 0000
000003e0: 764c 6b3f 0000 0000 0000 0000 0000 0000
000003f0: 0000 0000 0000 0000 0000 0000 0000 0000
0.0 0.0 0.0 0.0 0.0 0.0 0.0 0.0
0.0 0.0 0.0 0.0 0.0 0.0 0.0 0.0
0.0 0.0 0.0 0.0 0.0 0.0 0.0 0.0
0.0 0.0 0.0 0.0 0.0 0.0 0.0 0.0
0.0 0.0 0.0 0.0 0.0 0.0 0.0 0.0
0.0 0.0 0.0 0.0 0.0 0.0 0.0 0.0
0.0 0.0 0.0 0.0 0.0 0.0 0.0 0.0
0.0 0.0 0.0 0.0 0.0 0.0 0.0 0.0
0.0 0.0 0.0 0.0 0.0 0.0 0.0 0.0
0.0 0.0 0.0 0.0 0.0 0.0 0.0 0.0
0.0 0.0 0.0 0.0 0.0 0.0 0.0 0.0
0.0 0.0 0.0 0.0 0.0 0.0 0.0 0.0
0.0 0.0 0.0 0.0 0.0 0.0 0.0 0.0
0.0 0.0 0.0 0.0 0.0 0.0 0.0 0.0
0.0 0.0 0.0 0.0 0.0 0.0 0.0 0.0
0.0 0.0 0.0 0.0 0.0 0.0 0.0 0.0
0.0 0.0 0.0 0.0 0.0 0.0 0.0 0.0
0.0 0.0 0.0 0.0 0.0 0.0 0.0 0.0
1.1885037 -1.2667469 1.0 0.0 0.0 0.0 0.0 0.0
0.0 0.0 0.0 0.0 0.0 0.0 0.0 0.0
0.0 0.0 0.0 0.0 0.0 0.0 0.0 0.0
0.0 0.0 0.0 0.0 0.0 0.0 0.0 0.0
0.0 0.0 0.0 0.0 0.0 0.0 0.0 0.0
0.0 0.0 0.0 0.0 0.0 0.0 0.0 0.0
-0.99634284 0.99784106 -1.0 0.0 0.0 0.0 0.0 0.0
0.0 0.0 0.0 1.0294397 -0.93117386 0.0 0.0 0.0
0.0 0.0 0.0 0.0 0.0 0.0 0.0 0.0
0.0 0.0 0.0 0.0 0.0 0.0 0.0 0.0
0.0 0.0 0.0 0.0 0.0 0.0 0.0 0.0
0.0 0.0 0.0 0.0 0.0 0.0 0.0 0.0
-0.9698664 -1.0061595 -1.0 0.0 0.0 0.0 0.0 0.0
0.91913545 0.0 0.0 0.0 0.0 0.0 0.0 0.0

ltc_model.rnn_cell.sensory_sigma f4 [4, 48]
00000000: 5d09 d740 6584 9240 8d05 ad40 cff4 e340
00000010: 9cc9 e640 1048 cb40 e22b c640 58ba fa40
00000020: 3c40 8440 742c 8d40 34ab 4a40 365d bd40
00000030: 873b 8140 1d31 c040 04cb 8440 a16d db40
00000040: 3476 6540 70c5 a640 5995 c640 7a6a 9040
00000050: aeb5 8540 8e2f 7b40 2786 ed40 ad0f d440
00000060: e2e1 9d40 18a7 a940 70b3 8640 c65a b940
00000070: 5871 9e40 0b42 9240 a694 5d40 6950 f440
00000080: e8c4 c540 e084 7740 da89 7c40 4fcf 8740
00000090: 9cec 9d40 3aeb f140 80be b140 46e7 a440
000000a0: daa2 df40 33b0 b940 317b 8c40 1c3c 7340
000000b0: 8be2 c940 f249 b640 63ba ce40 ca58 9d40
000000c0: bab0 9840 177c 9840 37cc 7c40 e61c 8840
000000d0: eee5 a740 5fad a940 52b9 a040 9ca2 7540
000000e0: 1177 8940 9ce6 c040 fde9 4e40 9674 9c40
000000f0: 2656 c040 f728 b540 6c3b 5740 474b e040
00000100: 282b 5140 6774 9b40 88fb de40 8a83 8340
00000110: 6ea9 b240 5adb 5a40 ef92 8440 8435 6740
00000120: 1f8e 8040 94b6 6740 0f88 cf40 1007 8d40
00000130: fe8a d040 1b46 f540 c3ff be40 1245 b940
00000140: 0f5e 9a40 bba6 6040 5785 9e40 b5cc 9940
00000150: 0ac9 b940 abb6 ea40 d2c6 3f40 2c0b fa40
00000160: 0d6f 6140 b270 e440 fcc8 9340 22fa c240
00000170: 8e7d 6440 6c0c e740 ca3d b840 7068 e340
00000180: d199 f940 de90 7840 adc4 d940 a4e0 5b40
00000190: a42f 6c40 fe27 9440 6218 cf40 2b5b f940
000001a0: 8a09 c340 0b7b 7e40 93b6 e740 a08f a940
000001b0: 617f e640 0b25 ed40 c4d8 7540 5bb7 a640
000001c0: 2d83 8a40 f9dd ab40 f72f 5440 f5de bc40
000001d0: a443 c840 6f16 8540 f13e df40 fb6f fe40
000001e0: e877 ab40 ddfd 8e40 a65c 6f40 7cb6 b640
000001f0: f417 7a40 a5ee dd40 10ec 8f40 cd8d ce40
00000200: 4bb5 7340 c332 ba40 23e7 5340 466e bb40
00000210: 3f34 c440 bd31 d940 6586 a440 293d 9c40
00000220: 9c39 a140 d743 b140 fd3d 8040 55eb 5440
00000230: 8235 cf40 b64e 8240 a57e 8040 01af 9140
00000240: e7d8 bc40 071a 6540 6176 d640 b651 a840
00000250: 669c 4440 fd54 e140 3347 e440 ab1a fb40
00000260: 1bb8 af40 c329 fc40 5e1e ca40 1cf5 5e40
00000270: 6b9f 8440 1c4d b040 5f80 e340 108d c040
00000280: fcaf c740 2ed1 d440 fa33 f640 543f 9a40
00000290: b0b9 9f40 4bb8 fb40 bf66 fe40 f3d0 bf40
000002a0: 8006 ba40 d4a8 6140 3bcf 5c40 f7c1 9040
000002b0: 6f16 0141 001d 5840 a7aa e640 8aeb 8740
000002c0: b930 9840 a8c2 ae40 7a54 ab40 e767 f440
000002d0: f7dd 8d40 dc45 ff40 0e0b f840 31ef ac40
000002e0: bec1 6440 6986 ef40 bd50 8640 2222 5d40
000002f0: 3e8c 9840 b182 e440 40df b440 0abf 8340
6.719893 4.5786614 5.4069276 7.123634 7.2121105 6.3525467 6.192857 7.835247
4.132841 4.4116764 3.1666994 5.9176283 4.0385165 6.0059953 4.149782 6.8571324
3.5853395 5.2116013 6.205731 4.5129976 4.1784277 3.9247775 7.422626 6.6269135
4.9338236 5.301647 4.209404 5.7923307 4.951336 4.570562 3.4621978 7.6348157
6.1802864 3.867485 3.9459138 4.244056 4.935133 7.559964 5.5545044 5.1532316
6.9886293 5.8027587 4.390038 3.8005438 6.308904 5.6965265 6.4602523 4.9170885
4.771573 4.7651477 3.9499643 4.2535276 5.2468176 5.3024135 5.022622 3.83805
4.2957845 6.0281506 3.2330315 4.8892317 6.010516 5.6612506 3.3630018 7.009189
3.268259 4.8579593 6.9682045 4.109807 5.5831823 3.4196382 4.142936 3.6126413
4.017349 3.6205187 6.4853587 4.407112 6.516967 7.664808 5.968721 5.7896814
4.823982 3.5101764 4.953777 4.8062387 5.805791 7.3347983 2.99651 7.8138638
3.522403 7.1387568 4.618284 6.093034 3.5701632 7.2202663 5.7575426 7.1064987
7.8000264 3.883842 6.8052583 3.435586 3.6904078 4.629882 6.4717264 7.792379
6.0949144 3.97626 7.241037 5.2987823 7.203049 7.410772 3.8413553 5.2098823
4.3285127 5.3708463 3.3154275 5.9022164 6.258257 4.1589885 6.9764333 7.9511695
5.358387 4.468489 3.7400298 5.709776 3.907712 6.9353814 4.497566 6.4548097
3.8079402 5.8186965 3.3109825 5.857211 6.1313777 6.7873216 5.1414056 4.882466
5.0382824 5.539531 4.007567 3.3268635 6.4752817 4.0721083 4.0154595 4.552613
5.9014773 3.5797136 6.7019506 5.2599745 3.0720458 7.0416245 7.1336913 7.8470054
5.491224 7.880098 6.316207 3.4837103 4.14446 5.509413 7.1094203 6.0172195
6.2402325 6.6505346 7.693845 4.8202305 4.991417 7.8662467 7.9500422 5.9942565
5.8132935 3.5259295 3.4501483 4.5236773 8.067977 3.37677 7.2083316 4.2475023
4.7559476 5.4612617 5.354062 7.6376834 4.4333453 7.9772778 7.7513494 5.404198
3.574325 7.4851575 4.1973557 3.4552083 4.7671194 7.1409535 5.652252 4.11707

ltc_model.rnn_cell.sensory_mu f4 [4, 48]
00000000: a4fb f23e bc95 ba3e 8f94 cc3e 5802 223f
00000010: a4af 3f3f a03c d63e 7d18 293f cecb 183f
00000020: b77f ff3e ece2 343f f654 1f3f b0e1 043f
00000030: 26cf 423f 5487 293f 465d 223f 66b2 f63e
00000040: 5d56 f53e b67a 3e3f ffc5 313f 6afd 173f
00000050: 1b0f 163f 4b08 c33e be44 383f 0ce9 1b3f
00000060: 644e 803f ab28 673f 897f 4d3f ccfa 143f
00000070: 8e78 1a3f ff8e 9d3e ae99 053f 8c21 6b3f
00000080: 5d46 123f 9343 293f 3407 123f 27eb f93e
00000090: 3667 0c3f 8e09 443f 30d9 233f e427 223f
000000a0: 8ee8 6a3e 4b7e e93e 4258 c63e d4b6 1b3f
000000b0: 80b3 3f3f 1de8 173f 5c28 813e 2e5d 343f
000000c0: 8f02 203f 4ca4 003f 7a11 c33e 01e9 9c3e
000000d0: f912 273f 0845 313f 4a1d e43e 2ca2 103f
000000e0: 1a3c 143f 3997 3d3f 2859 173f d099 b03e
000000f0: 1a23 af3e 0067 c73e 4ac2 aa3e f03f 3c3f
00000100: 9e62 fd3e 228d 1a3f f51f d03e a752 d43e
00000110: 77ba c73e c296 083f eb49 433f b7ab 1f3f
00000120: 4356 273f b232 013f d67e ac3e bb11 e63e
00000130: e436 1e3f 8348 253f 431f 463f 166b 0c3f
00000140: 5b86 f53e 3898 063f 647d 2f3f d09c 223f
00000150: a36a 153f 48ed 873e 6fb6 223f e670 6c3e
00000160: e976 263f 4d1c c73e fbe3 213f 0ed6 173f
00000170: 1c3c ef3e e252 d13e e024 493f ec32 c13e
00000180: 6bf5 493f 62ac b33e 31b5 e13e 0179 213f
00000190: 486f 293f 01d6 a13e c53a c93e cf57 0f3f
000001a0: 48fa 253f fd3c 273f 7764 193f 62f3 0d3f
000001b0: 56d4 bf3e 7e35 393f 921b fc3e 1079 373f
000001c0: b6e1 4a3f 64f8 203f 6e9d c93e 36ba e33e
000001d0: d497 343f 829c de3e 5ce8 3c3f 39c9 e73e
000001e0: ff24 2d3f 3a47 573f 899b 3a3f 349d 483f
000001f0: 059c 3c3f 9c0f 893e 58a8 4e3f 6d3f 2f3f
00000200: 2f7b 143f 4e32 fd3e 16eb 463f 62e6 173f
00000210: d49a 243f 7afd 5d3f 9ecd 2c3f 43fe e63e
00000220: b3a8 ef3e 011e d13e ddff 403f 0c0f 463f
00000230: f111 383f 7653 113f 5bde 993e 509b 163f
00000240: 884e 173f 1ec6 3a3f e4c9 a73e ca07 463f
00000250: 2c00 e53e c097 313f 801c 2a3f e813 bc3e
00000260: 827d 443f 3ae9 323f f291 393f db11 133f
00000270: 4ad9 2b3f 8226 b33e f987 053f b84e 063f
00000280: c8c4 4a3f 660e af3e e2fd 2b3f 9815 293f
00000290: d55c e53e 1863 f83e 5552 323f e248 033f
000002a0: e0f0 a53e e805 bd3e 56da f43e a8a4 913e
000002b0: 659c de3e 4f8b 3c3f 9476 243f ce3f b03e
000002c0: 4736 043f ab2b 253f 9838 063f 1de9 323f
000002d0: 8e0b 213f 5f7f f03e 4243 b63e ad9e 203f
000002e0: ea74 f63e 984e 443f 0e73 e63e 6ae8 3b3f
000002f0: 47aa c93e 9690 fb3e f216 1d3f fb0b c33e
0.47457612 0.36442363 0.3995709 0.63284826 0.7487738 0.41843128 0.6605299 0.5968598
0.49902126 0.70658755 0.62239015 0.5190687 0.76097333 0.6622212 0.63423574 0.48182982
0.47917452 0.7440599 0.69442743 0.59371054 0.586168 0.38092265 0.7197989 0.60902476
1.0023923 0.9029643 0.8027273 0.58195186 0.603402 0.3077316 0.5218762 0.91848063
0.57138616 0.66118735 0.5704224 0.4881222 0.5484499 0.7657708 0.64003277 0.6334212
0.22940275 0.45604166 0.3873921 0.6082585 0.7488327 0.5933855 0.25226104 0.7045468
0.62503904 0.502507 0.3809927 0.30646518 0.65263325 0.6924596 0.44553596 0.56497455
0.5790421 0.7405887 0.59120417 0.3449235 0.34206468 0.3894577 0.33351356 0.7353506
0.494893 0.603716 0.4064938 0.4146931 0.3900945 0.5335504 0.76284665 0.6237139
0.65366 0.5046798 0.33690518 0.44935402 0.61802506 0.6456377 0.7739145 0.548509
0.47954068 0.5257602 0.68550706 0.63520527 0.5836584 0.2654822 0.6355962 0.23089942
0.6502519 0.3888878 0.63238496 0.59310997 0.46725547 0.40883547 0.7857189 0.37734163
0.78890103 0.35092455 0.4408355 0.6307526 0.66185427 0.31608585 0.3930265 0.5599336
0.64835024 0.65327436 0.5991892 0.554495 0.37466687 0.7234725 0.49239784 0.716691
0.7925066 0.62879014 0.39377922 0.44478005 0.7054417 0.4347878 0.7379205 0.45270708
0.67634577 0.8409306 0.7289358 0.7836487 0.73675567 0.26769722 0.8072562 0.68456155
0.58000463 0.49452442 0.7770246 0.5933591 0.6429875 0.867149 0.67501247 0.4511586
0.46808395 0.40843204 0.75390416 0.7736671 0.71902376 0.56767976 0.30052456 0.5883074
0.59104204 0.7295855 0.32771218 0.77355635 0.44726694 0.6937218 0.6644974 0.36733937
0.7675401 0.69887125 0.7248832 0.5744912 0.6712843 0.34990317 0.521606 0.52463865
0.79206514 0.34190673 0.6718427 0.66048574 0.44797388 0.48513103 0.6965688 0.51283085
0.32410336 0.3691857 0.47822827 0.28445935 0.43478695 0.7365007 0.64243436 0.3442368
0.5164532 0.6451976 0.52430105 0.6988695 0.62908256 0.46972176 0.3559819 0.6274212
0.48136073 0.76682425 0.45009655 0.7340151 0.39387724 0.49133748 0.61363137 0.38095078

ltc_model.rnn_cell.sensory_w f4 [4, 48]
00000000: 04bb 433e f0c7 4c3f 5994 733e 1046 ca3e
00000010: 9d81 643f 4090 5e3f b15a 4d3e 5713 2e3f
00000020: eb0e 153f 57be dd3e 4d71 213f 5fea 903e
00000030: d2ba ce3e f8f0 0b3e 1c56 0a3f b4ee e03e
00000040: 8d10 723e 402a 143e a0b6 b33e 9e0f 263f
00000050: 4dc7 583f 3e41 083f 4daf b53e a454 5f3f
00000060: 021a 9ebd b637 e0bd e65b f23c ee05 513d
00000070: cc6e bc3e 1c47 223e 2554 d53e bb37 9f3e
00000080: b34c 113f 5446 f63c 0fe7 2e3f 91f3 053f
00000090: 1518 8a3e db77 2f3f 7029 943e 828d 3c3f
000000a0: 282c 343f 7c8e d63e c610 493e 917a 343f
000000b0: 0d3e b53d 24f3 423f ca59 213f 483f 4f3f
000000c0: 5a55 2f3e e769 043f 4331 173f c470 ee3e
000000d0: 9eaf 053d 7763 d43e 1e6f 233f f6e4 143f
000000e0: fbdc 173f c389 493f 25ad 383f 8fbd 453f
000000f0: 5726 333f 6d5d 5e3e d33d ae3e bebf ae3e
00000100: 55a9 0e3f 5e41 293f f205 4d3f 3255 af3e
00000110: 7bf2 b23e 4619 3f3f 701e 403f a3b6 893e
00000120: 08a4 4c3e 9ee4 763f 0861 3c3f 2570 1a3e
00000130: d60a 803f 7742 ad3e 7303 203f 9090 7d3f
00000140: a9cd 4b3f fa5d f43e 5355 b33e f8de b63e
00000150: 4ad5 9b3e ff5e e43e 0a1d 8a3f d026 293f
00000160: de3d 033e 0143 6b3d 7009 5f3e a01b 3e3f
00000170: b427 193f 576a 143f fda0 b93e 934f 153f
00000180: 6463 383e 0e83 233e 6220 8b3d 7eba 0d3f
00000190: d68f fe3e df6a 043f b255 7f3d 689b 3b3f
000001a0: 61d6 7a3e 9d0d e63d d525 7c3f 4184 493e
000001b0: 842a 0f3e 6bdb b43e fc5d 183f 1b8a 7a3f
000001c0: 06ac 663f f5d2 c13e 944f 133f 30ed 263f
000001d0: da57 e43e 47c2 1e3f 3e57 d83e e392 043f
000001e0: 5525 3a3f 80c5 863e ce0b 4a3f 540a b3bc
000001f0: c812 703f 0b23 293e 3919 58bd 185b 8c3e
00000200: 7c03 ab3d dd01 6d3f 5744 7d3e 1c85 673e
00000210: fea6 4f3f 13a1 3e3e 8023 343e 38c7 0a3f
00000220: e6e9 873e b62e df3e 8c45 453f fb43 383f
00000230: 2677 803e df63 8b3e c8ab 9c3e c37c 933e
00000240: e664 d23d 5d4b 763f 4c26 7e3e 79bf 4a3f
00000250: 607b a03e 8b11 1d3f 1bcd 163d 5e34 cd3e
00000260: 766e 253f cf7c 4b3e cd35 1e3f dfd4 313f
00000270: 1127 563f f93e 563f 0b31 ab3e d81d 023d
00000280: b7fe 423f 1a4b 9b3e 76cf 033f e97f f73e
00000290: 51a4 963e c3f0 593f 8508 b93e fe45 ff3d
000002a0: 8ac2 0e3f c82f 903f b2ad 023f e4c8 893f
000002b0: 50ad a83e 9b0f e53e 70b5 f23e 25aa 343f
000002c0: 87f2 e83e 2b18 5c3f 3faf 8f3f 1d81 323f
000002d0: 7d2a e33e d64d 9b3e d2c3 973e de30 2a3f
000002e0: 47ea b93e afab df3c 1a30 213f c1d0 073f
000002f0: 96c3 533f a5a2 753f 5de9 013f 86f0 233f
0.1911431 0.7999258 0.23787059 0.39506578 0.89260274 0.8693886 0.20054127 0.6799826
0.5822589 0.4330928 0.6306351 0.2830381 0.40376908 0.13666141 0.5403764 0.43932116
0.23639126 0.14469242 0.3510027 0.6486758 0.8467911 0.5322455 0.35485306 0.87238526
-0.07719804 -0.10948126 0.029584836 0.051031046 0.3680328 0.15847439 0.4166576 0.31097206
0.5675766 0.030062832 0.6832132 0.5232478 0.26971498 0.6854226 0.28937864 0.73653424
0.7037988 0.41905582 0.19635305 0.7049952 0.08849726 0.76152253 0.6302763 0.80955935
0.17122403 0.51724094 0.5905954 0.46570408 0.032638185 0.41482136 0.63841426 0.58161867
0.59321564 0.7872583 0.721392 0.7724237 0.69980377 0.21715327 0.34031543 0.34130663
0.5572713 0.6611537 0.80087197 0.34244686 0.34950623 0.7464794 0.75046444 0.26897153
0.19984448 0.9644259 0.7358556 0.15081842 1.0003307 0.3383977 0.62505263 0.9904871
0.7961069 0.47727948 0.35026035 0.35716987 0.30436164 0.44603726 1.0790112 0.6607485
0.12816569 0.057436947 0.21780944 0.742609 0.5982621 0.5797476 0.36255637 0.58324546
0.18006665 0.15967962 0.06793286 0.5536269 0.49719113 0.5172557 0.062337585 0.73284006
0.24495842 0.11233065 0.9849523 0.19679357 0.13981062 0.35323653 0.5951841 0.9786698
0.90106237 0.3785626 0.575433 0.6520567 0.44598275 0.62015194 0.4225406 0.5178663
0.72713214 0.26322556 0.7892426 -0.02185551 0.9377866 0.16517274 -0.05275843 0.2741325
0.08350274 0.9258097 0.24733101 0.22609371 0.81114185 0.18616132 0.17591667 0.54210234
0.26545638 0.43590325 0.77059245 0.7197873 0.25090903 0.27224633 0.3059981 0.28806123
0.10273151 0.96208745 0.24819297 0.79198414 0.31344128 0.61354893 0.036816698 0.40079015
0.64621675 0.1987183 0.61800843 0.6946544 0.8365336 0.8368984 0.33435854 0.031766742
0.76169914 0.30330735 0.51488435 0.48339775 0.29422238 0.85133 0.36139312 0.12464522
0.55765593 1.1264582 0.5104629 1.0764432 0.32944727 0.4473847 0.4740405 0.7057212
0.45497534 0.8597438 1.1225356 0.6972826 0.44368353 0.30332822 0.29641587 0.66480815
0.36311552 0.027303545 0.6296402 0.5305291 0.82720315 0.959513 0.5074671 0.64038885

ltc_model.rnn_cell.sensory_erev f4 [4, 48]
00000000: 0000 0000 0000 0000 0000 0000 0000 0000
00000010: 0000 0000 0000 0000 0000 0000 0000 0000
00000020: 0000 0000 0000 0000 0000 0000 0000 0000
00000030: 0000 0000 0000 0000 0000 0000 0000 0000
00000040: 0000 0000 0000 0000 0000 0000 0000 0000
00000050: 0000 0000 edb5 733f 0000 0000 685b 86bf
00000060: 057b 32bf 5786 4f3f 294c 45bf 6118 43bf
00000070: 0000 0000 119a 91bf 2761 a9bf cd8e 383f
00000080: 8ca1 93bf c989 7bbf cc1c 943f 0000 0000
00000090: 0000 0000 4319 873f 0000 0000 7d19 913f
000000a0: dbe9 933f ba8d 7c3f 0000 0000 bbda 693f
000000b0: 9450 503f 4c46 563f c2ac 8bbf 0000 0000
000000c0: 0000 0000 0000 0000 0000 0000 0000 0000
000000d0: 0000 0000 0000 0000 0000 0000 0000 0000
000000e0: 0000 0000 0000 0000 0000 0000 0000 0000
000000f0: 0000 0000 0000 0000 0000 0000 0000 0000
00000100: 0000 0000 0000 0000 0000 0000 0000 0000
00000110: 0000 0000 0bcc 69bf 3996 7b3f f341 59bf
00000120: 0000 0000 0000 0000 8d41 86bf d31c 793f
00000130: 71f8 86bf ed74 653f b941 763f 0000 0000
00000140: 0000 0000 ad62 98bf 0000 0000 8ecf 81bf
00000150: f2cb 8ebf 45fd 99bf 5331 95bf 40a2 8fbf
00000160: 68f1 80bf 3ad6 5b3f b784 5dbf b491 553f
00000170: 0000 0000 c7a3 863f 6d2a 7a3f 1210 9abf
00000180: 0000 0000 0000 0000 0000 0000 0000 0000
00000190: 0000 0000 0000 0000 0000 0000 0000 0000
000001a0: 0000 0000 0000 0000 0000 0000 0000 0000
000001b0: 0000 0000 0000 0000 0000 0000 0000 0000
000001c0: 0000 0000 0000 0000 0000 0000 0000 0000
000001d0: 0000 0000 0000 0000 02be 60bf ea71 64bf
000001e0: 0000 0000 046d 6bbf 95a4 6abf 6403 563f
000001f0: c034 803f 52d4 87bf 92ed 503f 3d5e 66bf
00000200: 50c7 6e3f e631 8fbf 2fcc 7ebf 0000 0000
00000210: 0000 0000 078d 583f 36a7 8bbf a49a 8bbf
00000220: 0000 0000 a899 9fbf f431 783f 0692 633f
00000230: 41dd 40bf 0000 0000 0000 0000 eadd 703f
00000240: 0000 0000 0000 0000 0000 0000 0000 0000
00000250: 0000 0000 0000 0000 0000 0000 0000 0000
00000260: 0000 0000 0000 0000 0000 0000 0000 0000
00000270: 0000 0000 0000 0000 0000 0000 0000 0000
00000280: 0000 0000 0000 0000 0000 0000 0000 0000
00000290: 0000 0000 dc0e a13f 0000 0000 ab64 8a3f
000002a0: 69a4 7fbf c515 983f c572 83bf 0bb5 abbf
000002b0: 3b64 a1bf 0000 0000 0000 0000 0082 803f
000002c0: 0e51 64bf 0f82 95bf 0920 9ebf 7316 99bf
000002d0: 6773 5ebf 0000 0000 3daf 7dbf c5e0 6a3f
000002e0: 6cf5 8dbf 0000 0000 0746 813f 0000 0000
000002f0: 51db 9e3f d3d6 a13f 0000 0000 999a 88bf
0.0 0.0 0.0 0.0 0.0 0.0 0.0 0.0
0.0 0.0 0.0 0.0 0.0 0.0 0.0 0.0
0.0 0.0 0.0 0.0 0.0 0.9519947 0.0 -1.0496645
-0.6971896 0.8106436 -0.77069336 -0.76209074 0.0 -1.1375142 -1.3232774 0.72092897
-1.1533675 -0.9825712 1.1571288 0.0 0.0 1.0554584 0.0 1.1335903
1.1555742 0.9865376 0.0 0.9134938 0.8137295 0.83701015 -1.0912097 0.0
0.0 0.0 0.0 0.0 0.0 0.0 0.0 0.0
0.0 0.0 0.0 0.0 0.0 0.0 0.0 0.0
0.0 0.0 0.0 0.0 0.0 -0.9132697 0.98276097 -0.84866256
0.0 0.0 -1.0488755 0.9730961 -1.0544568 0.8963154 0.96194035 0.0
0.0 -1.1905113 0.0 -1.0141466 -1.1155989 -1.2030417 -1.1655678 -1.122139
-1.0073671 0.8587376 -0.8653063 0.8342545 0.0 1.0518731 0.97720987 -1.2036154
0.0 0.0 0.0 0.0 0.0 0.0 0.0 0.0
0.0 0.0 0.0 0.0 0.0 0.0 0.0 0.0
0.0 0.0 0.0 0.0 0.0 0.0 -0.8778993 -0.8923632
0.0 -0.9196322 -0.9165738 0.83598924 1.0016098 -1.061167 0.81612504 -0.89987546
0.93272877 -1.1187103 -0.9953031 0.0 0.0 0.8459019 -1.0910404 -1.0906568
0.0 -1.2468767 0.9695122 0.8889469 -0.75337607 0.0 0.0 0.94088614
0.0 0.0 0.0 0.0 0.0 0.0 0.0 0.0
0.0 0.0 0.0 0.0 0.0 0.0 0.0 0.0
0.0 0.0 0.0 0.0 0.0 1.258266 0.0 1.0811971
-0.99860245 1.1881644 -1.02694 -1.3414625 -1.2608713 0.0 0.0 1.0039673
-0.8918618 -1.1680316 -1.2353526 -1.1959976 -0.8689484 0.0 -0.9909552 0.9174922
-1.1090522 0.0 1.0099496 0.0 1.241068 1.2643684 0.0 -1.067218

ltc_model.rnn_cell.sparsity_mask f4 [48, 48]
00000000: 0000 0000 0000 0000 0000 0000 0000 0000
00000010: 0000 0000 0000 0000 0000 0000 0000 0000
00000020: 0000 0000 0000 0000 0000 0000 0000 0000
00000030: 0000 0000 0000 0000 0000 0000 0000 0000
00000040: 0000 0000 0000 0000 0000 0000 0000 0000
00000050: 0000 0000 0000 0000 0000 0000 0000 0000
00000060: 0000 0000 0000 0000 0000 0000 0000 0000
00000070: 0000 0000 0000 0000 0000 0000 0000 0000
00000080: 0000 0000 0000 0000 0000 0000 0000 0000
00000090: 0000 0000 0000 0000 0000 0000 0000 0000
000000a0: 0000 0000 0000 0000 0000 0000 0000 0000
000000b0: 0000 0000 0000 0000 0000 0000 0000 0000
000000c0: 0000 0000 0000 0000 0000 0000 0000 0000
000000d0: 0000 0000 0000 0000 0000 0000 0000 0000
000000e0: 0000 0000 0000 0000 0000 0000 0000 0000
000000f0: 0000 0000 0000 0000 0000 0000 0000 0000
00000100: 0000 0000 0000 0000 0000 0000 0000 0000
00000110: 0000 0000 0000 0000 0000 0000 0000 0000
00000120: 0000 0000 0000 0000 0000 0000 0000 0000
00000130: 0000 0000 0000 0000 0000 0000 0000 0000
00000140: 0000 0000 0000 0000 0000 0000 0000 0000
00000150: 0000 0000 0000 0000 0000 0000 0000 0000
00000160: 0000 0000 0000 0000 0000 0000 0000 0000
00000170: 0000 0000 0000 0000 0000 0000 0000 0000
00000180: 0000 0000 0000 0000 0000 0000 0000 0000
00000190: 0000 0000 0000 0000 0000 0000 0000 0000
000001a0: 0000 0000 0000 0000 0000 0000 0000 0000
000001b0: 0000 0000 0000 0000 0000 0000 0000 0000
000001c0: 0000 0000 0000 0000 0000 0000 0000 0000
000001d0: 0000 0000 0000 0000 0000 0000 0000 0000
000001e0: 0000 0000 0000 0000 0000 0000 0000 0000
000001f0: 0000 0000 0000 0000 0000 0000 0000 0000
00000200: 0000 0000 0000 0000 0000 0000 0000 0000
00000210: 0000 0000 0000 0000 0000 0000 0000 0000
00000220: 0000 0000 0000 0000 0000 0000 0000 0000
00000230: 0000 0000 0000 0000 0000 0000 0000 0000
00000240: 0000 803f 0000 803f 0000 803f 0000 0000
00000250: 0000 0000 0000 0000 0000 0000 0000 0000
00000260: 0000 0000 0000 0000 0000 0000 0000 0000
00000270: 0000 0000 0000 0000 0000 0000 0000 0000
00000280: 0000 0000 0000 0000 0000 0000 0000 0000
00000290: 0000 0000 0000 0000 0000 0000 0000 0000
000002a0: 0000 0000 0000 0000 0000 0000 0000 0000
000002b0: 0000 0000 0000 0000 0000 0000 0000 0000
000002c0: 0000 0000 0000 0000 0000 0000 0000 0000
000002d0: 0000 0000 0000 0000 0000 0000 0000 0000
000002e0: 0000 0000 0000 0000 0000 0000 0000 0000
000002f0: 0000 0000 0000 0000 0000 0000 0000 0000
00000300: 0000 803f 0000 803f 0000 803f 0000 0000
00000310: 0000 0000 0000 0000 0000 0000 0000 0000
00000320: 0000 0000 0000 0000 0000 0000 0000 803f
00000330: 0000 803f 0000 0000 0000 0000 0000 0000
00000340: 0000 0000 0000 0000 0000 0000 0000 0000
00000350: 0000 0000 0000 0000 0000 0000 0000 0000
00000360: 0000 0000 0000 0000 0000 0000 0000 0000
00000370: 0000 0000 0000 0000 0000 0000 0000 0000
00000380: 0000 0000 0000 0000 0000 0000 0000 0000
00000390: 0000 0000 0000 0000 0000 0000 0000 0000
000003a0: 0000 0000 0000 0000 0000 0000 0000 0000
000003b0: 0000 0000 0000 0000 0000 0000 0000 0000
000003c0: 0000 803f 0000 803f 0000 803f 0000 0000
000003d0: 0000 0000 0000 0000 0000 0000 0000 0000
000003e0: 0000 803f 0000 0000 0000 0000 0000 0000
000003f0: 0000 0000 0000 0000 0000 0000 0000 0000
0.0 0.0 0.0 0.0 0.0 0.0 0.0 0.0
0.0 0.0 0.0 0.0 0.0 0.0 0.0 0.0
0.0 0.0 0.0 0.0 0.0 0.0 0.0 0.0
0.0 0.0 0.0 0.0 0.0 0.0 0.0 0.0
0.0 0.0 0.0 0.0 0.0 0.0 0.0 0.0
0.0 0.0 0.0 0.0 0.0 0.0 0.0 0.0
0.0 0.0 0.0 0.0 0.0 0.0 0.0 0.0
0.0 0.0 0.0 0.0 0.0 0.0 0.0 0.0
0.0 0.0 0.0 0.0 0.0 0.0 0.0 0.0
0.0 0.0 0.0 0.0 0.0 0.0 0.0 0.0
0.0 0.0 0.0 0.0 0.0 0.0 0.0 0.0
0.0 0.0 0.0 0.0 0.0 0.0 0.0 0.0
0.0 0.0 0.0 0.0 0.0 0.0 0.0 0.0
0.0 0.0 0.0 0.0 0.0 0.0 0.0 0.0
0.0 0.0 0.0 0.0 0.0 0.0 0.0 0.0
0.0 0.0 0.0 0.0 0.0 0.0 0.0 0.0
0.0 0.0 0.0 0.0 0.0 0.0 0.0 0.0
0.0 0.0 0.0 0.0 0.0 0.0 0.0 0.0
1.0 1.0 1.0 0.0 0.0 0.0 0.0 0.0
0.0 0.0 0.0 0.0 0.0 0.0 0.0 0.0
0.0 0.0 0.0 0.0 0.0 0.0 0.0 0.0
0.0 0.0 0.0 0.0 0.0 0.0 0.0 0.0
0.0 0.0 0.0 0.0 0.0 0.0 0.0 0.0
0.0 0.0 0.0 0.0 0.0 0.0 0.0 0.0
1.0 1.0 1.0 0.0 0.0 0.0 0.0 0.0
0.0 0.0 0.0 1.0 1.0 0.0 0.0 0.0
0.0 0.0 0.0 0.0 0.0 0.0 0.0 0.0
0.0 0.0 0.0 0.0 0.0 0.0 0.0 0.0
0.0 0.0 0.0 0.0 0.0 0.0 0.0 0.0
0.0 0.0 0.0 0.0 0.0 0.0 0.0 0.0
1.0 1.0 1.0 0.0 0.0 0.0 0.0 0.0
1.0 0.0 0.0 0.0 0.0 0.0 0.0 0.0

ltc_model.rnn_cell.sensory_sparsity_mask f4 [4, 48]
00000000: 0000 0000 0000 0000 0000 0000 0000 0000
00000010: 0000 0000 0000 0000 0000 0000 0000 0000
00000020: 0000 0000 0000 0000 0000 0000 0000 0000
00000030: 0000 0000 0000 0000 0000 0000 0000 0000
00000040: 0000 0000 0000 0000 0000 0000 0000 0000
00000050: 0000 0000 0000 803f 0000 0000 0000 803f
00000060: 0000 803f 0000 803f 0000 803f 0000 803f
00000070: 0000 0000 0000 803f 0000 803f 0000 803f
00000080: 0000 803f 0000 803f 0000 803f 0000 0000
00000090: 0000 0000 0000 803f 0000 0000 0000 803f
000000a0: 0000 803f 0000 803f 0000 0000 0000 803f
000000b0: 0000 803f 0000 803f 0000 803f 0000 0000
000000c0: 0000 0000 0000 0000 0000 0000 0000 0000
000000d0: 0000 0000 0000 0000 0000 0000 0000 0000
000000e0: 0000 0000 0000 0000 0000 0000 0000 0000
000000f0: 0000 0000 0000 0000 0000 0000 0000 0000
00000100: 0000 0000 0000 0000 0000 0000 0000 0000
00000110: 0000 0000 0000 803f 0000 803f 0000 803f
00000120: 0000 0000 0000 0000 0000 803f 0000 803f
00000130: 0000 803f 0000 803f 0000 803f 0000 0000
00000140: 0000 0000 0000 803f 0000 0000 0000 803f
00000150: 0000 803f 0000 803f 0000 803f 0000 803f
00000160: 0000 803f 0000 803f 0000 803f 0000 803f
00000170: 0000 0000 0000 803f 0000 803f 0000 803f
00000180: 0000 0000 0000 0000 0000 0000 0000 0000
00000190: 0000 0000 0000 0000 0000 0000 0000 0000
000001a0: 0000 0000 0000 0000 0000 0000 0000 0000
000001b0: 0000 0000 0000 0000 0000 0000 0000 0000
000001c0: 0000 0000 0000 0000 0000 0000 0000 0000
000001d0: 0000 0000 0000 0000 0000 803f 0000 803f
000001e0: 0000 0000 0000 803f 0000 803f 0000 803f
000001f0: 0000 803f 0000 803f 0000 803f 0000 803f
00000200: 0000 803f 0000 803f 0000 803f 0000 0000
00000210: 0000 0000 0000 803f 0000 803f 0000 803f
00000220: 0000 0000 0000 803f 0000 803f 0000 803f
00000230: 0000 803f 0000 0000 0000 0000 0000 803f
00000240: 0000 0000 0000 0000 0000 0000 0000 0000
00000250: 0000 0000 0000 0000 0000 0000 0000 0000
00000260: 0000 0000 0000 0000 0000 0000 0000 0000
00000270: 0000 0000 0000 0000 0000 0000 0000 0000
00000280: 0000 0000 0000 0000 0000 0000 0000 0000
00000290: 0000 0000 0000 803f 0000 0000 0000 803f
000002a0: 0000 803f 0000 803f 0000 803f 0000 803f
000002b0: 0000 803f 0000 0000 0000 0000 0000 803f
000002c0: 0000 803f 0000 803f 0000 803f 0000 803f
000002d0: 0000 803f 0000 0000 0000 803f 0000 803f
000002e0: 0000 803f 0000 0000 0000 803f 0000 0000
000002f0: 0000 803f 0000 803f 0000 0000 0000 803f
0.0 0.0 0.0 0.0 0.0 0.0 0.0 0.0
0.0 0.0 0.0 0.0 0.0 0.0 0.0 0.0
0.0 0.0 0.0 0.0 0.0 1.0 0.0 1.0
1.0 1.0 1.0 1.0 0.0 1.0 1.0 1.0
1.0 1.0 1.0 0.0 0.0 1.0 0.0 1.0
1.0 1.0 0.0 1.0 1.0 1.0 1.0 0.0
0.0 0.0 0.0 0.0 0.0 0.0 0.0 0.0
0.0 0.0 0.0 0.0 0.0 0.0 0.0 0.0
0.0 0.0 0.0 0.0 0.0 1.0 1.0 1.0
0.0 0.0 1.0 1.0 1.0 1.0 1.0 0.0
0.0 1.0 0.0 1.0 1.0 1.0 1.0 1.0
1.0 1.0 1.0 1.0 0.0 1.0 1.0 1.0
0.0 0.0 0.0 0.0 0.0 0.0 0.0 0.0
0.0 0.0 0.0 0.0 0.0 0.0 0.0 0.0
0.0 0.0 0.0 0.0 0.0 0.0 1.0 1.0
0.0 1.0 1.0 1.0 1.0 1.0 1.0 1.0
1.0 1.0 1.0 0.0 0.0 1.0 1.0 1.0
0.0 1.0 1.0 1.0 1.0 0.0 0.0 1.0
0.0 0.0 0.0 0.0 0.0 0.0 0.0 0.0
0.0 0.0 0.0 0.0 0.0 0.0 0.0 0.0
0.0 0.0 0.0 0.0 0.0 1.0 0.0 1.0
1.0 1.0 1.0 1.0 1.0 0.0 0.0 1.0
1.0 1.0 1.0 1.0 1.0 0.0 1.0 1.0
1.0 0.0 1.0 0.0 1.0 1.0 0.0 1.0
