LTC_A2C/adaptation_module/training_results/adaptation_module_StandardRNN_result_90_2024322_CfC_result_296_202437_numneuronsadaptmod_32_lradaptmod_1e-05_wdadaptmod_0.0/best_adaptation_module_loss_CfC_A2C_9.pt (torch, 12212 bytes, 6 tensors)

rnn.weight_ih_l0 f4 [32, 5]
000000 79 f4 f2 3d 62 6e 05 be fd 78 15 3e 74 b5 e3 3d
       0.11863036 -0.13030389 0.14596935 0.11118594
000010 04 02 1a 3e 27 d5 0c be 21 1c f7 bd fd 2a a8 3d
       0.15039831 -0.13753186 -0.12065912 0.08211324
000020 b7 f7 2a be 52 de 30 3e c6 02 1b 3d 45 69 c7 3c
       -0.16696058 0.17272308 0.03784444 0.024342189
000030 8f 39 19 be 27 99 5e 3d bb ee 9c 3d df 13 d5 3c
       -0.14963363 0.054345276 0.07662722 0.026010452
000040 49 7c 2b 3e d0 ce 4f 3d cb 61 1e be 93 b2 15 3e
       0.1674663 0.05073434 -0.15466993 0.14618902
000050 31 2e 6e 3d ee 89 b0 bd f0 33 28 be de f8 d1 3d
       0.05814952 -0.08620058 -0.16426063 0.10252546
000060 26 1a 2a 3e 1d 74 12 be dc 05 3c 3c c9 92 85 3d
       0.16611537 -0.14302106 0.011476006 0.06522138
000070 eb a4 ae bd 22 03 17 bd 69 ee ed bd c3 55 a7 bd
       -0.08527549 -0.036868222 -0.11617739 -0.081706546
000080 27 24 23 be b6 95 c7 bb 8a 71 da 3d a6 5e ac 3d
       -0.1593176 -0.006090845 0.10666187 0.0841649
000090 ba 30 28 3e f8 c6 20 be e0 56 a3 bc fa 63 2e 3e
       0.16424838 -0.157009 -0.019938886 0.17030326
0000a0 6e 15 de 3c 8d ab 53 bd 0c e7 24 be 38 3d a4 3d
       0.027109828 -0.051677275 -0.16103762 0.08019489
0000b0 0b 89 07 3e 71 44 0f 3e 9d ab 15 3e ce c9 06 3d
       0.13235871 0.13990952 0.14616247 0.0329073
0000c0 05 92 fe 3d 5f a0 3d bd a6 0f 11 3e 4d 85 8b bc
       0.12430195 -0.04629552 0.14166126 -0.017031336
0000d0 9f 2d 1d bd f7 1a b0 bd 10 d8 bc 3d 09 f3 8e 3d
       -0.038373586 -0.08598893 0.09220898 0.06979949
0000e0 a4 96 e2 3d e0 38 eb bd 26 89 bc bd 45 6b 29 3e
       0.11063889 -0.114854574 -0.092058465 0.16544826
0000f0 7c d8 c4 bd 85 5d ca bd b0 63 39 bd aa d2 71 bd
       -0.096116036 -0.09881119 -0.045261085 -0.059038796
000100 1e 13 f2 bd 11 25 14 3e 5a 66 b0 3c 06 e1 a8 3d
       -0.118200526 0.14467265 0.02153318 0.08246045
000110 1e 5a 04 3e 80 d4 e6 bd d9 83 08 3e d7 1d b8 bd
       0.12925002 -0.11271 0.13331546 -0.089900665
000120 72 8c f5 bc 99 ea 06 3e 32 0a 25 3e ce e7 20 3e
       -0.029974196 0.1317543 0.1611717 0.15713426
000130 82 38 d4 3d 5d 44 2a 3e 67 db 7c bd b3 31 18 bc
       0.103623405 0.16627641 -0.061732676 -0.009289193
000140 b6 00 80 bd f0 81 76 bc ab 4a c1 bc b6 59 bd 3d
       -0.062501356 -0.015045628 -0.023595175 0.09245627
000150 a4 a0 f4 3d 82 a1 00 be 4b 69 c4 bd b7 63 57 bd
       0.11944702 -0.1256161 -0.095903955 -0.05258533
000160 35 65 d0 3c 83 fb 88 bd 41 31 de bd 05 88 fc bc
       0.025438884 -0.06688597 -0.10849238 -0.030826578
000170 a7 3b b1 bd 93 13 3d 3b 6a a3 04 be 60 b6 2c bd
       -0.08653956 0.0028850778 -0.12952963 -0.042166114
000180 c6 6a 81 bd 8b 63 b7 bc 7a 24 0c 3e 8c 91 f1 3d
       -0.063191935 -0.022386333 0.1368579 0.11795339
000190 f2 00 72 bd b0 0d 28 be c5 8f 03 be ca c3 0c be
       -0.059082933 -0.16411471 -0.12847812 -0.13746563
0001a0 41 0e 9a bc 65 20 a2 bd 45 24 f9 bd cd cf 1a 3d
       -0.018805625 -0.07916335 -0.12165121 0.03779583
0001b0 0b 78 19 3c 9e 00 e4 bc d4 04 87 bd 6a 5e 18 3e
       0.009366999 -0.027832326 -0.06592718 0.14879766
0001c0 b6 51 30 be cd 1d 0c bb 72 41 a4 3d 9c cf 01 3e
       -0.1721867 -0.0021380067 0.08020295 0.12676853
0001d0 1f 78 1b be ba a1 d2 bc ac df 14 3e a3 74 fe 3c
       -0.15182541 -0.025711883 0.14538449 0.031061476
0001e0 ee 45 62 3d 32 36 9c bd 05 12 f7 3d a2 b3 8b bd
       0.05524247 -0.076275244 0.12063984 -0.068213716
0001f0 15 97 bf bd 10 85 22 3e 90 24 39 3d d3 05 fb 38
       -0.093549885 0.15871072 0.045200884 0.000119696975
000200 91 5a f8 bd bb 8d 25 bd b5 f9 0c be 36 75 f7 bd
       -0.12126649 -0.040418368 -0.1376713 -0.12082903
000210 45 12 df bc 37 cf 13 3d de 42 16 be fa 08 2e 3e
       -0.027230391 0.036086287 -0.14673945 0.16995612
000220 0b 3a 03 3e f4 60 2a be be 36 e6 3d e6 0e dd bd
       0.1281511 -0.16638547 0.1124091 -0.10793857
000230 b6 56 11 be 1b e5 2b 3e cd 2b 8d bd 9d ea 67 bd
       -0.14193234 0.16786616 -0.0689312 -0.05662023
000240 d5 dd c6 3c 53 69 c8 3d 28 e6 3c 3c af 79 4b bd
       0.0242757 0.09785714 0.011529483 -0.049676593
000250 f3 fa 8a 3c 65 e8 bf bd 74 94 05 be e8 d7 34 3d
       0.016965365 -0.093704976 -0.13044912 0.044151217
000260 ff 26 89 3c ee e1 b7 3d 07 54 8a bd df 1a 31 be
       0.016742228 0.089786395 -0.06754308 -0.17295407
000270 02 8c 2c bd 56 58 2d be c8 eb 3c bc d8 79 b4 3d
       -0.04212571 -0.16928229 -0.011530824 0.08812302

rnn.weight_hh_l0 f4 [32, 32]
000000 73 5a 6e 3c 64 ee cb 3d 15 b9 fe 3c 21 64 97 3d
       0.014547932 0.09957579 0.031094113 0.07392145
000010 75 d4 24 3e c0 13 c8 3c ca cc e1 3c 03 19 8f bd
       0.16096671 0.02442348 0.027563471 -0.069871925
000020 a3 ee e4 3d 0e be 19 3e 27 97 f7 bd dd 9d 31 3e
       0.11178329 0.15013906 -0.12089377 0.17345376
000030 2e 66 62 3d 70 4e d9 bc 78 c0 23 be ba 17 34 be
       0.055273227 -0.02652666 -0.1599139 -0.17587176
000040 28 6b 10 be 8f 5b 19 be f0 49 f5 bd 2a ea 4a bd
       -0.14103377 -0.14976333 -0.11976993 -0.049539723
000050 0d 48 18 be 30 74 15 be 0a d4 91 bc 66 a1 17 be
       -0.14871235 -0.14595103 -0.017801303 -0.14807662
000060 bc 27 5e bc ce 10 03 3d 72 2c 0b 3d 3a 3f e4 3d
       -0.013559278 0.031998448 0.033977933 0.11144872
000070 4b b8 c9 3d 13 2b cf bd ce dd 6b bd 54 8b 13 3b
       0.09849604 -0.10115638 -0.057584576 0.0022513466
000080 62 a8 1a 3e e7 b5 b3 3d b1 8a c6 bd 93 a7 99 bc
       0.15103295 0.087749295 -0.09694422 -0.018756663
000090 75 cc f5 3c 46 d2 81 3d 70 80 82 bd b8 df 20 be
       0.03000472 0.063389346 -0.06372154 -0.15710342
0000a0 dd 5e e0 bd 1b d1 85 3b 19 26 fb bd 9a 6b 41 3d
       -0.10955594 0.004083765 -0.12263126 0.047221757
0000b0 3c 64 df 3d ec 62 12 38 32 e1 b9 3d 83 fa fe 3d
       0.1090779 3.490124e-05 0.09076156 0.12450125
0000c0 88 e7 eb 3d 74 58 2a be dc 1a 26 3e cb 1e 37 3d
       0.115187705 -0.16635305 0.16221184 0.0447071
0000d0 24 50 31 be 92 4f 2c 3d 15 59 fd bd 43 9d 25 3e
       -0.17315727 0.04206807 -0.12370507 0.16173272
0000e0 9d 2c 0d 3e fd ea f2 bd 16 bd 06 be dd a3 37 3c
       0.1378655 -0.11861227 -0.13158068 0.011208502
0000f0 24 6e 48 bd cc 55 9f 3d 06 b6 2a be 5a 2a 08 3e
       -0.048933163 0.07780036 -0.16670999 0.13297406
000100 3d 08 6a 3c 4b 8f 2e 3b ac 3f e9 bd 25 75 27 3c
       0.014284191 0.0026635702 -0.113890976 0.0102208005
000110 2e e9 f7 3d 2a a7 2f 3e 7e 41 ec bd f4 58 95 bd
       0.12105022 0.17153612 -0.11535929 -0.07292357
000120 18 0b 11 3d 5b e2 ca 3d 54 d5 16 be c1 9e 84 bd
       0.03541097 0.09906455 -0.14729816 -0.064755924
000130 4f b3 0e be e6 2c 25 3e 7e a9 72 bd 05 cb dc 3d
       -0.13935588 0.16130409 -0.05924367 0.107809104
000140 dd 48 ca 3d 9e 52 7b 3c 4f bb 08 3d 0c de ed 3d
       0.09877179 0.015339522 0.033381756 0.11614618
000150 ab 93 bc bc f4 fb be 3d a5 2a b6 bc 78 8a 40 3a
       -0.023019632 0.093254 -0.022237131 0.0007344852
000160 30 af 6e 3d 6c d9 22 be c7 ef a8 bd 25 92 12 be
       0.05827254 -0.15903252 -0.08248859 -0.14313562
000170 3f 5b 55 bd 6e 04 4d bc 89 c5 93 3d bc a1 11 be
       -0.052088972 -0.012513263 0.07215411 -0.14221853
000180 91 75 16 be 30 2b ff 3d 0e 88 9d bc cb c1 b3 bd
       -0.14693286 0.12459409 -0.019229915 -0.087771975
000190 26 2a 2e bd fe 57 3b 3c 39 4d 02 be b4 4f 30 be
       -0.042520665 0.011434553 -0.1272477 -0.17217904
0001a0 00 9c f2 bd a3 f7 0c 3e 12 18 4a 3d de 4c 36 be
       -0.11846161 0.13766341 0.04933936 -0.1780276
0001b0 f5 c4 c5 bd 17 51 0b 3e 48 c6 2b 3e 2b f7 05 3d
       -0.09656707 0.13605152 0.16774857 0.03270642
0001c0 79 53 cc 3d 67 a2 ff 3c 82 be d6 3d 40 04 0f be
       0.09976859 0.03120537 0.10485555 -0.13966465
0001d0 f6 71 03 3d 1d 6b 21 be c8 08 34 be 8e a2 17 3e
       0.032091103 -0.15763517 -0.17581475 0.14808103
0001e0 b7 94 8e 3c 3e de 92 3d 31 96 ae bc 78 02 18 be
       0.017404897 0.071712956 -0.021311851 -0.14844692
0001f0 e0 7a 07 3e 7a 57 23 be 2d 18 f1 bd a9 2c 71 3d
       0.13230467 -0.15951338 -0.11772189 0.058880482
000200 2b 03 83 bd 02 a8 4a 3d 34 f3 24 be 9a aa 8b 3d
       -0.063970886 0.04947663 -0.161084 0.06819649
000210 50 ec f2 bd f0 ca cc 3d db 45 91 bc 82 9b 14 be
       -0.11861479 0.09999645 -0.017733505 -0.14512447
000220 80 e0 33 bd c5 8a 00 bd 7f 3b dd 3d 63 60 a4 bd
       -0.04391527 -0.03138234 0.108023636 -0.08026197
000230 79 81 61 3c 41 bd 9e bd ff f9 8b 3b 4b a7 1c 3e
       0.013763779 -0.07750941 0.004271745 0.15298192
000240 19 2c a0 3d e2 ff 22 3d 8e 2d 23 be c6 e0 cf 3d
       0.07820911 0.03979481 -0.15935346 0.10150294
000250 a7 43 30 3e eb c1 30 3d ff af 14 3e cf b9 9a 3d
       0.17213307 0.043153685 0.14520262 0.075549714
000260 2e 7b 27 3e b2 bb c9 bc af 9b 77 bd b5 41 b9 3d
       0.16355583 -0.024625633 -0.060451206 0.09045736
000270 09 71 4a bd 57 95 70 bc 83 1d c5 bc b2 97 80 bd
       -0.049424205 -0.014684043 -0.024061924 -0.062789336
000280 91 4d fe 3c 6e 96 17 bd 1c aa ee bd 26 1d 24 3e
       0.031042846 -0.037008695 -0.116535395 0.16026744
000290 b7 99 2a be 30 70 c3 bd 4e e8 23 3e cc c0 db bd
       -0.166602 -0.095428824 0.16006586 -0.107301325
0002a0 4f ee 19 be 5d 67 d5 3d 37 03 32 3e f0 87 03 3e
       -0.15032314 0.104201056 0.17384039 0.12844825
0002b0 5c b3 f6 bd db 28 32 be 2b 54 20 be 53 b3 6e bb
       -0.12045929 -0.17398398 -0.15657108 -0.0036422804
0002c0 40 23 25 3d 99 29 b5 bb 40 b7 3c 3d c6 a2 9d bd
       0.04031682 -0.0055286405 0.0460732 -0.07697062
0002d0 a2 e8 c3 ba 4e 41 24 3e 80 b5 64 bd da 74 05 be
       -0.0014946649 0.16040537 -0.055837154 -0.13032857
0002e0 7a 0b 20 3e ca c9 f5 3d 7b 7a 26 3e 4b e3 17 3e
       0.15629378 0.12001379 0.1625766 0.14832799
0002f0 4f 1d 7c 3b f4 3d be 3d e3 c4 e3 3c 7b cc 60 3d
       0.0038469618 0.0928916 0.027803844 0.054882508
000300 e1 72 ed 3b 6b 52 c5 3d 63 6d 5c bd 98 da 9a bc
       0.0072463606 0.096348606 -0.053815257 -0.018903062
000310 2f e9 ca 3d f9 69 84 3d 47 8f 0e 3e 06 c4 2a bd
       0.099077575 0.06465525 0.13921843 -0.04169085
000320 6f f0 0d bd 32 1a f5 bd 2b 73 99 bd 62 29 27 be
       -0.034653123 -0.11967887 -0.0749267 -0.1632438
000330 b9 d6 20 3e af 84 04 be c6 df 6c bd 9a 18 68 3d
       0.1570691 -0.1294124 -0.057830594 0.056664087
000340 36 f1 03 3e 9b da da 3d 13 9d 1e 3e 18 87 d5 bb
       0.12884983 0.10686227 0.15489607 -0.0065163486
000350 f3 3f 9c bd e0 0c 30 be ec cf 0f 3d 31 ab 7d 3d
       -0.07629385 -0.17192411 0.0351104 0.06193084
000360 29 b0 df bb 22 56 d5 3d 71 6a b0 bc 64 93 75 3c
       -0.00682642 0.10416819 -0.02153513 0.014988754
000370 f5 ff 1d be 6f b5 1b 3d 7b 57 5e 3d f9 82 80 bd
       -0.15429671 0.038014825 0.054282647 -0.06274981
000380 09 7c 68 3d cc dd 29 be bd c9 0b 3e c9 9c 26 be
       0.056758914 -0.16588515 0.13651176 -0.16270746
000390 01 e0 e7 3d 82 8e 4e bd a0 a5 2f be 0c 17 da bc
       0.11322022 -0.050428875 -0.17153025 -0.026622318
0003a0 75 15 c6 3d 14 6f 0a bc 08 9f f7 bd 17 4e f7 bd
       0.09672061 -0.008449335 -0.1209088 -0.12075441
0003b0 33 42 08 3e 6a dd 21 be 8b e6 bc bd 91 52 28 be
       0.13306503 -0.15807119 -0.0922366 -0.16437747
0003c0 17 28 2c be fe 3a 2a 3e 85 0c 95 bd 99 49 04 bb
       -0.16812168 0.16624066 -0.072777785 -0.002018547
0003d0 f6 d4 02 bd c0 57 16 be d6 3b 94 bc f5 95 18 be
       -0.031941377 -0.14681911 -0.018094938 -0.14900954
0003e0 b6 6f d8 bd 97 5a 03 3e 51 1d e8 bd 67 a3 87 3d
       -0.10568182 0.12827526 -0.11333717 0.066229634
0003f0 6d ba 5c bd 45 ff 80 3d bd 48 13 bd 53 b6 e0 3d
       -0.053888727 0.06298689 -0.03595804 0.109722756

rnn.bias_ih_l0 f4 [32]
000000 ed 81 22 bd 56 ca a9 3d fb 7b eb bd 26 89 99 bd
       -0.039674688 0.08290546 -0.11498257 -0.07496862
000010 98 3a 2d be 09 39 75 bd 6d 01 1e be 04 07 ea 3c
       -0.16916883 -0.059868846 -0.15430231 0.028567798
000020 2d 87 78 bd f1 c7 f1 bd bf e4 7b 3d fc 3e 3c 3d
       -0.06067579 -0.11805714 0.061497446 0.045958504
000030 e2 6b b8 3d 85 5f 03 be 64 57 e6 3c 7c 0d ce bd
       0.09004952 -0.12829407 0.028117843 -0.10061166
000040 81 7c 74 3d 5a e1 10 be af 30 d7 bd 1b b5 2f 3d
       0.05968905 -0.14148465 -0.105073325 0.042897325
000050 07 56 8e 3d 80 83 07 3e 30 76 10 3e 42 67 1f 3e
       0.06950002 0.13233757 0.14107585 0.15566733
000060 11 2c ac bd 75 c0 0a 3e 95 63 c0 bc fc 80 16 3d
       -0.084068425 0.13549979 -0.023484984 0.036744103
000070 3c 52 28 3e 68 a8 2d be ac 5f ef 3d 59 e3 23 be
       0.1643762 -0.16958773 0.1168817 -0.16004695

rnn.bias_hh_l0 f4 [32]
000000 c1 c5 0b be cf a9 d3 bc 56 86 09 be b5 3c f9 bd
       -0.13649656 -0.025837807 -0.13430151 -0.12169782
000010 c9 ab 99 3d 10 69 f4 bd d4 46 2d 3e 9c ca 2d 3d
       0.075034685 -0.119341016 0.1692155 0.04242955
000020 57 fa 84 3d 45 44 10 3e c9 d1 09 3e 83 68 3b 3d
       0.06493061 0.14088543 0.13458933 0.045753967
000030 5c 20 7c bd 44 fd 08 be 7b e4 b9 3d d1 eb 52 bc
       -0.061554298 -0.13377863 0.09076782 -0.012873606
000040 f1 d9 66 bd 52 00 a6 bd 39 e4 29 be 93 e8 93 3d
       -0.05636019 -0.0810553 -0.16590966 0.072220944
000050 7d c1 14 be 35 72 f7 bc 20 df 1e 3d 30 d8 a8 bd
       -0.14526935 -0.030205825 0.038787007 -0.082443595
000060 b2 0a 28 3e f5 4c fa 3c 5b fc 3e 3d 36 53 ad bd
       0.1641033 0.030554274 0.046627384 -0.08463137
000070 cc 4a 5a 3d 9e 9e 1b bd 1f ac 4f bd 55 c0 4f 3d
       0.053293988 -0.037993066 -0.050701257 0.05072053

linear.weight f4 [32, 32]
000000 08 45 11 bc a1 11 96 bd c0 88 db bd 09 6d 0b be
       -0.008866556 -0.07327581 -0.10719442 -0.13615812
000010 70 fe 37 3d be 9b 03 3e 58 88 17 be c2 15 84 bd
       0.044920385 0.1285238 -0.14798105 -0.064494625
000020 8d 54 df bd 1b 09 f0 3c bc cd 59 3d b1 93 31 bc
       -0.10904799 0.029301217 0.05317472 -0.010838435
000030 e1 14 ef bd 20 9e 11 3e 11 37 fa bd 83 32 1e 3e
       -0.11673904 0.14220476 -0.12217534 0.15448956
000040 aa 3f ca bd a6 15 48 3d 23 ea 49 bc a0 86 02 3e
       -0.09875424 0.04884877 -0.012323889 0.12746668
000050 6e bf 4a bd 26 4b 07 be b8 6f dc bc 60 ab cf 3d
       -0.049498968 -0.1321226 -0.02690874 0.10140109
000060 80 1e 21 be 5c 5c 0b be 0f 4e 08 3e c4 4a d9 3d
       -0.15734291 -0.13609451 0.13311027 0.106099635
000070 5b e5 a5 3d d6 28 8d 3d 71 b7 49 bd c4 23 00 3e
       0.08100387 0.068925545 -0.04924721 0.12513644
000080 e9 de d5 bd 62 bc b7 3d af 3a 4c bd 7c 9f f6 bc
       -0.10442907 0.08971478 -0.049860653 -0.030105345
000090 ec 83 b7 3d 50 7c 35 be 2b 95 c4 3d d1 d1 40 3d
       0.08960709 -0.17723203 0.09598764 0.047075097
0000a0 ea c6 2a 3e 12 46 5c 3d 80 b7 f9 bb fd f2 36 3e
       0.16677442 0.05377776 -0.007620752 0.1786613
0000b0 0d db fc bd 85 2e 26 3d ed e9 c4 bd 49 46 11 3e
       -0.12346468 0.04057171 -0.0961493 0.14186968
0000c0 4e 54 1b 3e ee 31 cc bd da de f8 bd d2 46 0f 3e
       0.15168878 -0.09970461 -0.121518806 0.1399186
0000d0 e8 a3 fc bd a0 04 13 3e 13 cf 3b bd ec a1 16 3e
       -0.1233595 0.14357233 -0.04585178 0.14710206
0000e0 1f 03 23 be 1f e1 98 bd 87 24 bb bd f0 0b 0a be
       -0.1591916 -0.074648134 -0.091378264 -0.13481116
0000f0 92 9f 27 be ea f2 45 3d f5 d1 ff bd 14 c9 9f 3b
       -0.16369465 0.048327364 -0.12491218 0.0048762653
000100 21 0e 85 bd 95 9b 93 3d b0 e6 ca bd 8e 95 c4 bd
       -0.064968355 0.07207409 -0.099072814 -0.09598838
000110 30 c0 09 bd 87 8d 9a 3d de e4 02 bd cb f8 b5 3d
       -0.03363055 0.075465254 -0.031956546 0.08885344
000120 c2 33 90 bd f1 ef 05 be b5 cc cf bc 54 17 93 bd
       -0.07041122 -0.13079812 -0.025366167 -0.07182184
000130 0b 36 05 3c 71 6e 7a 3c 2f 6b b8 3d 94 b2 c0 bc
       0.008130561 0.01528512 0.09004819 -0.023522653
000140 cb 54 0b 3e f2 0a e3 bc f2 66 cf 3d 16 2d 26 be
       0.13606565 -0.02771518 0.10127057 -0.16228136
000150 ee c1 ff bd 41 b2 3c bc 12 66 99 bd 4b 4b b5 bd
       -0.12488161 -0.011517108 -0.074901715 -0.088522516
000160 eb 02 b8 3d 87 0f 2d 3e 6d 9a 5e bc 0b 9b 00 be
       0.089849316 0.16900454 -0.013586623 -0.12559144
000170 47 34 da bd b9 fa bb bd 13 e9 fa 39 ec 0f 7d 3c
       -0.10654502 -0.09178681 0.0004785737 0.015445691
000180 4b 6b b3 bc 2e 46 a0 3d c1 91 88 bb 13 f3 53 bd
       -0.021901747 0.07825886 -0.004167766 -0.051745486
000190 7b 4d 16 be c8 43 f5 bd da 3d 9b ba 1f e7 71 3d
       -0.14677994 -0.11975819 -0.0011843995 0.059058305
0001a0 fc 2c d5 3c d8 2d ad 3d 85 b9 95 3d d2 9c 0a be
       0.026022427 0.084560096 0.07310776 -0.13536385
0001b0 2b 93 ff 3d 71 97 f3 bc 1a 11 aa 3d 3b 0b c5 3d
       0.12479242 -0.029735299 0.08304043 0.09621283
0001c0 4a c2 cf 3d 91 8f 0d bd 69 49 0a 3e 40 7c d0 bc
       0.101444796 -0.034560744 0.13504566 -0.025449872
0001d0 74 88 77 3d f7 50 b6 3d 5a 64 2b 3e 42 48 ba bd
       0.060432866 0.089021616 0.167375 -0.09095813
0001e0 c5 26 0e bd 20 04 17 bc de ca 2f bd 93 cb b9 3c
       -0.034704942 -0.009217292 -0.04291808 0.02268008
0001f0 63 44 1c be 74 17 20 3d 73 c9 04 be 1e 81 9b bd
       -0.15260462 0.039084867 -0.12967472 -0.075929865
000200 d6 a7 e1 3d 75 68 62 3d 74 07 c3 3c ae 4a 16 be
       0.1101834 0.0552754 0.023807265 -0.14676926
000210 9f c2 d3 3d 98 ff a8 3c a1 aa 83 3c 92 11 f4 3d
       0.103398554 0.02062969 0.016072573 0.11917414
000220 fb 20 2b 3c 2a bb 87 3d 21 36 09 be 12 b0 a2 3c
       0.010444875 0.066274956 -0.13399555 0.019859347
000230 26 9b 35 be dd f4 16 3e 41 05 32 be f6 ad 1d be
       -0.17734966 0.14741845 -0.17384817 -0.15398392
000240 97 ce 9a bd 27 2b 4e bc d2 09 b3 3b b1 79 4d bd
       -0.07558935 -0.0125835305 0.005463817 -0.050164882
000250 97 6a b6 3d c4 8f 5d bc 58 aa 16 be 2d 48 4a 3d
       0.08907049 -0.013523046 -0.14713418 0.04938524
000260 17 e3 06 3e 2b c9 63 3d 25 6f 35 3d 88 5a 81 3d
       0.13172565 0.05561177 0.04429545 0.063160956
000270 d1 dd 8c 3d aa 02 ad 3d 3b 46 2e 3e ff 73 9d bc
       0.068782456 0.08447774 0.17018978 -0.01922035
000280 dd 59 24 bc e1 fb 1b be a1 2b 1e bd 44 bd 18 3e
       -0.010031191 -0.15232803 -0.038615827 0.14915949
000290 d6 27 74 3d 30 8c be bd 4c 95 67 3d 10 0e c6 3b
       0.059608303 -0.093040824 0.056538865 0.006044157
0002a0 5c 1e 37 bd 85 87 0e be ec 01 bc 3d 29 91 9c 3d
       -0.044706687 -0.13918884 0.09180054 0.076448746
0002b0 1f f3 07 be e6 17 0c 3e 46 d2 1e be db 49 e5 3d
       -0.13276337 0.13680992 -0.155099 0.111957274
0002c0 4a bf e4 bd 88 f4 1b be aa e3 0f 3e c1 ac e7 bd
       -0.11169298 -0.1523 0.1405169 -0.11312247
0002d0 7c 8a 39 3d 81 6a 2d 3d 02 43 de bc ba 8c 44 3d
       0.045298085 0.0423379 -0.027131561 0.04798577
0002e0 5c 3e 16 3e ab f0 f9 bd b0 ae b9 3d 5f bf e6 bd
       0.14672226 -0.12204107 0.09066522 -0.1126697
0002f0 e0 b0 9d bd 72 66 96 bb a5 27 18 3e 8f c1 63 3d
       -0.07699752 -0.004589849 0.14858873 0.055604514
000300 3f 38 64 3d d1 e9 97 bd 96 01 7f bd d0 c5 19 be
       0.055717703 -0.07417644 -0.06225737 -0.15016866
000310 1d 22 d0 bb 02 c4 0d 3e 2e 68 99 3d fa 66 5c 3d
       -0.006351723 0.13844302 0.07490574 0.053809144
000320 de 5b 2c bd 82 82 27 bc 26 6a 86 bc 84 00 53 bd
       -0.0420798 -0.010223987 -0.016408037 -0.051514164
000330 26 5f 9f 3c 0c a0 ee bd 18 ce 8b 3c bf 55 52 bd
       0.01945455 -0.1165162 0.017066047 -0.051351305
000340 15 dd e2 3d 57 2b 94 3d 2b 68 6f 3d 3c 0c 97 bc
       0.11077324 0.07234829 0.05844895 -0.018438451
000350 2a 57 8e bd 05 1e aa 3d eb fc 21 be 1a 97 aa 3b
       -0.06950219 0.08306507 -0.15819137 0.005206001
000360 25 26 e8 bb fe 00 d3 bd 28 25 2e be e8 25 ee bd
       -0.0070846253 -0.103029236 -0.17006361 -0.11628324
000370 b2 48 23 be a9 87 be bd 7e 93 37 3a 73 c1 42 3d
       -0.159457 -0.09303219 0.0007002874 0.04754777
000380 df a0 f9 3d 80 9a 55 3d 7b 34 68 3b ee e0 ae bd
       0.12188887 0.052149296 0.0035431671 -0.08538996
000390 6e a3 23 bc 15 67 f2 3d e7 a9 1f 3e 56 ad ce 3d
       -0.009987695 0.118360676 0.15592156 0.10091655
0003a0 a6 7d 35 3c 48 8c 0e 3c 20 a3 d4 bd f5 19 36 3b
       0.01107732 0.008700438 -0.10382676 0.0027786468
0003b0 64 12 78 3c 36 b2 8d bd 71 86 cf bb 39 9f 1e be
       0.015141103 -0.06918757 -0.0063331653 -0.15490426
0003c0 96 95 b5 bc 0f a1 9a 3c 87 75 75 3d fe dd 29 3e
       -0.022166055 0.018875627 0.059926536 0.1658859
0003d0 60 d8 c6 bd 34 36 d4 bd d6 9e 2e 3e 87 66 2d 3e
       -0.09709239 -0.10361901 0.17052779 0.16933642
0003e0 f7 a8 8d bd 63 a7 b6 bc 35 05 1d be bd f3 11 be
       -0.06916993 -0.022296613 -0.15334018 -0.14253135
0003f0 47 1a 37 3e bc 98 c1 3d 11 39 0f 3e 76 46 0c 3b
       0.17881118 0.0945296 0.13986613 0.0021404303

linear.bias f4 [32]
000000 3a 1c 8d 3d ba 18 14 be 36 90 73 bd fd 0b 09 be
       0.068901494 -0.14462557 -0.059463702 -0.1338348
000010 2f eb be bd a9 81 99 bb c2 dd fa 3d c4 a4 f3 bc
       -0.093222015 -0.004684646 0.12249328 -0.029741652
000020 79 ab 06 be de 6f 93 3b 3a b1 00 be 3e dd a0 3c
       -0.13151349 0.0044994196 -0.12567607 0.019636746
000030 3e 5b 05 bd a9 41 8b 3d 94 d8 20 bd 70 e0 68 bd
       -0.03255772 0.06799633 -0.039269045 -0.056854665
000040 2e 54 26 3e 08 ca 0d 3d 1c c0 36 3e fd 3c 8c bd
       0.1624305 0.0346165 0.17846721 -0.0684757
000050 93 8d 01 be 67 b2 24 be 16 c4 d7 3d 1b 7a f0 bd
       -0.12651663 -0.1608368 0.10535447 -0.1174204
000060 d7 9d 18 3e d8 c0 00 be b6 90 18 be 69 e6 7f bd
       0.14903961 -0.12573564 -0.14898953 -0.062475596
000070 43 5e 35 3e 19 ae 12 3e b1 99 9f bd 7b d8 f7 3d
       0.17711739 0.14324225 -0.07792986 0.12101837
