LTC_A2C/training_results/CfC_a2c_result_511_2024325_learningrate_5e-05_selmet_range_evaluation_all_params_trainmet_quarter_range_numneurons_64_neuromod_network_dims_3_128_80_64_randomization_params_[(0.775, 5.75), (1.0, 2.0), (0.8, 2.25)]/checkpoint_CfC_A2C_2.pt (torch, 140596 bytes, 16 tensors)

cfc_model.rnn_cell.w_tau f4 [1, 64]
0	0xbafc49f4	-0.0019248114
1	0xbe72249b	-0.23646776
2	0x3e423102	0.18964007
3	0x3a1b8059	0.0005931906
4	0x3d91fb09	0.07127959
5	0x3d0eb0df	0.034836646
6	0x3e68cdea	0.227348
7	0xba790ac3	-0.00095002
8	0xbdc05df4	-0.0939292
9	0xbe2ad1f0	-0.16681647
10	0x3da98533	0.08277359
11	0x3e92cb9a	0.2867096
12	0xbe585d2d	-0.21129294
13	0xbdc4bed7	-0.09606712
14	0xbda49ccd	-0.0803772
15	0x3da59f6b	0.08087047
16	0x3a8c10dd	0.0010686178
17	0x3bf38b46	0.007432374
18	0x3e2a406e	0.1662614
19	0xbe34134c	-0.17585486
20	0xbdf2a1ee	-0.11847292
21	0xbdf5697e	-0.11983012
22	0x3d1bd737	0.03804704
23	0x3acc3371	0.0015579296
24	0x3ccb6577	0.024828656
25	0xbe35a41e	-0.17738387
26	0xbea2f280	-0.31825638
27	0x3dd33731	0.10313261
28	0x3e5bd4bc	0.2146787
29	0xbe0e1478	-0.13874996
30	0xbe42698a	-0.18985572
31	0xbe689581	-0.22713281
32	0xbdfa8674	-0.12232676
33	0x3dd426b8	0.103589475
34	0xbd8708b0	-0.06593454
35	0x3e25be93	0.1618598
36	0x3d6e012b	0.058106583
37	0x3a9e7249	0.0012088503
38	0xbe5de39b	-0.21668856
39	0xbe00af95	-0.12566979
40	0xb9c8af9c	-0.00038277812
41	0xbaf4d0ec	-0.0018677986
42	0xbacc664d	-0.0015594453
43	0xbbd1a624	-0.0063979793
44	0x3c87e606	0.016589176
45	0x3e6c2527	0.23061047
46	0x3dc02811	0.09382642
47	0x3a9ca565	0.0011951147
48	0x3e3ae9e2	0.18253282
49	0xbe380c30	-0.17973399
50	0xbe21c1c4	-0.15796572
51	0x3dc3c73e	0.09559487
52	0x3e6e838d	0.2329237
53	0x3e134569	0.14381947
54	0xbe8785a8	-0.2646916
55	0xbcdd8d08	-0.027044788
56	0xbe592189	-0.21204199
57	0x3d247c77	0.04015776
58	0x3da7a40d	0.08185587
59	0xbd3346c6	-0.043768667
60	0x3c8dc0a1	0.017303767
61	0x3e05fb9c	0.13084263
62	0x3e0b30ee	0.13592884
63	0x3d93ee21	0.07223154

cfc_model.rnn_cell.A f4 [1, 64]
0	0xbc9368b3	-0.01799426
1	0xbe1fe6c1	-0.1561537
2	0x3dfb02af	0.12256371
3	0x3e971a3e	0.2951221
4	0xbe606406	-0.21913156
5	0x3e117b92	0.14207295
6	0xbe509910	-0.20370889
7	0x3e6e3c45	0.23265179
8	0xbe69f284	-0.22846419
9	0x3c98963e	0.018626329
10	0xbd67a0c4	-0.056549802
11	0xbe8db174	-0.27674448
12	0x3e665fa1	0.22497417
13	0xbe9c2f0b	-0.3050464
14	0x3d0a68c1	0.033791307
15	0xbeac84d0	-0.33695078
16	0x3e761bbb	0.24034016
17	0x3db088d0	0.08619845
18	0xbe3a8ac7	-0.18217002
19	0xbd258abc	-0.04041551
20	0xbe6376ec	-0.22213334
21	0x3e71c5c6	0.23610601
22	0xbe45c08f	-0.19311737
23	0x3e9170b5	0.284063
24	0xbe248509	-0.16066374
25	0xbdbdba1c	-0.09264013
26	0x3e48c08a	0.19604698
27	0xbe6b905c	-0.23004287
28	0xbe69b44d	-0.22822686
29	0x3e1dabf8	0.15397632
30	0xbe8dfe96	-0.27733296
31	0xbeabfafb	-0.3358992
32	0xbe84aebc	-0.25914562
33	0xbe33677c	-0.17519945
34	0xbd85bf78	-0.065306604
35	0x3e9a759d	0.30167857
36	0xbe5a9ff0	-0.21350074
37	0xbde6d818	-0.11271685
38	0x3d6eae4a	0.058271684
39	0xbe85bca3	-0.2612048
40	0x3eb94308	0.36183953
41	0xbe896239	-0.2683275
42	0xbde8d2fa	-0.113683656
43	0x3e5a2c94	0.21306068
44	0x3e8babc9	0.272795
45	0x3df963b1	0.12177218
46	0xbe59da58	-0.21274698
47	0x3e438199	0.19092406
48	0x3e70c54b	0.23512761
49	0xbe59fd05	-0.21287926
50	0xbdd3e131	-0.10345686
51	0xbe906072	-0.28198582
52	0x3e107479	0.14106931
53	0xbe8009e0	-0.25007534
54	0xbeaa7ac9	-0.33296803
55	0xbe894648	-0.26811433
56	0x3e98fbe7	0.29879686
57	0xbe8e6e5f	-0.2781858
58	0xbe86190f	-0.26190993
59	0xbe1f9121	-0.15582706
60	0x3e6e4d13	0.23271589
61	0x3e87ec39	0.2654741
62	0x3e119c2e	0.14219734
63	0xbde9f974	-0.114245325

cfc_model.rnn_cell.tau_system f4 [1, 64]
0	0x40c718b1	6.221764
1	0x3f5b7bb1	0.85735613
2	0x401a4e9a	2.4110475
3	0x41ab2ad8	21.39592
4	0x40ae1527	5.440082
5	0x410d4206	8.828619
6	0x401dcb67	2.4655397
7	0x409c7f2c	4.890524
8	0x3feb8284	1.8399205
9	0x3fd217d1	1.6413518
10	0x40c9783e	6.295928
11	0x400d3091	2.2060893
12	0x4057baf9	3.370787
13	0x400ae9df	2.1705244
14	0x402b7f9f	2.6796644
15	0x4010bb75	2.2614415
16	0x408bf386	4.373477
17	0x413665c6	11.399847
18	0x3fe47013	1.7846702
19	0x4087d5e6	4.2448606
20	0x400cc0ac	2.1992598
21	0x400afd30	2.1717033
22	0x41499a11	12.600114
23	0x402c0b42	2.6881871
24	0x4041b470	3.026638
25	0x400e6ff0	2.2255821
26	0x3f4624e3	0.77400035
27	0x40503906	3.2534804
28	0x403c59da	2.942984
29	0x402191fd	2.5245354
30	0x403c0283	2.9376533
31	0x401c45ed	2.441768
32	0x4076d972	3.8570218
33	0x408b1fb4	4.34762
34	0x412075a9	10.028726
35	0x402019aa	2.5015664
36	0x41161ada	9.381556
37	0x406c18c0	3.6890106
38	0x400b6dee	2.1785846
39	0x3feeaf7c	1.8647304
40	0x419dcf34	19.726173
41	0x40117969	2.2730353
42	0x4092ce05	4.587649
43	0x40510dbb	3.266463
44	0x41875e90	16.921173
45	0x405e0a18	3.469366
46	0x40a28ead	5.0799165
47	0x421abf11	38.68659
48	0x40877f33	4.2342772
49	0x4066fe93	3.609288
50	0x40783334	3.8781252
51	0x4051d016	3.2783256
52	0x40228cfc	2.539855
53	0x40697580	3.6477966
54	0x4011eb99	2.2800047
55	0x414fce61	12.987885
56	0x3ffc55fb	1.9713739
57	0x411a9e88	9.663704
58	0x4002679d	2.037574
59	0x4086b88c	4.2100277
60	0x404ef9a3	3.2339866
61	0x4065d8f9	3.591368
62	0x4020d48e	2.5129733
63	0x40974ffb	4.7285132

cfc_model.rnn_cell.backbone.0.weight f4 [128, 68]
0	0xbdc1df84	-0.0946646
1	0x3cf9eaad	0.03050741
2	0x3e0bc4fc	0.13649362
3	0x3e0d9910	0.1382792
4	0xbd894932	-0.06703414
5	0x3d9d4496	0.07679097
6	0x3e4b64f9	0.19862737
7	0x3ca4191e	0.020031508
8	0x3b67e4fb	0.0035384286
9	0x3d7ad269	0.06123582
10	0xbdcde4b1	-0.10053385
11	0x3e55d475	0.20881827
12	0xbe04d2e9	-0.12971081
13	0x3e0e7204	0.13910681
14	0xbe576ef2	-0.21038416
15	0x3c62c199	0.013840103
16	0x3debdc2e	0.11516605
17	0xbd9114c1	-0.070840366
18	0xbc8a9b7b	-0.016919842
19	0x3ce39975	0.027783135
20	0x3c99360d	0.018702531
21	0xbda15339	-0.078772016
22	0x3ded7cc6	0.11596064
23	0x3c975375	0.018472413
24	0xbd97e3bf	-0.07416486
25	0x3ceb492d	0.028721416
26	0xbe1175ec	-0.1420514
27	0x3e1ececc	0.15508574
28	0xbdf93980	-0.121691704
29	0x3da736f2	0.08164777
30	0x3e16fa97	0.1474403
31	0xbd0cc7f6	-0.034370385
32	0xbe3e2697	-0.18569408
33	0xbe1f1388	-0.15534794
34	0xbe06b68e	-0.13155577
35	0xbd108f36	-0.035292827
36	0x3dc7ed8b	0.097621046
37	0xbe2a2e07	-0.1661912
38	0x3da99f8e	0.08282386
39	0x3d8d74c1	0.06907035
40	0x3cb19025	0.021675179
41	0xbd720c78	-0.059093922
42	0x3e0d214a	0.1378223
43	0xbde26d4d	-0.11056004
44	0x3df078d4	0.11741796
45	0xbd601214	-0.05470474
46	0xbd17d8df	-0.03707206
47	0xbcf0b1dc	-0.029381685
48	0x3be660fe	0.0070306053
49	0x3e30d587	0.17268954
50	0xbd86c49c	-0.06580469
51	0x3d236e05	0.039899845
52	0x3e461aa4	0.193461
53	0xbcf65c5a	-0.030073334
54	0x3e062f6c	0.13104028
55	0xbc9f8226	-0.01947124
56	0xbdd80178	-0.10547155
57	0x3df0497f	0.11732768
58	0xbe1c5514	-0.1526683
59	0x3dfa8e09	0.12234122
60	0xbdc15498	-0.09439963
61	0x3d216ec6	0.039412282
62	0x3d2ca94f	0.042153653
63	0xbe4f0ff3	-0.20220928
64	0x3dff1f2e	0.12457119
65	0x3dc61c97	0.09673422
66	0xbdb36ede	-0.087613806
67	0x3dd9255a	0.10602827
68	0x3d90465f	0.07044672
69	0xbdf99c35	-0.12187997
70	0x3dbbd6d3	0.09171834
71	0xbd255b61	-0.04037035
72	0x3dbb4d2e	0.0914558
73	0xbd865b24	-0.065603524
74	0xbe3952ec	-0.18098038
75	0xbe033613	-0.12813596
76	0x3d887764	0.06663397
77	0x3ddc0056	0.107422516
78	0xbcd1e8fa	-0.025623787
79	0x3d05ca33	0.032663535
80	0x3cef463b	0.029208293
81	0xbdc1966b	-0.09452518
82	0xbde3baf5	-0.111196436
83	0xbdd31c5c	-0.103081435
84	0x3dbf2306	0.09332852
85	0x3da4894d	0.080340005
86	0xbd9089d0	-0.07057536
87	0x3e152a33	0.14566879
88	0xbe568cb6	-0.20952114
89	0xbe3b8899	-0.18313827
90	0x3cae2cd8	0.021261618
91	0x3c2ae9e9	0.010431745
92	0x3d0bfe82	0.034178264
93	0xbdbf84eb	-0.09351524
94	0xbe26c8cd	-0.16287537
95	0x3d94eede	0.07272123
96	0x3e538719	0.20657004
97	0x3e18fa8a	0.14939323
98	0xbd6d9070	-0.057999074
99	0xbe387138	-0.1801194
100	0x3e208bae	0.15678284
101	0x3d1d84b9	0.038456652
102	0x3dacbb66	0.08434181
103	0xbc3d8c48	-0.01156909
104	0x3e33db29	0.17564072
105	0x3e2ea989	0.1705686
106	0x3d0db9f0	0.034601152
107	0xbceb8289	-0.028748767
108	0xbb7af7c7	-0.003829466
109	0x3d6bdbb5	0.057582576
110	0xbd1d699c	-0.038430795
111	0x3e0d97ed	0.13827486
112	0x3bee707b	0.0072765923
113	0x3e1b2229	0.1514975
114	0x3e1cda3c	0.15317625
115	0xbe666b02	-0.22501758
116	0x3db22e1c	0.08700201
117	0xbd6ebcb6	-0.058285438
118	0xbdc914ef	-0.09818446
119	0xbe371661	-0.1787963
120	0xbc89223a	-0.016739953
121	0x3e390e45	0.1807185
122	0xbda9fa45	-0.08299688
123	0xbde0f2c5	-0.109838046
124	0x3db1d715	0.08683602
125	0xbd735f50	-0.05941707
126	0xbe0cafbf	-0.13738917
127	0x3d8c0909	0.06837661
128	0xbe28e9ed	-0.16495486
129	0xbd2a4227	-0.041566994
130	0xbdc89cf7	-0.09795564
131	0xbdf617e7	-0.12016278
132	0xbe0a327e	-0.13495824
133	0x3e2d09d4	0.1689828
134	0xbe3ffc9d	-0.18748708
135	0xbdcb3627	-0.09922438
136	0x3de24693	0.11048617
137	0x3e1d4881	0.1535969
138	0xbcf86b62	-0.030324642
139	0xbe093102	-0.13397601
140	0xbc8ca340	-0.017167687
141	0xbbe76b24	-0.0070623327
142	0xbe0e1fce	-0.1387932
143	0xbe0c86cf	-0.137233
144	0xbde53bdd	-0.11193059
145	0xbde525e0	-0.11188865
146	0x3e54a1b8	0.20764816
147	0xbdd33c31	-0.10314215
148	0x3da34d74	0.079737574
149	0xbe0a5f1d	-0.13512845
150	0x3cb44732	0.022006605
151	0x3b4b3478	0.0031006616
152	0x3e31a5b5	0.17348368
153	0xbd117e67	-0.035520937
154	0xbd57f68d	-0.052725364
155	0x3e2d6829	0.16934265
156	0x3d602189	0.05471948
157	0x3d8033ad	0.062598564
158	0x3d4d45c9	0.05011538
159	0x3de9b17d	0.11410806
160	0xbb1ba480	-0.0023749173
161	0xbda7ed29	-0.081995316
162	0x3d223781	0.039603714
163	0x3d6e9566	0.058247946
164	0x3e30ad3d	0.17253585
165	0x3ce2e18a	0.027695436
166	0xbe21ca9e	-0.15799949
167	0xbddb1312	-0.10696997
168	0x3e21492a	0.15750566
169	0x3c1a80a1	0.009430082
170	0x3dc3d87e	0.09562777
171	0x3e48e787	0.1961957
172	0x3e31b4b2	0.17354086
173	0x3e279fd0	0.16369557
174	0x3e34231f	0.17591523
175	0xbd89c07d	-0.06726167
176	0x3e38d364	0.18049389
177	0x3e31640c	0.17323321
178	0x3d409b0d	0.047022868
179	0xbae5b99e	-0.0017526632
180	0x3cde3d60	0.027128875
181	0xbe2567ca	-0.16152874
182	0x3e19fb56	0.15037283
183	0xbd757762	-0.059928305
184	0xbd84d6f6	-0.06486313
185	0x3cc77aae	0.02435049
186	0xbe145611	-0.14485957
187	0x3ddf89cd	0.10914955
188	0x3e12f870	0.14352584
189	0xbd0efebd	-0.034910906
190	0xbe0f073c	-0.13967603
191	0x3e02dacf	0.12778781
192	0x3dd49031	0.10379065
193	0xbd1c0793	-0.03809316
194	0xbde89457	-0.113564186
195	0x3dd5ed4a	0.1044565
196	0x3d869026	0.06570463
197	0x3cdd1557	0.026987715
198	0xbd805547	-0.06266265
199	0xbdf60896	-0.120133564
200	0xbdb37695	-0.08762852
201	0x3d8e9fd9	0.06964082
202	0xbe621fe9	-0.22082485
203	0x3e4eb09c	0.20184559
204	0xbe1f8b64	-0.15580517
205	0xbc9a2635	-0.018817047
206	0xbdbdbc9c	-0.0926449
207	0xbe2a7245	-0.16645153
208	0x3d63237c	0.055453762
209	0xbdfbd48d	-0.122964
210	0x3db5060c	0.08839044
211	0xbe729284	-0.23688704
212	0x3d004e32	0.031324573
213	0xbdde7e65	-0.108639516
214	0x3e5d555e	0.21614596
215	0xbe52afc7	-0.20574866
216	0x3e0565c7	0.13027106
217	0x3d7735b8	0.060353965
218	0xbdce58d4	-0.10075536
219	0xbd902828	-0.07038909
220	0x3e3d2665	0.18471678
221	0xbe1a0cea	-0.15043989
222	0x3cc5c645	0.024142394
223	0xbc1733ec	-0.009228688
224	0x3c2b025d	0.010437575
225	0x3d831ddb	0.06402179
226	0xbcf53d57	-0.029936476
227	0x3cd310f2	0.025764916
228	0x3e30d018	0.17266881
229	0xbc994ec3	-0.018714314
230	0xbd55f149	-0.05223206
231	0x3c94e38b	0.018174907
232	0x3e1c5022	0.15264943
233	0xba961ecb	-0.0011453269
234	0x3c8960f5	0.016769866
235	0x3e07305f	0.13202046
236	0x3e3ccd97	0.18437801
237	0xbdac5f29	-0.08416588
238	0xbde6d7bc	-0.11271617
239	0x3e0af454	0.13569766
240	0xbdd6339d	-0.10459063
241	0x3dcaeb8c	0.09908208
242	0x3e0f0c1d	0.13969465
243	0xbe547df8	-0.20751178
244	0xbd89b99c	-0.06724855
245	0xbdeaea6d	-0.114704944
246	0xbded4a98	-0.11586493
247	0x3cf0918d	0.029366279
248	0x3d8a3723	0.06748798
249	0x3e2b8bfc	0.16752619
250	0xbda29d30	-0.079401374
251	0xbcc5be91	-0.02413872
252	0x3e3ee48e	0.18641874
253	0xbda304f1	-0.07959927
254	0xbce77612	-0.028254542
255	0xbd67c79d	-0.05658685

cfc_model.rnn_cell.backbone.0.bias f4 [128]
0	0xbce7bd9d	-0.028288657
1	0x3d856d4d	0.06514988
2	0x3c524135	0.012832929
3	0x3dc93c63	0.09825971
4	0x3c1fe2f9	0.009758704
5	0x3db15158	0.08658093
6	0x3d260056	0.040527664
7	0x3de186ed	0.11012063
8	0xbc9d1a30	-0.019177526
9	0xbdc2984d	-0.09501705
10	0x3dd37a88	0.10326105
11	0x3dca09aa	0.098651245
12	0xbc7b2966	-0.015329694
13	0x3d5c4541	0.053776983
14	0xbd5aa570	-0.05338043
15	0xbd465d11	-0.0484286
16	0xbdf01c38	-0.11724132
17	0xbc444109	-0.011978396
18	0xbdcb680a	-0.09931953
19	0x3d35611f	0.044282075
20	0x3e0b9409	0.1363069
21	0x3e0b76c0	0.13619518
22	0x3cf6d955	0.030132929
23	0xbc607110	-0.013698831
24	0x3d7441dd	0.059633125
25	0xbd5152f6	-0.05110451
26	0xbc19076a	-0.009340147
27	0x3dd9f57e	0.10642527
28	0x3d83bf15	0.064329304
29	0xbdc43bce	-0.09581719
30	0xbd10e914	-0.03537853
31	0x3dc4e0aa	0.09613164
32	0xbd26c9af	-0.040719684
33	0xbd74e0a1	-0.059784535
34	0xbc005f4b	-0.00783522
35	0x3d275355	0.040850956
36	0x3defe3c1	0.117133625
37	0x3dddc37a	0.108283
38	0x3d870e5c	0.06594536
39	0x3ddc3187	0.10751634
40	0xbd7dfb81	-0.06200743
41	0xbc2970f1	-0.010341869
42	0x3dd3ab8c	0.10335454
43	0x3d576034	0.05258198
44	0xbd8bbc94	-0.06823078
45	0xbdf9d890	-0.12199509
46	0xbdab3404	-0.083595306
47	0x3dd71c37	0.105034284
48	0x3d821410	0.06351483
49	0xbce80105	-0.028320799
50	0xbd112cd9	-0.03544316
51	0xbd8fe455	-0.07025973
52	0xbdacec32	-0.08443488
53	0x3d803d09	0.062616415
54	0x3dba43ac	0.09094939
55	0xbd1f4b39	-0.038890097
56	0xbca7075f	-0.020389257
57	0xbd457f0c	-0.048216864
58	0x3d938ae7	0.07204228
59	0x3e0bf98f	0.13669418
60	0x3c80ab69	0.015706735
61	0xbdaf1bed	-0.08550248
62	0x3d3acc3e	0.045604937
63	0x3d66ac90	0.056316912
64	0xbde60445	-0.11231283
65	0x3d7193e4	0.05897893
66	0x3d876089	0.066102095
67	0xbc7f11c9	-0.015568205
68	0xbc47b2d9	-0.012188637
69	0xbd011293	-0.031511854
70	0xbd6e9a8f	-0.058252867
71	0xbd9e547c	-0.07730958
72	0xbd8d0293	-0.068852566
73	0xbdc3b9fa	-0.095569566
74	0x3c89843e	0.01678669
75	0xbdf4c6ca	-0.119519785
76	0xbd9483ae	-0.072516784
77	0xbd788c56	-0.06068071
78	0x3d105651	0.035238568
79	0xbd477a06	-0.048700355
80	0x3d2534ea	0.040333666
81	0x3dbfcf78	0.093657434
82	0xbc8f3395	-0.01748065
83	0xbd6048b1	-0.054756824
84	0xbd8fce29	-0.07021744
85	0xbd388ea8	-0.045057923
86	0xbdd80a01	-0.10548783
87	0xbd9f24a3	-0.0777066
88	0x3decf3ad	0.11569915
89	0x3df26351	0.11835349
90	0x3dafe512	0.085886136
91	0x3daa0796	0.08302228
92	0x3c8c9fe2	0.017166082
93	0xbcddfba4	-0.02709753
94	0xbdc3177e	-0.09525965
95	0xbd9e2555	-0.07721964
96	0xbe120ea5	-0.14263399
97	0x3d8f87c1	0.07008315
98	0x3ddc62bd	0.1076102
99	0x3d7c0787	0.061530616
100	0xbda09432	-0.07840766
101	0x3d5cbb55	0.05388959
102	0xbc00a097	-0.007850788
103	0x3dad9c94	0.084771305
104	0xbdd42566	-0.10358696
105	0xbc343c98	-0.011000775
106	0x3dae4eef	0.08511149
107	0xbdd383fd	-0.10327909
108	0xbc5e0da9	-0.0135530615
109	0xbdb8adea	-0.090175465
110	0xbdde52bb	-0.10855623
111	0x3e027ffe	0.12744138
112	0xbd8986ca	-0.06715162
113	0x3d24c733	0.040229034
114	0x3d50b8df	0.050957557
115	0x3d165bdb	0.036708694
116	0x3d70a2fd	0.058749188
117	0xbdfcb41f	-0.12339043
118	0xbcf7d2de	-0.030251916
119	0xbd092e73	-0.033491563
120	0xbd859aa2	-0.065236345
121	0xbdd75582	-0.10514356
122	0x3db38b90	0.08766854
123	0xbd83c396	-0.064337894
124	0xbd633181	-0.055467132
125	0x3dacc853	0.08436646
126	0xbdbca9aa	-0.09212048
127	0x3d11fda7	0.035642292

cfc_model.rnn_cell.ff1.weight f4 [64, 128]
0	0xbc00a860	-0.007852644
1	0xbe05cdc7	-0.13066779
2	0xbdfc96ee	-0.12333475
3	0x3dbb70bf	0.09152364
4	0x3e23d65f	0.15999745
5	0xbe2f6efb	-0.1713218
6	0xbd3a6403	-0.045505535
7	0x3de45a4d	0.11150036
8	0x3e229a5e	0.15879199
9	0xbe063c0b	-0.13108842
10	0x3e7e6b4e	0.24845621
11	0x3e271026	0.16314754
12	0xbd5ea9ab	-0.054361027
13	0xbdca9b2c	-0.09892878
14	0x3dace7ca	0.08442648
15	0xbd84e8c9	-0.06489713
16	0xbdc96654	-0.09833971
17	0x3dfe2b59	0.12410612
18	0x3d4dc8a9	0.050240193
19	0xbd104161	-0.0352186
20	0x3d243359	0.04008803
21	0xbe13b0b9	-0.14422883
22	0xbc6245fc	-0.013810631
23	0x3de72ade	0.11287473
24	0xbda8ddd6	-0.08245437
25	0x3cfe1c6b	0.03101941
26	0xbe0652f4	-0.13117582
27	0x3e580dd9	0.21099032
28	0xbe29a05b	-0.16565077
29	0x3df378c1	0.11888266
30	0xbdae7000	-0.08517456
31	0xbe03f9bb	-0.12888233
32	0xbc4b49af	-0.012407704
33	0xbc296bfd	-0.010340688
34	0xbcced234	-0.025246717
35	0xbd3f3fb0	-0.046691597
36	0x3c9dce13	0.019263303
37	0xbd8fed63	-0.070277
38	0x3e368ae1	0.17826416
39	0x3e0cf859	0.13766612
40	0xbd85d97d	-0.06535623
41	0xbdb4aca1	-0.08821989
42	0x3cd7143e	0.02625477
43	0x3c2f0046	0.010681218
44	0xbdacf36f	-0.08444869
45	0x3e1b62c1	0.1517439
46	0x3c2f4574	0.010697711
47	0xbe29d141	-0.1658373
48	0x3e0b912c	0.13629597
49	0xbd555e07	-0.052091625
50	0xbd967acc	-0.073476404
51	0xbda93b6f	-0.08263289
52	0xbe2a37ba	-0.1662282
53	0xbcd42c7a	-0.025900114
54	0x3d45c622	0.048284657
55	0x3b98cac4	0.0046628434
56	0xbdb3ecb1	-0.0878538
57	0xbdfe3224	-0.12411907
58	0xbd8156bb	-0.06315371
59	0x3c0e26d0	0.008676246
60	0xbbd54afb	-0.0065091825
61	0x3d4fd7b1	0.05074281
62	0x3d6a4332	0.05719299
63	0x3e3ca7d6	0.184234
64	0xbd8df17a	-0.069308236
65	0x3e0d69d4	0.13809901
66	0x3e0bc821	0.13650562
67	0x3dee587c	0.11637971
68	0x3dd208ed	0.10255609
69	0xbd761433	-0.060077857
70	0xbd542a02	-0.051797874
71	0x3d0ffebf	0.035155054
72	0xbd0ab8bd	-0.033867586
73	0x3e1b44f8	0.15163028
74	0x3d238259	0.03991923
75	0xbdedbf5c	-0.116087645
76	0xbe0df33d	-0.1386232
77	0x3bcf888e	0.0063334173
78	0xbde8f9a7	-0.113757424
79	0xbdd27b57	-0.102774315
80	0x3d435444	0.047687784
81	0x3cc9793d	0.024593944
82	0x3dce9ee8	0.10088903
83	0x3de6bb76	0.11266224
84	0xbe440eed	-0.19146319
85	0xbcea4d46	-0.0286013
86	0x3dc805d3	0.09766736
87	0x3c8020f7	0.015640719
88	0x3e4f12a1	0.2022195
89	0xbc88a6af	-0.016681043
90	0x3d5c202f	0.05374163
91	0x3d02dbc6	0.031947874
92	0xbe098b2a	-0.13431993
93	0xbdb41e50	-0.08794844
94	0x3c6d1cd0	0.0144722015
95	0x3e60a1ad	0.21936674
96	0x3d21e00a	0.0395203
97	0xbdac51dc	-0.08414051
98	0x3d3248e1	0.043526534
99	0xbda2613e	-0.07928704
100	0x3e4e586a	0.20150915
101	0x3d878e92	0.0661899
102	0x3e2d8f25	0.16949137
103	0xbdc12336	-0.09430544
104	0xbdbf890a	-0.0935231
105	0xbe079a1c	-0.13242382
106	0x3dad4ef3	0.08462324
107	0xbe2f85dd	-0.17140909
108	0xbddeacf4	-0.10872832
109	0xbe2ec909	-0.17068876
110	0x3e3b8964	0.18314129
111	0xbe38539a	-0.18000641
112	0xbdc20d82	-0.09475233
113	0x3d0d4a50	0.034494698
114	0xbe00da14	-0.1258319
115	0x3e34fa6f	0.17673658
116	0x3e003368	0.1251961
117	0xbde146fb	-0.109998666
118	0x3e08b3c6	0.13349828
119	0xbcb49f90	-0.022048742
120	0xbdfc5f28	-0.12322837
121	0xbd678f77	-0.056533303
122	0x3c091d1f	0.008368759
123	0xbd945750	-0.07243216
124	0x3dd23478	0.10263914
125	0xbdf24a2c	-0.118305534
126	0x3e171e6d	0.147577
127	0xbdb4899c	-0.088153094
128	0xbdf637a0	-0.120223284
129	0xbd8f1efb	-0.06988331
130	0x3e28eb00	0.16495895
131	0x3b4fe0b2	0.0031719622
132	0x3c844aaa	0.016148884
133	0x3d93c204	0.0721474
134	0x3db143fc	0.08655545
135	0xbe076c8f	-0.13225006
136	0x3d7ccf2c	0.061721012
137	0xbd3bbb55	-0.04583295
138	0x3e1349a2	0.14383557
139	0x3d9067be	0.07051037
140	0x3e0a9db2	0.13536718
141	0x3dca2466	0.09870224
142	0x3cc25b12	0.023725066
143	0x3e0c90dc	0.13727134
144	0xbdcd2f45	-0.100187816
145	0xbd63fef3	-0.05566306
146	0xbe1a6268	-0.15076602
147	0x3dccbd62	0.099970594
148	0xbd979f01	-0.074033745
149	0xbd65f91e	-0.05614578
150	0xbe085e6b	-0.13317268
151	0xbdb8d82f	-0.09025609
152	0x3e34b3bf	0.17646693
153	0xbd0807ce	-0.033210568
154	0xbe2e8534	-0.17043
155	0x3dce0833	0.100601576
156	0xbb967da7	-0.0045926156
157	0xbe027acb	-0.12742154
158	0xbe0418d1	-0.12900092
159	0xbdc099a4	-0.094043046
160	0x3ddfaf60	0.10922122
161	0xbde15c82	-0.110039726
162	0xbdc8dfb4	-0.09808293
163	0x3db25667	0.08707886
164	0xbc25852b	-0.0101025505
165	0x3dc127f6	0.0943145
166	0x3c0653e4	0.008198712
167	0x3e12be16	0.14330325
168	0xbe28aa08	-0.16471112
169	0xbd8b3e8d	-0.0679904
170	0xbdf8efac	-0.12155089
171	0x3dd019d6	0.10161178
172	0x3ddb0f8a	0.10696323
173	0x3e3d4ab6	0.18485531
174	0xbd55a75e	-0.052161567
175	0xbbad7001	-0.005292893
176	0xbe0322ee	-0.12806293
177	0x3d6a9760	0.05727327
178	0x3ab1605b	0.0013532744
179	0x3d8d18a8	0.068894684
180	0x3d2986b3	0.041388225
181	0x3cd71d5b	0.026259115
182	0x3e16aa9c	0.1471352
183	0xbe1f6cd1	-0.15568854
184	0x3df69eb5	0.1204199
185	0x3a4510d2	0.000751746
186	0xbd01c1b1	-0.03167886
187	0x3da7e522	0.081980005
188	0x3e21d4c7	0.15803824
189	0xbd9a7cb0	-0.075433135
190	0x3d7a72e5	0.06114473
191	0xbe253886	-0.16134843
192	0x3d02a950	0.03189975
193	0xbe2d5fd0	-0.16931081
194	0x3e0c57c5	0.13705356
195	0xbe09a331	-0.13441159
196	0x3da0679a	0.078322604
197	0x3db0de18	0.08636111
198	0xbcf04d53	-0.029333746
199	0x3d336fe9	0.043807898
200	0xbd101bca	-0.03518275
201	0xbda1b84a	-0.078964785
202	0x3e108b2d	0.14115591
203	0xbdddeeea	-0.10836585
204	0xbbda2cae	-0.0066581583
205	0x3d6c21aa	0.057649292
206	0x3d141be5	0.036159415
207	0xbdaf4041	-0.08557177
208	0x3df3dc81	0.11907292
209	0xbe06d809	-0.13168348
210	0xbdef81cc	-0.11694679
211	0xbd2458ed	-0.04012387
212	0x3ddf6fe2	0.10910012
213	0xbdfde84b	-0.12397822
214	0x3d4a063a	0.049322344
215	0x3ce97785	0.028499374
216	0xbe0771db	-0.13227026
217	0x3e0a826f	0.13526319
218	0x3deddce0	0.11614394
219	0xbdd4fba7	-0.103995614
220	0xbd3fb2d2	-0.046801396
221	0xbdf3a5af	-0.11896836
222	0x3d267b88	0.040645152
223	0x3e14a30e	0.14515325
224	0x3d9e8450	0.0774008
225	0x3e2ce170	0.16882873
226	0x3e03aec8	0.12859643
227	0xbe07f5ce	-0.13277361
228	0x3d06eeb7	0.0329425
229	0xbdf43b3c	-0.119253606
230	0xbe29ca21	-0.16581012
231	0xbc4b04ef	-0.012391313
232	0x3b8e6d2a	0.0043465095
233	0xbe377654	-0.17916232
234	0x3d912fb2	0.07089175
235	0x3e2fb09f	0.1715722
236	0xbdd6a1db	-0.1048009
237	0xbdb1feaf	-0.08691155
238	0xbe2eceaa	-0.17071024
239	0xba52ee27	-0.0008046352
240	0xbd7d12b9	-0.061785433
241	0xbdad1441	-0.08451129
242	0x3ca758c5	0.02042807
243	0xbe1527f8	-0.14566028
244	0xbe398ed5	-0.18120892
245	0x3dc334d7	0.09531563
246	0x3df9d09c	0.12197992
247	0xbe0a70a5	-0.13519533
248	0x3df080b9	0.11743302
249	0x3e1a37f4	0.15060407
250	0x3d909d90	0.07061303
251	0xbe110474	-0.14161855
252	0x3dcea1aa	0.10089429
253	0x3d0c25fc	0.034215912
254	0xbd34a325	-0.0441009
255	0x3e0c8235	0.13721545

cfc_model.rnn_cell.ff1.bias f4 [64]
0	0x3da4ba72	0.08043374
1	0xbd6322dc	-0.055453166
2	0x3d159686	0.036520503
3	0x3dbe678b	0.09297093
4	0xbd8a2308	-0.06744963
5	0x3c81d081	0.015846493
6	0x3a0f977f	0.0005477592
7	0x3bf7136e	0.007540158
8	0xbc391f4a	-0.011298964
9	0xbbffacff	-0.007802605
10	0xbd8086c9	-0.06275708
11	0x3adbebd6	0.0016778659
12	0xbcd40732	-0.025882337
13	0x3d2c6ca2	0.042095788
14	0x3d624357	0.05524
15	0xbd7db1e2	-0.06193722
16	0x3da419db	0.08012744
17	0x3d86b693	0.06577792
18	0x3d389519	0.045064066
19	0x3d8264e8	0.063669026
20	0xbbd32bed	-0.0064444453
21	0x3c56868d	0.013093603
22	0xbd847feb	-0.06469711
23	0x3bd0440f	0.0063557695
24	0x3c35e86d	0.011102778
25	0xbd7825e0	-0.060582995
26	0x3d176639	0.03696272
27	0xbd5cb667	-0.05388489
28	0x3cbffc37	0.023435695
29	0x3d55c779	0.052192185
30	0x3d9eefd4	0.07760587
31	0xbc6d6b59	-0.014490926
32	0x3cafc4b6	0.021456104
33	0xbc5e4057	-0.0135651445
34	0x3d7f4b5c	0.062327728
35	0xbd72217d	-0.05911397
36	0x3d86b361	0.065771826
37	0xbc01c822	-0.007921251
38	0xbcf906d4	-0.030398764
39	0xbd89a44e	-0.06720792
40	0x3aaf2dbd	0.0013365071
41	0x3d671987	0.05642083
42	0x3bb365a9	0.0054747653
43	0x3d8af3bf	0.06784772
44	0x3d40d863	0.047081362
45	0x3d4cf84c	0.05004148
46	0xbd4b3793	-0.049613547
47	0x3dcb92c2	0.09940101
48	0xbdb152b3	-0.08658352
49	0xbcc89d0c	-0.024488948
50	0xbdb784fd	-0.089609124
51	0xbd38fb6d	-0.045161653
52	0xbc16f432	-0.009213494
53	0x39a681fb	0.0003175883
54	0xbc8aad9c	-0.016928487
55	0x3cfaad10	0.0306001
56	0xbbcb54e1	-0.0062051867
57	0x3da0b380	0.07846737
58	0xbd7b5ccc	-0.061367795
59	0x3c873f23	0.016509598
60	0xbd753a90	-0.059870303
61	0xbd36042f	-0.044437584
62	0xbd03ad87	-0.03214791
63	0x3db66d3b	0.08907553

cfc_model.rnn_cell.neuromod.0.weight f4 [128, 3]
0	0xbe195a1d	-0.14975782
1	0x3d39e1cf	0.045381363
2	0xbe3be4b7	-0.18348967
3	0xbd9b0ac1	-0.075704105
4	0x3df66787	0.12031465
5	0x3daae5a3	0.08344581
6	0xbcd2f603	-0.025752073
7	0x3deb353e	0.114847645
8	0xbe261525	-0.16219003
9	0x3c1ed577	0.009694449
10	0xbe4b1eb3	-0.1983593
11	0xbdde7433	-0.10862007
12	0x3cc23589	0.023707168
13	0x3d92ec63	0.071739934
14	0xbdc9ab74	-0.09847155
15	0xbdaac997	-0.083392315
16	0xbe3259ad	-0.17417021
17	0x3e407922	0.18796209
18	0x3e536e67	0.20647584
19	0xbd6383e2	-0.055545695
20	0xbe2db999	-0.16965331
21	0xbd61f464	-0.05516471
22	0xbe1b691b	-0.15176813
23	0x3df76358	0.12079495
24	0x3e4a27a1	0.1974168
25	0xbd8f26c1	-0.069898136
26	0xbe3272a0	-0.17426538
27	0x3e1a3152	0.15057877
28	0xbe070872	-0.13186815
29	0x3e2e48fd	0.1702003
30	0xbd9f3c0a	-0.077751234
31	0x3e4fbc20	0.20286608
32	0x3e168ed2	0.14702919
33	0xbdeaed2e	-0.1147102
34	0x3d77770c	0.060416266
35	0xbe26f091	-0.16302706
36	0x3def4c47	0.116844706
37	0xbe125c35	-0.14292987
38	0xbe0bf7eb	-0.13668792
39	0x3e2bafa6	0.16766223
40	0xbd2caee9	-0.042158995
41	0xbd912f62	-0.07089116
42	0xbd41e07b	-0.047333222
43	0x3c8e9c38	0.017408475
44	0xbcb9c042	-0.022674683
45	0x3d493683	0.049124252
46	0xbcf1afc7	-0.029502762
47	0xbe0fbcab	-0.14036815
48	0xbe4bba8d	-0.19895382
49	0x3dcdfdd3	0.10058179
50	0xbda08791	-0.07838357
51	0x3e323147	0.1740161
52	0xbd4dfc53	-0.050289463
53	0x3dcf5b6a	0.10124858
54	0x3e26dede	0.16295955
55	0x3e56aba9	0.2096392
56	0x3db69c87	0.08916574
57	0xbd9ef0ea	-0.077607945
58	0x3defa1c3	0.117007755
59	0x3e2dd35f	0.16975163
60	0x3d175a87	0.036951568
61	0x3e1dfd68	0.15428698
62	0x3dfc8144	0.12329343
63	0x3d3fd3ac	0.046832725
64	0xbdb28a89	-0.0871783
65	0x3df0141a	0.11722584
66	0xbe1edd95	-0.15514214
67	0x3e2ade58	0.1668638
68	0xbdfae4c6	-0.12250666
69	0x3db6acf0	0.08919704
70	0xbe11018c	-0.14160746
71	0x3da3acb4	0.07991925
72	0x3da682f1	0.08130444
73	0x3cb348dd	0.02188533
74	0x37aacf2a	2.0362048e-05
75	0x3e37a234	0.1793297
76	0xbd7396e7	-0.059470084
77	0xbdb99ba8	-0.09062892
78	0x3e359ec5	0.17736347
79	0x3d369032	0.04457111
80	0x3de613c9	0.112342425
81	0xbdb6dfd7	-0.08929413
82	0x3e4f37ff	0.20236205
83	0xbdf4db23	-0.119558595
84	0xbd80b88d	-0.062852
85	0x3e4c38a5	0.19943483
86	0xbe154038	-0.14575279
87	0xbd20db1b	-0.039271455
88	0xbe05f3fb	-0.13081352
89	0xbda78b2f	-0.08180844
90	0x3e379728	0.17928755
91	0xbe5de545	-0.2166949
92	0x3e3bdd1f	0.1834607
93	0xbe4c8146	-0.19971189
94	0xbd5f2abd	-0.054484118
95	0xbd74525e	-0.059648864
96	0xbe2a0eb3	-0.1660717
97	0xbd2a0080	-0.041504383
98	0xbd42e326	-0.047579907
99	0x3be84be8	0.007089127
100	0xbe52d46b	-0.20588844
101	0x3e0b39d4	0.13596278
102	0x3dbc7d9d	0.09203646
103	0x3debe533	0.11518326
104	0xbe0cd589	-0.13753332
105	0x3dfa52e4	0.122228414
106	0x3e04e04d	0.12976189
107	0x3ce79f56	0.02827422
108	0xbe5775bf	-0.2104101
109	0xbe4a4b73	-0.19755344
110	0xbb13bfee	-0.002254482
111	0x3cb781f6	0.022400837
112	0x3e12ec27	0.14347897
113	0x3e4c6b9c	0.19962925
114	0xbd430b26	-0.047618054
115	0xbd9dc55e	-0.077036604
116	0x3e3734ee	0.17891285
117	0x3cc8bf49	0.024505274
118	0xbc8e8ecf	-0.01740208
119	0x3e257691	0.1615851
120	0xbe33d408	-0.17561352
121	0x3e4f4504	0.20241171
122	0xbe42c572	-0.19020632
123	0x3e38944c	0.18025321
124	0x3c032178	0.008003585
125	0xbe2b0fc7	-0.16705237
126	0x3e5d5780	0.2161541
127	0xbd746bd9	-0.059673164
128	0x3d5c11da	0.053727962
129	0xbdf0be69	-0.11755068
130	0xbe2bc53f	-0.16774462
131	0x3cb7adbd	0.022421712
132	0xbd428ded	-0.047498632
133	0xbddc2ab2	-0.10750331
134	0xbc407e4f	-0.011748864
135	0xbd19b99c	-0.037530527
136	0x3d2a318d	0.04155116
137	0x3d91da3c	0.07121703
138	0x3e119ca2	0.14219907
139	0x3e059652	0.13045624
140	0x3dbd7f54	0.092528015
141	0x3e43c8a7	0.19119512
142	0x3de3a426	0.11115293
143	0xbddc2e3c	-0.10751006
144	0x3dd7d30d	0.105383016
145	0x3d841df5	0.06451026
146	0xbe3a9aec	-0.1822316
147	0xbe072515	-0.1319774
148	0xbe1d2e8a	-0.15349784
149	0x3db05dc9	0.08611638
150	0x3e28ea40	0.1649561
151	0xbe3f032f	-0.18653558
152	0xbe1d706e	-0.1537492
153	0x3dc4faab	0.096181236
154	0x3d8168c7	0.06318813
155	0xbd71d0e6	-0.05903711
156	0x3be3ca80	0.00695163
157	0x3dee2fd5	0.11630217
158	0xbe3d100a	-0.1846315
159	0xbdf5792c	-0.11986002
160	0x3cd8f7d6	0.026485365
161	0x3e59f0c0	0.21283245
162	0xbc982468	-0.018572047
163	0x3d9e4328	0.07727653
164	0xbe113e6d	-0.1418397
165	0x3df6d2a5	0.12051896
166	0x3bd7ba76	0.006583507
167	0xbe461ef6	-0.19347748
168	0x3dd8750a	0.105691984
169	0x3e529e43	0.20568185
170	0xbe42ea0a	-0.19034591
171	0xbd9c6b73	-0.07637682
172	0xbc7d0a2d	-0.015444321
173	0xbe39bc41	-0.1813822
174	0x3d9b6823	0.07588222
175	0xbdb5f3d6	-0.08884399
176	0x3a090a71	0.0005227691
177	0xbd81dd64	-0.06341055
178	0x3da86ab2	0.082234755
179	0xbde7694a	-0.11299379
180	0xbae0911f	-0.0017133093
181	0x3d0172c8	0.031603605
182	0xbdaa037c	-0.08301446
183	0x3e0bac34	0.13639909
184	0xbe39496a	-0.18094411
185	0x3e020f22	0.12701085
186	0xbe3b7768	-0.18307269
187	0x3d757c24	0.059932843
188	0xbd800a85	-0.062520064
189	0xbdc3fa98	-0.09569281
190	0xbde284bc	-0.11060473
191	0xbc92858b	-0.017885944
192	0x3e022757	0.1271032
193	0x3dffc4a8	0.12488681
194	0x3e30ab69	0.17252888
195	0xbe5029b0	-0.20328403
196	0xbdd0d6ad	-0.10197196
197	0xbd1d5bdf	-0.038417693
198	0x3b5a7dbd	0.0033339106
199	0xbc4488af	-0.0119954785
200	0x3ce785b4	0.028261997
201	0xbe19053e	-0.14943406
202	0xbe3a272a	-0.18179002
203	0x3e317ce9	0.17332806
204	0xbcef6296	-0.029221814
205	0xbcfe1c78	-0.031019434
206	0x3dd7d3c8	0.10538441
207	0xbe5ed212	-0.21759823
208	0x3df6064e	0.12012921
209	0x3c09becf	0.008407309
210	0xbe4dbd0b	-0.20091645
211	0xbc9a5294	-0.018838204
212	0xbe444b19	-0.19169272
213	0xbd108828	-0.0352861
214	0xbdaa5a32	-0.08317985
215	0xbe172e70	-0.14763808
216	0x3a9a111f	0.001175437
217	0x3d6fe2b8	0.058565825
218	0xbd42f1e1	-0.047593955
219	0xbe1d61c2	-0.15369323
220	0xbdbdbf6d	-0.09265027
221	0x3e2a0b93	0.16605978
222	0xbc188624	-0.009309325
223	0x3db513e8	0.088416874
224	0xbdb25ef1	-0.08709515
225	0x3c227035	0.009914448
226	0xbd68d1eb	-0.05684082
227	0x3d6bc5bc	0.05756162
228	0x3e225b13	0.15855055
229	0xbe4d0f34	-0.20025331
230	0xbd9e7b0a	-0.077383116
231	0x3c983a0a	0.018582363
232	0x3e098c28	0.13432372
233	0xbd90f2a1	-0.07077528
234	0xbb95cd0f	-0.004571564
235	0xbe408d63	-0.18803935
236	0x3e1132ab	0.14179485
237	0x3e560766	0.2090126
238	0x3d8bd597	0.068278484
239	0xbdc2e036	-0.09515421
240	0x3dc13487	0.09433847
241	0x3ddd131e	0.10794662
242	0xbdcb8a03	-0.09938433
243	0xbd9a1143	-0.07522824
244	0x3d43650a	0.04770378
245	0xbde86097	-0.11346548
246	0x3e17b92e	0.14816734
247	0xbc4fcd02	-0.012683155
248	0x3e38d908	0.18051541
249	0xbe57b876	-0.2106646
250	0xbe16d1a4	-0.14728409
251	0x3df9c182	0.12195112
252	0x3e303f5c	0.1721167
253	0xbd4ea3d7	-0.05044922
254	0x3d4ca62b	0.049963158
255	0xbc56ac90	-0.013102666

cfc_model.rnn_cell.neuromod.0.bias f4 [128]
0	0xbef28a76	-0.47371262
1	0x3ebf9ab9	0.37422732
2	0x3eb67b47	0.35640928
3	0xbd8d91a8	-0.06912547
4	0x3f0a5765	0.54039603
5	0x3eea2643	0.45732316
6	0xbdf35fad	-0.11883483
7	0xbe30149e	-0.17195365
8	0x3ef8971a	0.4855278
9	0xbf071975	-0.5277322
10	0x3f0e8e71	0.556861
11	0xbd99ebe9	-0.075156994
12	0x3eadd989	0.3395503
13	0xbf0d3335	-0.5515626
14	0x3f0f12d1	0.55888087
15	0x3d887b9c	0.066642016
16	0x3f132e84	0.5749285
17	0x3e786f00	0.24261093
18	0xbd8b9648	-0.06815773
19	0xbdce94fe	-0.10087012
20	0xbe993fc2	-0.29931456
21	0x3e71f5cb	0.23628919
22	0x3ea86ada	0.3289402
23	0xbe3f1e03	-0.18663792
24	0xbed98f74	-0.4249226
25	0x3edf4451	0.4360681
26	0xbf07df58	-0.5307517
27	0xbd825f09	-0.06365783
28	0xbeba322c	-0.36366403
29	0x3e653df8	0.2238692
30	0x3dd0bbdd	0.10192082
31	0xbef6813e	-0.4814548
32	0xbed0b5db	-0.40763745
33	0xbca62402	-0.020280842
34	0x3efd0f0c	0.49425542
35	0x3e91b337	0.28457043
36	0xbd2f6f24	-0.0428306
37	0x3e707008	0.23480237
38	0xbf023980	-0.5086899
39	0xbe33c95e	-0.17557284
40	0x3dcc67fe	0.099807724
41	0xbe8cde7e	-0.27513498
42	0xbebf788a	-0.37396652
43	0xbe804415	-0.25051942
44	0xbf00ec8e	-0.50360954
45	0xbf0c37f4	-0.5477288
46	0x3f031193	0.5119869
47	0x3f031b57	0.5121359
48	0x3e967cda	0.2939213
49	0xbd003d36	-0.031308375
50	0x3e7d2b47	0.2472354
51	0x3d8860ce	0.06659089
52	0xbee80e1d	-0.45323268
53	0xbf0949ff	-0.53628534
54	0x3f054556	0.52058923
55	0xbdeadef2	-0.11468305
56	0x3ec95d57	0.39329025
57	0xbba37749	-0.004988585
58	0xbe9ebd01	-0.31003574
59	0x3dd42e9a	0.10360451
60	0x3e00caf1	0.12577416
61	0x3f0adfcb	0.5424773
62	0xbf068657	-0.52548736
63	0xbd62d540	-0.055379152
64	0xbebd1170	-0.36927366
65	0x3eb2d37c	0.34926975
66	0x3de4e49c	0.11176416
67	0xbe64ea2f	-0.22354959
68	0xbe500d1e	-0.20317504
69	0xbd805965	-0.06267051
70	0xbeb2f0c8	-0.34949327
71	0x3ec86955	0.39142862
72	0x3ec532a5	0.385152
73	0x3ebc4b60	0.36776257
74	0xbe1876c4	-0.14889055
75	0x3c85b1fc	0.016320221
76	0x3eb1fd53	0.34763584
77	0x3b93f6ab	0.004515489
78	0x3ec1840a	0.3779605
79	0xbef34547	-0.47513792
80	0x3dda64e3	0.10663774
81	0xbeeeceb8	-0.4664209
82	0x3d8d611e	0.06903289
83	0xbdb7687b	-0.08955475
84	0x3ef264d4	0.4734255
85	0x3ee7075c	0.45122802
86	0x3d082b40	0.03324437
87	0x3df417ce	0.11918603
88	0xbef0c94f	-0.47028586
89	0xbd667b5c	-0.05626999
90	0x3d3b52c4	0.04573323
91	0xbee2f912	-0.4433065
92	0x3d8f10cd	0.06985626
93	0xbdcf60ba	-0.10125871
94	0xbde589a4	-0.112078935
95	0x3e9da49f	0.30789658
96	0x3ef6c0be	0.48193926
97	0x3e02721b	0.1273884
98	0x3ceef6a8	0.02917035
99	0x3dfc63e2	0.12323739
100	0xbe89bc55	-0.26901498
101	0x3b397670	0.0028299354
102	0xbce69367	-0.028146459
103	0xbee6a62f	-0.45048663
104	0x3dfb8e45	0.12282995
105	0xbea68f44	-0.32531178
106	0x3e820e41	0.254015
107	0x3ed2bff6	0.4116208
108	0x3ea05cc9	0.3132079
109	0xbea90d43	-0.3301793
110	0xbefea0fa	-0.4973219
111	0x3bc25969	0.0059310687
112	0xbf138873	-0.5763008
113	0xbf0e2553	-0.555257
114	0x3e2ba194	0.16760856
115	0xbd195f8f	-0.037444647
116	0x3f12a4eb	0.57282895
117	0x3d49e410	0.049289763
118	0xbdf78552	-0.12085976
119	0x3e1c58a5	0.1526819
120	0x3e52c4e4	0.2058292
121	0x3ec577fb	0.385681
122	0x3ea313a6	0.31850928
123	0xbede8f41	-0.4346867
124	0xbe0b1213	-0.13581114
125	0x3ced1d7a	0.02894472
126	0x3eeff3ad	0.46865597
127	0x3e994d83	0.2994195

cfc_model.rnn_cell.neuromod.2.weight f4 [80, 128]
0	0xbdb12603	-0.08649828
1	0x3d0a646b	0.033787172
2	0x3e12ae7a	0.1432437
3	0xbdc2d881	-0.09513951
4	0x3de10535	0.10987321
5	0xbca1e940	-0.019764543
6	0x3e229c47	0.15879928
7	0x3ce90d19	0.028448628
8	0x3de45050	0.11148131
9	0x3d46aac7	0.04850271
10	0x3da47920	0.08030915
11	0xbd219270	-0.039446294
12	0x3c99daeb	0.018781146
13	0xbe26852b	-0.16261737
14	0xbdf02276	-0.11725323
15	0xbdac2517	-0.08405512
16	0x3b95b8bb	0.0045691407
17	0xbcd6cb67	-0.026220037
18	0xbdb2e158	-0.08734387
19	0x3e13ae98	0.14422071
20	0xbdb1412d	-0.086550094
21	0x3e2473f0	0.16059852
22	0x3da6aeda	0.08138819
23	0x3e21290c	0.15738314
24	0x3d0dfaaa	0.03466288
25	0x3de48ec7	0.11160045
26	0x3d75dd81	0.060025696
27	0xbda50a0c	-0.08058557
28	0xbe012697	-0.12612377
29	0xbd2e4821	-0.042549256
30	0x3e282801	0.1642151
31	0xbdac9b5f	-0.08428072
32	0xbdb2c5e5	-0.08729152
33	0x3d1ef284	0.0388055
34	0x3d9cf9c1	0.07664824
35	0xbdc9519f	-0.09830021
36	0x3cd73f72	0.02627537
37	0xbe15324b	-0.14569966
38	0x3d8cf6c3	0.068830036
39	0x3dcbfff6	0.0996093
40	0xbdd9925a	-0.106236175
41	0xbd0ac027	-0.033874657
42	0xbd9f6d9d	-0.07784579
43	0xbd1d28b1	-0.038368884
44	0x3d915db2	0.07097949
45	0xbe0e0a31	-0.13871075
46	0x3c085fd4	0.008323628
47	0xbcc2d14c	-0.023781441
48	0xbc30228d	-0.010750425
49	0xbc1ff1ca	-0.009762237
50	0xbdd7194c	-0.10502872
51	0x3dfd0408	0.123542845
52	0x3e11638f	0.14198135
53	0xbddfe99e	-0.10933231
54	0x3d64a10a	0.05581764
55	0x3da2083c	0.07911727
56	0xbd9d55cd	-0.07682381
57	0xbc3c754c	-0.011502575
58	0xbdabb002	-0.0838318
59	0xbe20b333	-0.15693359
60	0x3cb367ee	0.021900143
61	0xbe10d037	-0.14141928
62	0xbce35074	-0.027748324
63	0x3d891343	0.06693127
64	0x3dbd772c	0.09251246
65	0xbe0002e1	-0.12501098
66	0x3da8a6a3	0.082349084
67	0x3cf95b71	0.03043911
68	0xbcc5cab5	-0.02414451
69	0xbdec3b18	-0.11534709
70	0x3d84f87c	0.06492707
71	0xbde1c92c	-0.110246986
72	0xbe11adc0	-0.14226437
73	0x3e1ae6a1	0.1512704
74	0xbe0dd8d2	-0.13852242
75	0xbd97f934	-0.074205786
76	0xbc443655	-0.011975844
77	0x3d0a23ae	0.033725433
78	0x3ccca395	0.024980346
79	0x3dd8dc80	0.10588932
80	0x3e240947	0.16019164
81	0xbd41af12	-0.0472861
82	0xbe19cfec	-0.15020722
83	0x3da42d3e	0.08016442
84	0x3dac7911	0.08421529
85	0x3df3cdb9	0.11904473
86	0x3cf43ffe	0.02981567
87	0x3d7406ac	0.059576675
88	0x3d9462b3	0.07245388
89	0x3e0b6f4f	0.1361668
90	0xbdb567b6	-0.08857672
91	0x3d8c3284	0.068455726
92	0x3c59f96c	0.013304096
93	0xbe1a1309	-0.15046324
94	0x3d3a4df7	0.04548451
95	0xbe07d98e	-0.13266584
96	0xbda038ab	-0.078233086
97	0x3e26cdec	0.1628949
98	0x3d9cc1de	0.07654165
99	0x3e2daab0	0.16959643
100	0xbe04d522	-0.12971929
101	0xbe138dbe	-0.14409539
102	0xbe2ff936	-0.1718491
103	0x3e1c178a	0.15243354
104	0x3d07265f	0.032995578
105	0xbe0ce6b4	-0.13759881
106	0x3db085ed	0.08619294
107	0x3da8ed48	0.08248383
108	0x3d49e03a	0.049286105
109	0x3e131417	0.14363132
110	0x3c9ca87c	0.019123308
111	0xbd300d6a	-0.042981543
112	0xbdc5d0a1	-0.096589334
113	0xbe07bd01	-0.13255693
114	0x3c810fcc	0.015754603
115	0x3e0ad03f	0.13556002
116	0x3da6e5d2	0.081493035
117	0x3e091b71	0.13389374
118	0xbb6532bb	-0.0034972865
119	0x3de5e6fc	0.112256974
120	0xbd62b91d	-0.05535232
121	0xbd846dca	-0.06466253
122	0xbd952620	-0.072826624
123	0xbcefbb1b	-0.029264024
124	0xbe0375ef	-0.12837957
125	0x3e2753a9	0.16340508
126	0x3c48e537	0.01226168
127	0xbde7c9be	-0.11317776
128	0x3dc7c77d	0.09754846
129	0x3e1e1621	0.15438129
130	0xbe278d50	-0.163625
131	0xbe205c15	-0.15660127
132	0xbda3e52b	-0.08002695
133	0xbd30c6e9	-0.043158446
134	0x3e26764c	0.16256064
135	0x3de2837e	0.110602364
136	0x3e242e57	0.16033302
137	0x3d18b0a2	0.037277825
138	0x3d85a946	0.06526427
139	0xbdac4850	-0.0841223
140	0xbe2ec563	-0.17067485
141	0xbe2d8aff	-0.16947554
142	0x3d1d6f3f	0.03843617
143	0x3db0479d	0.08607409
144	0x3dda129a	0.10648079
145	0x3daf5ad6	0.085622475
146	0xbcc921ae	-0.024552193
147	0x3df5562b	0.11979326
148	0xbdf6ea84	-0.12056449
149	0x3d68475d	0.056708682
150	0xbdfec33f	-0.12439584
151	0x3d921c68	0.07134324
152	0x3d625ba8	0.05526319
153	0xbc439317	-0.011936924
154	0x3b4e0d4b	0.0031441029
155	0x3e0f2f14	0.13982803
156	0x3e1b49b0	0.15164828
157	0xbd94ebbf	-0.072715275
158	0x3e1abf38	0.15112007
159	0xbe28e811	-0.16494776
160	0xbe12a8d2	-0.14322212
161	0x3d6b09d6	0.057382427
162	0x3e157193	0.14594106
163	0x3cba80e3	0.022766536
164	0x3e193a2f	0.14963602
165	0x3d7c323c	0.061571345
166	0xbe24e5a0	-0.1610322
167	0x3d6c2da1	0.057660703
168	0xbe09ca42	-0.13456061
169	0xbd3bd44c	-0.04585676
170	0xbe118e95	-0.14214547
171	0xbd89d929	-0.06730873
172	0xbd0cd0c3	-0.03437878
173	0x3e0ece95	0.13945992
174	0x3d6ed056	0.058304153
175	0x3e11bad5	0.14231427
176	0xbe162875	-0.1466387
177	0x3c41f7a4	0.011838827
178	0x3db7d7eb	0.0897673
179	0xbe27a43b	-0.16371243
180	0x3ceeb6ac	0.02913984
181	0x3d821e7d	0.063534714
182	0xbdf23bf9	-0.11827845
183	0x3d2cd44c	0.04219465
184	0xbd5e4ddc	-0.05427347
185	0x3c9cdcea	0.019148309
186	0xbb5ea877	-0.0033974925
187	0x3b87fffe	0.0041503897
188	0xbd5a4e43	-0.053297292
189	0x3cf713ac	0.030160747
190	0xbd4ead82	-0.05045844
191	0x3dad5bed	0.08464799
192	0xbd2fc129	-0.04290882
193	0x3be2192f	0.006899975
194	0xbcc747ee	-0.024326291
195	0xbe248ac3	-0.16068558
196	0x3de908ad	0.11378608
197	0xbd3bc4ba	-0.04584191
198	0x3dea9ace	0.11455308
199	0x3dcd1d14	0.10015312
200	0xbdd7f49b	-0.10544702
201	0xbc95c744	-0.018283494
202	0xbe1f8bc0	-0.15580654
203	0x3d862c7c	0.065514535
204	0x3e0ecadf	0.13944577
205	0xbd18232d	-0.03714292
206	0x3d9a4096	0.0753185
207	0xbd0d0a21	-0.034433488
208	0x3e16ab9e	0.14713904
209	0x3de24951	0.1104914
210	0xbd7b497b	-0.061349373
211	0xbe0b8447	-0.13624679
212	0x3b12a9a8	0.0022378955
213	0xbe0c233b	-0.13685314
214	0x3b939343	0.004503639
215	0xbe08d320	-0.13361788
216	0xbd9abf55	-0.07556025
217	0xbe1ae359	-0.15125789
218	0x3e20f76b	0.15719382
219	0x3e219d1f	0.15782593
220	0xbd4e18bf	-0.05031657
221	0xbd8610c7	-0.06546169
222	0x3dc2e5e1	0.09516502
223	0x3db89f62	0.09014775
224	0xbdd1a40c	-0.102363676
225	0x3aab6cf7	0.0013078739
226	0x3cca7149	0.024712222
227	0x3e2216e8	0.1582905
228	0x3b9ed9bf	0.0048477347
229	0xbd43fe2c	-0.04784982
230	0x3d9ba1ad	0.075991966
231	0x3dc90069	0.09814531
232	0x3e06873d	0.13137527
233	0x3e24bbb8	0.16087234
234	0xbdc4c2a6	-0.09607439
235	0x3caa032c	0.020753466
236	0x3e25a116	0.1617473
237	0x3c82be9c	0.01596003
238	0xbddb3dd4	-0.10705152
239	0xbcc9722f	-0.02459058
240	0x3debe968	0.11519128
241	0xbd82fca8	-0.063958466
242	0xbd80adf3	-0.06283178
243	0xbdf450d7	-0.119294815
244	0x3e2add24	0.16685921
245	0x3d0c00f2	0.03418059
246	0x3aa34c53	0.001245866
247	0xbe20c2da	-0.1569933
248	0xbe04c9c3	-0.12967591
249	0xbdfb8974	-0.122820765
250	0x3d465f6c	0.048430845
251	0xbb99ab4d	-0.00468961
252	0xbda1e66b	-0.07905277
253	0xbdb1f923	-0.08690097
254	0xbe284ac0	-0.16434765
255	0xbd762bcd	-0.060100365

cfc_model.rnn_cell.neuromod.2.bias f4 [80]
0	0xbd73641b	-0.05942164
1	0x3cb9ce57	0.022681398
2	0xbda349bc	-0.07973048
3	0x3d444311	0.047915522
4	0xbda10fc6	-0.07864337
5	0xbbb259ba	-0.005442825
6	0x3c49f251	0.012325839
7	0xbd2cca78	-0.042185277
8	0x3d586817	0.052833643
9	0x3ca80ff3	0.020515418
10	0x3bfbe104	0.007686736
11	0xbbb7933f	-0.00560227
12	0x3d0b7e21	0.034055833
13	0xbd80546d	-0.06266103
14	0x3d5339b5	0.051568706
15	0x3dab9c6f	0.08379447
16	0xbce24717	-0.027621789
17	0x3da11e19	0.07867069
18	0xbd67b7ba	-0.0565717
19	0xbda887e1	-0.08229042
20	0xbcf5fbfe	-0.030027386
21	0x3d032069	0.03201333
22	0xb9c1461b	-0.0003686406
23	0x3d17d1df	0.037065383
24	0x3d37e986	0.04490044
25	0xbd93e0f7	-0.07220643
26	0xbc16792d	-0.009184164
27	0xbbe315cf	-0.00693009
28	0xbb289fc6	-0.0025729998
29	0x3d70cc65	0.058788676
30	0xbcb51944	-0.022106774
31	0xbd9e57d0	-0.07731593
32	0xbd8ddad3	-0.06926503
33	0xbd479dd6	-0.04873451
34	0xbd5d8e4a	-0.054090776
35	0x3d967a62	0.073475614
36	0x3b2a8ca4	0.002602377
37	0x3bc686cd	0.00605855
38	0xbd2d1b4c	-0.04226236
39	0x3c2cbd27	0.010543144
40	0x3d8ce941	0.06880427
41	0x3ce329dd	0.027729923
42	0xbd013a88	-0.03154996
43	0x3d8d7394	0.069068104
44	0xbc10c471	-0.008835898
45	0x3dc142fd	0.09436605
46	0x3d2f38fb	0.04277895
47	0x3c595033	0.01326375
48	0xbd883bbe	-0.0665202
49	0x3d96368f	0.07334625
50	0x3d780a3e	0.060556643
51	0x3d772d24	0.060345784
52	0xbda746ba	-0.08167787
53	0x3da1529c	0.078770846
54	0x3d97c394	0.074103504
55	0x3c79b019	0.015239739
56	0x3c98728e	0.018609311
57	0x3d9ec1e3	0.07751825
58	0xbd670ca2	-0.056408532
59	0x3d8c4e6e	0.06850897
60	0xbd066154	-0.032807663
61	0xbd81ebfc	-0.063438386
62	0x3d5827e5	0.05277242
63	0x3d9881ac	0.07446608
64	0x3da2b087	0.07943826
65	0x3c87031e	0.016480979
66	0xbcd72747	-0.026263846
67	0x3d233447	0.039844777
68	0xbd9e7a34	-0.07738152
69	0x3cdec48b	0.027193328
70	0xbcdc240e	-0.026872661
71	0x3c4257f9	0.011861795
72	0xbdaa1cae	-0.083062515
73	0x3d5b04a4	0.053471223
74	0xbdb672d3	-0.0890862
75	0x3d8b5ec2	0.06805183
76	0x3db61f6d	0.08892713
77	0xbd84c099	-0.064820476
78	0x3d998878	0.074967325
79	0xbcf0047c	-0.029299013

cfc_model.rnn_cell.neuromod.4.weight f4 [64, 80]
0	0x3e549663	0.20760493
1	0x3df61018	0.120147884
2	0xbda0bdd1	-0.078487046
3	0x3e5016f0	0.2032125
4	0x3e2c5807	0.16830455
5	0x3e4823e1	0.19544937
6	0xbcafd137	-0.021462066
7	0x3df51310	0.119665265
8	0x3d1f828e	0.038942866
9	0xbe358c4c	-0.177293
10	0xbca8eed5	-0.020621696
11	0x3e1cb95f	0.15305088
12	0xbc4ad8dc	-0.012380805
13	0xbd91f3fe	-0.07126616
14	0x3dfe7fb0	0.12426698
15	0x3dbf1841	0.09330798
16	0xbd0b0187	-0.033937003
17	0x3e42e79f	0.19033669
18	0xbdb66860	-0.08906627
19	0x3908b57a	0.00013037576
20	0x3e1f4791	0.15554644
21	0xbd57445f	-0.052555438
22	0x3e4cdb39	0.20005502
23	0xbdfe3667	-0.1241272
24	0x3ca4cc34	0.020116903
25	0x3e3fa8fa	0.18716803
26	0x3df5a4ae	0.11994301
27	0xbe27f800	-0.16403198
28	0x3e20ac62	0.15690759
29	0xbe25997a	-0.16171828
30	0xbe4124e0	-0.18861723
31	0x3e33ee74	0.17571431
32	0x3d9c863c	0.07642791
33	0x3e44e5a7	0.1922823
34	0x3e07562b	0.13216464
35	0xbe2996b2	-0.16561392
36	0xbe32d759	-0.17464961
37	0x3d48d6bd	0.049032915
38	0xbe2b2f63	-0.16717295
39	0x3e04a480	0.12953377
40	0xbd57e9c5	-0.052713174
41	0x3e4cf796	0.20016322
42	0x3de99dc6	0.11407046
43	0x3e37b343	0.17939477
44	0x3daf955f	0.08573412
45	0x3e2a04a7	0.16603337
46	0xbd7a1fc1	-0.06106544
47	0x3ded4447	0.115852885
48	0x3db04f48	0.08608872
49	0x3d52fc15	0.051509935
50	0x3c92dc4d	0.017927313
51	0xbe3b4e45	-0.18291576
52	0xbc437c42	-0.011931481
53	0x3e0b189c	0.13583606
54	0xbe3c1d6c	-0.18370599
55	0xbe0ee76a	-0.13955465
56	0xbce1998e	-0.02753904
57	0xbd955da3	-0.072932504
58	0xbc157f88	-0.009124644
59	0x3e2fef25	0.1718107
60	0xbdd04f76	-0.10171406
61	0x3d055db1	0.032560054
62	0xbdff6509	-0.12470443
63	0xbd343a92	-0.04400117
64	0xbe1b000a	-0.15136734
65	0x3deded5c	0.11617538
66	0xbc7979e2	-0.015226813
67	0x3d69738b	0.056994956
68	0x3e290786	0.16506776
69	0xbe0d4f72	-0.13799837
70	0xbc59f2d2	-0.013302522
71	0x3da44f6c	0.08022961
72	0x3debe37b	0.11517998
73	0x3cff8fd7	0.031196518
74	0xbddddd57	-0.10833233
75	0xbe1dfdd7	-0.15428863
76	0x3e0d0e2b	0.13774936
77	0x3ccce977	0.025013668
78	0x3e0672da	0.1312975
79	0x3cc3e1b6	0.023911338
80	0xbd23891a	-0.039925672
81	0x3d912af1	0.070882685
82	0x3b2335d8	0.002490392
83	0x3dc5309c	0.09628412
84	0x3e3791b1	0.1792667
85	0x3d89d596	0.067301914
86	0xbde04772	-0.10951127
87	0xbd5d09f9	-0.05396459
88	0xbdb52016	-0.088440105
89	0x3dc48010	0.095947385
90	0xbd8bfe34	-0.06835595
91	0x3d043c72	0.032284208
92	0xbd21924e	-0.039446168
93	0x3e0287f9	0.12747182
94	0x3c4dc528	0.012559213
95	0x3e3751df	0.17902325
96	0xbe56bb0f	-0.20969795
97	0x3dc412a7	0.0957387
98	0x3d8a8212	0.0676309
99	0x3de7165c	0.112835616
100	0xbe49c174	-0.19702703
101	0x3e307f5c	0.17236084
102	0x3e463156	0.19354758
103	0xbd03a406	-0.032138847
104	0x3d4bd96f	0.049767908
105	0xbe43ea67	-0.19132386
106	0x3d47f19e	0.04881441
107	0xbe49cb28	-0.19706404
108	0xbd96aca5	-0.07357148
109	0xbd891354	-0.0669314
110	0xbdbec288	-0.09314448
111	0x3c2f255d	0.01069006
112	0x3c6ca959	0.0144446725
113	0x3c8a00d1	0.016846092
114	0xbd0b4abd	-0.034006823
115	0x3df965d8	0.12177628
116	0x3e43c9a6	0.19119892
117	0xbdfd76ac	-0.123761505
118	0x3df904a1	0.12159086
119	0xbdeff97e	-0.11717509
120	0x3e422884	0.18960768
121	0x3dff5d99	0.12469024
122	0xbd15fe7a	-0.03661964
123	0xbe3bf9c9	-0.18357004
124	0x3e569347	0.2095462
125	0x3e3f9b7f	0.18711661
126	0x3cbe9576	0.023264628
127	0x3dd9ff6c	0.10644421
128	0x3dc284fa	0.094980195
129	0x3e3aa8cd	0.18228455
130	0x3d97e847	0.0741735
131	0xbe199ccf	-0.15001224
132	0xbe2cfc26	-0.16893062
133	0xbe0a8a95	-0.13529427
134	0xbe0c7dc7	-0.13719855
135	0xbe14d3e0	-0.14533949
136	0xbc88d4be	-0.016703006
137	0x3e29f5c5	0.1659766
138	0x3d464b59	0.0484117
139	0xbe34c40d	-0.17652912
140	0xbd4843d3	-0.048892807
141	0x3e14fc2c	0.14549321
142	0x3c28e5a8	0.010308661
143	0xbe1d4198	-0.15357053
144	0xbe19e907	-0.15030299
145	0x3c2c782d	0.010526699
146	0x3cb94265	0.022614667
147	0xbe00137a	-0.1250743
148	0x3c4fe2f8	0.012688391
149	0x3e2e688c	0.17032069
150	0xbe01027d	-0.12598605
151	0x3c9d79d2	0.019223128
152	0xbe301bd5	-0.17198117
153	0xbe312069	-0.1729752
154	0x3dc372df	0.09543394
155	0x3dfb2fee	0.12265001
156	0xbdc884e0	-0.09790969
157	0x3d8934c5	0.06699518
158	0xbdeb87a2	-0.11500479
159	0xbdf3c169	-0.119021244
160	0x3dbbe495	0.09174458
161	0x3da5de86	0.080990836
162	0x3d935617	0.07194155
163	0x3d1873e3	0.037219893
164	0xbd4258df	-0.047448035
165	0x3db6b2de	0.08920835
166	0xbe0e3858	-0.13888681
167	0xbd5a5d63	-0.053311717
168	0x3e3d2da2	0.18474439
169	0xbd62c227	-0.05536094
170	0x3d76a94c	0.060220048
171	0xbbc87d94	-0.0061184857
172	0x3e118833	0.14212112
173	0xbcd2fbb2	-0.025754783
174	0x3d2efd78	0.042722195
175	0xbc9b25b6	-0.01893888
176	0xbd07eb7e	-0.033183567
177	0xbdf1ff6e	-0.118162975
178	0x3c8634ba	0.016382564
179	0xbdb65f0d	-0.08904848
180	0xbdd3bbcc	-0.10338554
181	0x3d7c4a58	0.061594337
182	0xbe09e35a	-0.13465634
183	0xbdedccac	-0.11611304
184	0xbcf1fe78	-0.029540285
185	0x3d35ec4f	0.044414815
186	0xbddb26f6	-0.107007906
187	0x3cf06c0c	0.029348396
188	0x3d0dd4e3	0.034626853
189	0x3e2aa89e	0.16665885
190	0x3d4d9fa0	0.05020106
191	0xbe30c1a5	-0.1726137
192	0xbda984fb	-0.08277317
193	0xbd821b62	-0.06352879
194	0x3e244ce5	0.16044958
195	0xbd995432	-0.07486762
196	0xbd6a8206	-0.057252906
197	0x3e186959	0.14883937
198	0xbe4a7fd0	-0.19775319
199	0x3e3e5f4b	0.18591039
200	0xbe50bda5	-0.20384844
201	0x3d4634a6	0.048390053
202	0xbd218404	-0.03943254
203	0xbd66abf2	-0.056316324
204	0xbe37f693	-0.17965154
205	0x3dc9ee67	0.09859925
206	0xbe3fc382	-0.18726924
207	0x3d8f7381	0.070044525
208	0x3e425647	0.18978225
209	0x3e34e811	0.17666651
210	0xbdeb5707	-0.114912085
211	0x3d7bbe2d	0.061460663
212	0x3e1c58e5	0.15268286
213	0xbd9f1857	-0.07768314
214	0xbd92c690	-0.07166779
215	0xbdd9bddf	-0.10631918
216	0x3de7099f	0.11281132
217	0xbd0d8343	-0.03454901
218	0x3e0ca289	0.13733877
219	0x3dcd123c	0.100132436
220	0xbdc1de9b	-0.09466287
221	0x3e0c8158	0.13721216
222	0x39466f87	0.00018924299
223	0xbe05fe78	-0.13085353
224	0x3de0804f	0.10961973
225	0xba24f98c	-0.0006293289
226	0xbe13f237	-0.14447866
227	0x3e3ef192	0.1864684
228	0xbe4b0874	-0.19827443
229	0x3d55850f	0.052128848
230	0xbe02af91	-0.12762286
231	0xbdfe3836	-0.12413065
232	0xbd4f4b2f	-0.05060881
233	0xbdfa4339	-0.12219853
234	0xbe2496d3	-0.1607316
235	0x3a5d64ab	0.00084454817
236	0x3e1bb5e9	0.15206112
237	0xbe10e9b8	-0.14151657
238	0xbe1e52c2	-0.15461257
239	0xbddaf280	-0.106907845
240	0xbdc2df61	-0.095152624
241	0x3db7c1f6	0.08972542
242	0xbe435375	-0.19074805
243	0xbe22ceba	-0.15899172
244	0xbd892dbe	-0.06698178
245	0x3d4beb38	0.04978487
246	0xbe10bce3	-0.14134555
247	0x3d4a8a38	0.049448222
248	0xbaaa8f02	-0.001301259
249	0xbe40e6b2	-0.18838003
250	0xbe19f578	-0.15035045
251	0x3d4bcb37	0.049754348
252	0x3c8b0498	0.016969964
253	0x3e379776	0.17928872
254	0xbd03947f	-0.03212404
255	0x3d52817e	0.051393025
