LTC_A2C/adaptation_module/training_results/adaptation_module_StandardRNN_result_689_2024327_CfC_result_296_202437_numneuronsadaptmod_32_lradaptmod_1e-05_wdadaptmod_0.01/best_adaptation_module_loss_CfC_A2C_8.pt (torch, 14324 bytes, 6 tensors)

rnn.weight_ih_l0 f4 [32, 5]
0.11545803 -0.13316104 0.14220947 0.11122594 0.1503539 -0.13376279 -0.11685453 0.08223985
-0.16312845 0.17292485 0.036015447 0.024545519 -0.14930063 0.054478686 0.07407815 0.02627955
0.16818829 0.05122661 -0.15487806 0.14642654 0.061006255 -0.08284184 -0.16052349 0.09887158
0.16613497 -0.14304905 0.011127916 0.061550636 -0.08161988 -0.040703844 -0.116317615 -0.08185058
-0.15929432 -0.0058211116 0.1029509 0.08418095 0.16423632 -0.15337856 -0.019926904 0.17340276
0.02955888 -0.048179716 -0.1573357 0.08040492 0.13229476 0.14013046 0.14631075 0.03280938
0.12414493 -0.042683996 0.14165393 -0.016972426 -0.034602538 -0.086030036 0.092574224 0.07104371
0.11055901 -0.111099996 -0.09214035 0.16675086 -0.09647873 -0.099105276 -0.045457616 -0.055280942
-0.12198739 0.14128445 0.018271819 0.07875486 0.12924087 -0.11274779 0.133342 -0.08673324
-0.026275383 0.13192518 0.164966 0.15348735 0.09986822 0.16242921 -0.061849095 -0.013188845
-0.059200592 -0.011569371 -0.019759983 0.09259992 0.11965322 -0.12558322 -0.09571046 -0.05249035
0.021796603 -0.066918045 -0.10803736 -0.030357461 -0.084391855 0.0030867432 -0.12907404 -0.04262325
-0.06341893 -0.02258739 0.13701904 0.11462176 -0.055733975 -0.16048545 -0.124596834 -0.13374282
-0.018615626 -0.07711972 -0.12198743 0.037259888 0.011888412 -0.02831697 -0.06227646 0.14875789
-0.16842824 -0.0023613926 0.08275204 0.12296825 -0.1518998 -0.025820866 0.1455628 0.026914
0.055015493 -0.07636304 0.12081089 -0.06439819 -0.097001165 0.15874298 0.0452572 -0.0019424023
-0.12132912 -0.03734596 -0.13399006 -0.11719854 -0.02349761 0.034966383 -0.14565822 0.17125525
0.12831634 -0.16264702 0.10862532 -0.10791133 -0.14252369 0.16515218 -0.069241196 -0.05676759
0.0202014 0.100110516 0.013924319 -0.04565535 0.016660532 -0.0935202 -0.12690231 0.046505194
0.01673368 0.08598495 -0.067421705 -0.17303094 -0.04491459 -0.16916938 -0.012089997 0.08800124
00000000: 4275 ec3d 5e5b 08be 5c9f 113e 6dca e33d
00000010: 5ff6 193e 1df9 08be 6e51 efbd 5e6d a83d
00000020: 250b 27be 3613 313e ef84 133d af13 c93c
00000030: 44e2 18be 0b25 5f3d 49b6 973d 3648 d73c
00000040: 8d39 2c3e fed2 513d 5b98 1ebe d7f0 153e
00000050: b2e1 793d fca8 a9bd 4560 24be 2f7d ca3d
00000060: 491f 2a3e 737b 12be dd51 363c 851c 7c3d
00000070: 5328 a7bd 13b9 26bd ee37 eebd 47a1 a7bd
00000080: 0d1e 23be 06bf bebb ecd7 d23d 1067 ac3d
00000090: 912d 283e 450f 1dbe bf3d a3bc 7e90 313e
000000a0: 7725 f23c 1858 45bd 9c1c 21be 56ab a43d
000000b0: 4778 073e 5c7e 0f3e 7cd2 153e 2163 063d
000000c0: b23f fe3d 6ad5 2ebd ba0d 113e c209 8bbc
000000d0: 64bb 0dbd 8430 b0bd 8e97 bd3d 5d7f 913d
000000e0: c36c e23d 6588 e3bd 14b4 bcbd bdc0 2a3e
000000f0: a496 c5bd b5f7 cabd c431 3abd 456e 62bd
00000100: 86d4 f9bd dfac 103e c8ae 953c 3a4a a13d
00000110: b857 043e 50e8 e6bd ce8a 083e 32a1 b1bd
00000120: 793f d7bc 6517 073e d9ec 283e ca2b 1d3e
00000130: b687 cc3d d853 263e 7a55 7dbd 0616 58bc
00000140: 527c 72bd 768d 3dbc b0df a1bc 07a5 bd3d
00000150: bf0c f53d e398 00be d803 c4bd 1f00 57bd
00000160: ca8e b23c 540c 89bd b142 ddbd 36b0 f8bc
00000170: a3d5 acbd f54a 4a3b fc2b 04be b895 2ebd
00000180: c9e1 81bd 3109 b9bc b84e 0c3e d0be ea3d
00000190: 4f49 64bd 4c56 24be a02c ffbd e1f3 08be
000001a0: cc7f 98bc f2f0 9dbd 8cd4 f9bd d39d 183d
000001b0: 9dc7 423c fef8 e7bc 9a15 7fbd fd53 183e
000001c0: 7478 2cbe 98c1 1abb e779 a93d c7d6 fb3d
000001d0: 9f8b 1bbe 4886 d3bc 6a0e 153e c07a dc3c
000001e0: ed57 613d 3a64 9cbd b36b f73d 33e3 83bd
000001f0: 8ca8 c6bd 858d 223e 9d5f 393d 3598 feba
00000200: 677b f8bd 14f8 18bd b134 09be ca05 f0bd
00000210: 0f7e c0bc e938 0f3d 6e27 15be 895d 2f3e
00000220: 5c65 033e f18c 26be f476 de3d 9e00 ddbd
00000230: bbf1 11be a71d 293e 54ce 8dbd 2285 68bd
00000240: 687d a53c be06 cd3d d422 643c 1b01 3bbd
00000250: ab7b 883c 8587 bfbd aef2 01be 3b7c 3e3d
00000260: 1215 893c e118 b03d 6414 8abd 062f 31be
00000270: 5cf8 37bd bd3a 2dbe 1f15 46bc fe39 b43d

rnn.weight_hh_l0 f4 [32, 32]
0.014582547 0.10273329 0.031131253 0.0739848 0.16086504 0.024426028 0.027402997 -0.06979337
0.108416006 0.14658819 -0.12094391 0.17340358 0.055104114 -0.026477866 -0.15994942 -0.17847088
-0.13718985 -0.14973694 -0.11970566 -0.04967294 -0.14561634 -0.14595926 -0.01784492 -0.15048224
-0.014198419 0.028675362 0.035300054 0.10909066 0.09825688 -0.101031326 -0.057700112 0.0023685605
0.14705937 0.08400397 -0.09715029 -0.019006532 0.030250037 0.06303547 -0.06370951 -0.15327242
-0.1060168 0.007713646 -0.12219404 0.047460526 0.10932933 -0.00022987617 0.09097274 0.124587506
0.111085385 -0.16650356 0.16173781 0.044999138 -0.17334196 0.04221174 -0.123372026 0.16157521
0.1383507 -0.11481434 -0.1322291 0.014164745 -0.048394058 0.07730167 -0.1627241 0.12902984
0.017727196 0.0020409313 -0.110822 0.012929516 0.11821374 0.17048015 -0.11256212 -0.072459586
0.035941556 0.097546525 -0.14746273 -0.067916155 -0.13861637 0.16165166 -0.06231098 0.10463218
0.09451516 0.01829592 0.03644009 0.113088265 -0.020356497 0.09113386 -0.025491552 0.0046578697
0.058536105 -0.15763637 -0.08335771 -0.13918757 -0.053724855 -0.009140903 0.06865893 -0.1396104
-0.14595659 0.1207868 -0.018740833 -0.08721746 -0.043104745 0.011689375 -0.1273267 -0.16834287
-0.114063166 0.13838457 0.049077474 -0.17518108 -0.09372906 0.1350686 0.16743219 0.036167085
0.09637624 0.031386334 0.10510151 -0.13716662 0.028392233 -0.15501206 -0.17445453 0.14688928
0.014829568 0.0721597 -0.025206113 -0.14401466 0.13221171 -0.15889207 -0.1142484 0.055637367
-0.0638401 0.045987066 -0.16107257 0.068177655 -0.11857003 0.10003158 -0.017543087 -0.1452509
-0.040353272 -0.027812533 0.108032346 -0.080257066 0.013875686 -0.07751527 0.004261938 0.15695983
0.074406 0.03981536 -0.15936968 0.10158792 0.16891925 0.04310292 0.14519522 0.079437755
0.1640964 -0.021294568 -0.06418146 0.09379244 -0.049238656 -0.014766771 -0.024011942 -0.062854804
0.034631073 -0.036505044 -0.11275722 0.16411228 -0.169384 -0.09160898 0.16022086 -0.10832667
-0.15008965 0.104045145 0.17005835 0.124683335 -0.12424458 -0.1702565 -0.16041836 -0.0037971206
0.040601436 -0.0016285173 0.0498848 -0.08081316 0.0016665524 0.15674776 -0.059630983 -0.13037033
0.15204194 0.11620375 0.16184255 0.14724322 7.695892e-06 0.096995346 0.024018995 0.058251254
0.0107238665 0.096388645 -0.05011092 -0.01522628 0.095469125 0.068419695 0.13961993 -0.045535754
-0.03453542 -0.11978151 -0.07863975 -0.16692783 0.15334077 -0.12575258 -0.06152643 0.05677989
0.1293241 0.11061096 0.15858832 -0.010232237 -0.07228236 -0.17541322 0.03142327 0.06220127
-0.011028056 0.1028899 -0.022474708 0.015494522 -0.15800023 0.041878253 0.050557777 -0.05925467
0.05331689 -0.16583154 0.13285768 -0.16404007 0.1129689 -0.054279223 -0.17150278 -0.02277954
0.096584626 -0.00834888 -0.11723776 -0.11710218 0.13299589 -0.16148351 -0.088600524 -0.16038555
-0.16833854 0.16252185 -0.07641655 0.0016091829 -0.03209045 -0.14327109 -0.014462785 -0.14505816
-0.10140813 0.12829489 -0.113778226 0.06604495 -0.050164957 0.059210278 -0.03230345 0.10615592
00000000: a3eb 6e3c d565 d23d f806 ff3c 5885 973d
00000010: ceb9 243e 1819 c83c 407c e03c d4ef 8ebd
00000020: 3609 de3d 371b 163e 71b1 f7bd b590 313e
00000030: dab4 613d 1ce8 d8bc c8c9 23be 12c1 36be
00000040: 7f7b 0cbe a454 19be 3e28 f5bd da75 4bbd
00000050: 731c 15be 5876 15be 822f 92bc 0418 1abe
00000060: 7ca0 68bc 98e8 ea3c ca96 103d ed6a df3d
00000070: e73a c93d 83e9 cebd f456 6cbd da39 1b3b
00000080: bb96 163e 460a ac3d bbf6 c6bd 96b3 9bbc
00000090: edce f73c be18 813d 227a 82bd 72f3 1cbe
000000a0: 561f d9bd c1c2 fc3b de40 fabd f865 423d
000000b0: 0ee8 df3d ea0a 71b9 ea4f ba3d bc27 ff3d
000000c0: bc80 e33d e97f 2abe 999e 253e 0451 383d
000000d0: 8e80 31be 38e6 2c3d 79aa fcbd f973 253e
000000e0: ceab 0d3e c823 ebbd 1167 07be 3f13 683c
000000f0: d938 46bd 5750 9e3d 25a1 26be 6620 043e
00000100: a038 913c 25c1 053b a5f6 e2bd 52d6 533c
00000110: 0c1a f23d 5992 2e3e f886 e6bd b165 94bd
00000120: 7437 133d 79c6 c73d 7800 17be a017 8bbd
00000130: 73f1 0dbe 0388 253e cc39 7fbd 6549 d63d
00000140: 2a91 c13d 53e1 953c 3442 153d d29a e73d
00000150: abc2 a6bc 64a4 ba3d a9d3 d0bc 0ba1 983b
00000160: 8ec3 6f3d 6e6b 21be 72b7 aabd 3087 0ebe
00000170: 980e 5cbd bac3 15bc 0e9d 8c3d 07f6 0ebe
00000180: a575 15be 125f f73d 6086 99bc 119f b2bd
00000190: 9a8e 30bd cb84 3f3c ee61 02be 1362 2cbe
000001a0: f399 e9bd afb4 0d3e 7605 493d ab62 33be
000001b0: 05f5 bfbd 6c4f 0a3e 5873 2b3e f023 143d
000001c0: e860 c53d f58e 003d 763f d73d 6875 0cbe
000001d0: d496 e83c 7bbb 1ebe 35a4 32be 256a 163e
000001e0: b7f7 723c 77c8 933d 0d7d cebc 9478 13be
000001f0: 8262 073e 9ab4 22be 11fb e9bd 02e4 633d
00000200: 99be 82bd ef5c 3c3d 35f0 24be baa0 8b3d
00000210: d8d4 f2bd 5bdd cc3d 85b6 8fbc a7bc 14be
00000220: 7949 25bd 1cd7 e3bc 1040 dd3d d15d a4bd
00000230: d856 633c 53c0 9ebd baa7 8b3b 14ba 203e
00000240: 2c62 983d 6e15 233d ce31 23be 540d d03d
00000250: 2bf9 2c3e b08c 303d 0eae 143e 43b0 a23d
00000260: e308 283e f271 aebc 9271 83bd 4016 c03d
00000270: 79ae 49bd 54f0 71bc b1b4 c4bc 05ba 80bd
00000280: 50d9 0d3d 5086 15bd 42ed e6bd 0d0d 283e
00000290: 0073 2dbe 7d9d bbbd f010 243e 60da ddbd
000002a0: 1ab1 19be 9f15 d53d c723 2e3e fa59 ff3d
000002b0: f173 febd b857 2ebe b644 24be 1dd9 78bb
000002c0: b14d 263d f973 d5ba 0154 4c3d 5f81 a5bd
000002d0: 3870 da3a 7c82 203e 9e3f 74bd cd7f 05be
000002e0: e2b0 1b3e 3bfc ed3d 0eba 253e edc6 163e
000002f0: 9b1d 0137 7fa5 c63d 7cc3 c43c de98 6e3d
00000300: 28b3 2f3c 6967 c53d 1c41 4dbd a677 79bc
00000310: 5185 c33d a01f 8c3d 87f8 0e3e b383 3abd
00000320: 0375 0dbd 0250 f5bd e10d a1bd 21ef 2abe
00000330: 5d05 1d3e 49c5 00be 2303 7cbd 0892 683d
00000340: 896d 043e 0088 e23d fa64 223e 1da5 27bc
00000350: c608 94bd 869f 33be b0b5 003d c2c6 7e3d
00000360: 05af 34bc f1b7 d23d e11c b8bc bcdc 7d3c
00000370: d0ca 21be 8888 2b3d ac15 4f3d 06b5 72bd
00000380: d062 5a3d becf 29be d80b 083e 1ffa 27be
00000390: 3d5c e73d e453 5ebd 6d9e 2fbe 289c babc
000003a0: 29ce c53d bec9 08bc 5a1a f0bd 45d3 efbd
000003b0: 1330 083e ef5b 25be 3174 b5bd 1c3c 24be
000003c0: f060 2cbe 216c 263e 4880 9cbd 38eb d23a
000003d0: 4771 03bd a8b5 12be 51f5 6cbc 208a 14be
000003e0: 11af cfbd bc5f 033e 8f04 e9bd 9342 873d
000003f0: c579 4dbd 7a86 723d 9f50 04bd 4668 d93d

rnn.bias_ih_l0 f4 [32]
-0.039740905 0.08316375 -0.11804656 -0.07556194 -0.16914786 -0.063690506 -0.15801474 0.032231253
-0.060753778 -0.11443896 0.061891682 0.049669962 0.08624327 -0.12832993 0.03184724 -0.104506835
0.05990704 -0.14151996 -0.10428375 0.040506653 0.069691405 0.13184386 0.14381374 0.15152043
-0.0871994 0.13858604 -0.023127811 0.03676295 0.16031085 -0.16940565 0.1169726 -0.16013011
00000000: 5cc7 22bd c251 aa3d 65c2 f1bd 38c0 9abd
00000010: 1935 2dbe 2b70 82bd 9ece 21be eb04 043d
00000020: f4d8 78bd f95e eabd 2282 7d3d bb72 4b3d
00000030: 50a0 b03d ec68 03be 4072 023d ae07 d6bd
00000040: 1661 753d 9cea 10be b892 d5bd 4eea 253d
00000050: 5eba 8e3d 1402 073e e943 133e 2c28 1b3e
00000060: 9995 b2bd 80e9 0d3e 8976 bdbc bf94 163d
00000070: 8728 243e ad78 2dbe 558f ef3d 26f9 23be

rnn.bias_hh_l0 f4 [32]
-0.13656202 -0.025559213 -0.13736834 -0.12234907 0.07505455 -0.12316852 0.16549979 0.046092488
0.06485438 0.14449853 0.1349261 0.0494662 -0.06535333 -0.13381441 0.09449954 -0.016766336
-0.05614165 -0.08110181 -0.16511054 0.06969085 -0.14507681 -0.030697448 0.04217901 -0.08606515
0.16096206 0.033643212 0.04695021 -0.08461049 0.04923027 -0.03780818 -0.050599545 0.050605085
00000000: ead6 0bbe 8e61 d1bc 49aa 0cbe 2692 fabd
00000010: 33b6 993d c73f fcbd c778 293e 7acb 3c3d
00000020: 60d2 843d 6cf7 133e 112a 0a3e 129d 4a3d
00000030: f7d7 85bd a506 09be fa88 c13d 8e59 89bc
00000040: c9f4 65bd b518 a6bd bd12 29be 14ba 8e3d
00000050: 048f 14be 3779 fbbc e6c3 2c3d ed42 b0bd
00000060: 3dd3 243e 77cd 093d dd4e 403d 4448 adbd
00000070: aea5 493d c0dc 1abd 7841 4fbd 4747 4f3d

linear.weight f4 [48, 32]
-0.0051117465 -0.069538146 -0.103370644 -0.13233909 0.041629724 0.12857571 -0.14422432 -0.06451287
-0.108912446 0.025596034 0.052696247 -0.010925044 -0.11685888 0.14224975 -0.122228384 0.15148363
-0.09465452 0.04891811 -0.012199913 0.12358211 -0.045638494 -0.13210838 -0.026988622 0.09748603
-0.15792817 -0.13614385 0.13198523 0.102911785 0.07705539 0.06909641 -0.04936019 0.12512219
-0.10073981 0.089742735 -0.046092372 -0.026378375 0.0858786 -0.17343615 0.09603999 0.043301858
0.16353567 0.049961556 -0.011374845 0.17487781 -0.12356063 0.04420115 -0.09945525 0.13914452
0.15206361 -0.095899776 -0.11773543 0.13608156 -0.11945592 0.13985223 -0.049287997 0.1461254
-0.15959403 -0.0747563 -0.09041283 -0.13421506 -0.163841 0.048756037 -0.12500237 0.0073079164
-0.061278068 0.07207516 -0.09511093 -0.09206388 -0.03371262 0.075533524 -0.028716847 0.08509194
-0.07028937 -0.13081053 -0.02548275 -0.07190344 0.00777221 0.0154010095 0.089035735 -0.02378161
0.13636981 -0.02734156 0.1013641 -0.16240619 -0.12099644 -0.01157773 -0.074986085 -0.08871599
0.08543322 0.16520256 -0.010536649 -0.1252164 -0.106745504 -0.0878555 0.0002221948 0.0155337285
-0.025460688 0.07784073 -0.007937925 -0.055491902 -0.14311367 -0.12357785 -0.0050834757 0.06292478
0.02594706 0.084767595 0.07688567 -0.13160567 0.12855409 -0.03345448 0.08680198 0.09652892
0.100739405 -0.038392298 0.13128208 -0.021654932 0.05629076 0.09268754 0.17112403 -0.09065847
-0.030411588 -0.008699716 -0.04244401 0.022353573 -0.14875627 0.035143994 -0.12585384 -0.07941563
0.10656789 0.051399514 0.02003381 -0.15008332 0.105133586 0.016812894 0.012156908 0.11929736
0.010376686 0.066417724 -0.13020295 0.02360979 -0.17351426 0.14367525 -0.1700717 -0.1500219
-0.07596983 -0.016402353 0.0016999692 -0.046353098 0.0851286 -0.009840165 -0.14336944 0.04967402
0.13223518 0.055788353 0.044933673 0.06282925 0.072370015 0.08054254 0.17027344 -0.0222528
-0.009910033 -0.15235761 -0.038581472 0.14537434 0.05957284 -0.09309895 0.052737292 0.009641706
-0.041110136 -0.1353605 0.09183932 0.07646692 -0.12891364 0.13304922 -0.15131947 0.11222643
-0.11202615 -0.1523693 0.13672605 -0.10928492 0.041392606 0.042309187 -0.023389552 0.047965307
0.147294 -0.118202366 0.088026606 -0.10929612 -0.07310215 -0.008395033 0.14868096 0.051910095
0.055677857 -0.07045699 -0.062185716 -0.1462063 -0.006450373 0.1384825 0.07488987 0.051399257
-0.04376836 -0.01356506 -0.016483527 -0.051575687 0.019242784 -0.11634556 0.017010681 -0.053515527
0.11102712 0.07240659 0.058524244 -0.018583583 -0.065672636 0.07931981 -0.1582376 0.0017837323
-0.0077928854 -0.10304952 -0.1670139 -0.11597023 -0.15964134 -0.08917083 0.00057824317 0.047588296
0.12182072 0.05214839 0.0035873698 -0.08523237 -0.010075099 0.11839749 0.1559249 0.097214535
0.0075057056 0.005234156 -0.103883184 0.002714681 0.01496593 -0.06907981 -0.006371793 -0.15521818
-0.018442765 0.018939726 0.059991412 0.16201498 -0.093236856 -0.10359789 0.17008574 0.1653965
-0.069786675 -0.022278503 -0.1501049 -0.14225748 0.17486778 0.09468427 0.13603005 0.0022207084
00000000: 7080 a7bb 046a 8ebd fdb3 d3bd e683 07be
00000010: ee83 2a3d 5aa9 033e 8aaf 13be 531f 84bd
00000020: 7d0d dfbd c6ae d13c 05d8 573d f5fe 32bc
00000030: b553 efbd eba9 113e e052 fabd 861e 1b3e
00000040: 3bda c1bd 5b5e 483d 25e2 47bc 9e18 fd3d
00000050: 6eef 3abd 6b47 07be 3e17 ddbc c1a6 c73d
00000060: ecb7 21be 4b69 0bbe 2327 073e 6ac3 d23d
00000070: 37cf 9d3d 6b82 8d3d e92d 4abd 0820 003e
00000080: ac50 cebd 0acb b73d 5bcb 3cbd 7617 d8bc
00000090: 1fe1 af3d 3f99 31be 9db0 c43d 4a5d 313d
000000a0: e575 273e 7da4 4c3d 8f5d 3abc 2b13 333e
000000b0: 5b0d fdbd 440c 353d 32af cbbd e77b 0e3e
000000c0: 90b6 1b3e 1a67 c4bd 461f f1bd f758 0b3e
000000d0: 4ea5 f4bd 6c35 0f3e 36e2 49bd e6a1 153e
000000e0: 9e6c 23be d519 99bd 5d2a b9bd ac6f 09be
000000f0: efc5 27be 69b4 473d 9f00 00be 3f77 ef3b
00000100: b6fe 7abd 249c 933d 85c9 c2bd fd8b bcbd
00000110: 3f16 0abd 52b1 9a3d 983f ebbc af44 ae3d
00000120: e0f3 8fbd 32f3 05be 33c1 d0bc 1c42 93bd
00000130: 06ae fe3b 8454 7c3c 5e58 b63d a7d1 c2bc
00000140: 87a4 0b3e 68fb dfbc fb97 cf3d cf4d 26be
00000150: fbcc f7bd 85b0 3dbc 4e92 99bd bbb0 b5bd
00000160: 9df7 ae3d dc2a 293e e9a1 2cbc ba38 00be
00000170: 639d dabd 96ed b3bd f6fc 6839 2e81 7e3c
00000180: ef92 d0bc f66a 9f3d 120e 02bc 7a4b 63bd
00000190: 648c 12be 6216 fdbd 4993 a6bb b5de 803d
000001a0: ee8e d43c a29a ad3d 3c76 9d3d a3c3 06be
000001b0: afa3 033e 9107 09bd 3dc5 b13d f4b0 c53d
000001c0: 7650 ce3d 3e41 1dbd cf6e 063e af65 b1bc
000001d0: 2491 663d f7d2 bd3d 233b 2f3e 26ab b9bd
000001e0: b921 f9bc 4189 0ebc c5d9 2dbd d71e b73c
000001f0: 9053 18be 26f3 0f3d d4df 00be a9a4 a2bd
00000200: 4440 da3d 4c88 523d f21d a43c 71af 19be
00000210: 4750 d73d 32bb 893c c52d 473c 2d52 f43d
00000220: fa02 2a3c 0406 883d ec53 05be 5169 c13c
00000230: b9ad 31be 9b1f 133e 4727 2ebe 579f 19be
00000240: 1296 9bbd 3a5e 86bc 80d1 de3a bfdc 3dbd
00000250: e757 ae3d a538 21bc 70cf 12be fc76 4b3d
00000260: a968 073e 5482 643d 5f0c 383d 9fac 803d
00000270: bb36 943d 7df3 a43d 295c 2e3e 814b b6bc
00000280: b15d 22bc a203 1cbe 9b07 1ebd 03dd 143e
00000290: a602 743d aaaa bebd 0f03 583d 3ff8 1d3c
000002a0: 1a63 28bd f19b 0abe 4116 bc3d b09a 9c3d
000002b0: f001 04be 0e3e 083e 7ef3 1abe f8d6 e53d
000002c0: f76d e5bd b306 1cbe ea01 0c3e c6d0 dfbd
000002d0: 4b8b 293d 664c 2d3d 729b bfbc 4577 443d
000002e0: 3dd4 163e 1514 f2bd 4b47 b43d a5d6 dfbd
000002f0: 94b6 95bd 528b 09bc d23f 183e ae9f 543d
00000300: 770e 643d c14b 90bd 73b6 7ebd 1bb7 15be
00000310: a75d d3bb 5bce 0d3e dc5f 993d 0788 523d
00000320: 7446 33bd fc3f 5ebc 7608 87bc 0741 53bd
00000330: 0ba3 9d3c 9546 eebd fc59 8b3c 1933 5bbd
00000340: 3062 e33d e849 943d 1eb7 6f3d 993c 98bc
00000350: 607f 86bd 6d72 a23d 0a09 22be 20cc e93a
00000360: 765b ffbb a00b d3bd b105 2bbe cd81 edbd
00000370: 0579 23be 329f b6bd 3e95 173a f2eb 423d
00000380: 247d f93d 8d99 553d 141a 6b3b 4f8e aebd
00000390: 0712 25bc 627a f23d c7aa 1f3e 6a18 c73d
000003a0: 6cf2 f53b 4883 ab3b b5c0 d4bd cae8 313b
000003b0: a933 753c b779 8dbd 79ca d0bb 84f1 1ebe
000003c0: 4815 97bc 7c27 9b3c 8eb9 753d 41e7 253e
000003d0: f7f2 bebd 212b d4bd f52a 2e3e b35d 293e
000003e0: 51ec 8ebd 6881 b6bc 19b5 19be f2ab 11be
000003f0: 8a10 333e d4e9 c13d 764b 0b3e 4e89 113b

linear.bias f4 [48]
0.049296964 0.011002867 -0.050258506 0.06912682 0.04398934 0.10278978 -0.058031067 -0.16946675
-0.11314384 -0.17228833 0.10900826 -0.12040212 0.013750052 -0.06467715 0.13162784 0.15780318
-0.0366323 0.16493317 0.10069561 -0.05111118 -0.017804563 -0.01163806 -0.08860566 0.08732679
0.1710274 -0.060286522 0.032370687 0.14988627 0.13766693 -0.17206906 0.12214651 0.013840068
-0.01918865 0.019928588 -0.14250334 -0.09413508 0.029788572 0.14383863 -0.03911105 0.111135595
0.0009286341 -0.16582201 -0.11830938 -0.14867218 0.021423226 0.0102181 -0.015280089 -0.13978174
00000000: 9deb 493d 5e45 343c dddb 4dbd 5d92 8d3d
00000010: 2b2e 343d 7383 d23d fcb1 6dbd b188 2dbe
00000020: f5b7 e7bd 5a6c 30be b93f df3d 6395 f6bd
00000030: e647 613c 7475 84bd 73c9 063e 2897 213e
00000040: c00b 16bd 3ee4 283e 8039 ce3d f559 51bd
00000050: e0da 91bc 90ad 3ebc e276 b5bd 63d8 b23d
00000060: cf21 2f3e 00ef 76bd 2097 043d c97b 193e
00000070: 8ff8 0c3e df32 30be f327 fa3d 74c1 623c
00000080: 8431 9dbc 4741 a33c 65ec 11be e5c9 c0bd
00000090: 2a07 f43c 6f4a 133e e932 20bd 0f9b e33d
000000a0: 946f 733a 3fcd 29be 304c f2bd 853d 18be
000000b0: c37f af3c d169 273c 5759 7abc f222 0fbe
