LTC_A2C/training_results/LTC_a2c_result_115_2024215_learningrate_5e-05_selectiomethod_evaluation_gamma_0.99_trainingmethod_standard_numneurons_64_tausysextraction_True/checkpoint_LTC_A2C_1.pt (torch, 96870 bytes, 21 tensors)

ltc_model.rnn_cell.gleak f4 [64]
0	0x3f540d28	0.82832575
1	0x3f6bc967	0.9210419
2	0x3f7ab243	0.97928256
3	0x3f2de2df	0.679243
4	0x3effdb8b	0.49972185
5	0x3f1e5a00	0.6185608
6	0x3e75f77d	0.2402019
7	0x3f013fa3	0.50487727
8	0x3f3d4b88	0.73943377
9	0x3df5150a	0.119669035
10	0x3ded7d2c	0.1159614
11	0x3f5a13aa	0.85186255
12	0x3f144794	0.5792172
13	0x3d90cb18	0.07069987
14	0x3efda9af	0.4954352
15	0x3f209479	0.6272655
16	0x3ec9d497	0.39420006
17	0x3f2e7fba	0.68163645
18	0x3e9d6945	0.30744377
19	0x3f51c702	0.81944287
20	0x3e29b81c	0.16574138
21	0x3e794e0f	0.24346183
22	0x3ebac5c5	0.3647901
23	0x3f5a205f	0.85205644
24	0x3f4e0ed5	0.8049138
25	0x3effa53c	0.4993075
26	0x3ebc2adc	0.3675145
27	0x3f421df5	0.7582696
28	0x3f4519af	0.76992315
29	0x3f0f6d8d	0.56026536
30	0x3e0d3e26	0.13793239
31	0x3ee44e7b	0.44591126
32	0x3e56cb99	0.20976104
33	0x3ea5667a	0.32304746
34	0x3e635568	0.22200549
35	0x3ddad7af	0.1068567
36	0x3f62bd3b	0.8856999
37	0x3f2130a2	0.6296483
38	0x3f63591b	0.8880784
39	0x3f7b8259	0.9824577
40	0x3d553ad3	0.052058052
41	0x3e66d21d	0.2254109
42	0x3f35afcc	0.7097137
43	0x3ed5b8f8	0.41742682
44	0x3f604d29	0.8761774
45	0x3f304077	0.68848366
46	0x3ec3d334	0.38247073
47	0x3e918202	0.284195
48	0x3f133256	0.5749868
49	0x3f2c7a6b	0.67374295
50	0x3ddb7565	0.107157506
51	0x3e853b0b	0.2602161
52	0x3dea90ca	0.114533976
53	0x3e5335b5	0.20625956
54	0x3f0ae43f	0.54254526
55	0x3ec83c63	0.3910857
56	0x3f541280	0.8284073
57	0x3df4296c	0.11921963
58	0x3f6c1af7	0.92228645
59	0x3f331298	0.69950247
60	0x3f7158d0	0.9427614
61	0x3cc910c8	0.024544135
62	0x3f19afcc	0.6003387
63	0x3f0e44cf	0.55573744

ltc_model.rnn_cell.vleak f4 [64]
0	0x3e102607	0.14077006
1	0x3c73f1ca	0.01488919
2	0xbb80fdcb	-0.0039365045
3	0xbd53233f	-0.051547285
4	0xbe300dab	-0.17192714
5	0x3cfe0bdc	0.031011514
6	0xbd72ee49	-0.059309278
7	0x3d48c6bd	0.049017657
8	0xbdd9885f	-0.10621714
9	0x3e006ee4	0.12542301
10	0x3c4bb606	0.0124335345
11	0xbe223bf4	-0.15843183
12	0x3e1bef62	0.15228036
13	0xbc8fc24f	-0.017548708
14	0x3d399618	0.045309156
15	0x3e0e5481	0.13899423
16	0x3dfb7d73	0.12279787
17	0xbe2791e7	-0.16364251
18	0xbe0505da	-0.12990513
19	0xbe2254d6	-0.15852675
20	0x3dda1110	0.10647786
21	0x3df12566	0.11774711
22	0xbc795e80	-0.015220284
23	0x3e0dc2ed	0.1384389
24	0xbe32ba7c	-0.1745395
25	0xbe32ec39	-0.17472924
26	0xbe510e7c	-0.20415682
27	0xbe2789f9	-0.16361226
28	0xbe268798	-0.16262662
29	0xbe16aea5	-0.14715059
30	0xbc4b70f7	-0.01241707
31	0x3e4ba0c8	0.19885552
32	0x3e239da0	0.15978098
33	0x3de3933e	0.111120686
34	0xbcf221cb	-0.02955713
35	0xbd66c3c2	-0.056339033
36	0x3e0580f8	0.13037479
37	0xbdb70fb0	-0.08938539
38	0xbd7309dc	-0.059335575
39	0x3de910e9	0.113801785
40	0xbe4a38d1	-0.19748236
41	0x3db87a86	0.090077445
42	0xbd488bcd	-0.04896145
43	0x3e12fb3b	0.1435365
44	0xbd9397ae	-0.07206665
45	0xbe2b29b0	-0.16715121
46	0x3cd01a06	0.025403034
47	0x3c0f7520	0.008755952
48	0x3e4c83cf	0.19972156
49	0xbdfaf969	-0.122546025
50	0xbe01abfb	-0.12663262
51	0xbe18504d	-0.14874382
52	0x3ccf1926	0.025280546
53	0x3d9019e2	0.07036187
54	0xbde688ec	-0.112565845
55	0x3df7d467	0.121010594
56	0x3cab6741	0.020923259
57	0xbda582ec	-0.08081612
58	0xbd6ad14c	-0.057328507
59	0x3e17978d	0.14803906
60	0x3e039d17	0.12852894
61	0xbe297020	-0.16546679
62	0x3e3aff41	0.18261434
63	0xbe0fec0b	-0.14054887

ltc_model.rnn_cell.cm f4 [64]
0	0x3ee5657c	0.4480399
1	0x3edd660e	0.43241924
2	0x3f134328	0.5752435
3	0x3f0ff11f	0.56227297
4	0x3edd8445	0.43264976
5	0x3ef46bc2	0.47738463
6	0x3eda7a85	0.426716
7	0x3f025b7d	0.5092085
8	0x3efebde0	0.49754238
9	0x3ef1ff28	0.4726498
10	0x3f0fa978	0.56117964
11	0x3efc58f2	0.4928661
12	0x3ee8e682	0.45488364
13	0x3ef71737	0.482599
14	0x3ed85b72	0.42257267
15	0x3ed0c23a	0.40773183
16	0x3f05236b	0.5200717
17	0x3ee5e564	0.44901574
18	0x3ef67075	0.48132673
19	0x3f031734	0.5120728
20	0x3ed8e874	0.42364848
21	0x3f157a66	0.5838989
22	0x3edd0f24	0.43175614
23	0x3f06f71e	0.5272082
24	0x3ee5bc8d	0.44870415
25	0x3ee2d9fe	0.4430694
26	0x3f0f8263	0.5605833
27	0x3f0fae95	0.56125766
28	0x3f12baf1	0.573165
29	0x3f053f95	0.52050143
30	0x3ed784e5	0.42093578
31	0x3f046aef	0.5172567
32	0x3ed61053	0.4180933
33	0x3edbcd7d	0.42930213
34	0x3f16d823	0.5892355
35	0x3ee5eac4	0.44905674
36	0x3ef8409a	0.48486787
37	0x3f178968	0.5919404
38	0x3efc820a	0.49317962
39	0x3f0daf99	0.55346066
40	0x3f14076b	0.5782382
41	0x3f0226e3	0.50840586
42	0x3edb2913	0.42804775
43	0x3f1700fb	0.5898587
44	0x3ed3969b	0.4132584
45	0x3ee29ac5	0.44258705
46	0x3eef2620	0.46708775
47	0x3eec730a	0.46181518
48	0x3f08b0dc	0.53394866
49	0x3edd62a1	0.4323931
50	0x3f06599e	0.52480495
51	0x3edbf403	0.42959604
52	0x3f093fb2	0.53612816
53	0x3ee8e72c	0.4548887
54	0x3f189bea	0.59612906
55	0x3ecf9137	0.40540478
56	0x3f105d99	0.5639282
57	0x3f1247b9	0.5714069
58	0x3f072b91	0.5280085
59	0x3f1143e5	0.56744224
60	0x3eebac94	0.46030104
61	0x3f105832	0.56384575
62	0x3ee11084	0.43957913
63	0x3eeabba8	0.45846295

ltc_model.rnn_cell.sigma f4 [64, 64]
0	0x40a980cc	5.2969723
1	0x40b43eee	5.632682
2	0x406d09bc	3.7037191
3	0x40890ed4	4.28306
4	0x409abd65	4.8356194
5	0x40af1893	5.47175
6	0x40b7db1e	5.7454977
7	0x40f40488	7.625553
8	0x4085fb68	4.1869392
9	0x40b78767	5.7352786
10	0x40d2b682	6.584779
11	0x40a15bcb	5.042455
12	0x40c4b896	6.1475325
13	0x40b83d20	5.7574615
14	0x40d9632a	6.793355
15	0x40c1ce27	6.056415
16	0x40b165b7	5.5436664
17	0x40ef5bdb	7.479963
18	0x40ea74e5	7.3267694
19	0x40e9d6b7	7.3074603
20	0x40f7966c	7.737112
21	0x4085b853	4.1787505
22	0x40fae747	7.840732
23	0x4046ac7b	3.1042774
24	0x40c1e9d4	6.0597935
25	0x40ded79b	6.963819
26	0x40a85969	5.2609143
27	0x40b9c786	5.805606
28	0x40e93bb6	7.288539
29	0x40d09a17	6.51881
30	0x409afb48	4.843174
31	0x40c1f086	6.060611
32	0x4089a813	4.301767
33	0x408064f8	4.0123253
34	0x408a630d	4.324591
35	0x40bc2ca1	5.880448
36	0x40ef770b	7.4832816
37	0x40c0a87a	6.020566
38	0x40854844	4.1650715
39	0x408053b2	4.0102167
40	0x40c3d163	6.11931
41	0x408df77e	4.4364614
42	0x40cf2d8f	6.4743114
43	0x40c886ea	6.266469
44	0x40c279eb	6.0773826
45	0x40ca5bad	6.323691
46	0x4073a483	3.806916
47	0x40f61386	7.689883
48	0x40bc0b91	5.876412
49	0x408b126a	4.345998
50	0x40e1d617	7.057384
51	0x40d864cf	6.7623057
52	0x4079adcd	3.901233
53	0x40fa9c92	7.8316126
54	0x405e67be	3.475082
55	0x40e1662b	7.0437217
56	0x40f11112	7.533334
57	0x40b58158	5.672039
58	0x40b21597	5.5651355
59	0x409a0ae9	4.813832
60	0x408c93e5	4.3930535
61	0x40e5dcb5	7.183192
62	0x40d4a101	6.644654
63	0x40f70121	7.718888
64	0x40cd5ef9	6.4178433
65	0x40d8e178	6.777523
66	0x40a6fe9c	5.2185802
67	0x406ab376	3.6672034
68	0x408e0302	4.437867
69	0x40ebc813	7.368173
70	0x408a34f5	4.3189645
71	0x40b628a4	5.692461
72	0x40f90bdb	7.782697
73	0x40a5ccfc	5.1812725
74	0x40ddc1f7	6.9299273
75	0x40c557f5	6.166987
76	0x406e5229	3.7237647
77	0x40af72ae	5.482749
78	0x40ecdd82	7.4020395
79	0x40a13ffd	5.039061
80	0x40dde69b	6.9344
81	0x40d82fd3	6.755838
82	0x40fefecd	7.9686036
83	0x4083b789	4.116154
84	0x40e2700c	7.0761776
85	0x408d6bd1	4.419411
86	0x40b39638	5.6120872
87	0x40a7311c	5.224745
88	0x40797388	3.8976765
89	0x404ee60a	3.2327905
90	0x404a3018	3.1591854
91	0x40c37805	6.108401
92	0x408d3c30	4.413597
93	0x40b7e7bb	5.7470374
94	0x409f562c	4.979269
95	0x40969596	4.70576
96	0x40a1ad03	5.0523696
97	0x40adf43e	5.4360647
98	0x40b84b66	5.759204
99	0x407a9172	3.9151273
100	0x40b78b8e	5.7357855
101	0x40ab10db	5.3458076
102	0x40a6441c	5.195814
103	0x4041ca93	3.0279891
104	0x40dfbebe	6.992034
105	0x40b35c0d	5.6049867
106	0x40d7d44e	6.744666
107	0x40a878fe	5.2647696
108	0x4091d7e2	4.557603
109	0x40f3ca7c	7.6184673
110	0x40baa40d	5.8325257
111	0x40bc5fb6	5.8866835
112	0x40de39c8	6.9445534
113	0x40da059c	6.8131847
114	0x40cefc53	6.4683013
115	0x405641d9	3.347769
116	0x4045474d	3.0824769
117	0x40ff0e90	7.9705276
118	0x4052641d	3.2873604
119	0x40fc7685	7.8894677
120	0x4070f71e	3.7650828
121	0x406556b1	3.5834162
122	0x408527ef	4.1611247
123	0x405fbdda	3.4959626
124	0x4097fb53	4.749429
125	0x40985528	4.760395
126	0x408d5f03	4.417848
127	0x40edc595	7.430369
128	0x407cc72c	3.9496565
129	0x40dde386	6.934024
130	0x40438b8c	3.0553923
131	0x408750b7	4.228603
132	0x4066bfe7	3.6054628
133	0x40695120	3.6455765
134	0x40916683	4.5437636
135	0x408c6f30	4.3885727
136	0x404b01b4	3.171979
137	0x40ef5ca0	7.480057
138	0x40c9b0a8	6.3028145
139	0x409b6b56	4.8568525
140	0x40e4dee7	7.1522098
141	0x40e50f02	7.158082
142	0x40e76543	7.231111
143	0x407a3690	3.9095802
144	0x40dbc1b6	6.8673964
145	0x40ab86ea	5.360219
146	0x40dad2cc	6.838232
147	0x40eebb35	7.4603524
148	0x40ac1703	5.377809
149	0x40e6709a	7.2012453
150	0x4076bcfb	3.8552845
151	0x408acb52	4.3373194
152	0x40e0adae	7.021201
153	0x40e13aa0	7.0384064
154	0x4094e291	4.652657
155	0x40bf4313	5.976938
156	0x404d0d5f	3.203941
157	0x40490254	3.140767
158	0x40683195	3.6280262
159	0x40b6e1dc	5.7150707
160	0x40ac565d	5.3855424
161	0x40dd9dbe	6.9255056
162	0x40b81299	5.75227
163	0x407e75ea	3.975947
164	0x40ee81a5	7.4533257
165	0x40e874e8	7.264271
166	0x40dfc5cf	6.9928966
167	0x40a995a0	5.299515
168	0x40417421	3.022713
169	0x40491439	3.1418593
170	0x409c010b	4.8751273
171	0x40c1c2b9	6.05502
172	0x40b7a999	5.739453
173	0x4043b7ff	3.0581052
174	0x4082dafa	4.0892305
175	0x40a572f2	5.1702814
176	0x40715d9b	3.7713382
177	0x40e9750d	7.2955384
178	0x408b5bf6	4.3549757
179	0x407f4e0a	3.9891381
180	0x405d4fad	3.457988
181	0x404a2529	3.158518
182	0x40f00a74	7.501276
183	0x40798356	3.898641
184	0x404319ff	3.0484617
185	0x409e1afb	4.9407935
186	0x40f8f3d9	7.7797666
187	0x40ee9aac	7.456381
188	0x40d8658e	6.762397
189	0x4073c372	3.808804
190	0x4051242a	3.2678323
191	0x40d002e8	6.500355
192	0x4075bdd3	3.839711
193	0x40d4a867	6.645557
194	0x40f3c426	7.617694
195	0x40e016ab	7.002767
196	0x40e375e5	7.1081414
197	0x40fb2abe	7.8489676
198	0x404a556a	3.1614633
199	0x40437127	3.0537813
200	0x40652ea3	3.5809715
201	0x40b45adb	5.6360908
202	0x40e1023c	7.0315228
203	0x4081f1a4	4.060747
204	0x40dd89e0	6.9230804
205	0x40da8ace	6.829444
206	0x40df0ce1	6.970322
207	0x40b8e134	5.7774906
208	0x40c06120	6.011856
209	0x4096cf3e	4.712798
210	0x40a9b60b	5.303472
211	0x40fe5756	7.948161
212	0x404d10c0	3.2041473
213	0x4052ac2b	3.2917583
214	0x405a5811	3.4116251
215	0x40cf2e1b	6.474378
216	0x40cb6465	6.356005
217	0x40cbdbec	6.370596
218	0x40f800f3	7.750116
219	0x40b52e8a	5.661931
220	0x40c71d8a	6.222356
221	0x404fa616	3.244512
222	0x40842f44	4.1307697
223	0x40f843a4	7.758257
224	0x409fb89a	4.9912844
225	0x40e1a652	7.051553
226	0x406379e7	3.5543153
227	0x404ca318	3.1974545
228	0x4088cbea	4.274892
229	0x4054c672	3.3246121
230	0x40de93fd	6.955565
231	0x40947279	4.6389737
232	0x40666f19	3.6005309
233	0x40f3703c	7.6074505
234	0x40c5eefb	6.1854224
235	0x40cb196c	6.3468533
236	0x40669b22	3.6032186
237	0x40c0c8ef	6.024528
238	0x407f6f15	3.991155
239	0x40704a7e	3.7545466
240	0x40ee58be	7.448333
241	0x40848c37	4.142116
242	0x40e0e6eb	7.028188
243	0x40b0a5ef	5.5202556
244	0x40822407	4.066898
245	0x40cbf388	6.373478
246	0x40b721c3	5.7228713
247	0x40a8edbc	5.2790203
248	0x40455d3a	3.083815
249	0x404b420a	3.1759057
250	0x4040883e	3.0083156
251	0x40e92280	7.2854614
252	0x40f19789	7.549748
253	0x40658223	3.586068
254	0x40d273ba	6.576627
255	0x40930a92	4.5950403

ltc_model.rnn_cell.mu f4 [64, 64]
0	0x3f30fa55	0.69131976
1	0x3ef81a4c	0.48457563
2	0x3f2527fe	0.6451415
3	0x3ec6b64d	0.3881096
4	0x3ea1bdb7	0.31590053
5	0x3ea8c58c	0.32963216
6	0x3f4067db	0.7515847
7	0x3f2d2756	0.67638147
8	0x3ea43eaf	0.32079074
9	0x3f35df8c	0.7104423
10	0x3f23f1a3	0.64040583
11	0x3f4d596d	0.8021458
12	0x3ee97edd	0.45604602
13	0x3f08b61d	0.5340288
14	0x3f33370e	0.7000588
15	0x3f21ea85	0.63248473
16	0x3f33c886	0.7022785
17	0x3ef49d8b	0.47776446
18	0x3ee1adec	0.44078004
19	0x3f0bb948	0.5457959
20	0x3f13f7b5	0.57799846
21	0x3f018fb1	0.5060988
22	0x3f056db3	0.5212051
23	0x3f29fd2e	0.66401947
24	0x3eba930c	0.36440313
25	0x3f0e4a5a	0.555822
26	0x3f183333	0.59453124
27	0x3f33e88d	0.7027672
28	0x3f3a1cca	0.7270018
29	0x3f4565ea	0.77108634
30	0x3eecf1e3	0.46278295
31	0x3eb6085e	0.3555326
32	0x3ebab4cf	0.3646607
33	0x3f3a79ea	0.72842276
34	0x3f25732f	0.6462888
35	0x3f1eb142	0.61989224
36	0x3ede6621	0.43437293
37	0x3f36ce13	0.71408194
38	0x3ecfdacb	0.40596613
39	0x3f0503b4	0.51958776
40	0x3f24e847	0.6441693
41	0x3f047a88	0.5174947
42	0x3ef21184	0.47278988
43	0x3f187682	0.5955583
44	0x3ea09cf2	0.3136974
45	0x3f2d34f9	0.67658955
46	0x3f225896	0.6341642
47	0x3edb9aa0	0.42891407
48	0x3ec76ea0	0.38951588
49	0x3f45fbb0	0.7733717
50	0x3f4901f3	0.785186
51	0x3edd8abf	0.43269917
52	0x3eb3c2ca	0.3510955
53	0x3f33d863	0.70252055
54	0x3f27aefe	0.6550139
55	0x3f3bd934	0.733783
56	0x3f1e1d14	0.6176312
57	0x3f044362	0.5166532
58	0x3ea88ea1	0.32921317
59	0x3ea40f84	0.32043087
60	0x3ea440c4	0.32080662
61	0x3efbf551	0.492106
62	0x3eae81b7	0.3408334
63	0x3f4261e2	0.7593061
64	0x3f45299e	0.7701663
65	0x3ee8ead2	0.45491654
66	0x3f20cf20	0.6281605
67	0x3f194a38	0.59878874
68	0x3f2094f0	0.6272726
69	0x3e975ae8	0.29561543
70	0x3ea6dfd7	0.3259265
71	0x3ed1de35	0.40989843
72	0x3eccd741	0.40007976
73	0x3f3de8c4	0.741833
74	0x3f45579e	0.7708682
75	0x3f292204	0.6606753
76	0x3ea4702d	0.32116833
77	0x3f34ab0e	0.7057351
78	0x3ec71f21	0.38890937
79	0x3eafd55e	0.34342474
80	0x3f0fed90	0.56221867
81	0x3f386120	0.720232
82	0x3f3a58ce	0.72791755
83	0x3f4d98e8	0.8031144
84	0x3eb907eb	0.36138853
85	0x3f4d0ec6	0.8010067
86	0x3f2b2f0e	0.66868675
87	0x3eabd26e	0.33558983
88	0x3f426322	0.75932515
89	0x3f4525b6	0.7701067
90	0x3ed7d2e0	0.42153072
91	0x3f26c375	0.65141994
92	0x3f3b7441	0.73224264
93	0x3f004abb	0.5011403
94	0x3eea26aa	0.45732623
95	0x3f24136f	0.64092153
96	0x3f3d9740	0.74058914
97	0x3ee21137	0.4415376
98	0x3edf40dc	0.4360417
99	0x3f2bb256	0.67068994
100	0x3f1d62f1	0.614791
101	0x3f3d8c5e	0.7404231
102	0x3f4812ac	0.7815349
103	0x3f13e5f9	0.57772785
104	0x3f342b12	0.7037822
105	0x3f11559a	0.5677124
106	0x3f33ac82	0.701851
107	0x3ee76eb2	0.4520164
108	0x3ee74d90	0.45176363
109	0x3f26db1e	0.65178096
110	0x3f137ea6	0.57615125
111	0x3f274be2	0.65350163
112	0x3efbaac5	0.49153724
113	0x3f39aeb6	0.7253221
114	0x3f3ba275	0.73294765
115	0x3f244f70	0.6418371
116	0x3eaddce2	0.33957583
117	0x3f09bf5f	0.53807634
118	0x3f1885ca	0.59579146
119	0x3eb289a9	0.3487065
120	0x3ec42279	0.3830755
121	0x3f15a20a	0.58450377
122	0x3eb7b636	0.35881203
123	0x3ea1919a	0.31556398
124	0x3ee95961	0.45576003
125	0x3eb8f9ab	0.36127982
126	0x3f163354	0.5867207
127	0x3edff181	0.4373894
128	0x3f25b128	0.64723444
129	0x3f426e2b	0.7594935
130	0x3f44cb33	0.7687256
131	0x3ec8f40e	0.392487
132	0x3f23b1ea	0.6394335
133	0x3ed71a34	0.4201218
134	0x3f42f163	0.76149577
135	0x3ef4836c	0.47756517
136	0x3f2bcf5e	0.6711329
137	0x3ec7efbd	0.39050093
138	0x3f4cc08b	0.799813
139	0x3e9e18ea	0.30878383
140	0x3f1fb77a	0.6238934
141	0x3f16a9a6	0.5885261
142	0x3f03d013	0.5148937
143	0x3f436ae2	0.76334965
144	0x3f0e055a	0.55476916
145	0x3f23cae6	0.63981473
146	0x3f44596f	0.76698965
147	0x3f484742	0.7823373
148	0x3f1c0f1a	0.60960543
149	0x3ee41eda	0.44554788
150	0x3edea2e0	0.4348364
151	0x3f14361b	0.5789506
152	0x3edfc674	0.43706095
153	0x3f3a9fd0	0.72900105
154	0x3f4bd22a	0.7961756
155	0x3f09456a	0.5362154
156	0x3f01b8a2	0.5067235
157	0x3ec56ad3	0.38558063
158	0x3eb097e4	0.34490883
159	0x3f38bb85	0.7216113
160	0x3f2443e5	0.641661
161	0x3f3c3175	0.73512965
162	0x3f20836c	0.62700534
163	0x3f171214	0.5901196
164	0x3f29510b	0.66139287
165	0x3f184a61	0.59488493
166	0x3f11d97d	0.56972486
167	0x3f166ccf	0.5875978
168	0x3ecf7d93	0.40525493
169	0x3f0afa78	0.54288435
170	0x3e95d08c	0.2926067
171	0x3ee4b016	0.44665593
172	0x3f351a0b	0.70742863
173	0x3ebca081	0.36841205
174	0x3f4fc6ed	0.8116291
175	0x3f43c0ee	0.7646626
176	0x3edb612d	0.42847577
177	0x3f4a6de7	0.7907395
178	0x3f4c890a	0.79896605
179	0x3f3d4e99	0.73948056
180	0x3ed6b879	0.41937616
181	0x3ed49e86	0.41527194
182	0x3f033680	0.51255035
183	0x3f048d51	0.5177813
184	0x3ed8b605	0.4232637
185	0x3f1ed7d7	0.62048095
186	0x3f1c259a	0.60994875
187	0x3eecfc79	0.4628637
188	0x3ed69e6c	0.4191774
189	0x3ea13e4d	0.31492844
190	0x3ee7faf0	0.45308638
191	0x3edfb2e2	0.43691164
192	0x3ee32c2b	0.44369635
193	0x3f19b28e	0.6003808
194	0x3eda801a	0.4267586
195	0x3f00a768	0.5025544
196	0x3f1b9938	0.6078067
197	0x3eaede9b	0.3415421
198	0x3f34a65a	0.7056633
199	0x3eb2339c	0.34805
200	0x3ecb403a	0.39697438
201	0x3e9fc3f0	0.31204176
202	0x3e9a72da	0.3016575
203	0x3efca118	0.49341655
204	0x3f4b9a50	0.7953234
205	0x3f39ec3d	0.72626096
206	0x3eb34124	0.35010636
207	0x3f26852f	0.6504697
208	0x3ee9b1fb	0.456436
209	0x3ec57444	0.38565266
210	0x3e9cde9d	0.3063859
211	0x3f14f308	0.58183336
212	0x3f404f1b	0.75120705
213	0x3f145f4d	0.5795792
214	0x3f30b994	0.6903317
215	0x3ed66a9f	0.4187822
216	0x3f207633	0.6268036
217	0x3edd7089	0.4324992
218	0x3f01a69d	0.50644857
219	0x3f1c6215	0.6108716
220	0x3ee8b4a6	0.45450324
221	0x3f030a08	0.5118718
222	0x3ef7ac02	0.4837342
223	0x3f012605	0.5044864
224	0x3f1075e9	0.56429917
225	0x3f2495f6	0.6429132
226	0x3f05b8b2	0.5223495
227	0x3f435457	0.7630057
228	0x3f3cf28c	0.738076
229	0x3eb6606d	0.35620442
230	0x3f350879	0.70716053
231	0x3ee67890	0.45013857
232	0x3f4730bf	0.77808756
233	0x3f465bce	0.7748383
234	0x3eda0fc2	0.42590147
235	0x3f1a9b2e	0.60393035
236	0x3f49857a	0.78719294
237	0x3ecbff94	0.39843428
238	0x3f26f54e	0.65218055
239	0x3f31c55e	0.69441783
240	0x3eedad1b	0.46421131
241	0x3ed77637	0.42082378
242	0x3f0c105d	0.5471247
243	0x3f1ca183	0.6118395
244	0x3ea7aca2	0.32748896
245	0x3f24e79a	0.64415896
246	0x3efe9488	0.49722695
247	0x3f177547	0.59163326
248	0x3f4630eb	0.7741839
249	0x3f44fe69	0.769507
250	0x3ef1487e	0.4712562
251	0x3ecc0d72	0.39854008
252	0x3ef1510b	0.47132143
253	0x3f38ce84	0.7219012
254	0x3f44bf91	0.7685481
255	0x3eb957da	0.36199838

ltc_model.rnn_cell.w f4 [64, 64]
0	0x3ee40226	0.4453289
1	0x3d96f6f6	0.07371323
2	0x3f597168	0.8493867
3	0x3f64ea78	0.8942027
4	0x3e3f18c4	0.18661791
5	0x3ee9fbe1	0.4569998
6	0x3f05e481	0.52301794
7	0x3e52171e	0.20516631
8	0x3dcf02d0	0.10107958
9	0x3e2283f5	0.1587065
10	0x3f15a48b	0.584542
11	0x3e5ca078	0.21545589
12	0x3eccd118	0.40003276
13	0x3f49f607	0.7889103
14	0x3f04d78e	0.5189141
15	0x3f5bfa50	0.8592882
16	0x3e3d240d	0.18470784
17	0x3f019fd6	0.50634515
18	0x3e42e915	0.19034226
19	0x3f4f5a75	0.809974
20	0x3e9c57d2	0.30535752
21	0x3edf9e2c	0.43675363
22	0x3f116788	0.567986
23	0x3e972de2	0.29527193
24	0x3f0bc09d	0.5459078
25	0x3f44774f	0.7674455
26	0x3ebd2c2a	0.36947757
27	0x3f2b1c03	0.6683962
28	0x3ed2dcc9	0.4118407
29	0x3f015913	0.5052654
30	0x3f2eef60	0.6833401
31	0x3ed1f8ac	0.41010034
32	0x3f05d3aa	0.522761
33	0x3e499e0a	0.19689193
34	0x3f750cf2	0.9572288
35	0x3e3decdc	0.18547386
36	0x3ed4643c	0.41482723
37	0x3e9f75dd	0.3114461
38	0x3f09c4f4	0.5381615
39	0x3f60f445	0.87872726
40	0x3ea76797	0.3269622
41	0x3f0a9454	0.5413258
42	0x3f240da9	0.64083344
43	0x3f719ca5	0.94379646
44	0x3c976b48	0.018483773
45	0x3f06da12	0.526765
46	0x3f512396	0.81694925
47	0x3f5a3c0e	0.85247886
48	0x3f7a95ab	0.97884625
49	0x3e9b7860	0.30365276
50	0x3ec71f5f	0.38891122
51	0x3df41629	0.11918289
52	0x3d82cf5f	0.06387209
53	0x3cc1fc8f	0.02368
54	0x3d9c3b44	0.076284915
55	0x3f562fa1	0.83666426
56	0x3ea7aed2	0.32750565
57	0x3e29f5ba	0.16597643
58	0x3f4a307d	0.7898024
59	0x3edb32e0	0.42812252
60	0x3f450571	0.7696143
61	0x3ee98bee	0.4561457
62	0x3eb0b557	0.3451335
63	0x3e8dc17a	0.27686673
64	0x3efa7c5b	0.48923
65	0x3f40e382	0.7534715
66	0x3f134c59	0.5753837
67	0x3f73b3d0	0.9519625
68	0x3d8db96c	0.06920132
69	0x3f1f59b5	0.6224626
70	0x3f44a68d	0.76816636
71	0x3eced6c3	0.40398225
72	0x3f5e703b	0.8689
73	0x3f48efd1	0.7849093
74	0x3f4cc5dd	0.79989415
75	0x3f55d2d7	0.8352484
76	0x3ecdc7a7	0.40191385
77	0x3f3b6535	0.73201305
78	0x3d89b425	0.06723813
79	0x3ed17178	0.40906882
80	0x3f4e4d4c	0.80586696
81	0x3d6b2614	0.05740936
82	0x3f5da85f	0.8658504
83	0x3ea49998	0.32148433
84	0x3f5684ae	0.83796203
85	0x3f559448	0.83429384
86	0x3ddd272a	0.107984856
87	0x3f33a3e8	0.70171976
88	0x3ed48f38	0.41515517
89	0x3f684e8a	0.9074484
90	0x3f70a9f8	0.9400935
91	0x3f3d91d6	0.74050653
92	0x3f6ad732	0.9173461
93	0x3edb111a	0.42786485
94	0x3dea1b14	0.11430946
95	0x3e0c5a47	0.13706313
96	0x3f6ac66c	0.9170902
97	0x3eed56a7	0.46355173
98	0x3ec230e2	0.3792792
99	0x3ebae8f5	0.36505857
100	0x3f72a84c	0.9478805
101	0x3ef6300a	0.48083526
102	0x3d46963c	0.04848312
103	0x3e8d687d	0.2761878
104	0x3f0d2b32	0.55144036
105	0x3f0a127b	0.5393445
106	0x3e810775	0.25201002
107	0x3f032888	0.5123372
108	0x3da9a38d	0.08283148
109	0x3eaf5b0f	0.3424916
110	0x3f212ab6	0.62955797
111	0x3e827732	0.25481564
112	0x3dcfd082	0.101471916
113	0x3e63fb68	0.22263873
114	0x3ec3c28e	0.3823437
115	0x3d392c10	0.045208037
116	0x3f60bf29	0.8779169
117	0x3f25fc6c	0.6483829
118	0x3f6924e2	0.91071904
119	0x3f332196	0.69973123
120	0x3e1be7ee	0.15225193
121	0x3f6cc821	0.9249287
122	0x3eb7dd8a	0.35911208
123	0x3f26963e	0.65073
124	0x3ecea3b2	0.40359265
125	0x3f1aa20a	0.604035
126	0x3d853a7e	0.06505297
127	0x3e6b7acb	0.2299606
128	0x3eb4c995	0.35310045
129	0x3ea247b7	0.3169534
130	0x3f2044ef	0.62605184
131	0x3f3fd3a3	0.74932307
132	0x3ed29e86	0.4113657
133	0x3f0a511f	0.5403003
134	0x3f45a063	0.77197856
135	0x3e77e580	0.24208641
136	0x3c31a2c5	0.01084203
137	0x3e373b02	0.17893603
138	0x3f00e535	0.5034974
139	0x3f3b3278	0.73123884
140	0x3e860033	0.26172027
141	0x3f0f2d20	0.5592823
142	0x3f19c7a8	0.60070276
143	0x3f77149f	0.9651584
144	0x3ea0e8ee	0.3142771
145	0x3f3e16ac	0.74253345
146	0x3f03311f	0.5124683
147	0x3f1dfbf5	0.6171258
148	0x3e0412ab	0.12897746
149	0x3f3f848a	0.74811614
150	0x3d4c2835	0.049843032
151	0x3f1b9d52	0.60786927
152	0x3e99c793	0.30035076
153	0x3e9c146b	0.30484328
154	0x3c787618	0.0151648745
155	0x3f70f2ed	0.94120675
156	0x3f58e039	0.84717137
157	0x3efcc98c	0.49372518
158	0x3eb89088	0.3604777
159	0x3f5a15cb	0.85189503
160	0x3da1d68e	0.07902251
161	0x3f74ad6a	0.9557711
162	0x3f33b2b8	0.7019458
163	0x3e1d0dc8	0.15337288
164	0x3f79ef00	0.9763031
165	0x3f4ba90d	0.79554826
166	0x3edb2c01	0.4280701
167	0x3f705722	0.93882954
168	0x3e124c11	0.1428683
169	0x3de666c1	0.112500675
170	0x3e2d283c	0.1690988
171	0x3f59cb53	0.85075873
172	0x3eb4e461	0.3533049
173	0x3de93446	0.113869235
174	0x3e0aaefb	0.13543312
175	0x3ee73bb0	0.45162725
176	0x3e436f1e	0.19085357
177	0x3e1b7a33	0.15183334
178	0x3f56c2a5	0.83890754
179	0x3f39823c	0.72464347
180	0x3daa882e	0.083267555
181	0x3e276581	0.16347314
182	0x3eb2dee8	0.3493569
183	0x3f344935	0.70424205
184	0x3f460cdc	0.7736337
185	0x3ea9202d	0.3303236
186	0x3e4e82cc	0.20167083
187	0x3f27d1bd	0.6555441
188	0x3e357ec6	0.17724141
189	0x3f7cce18	0.98751974
190	0x3e940c7d	0.28915778
191	0x3f161931	0.5863219
192	0x3e06a53e	0.13148972
193	0x3eac95c4	0.33708012
194	0x3e8fd6ca	0.2809356
195	0x3e93a938	0.2884004
196	0x3dbdebb8	0.092734754
197	0x3d8e6158	0.069521606
198	0x3e82030f	0.2539296
199	0x3eb88a42	0.36042982
200	0x3f7dad0e	0.99092185
201	0x3e92ffe4	0.28710854
202	0x3f373e16	0.7157911
203	0x3f47dfd9	0.7807594
204	0x3f09e60b	0.5386664
205	0x3f0e6339	0.5562015
206	0x3dc0ccc2	0.094140545
207	0x3edce329	0.4314206
208	0x3f5cee19	0.8630081
209	0x3dd7677c	0.10517785
210	0x3de00e5e	0.1094024
211	0x3f3aeab1	0.7301436
212	0x3dab9fda	0.08380099
213	0x3f03ec4f	0.51532453
214	0x3f7676b9	0.96274906
215	0x3eed367c	0.4633063
216	0x3f702cc2	0.93818295
217	0x3f7a7dbb	0.978481
218	0x3e8fd4b4	0.28091967
219	0x3ee31b48	0.4435675
220	0x3de45e85	0.11150841
221	0x3f1f7b8f	0.6229791
222	0x3f71ba9e	0.9442538
223	0x3f0ff6f9	0.56236225
224	0x3f6c4840	0.92297745
225	0x3e2d2cbc	0.16911596
226	0x3e25004e	0.16113397
227	0x3eb5e1c9	0.35523823
228	0x3e5b9c51	0.21446349
229	0x3f3d238e	0.7388238
230	0x3f547fdf	0.83007616
231	0x3f2640ed	0.6494282
232	0x3f5acbcd	0.85467225
233	0x3f4a0066	0.7890686
234	0x3e2b15f9	0.167076
235	0x3eb5ea70	0.35530424
236	0x3f62d0cf	0.88599867
237	0xbab94e17	-0.0014137652
238	0x3ea1948c	0.31558645
239	0x3f1b9f4d	0.6078995
240	0x3f1ff65c	0.6248529
241	0x3ed8438a	0.42239028
242	0x3e8a6634	0.270311
243	0x3f7921d0	0.9731722
244	0x3e793239	0.24335565
245	0x3f59361d	0.84848195
246	0x3f0ef842	0.5584756
247	0x3e88405d	0.26611605
248	0x3e942bab	0.28939566
249	0x3ce9b58f	0.028528957
250	0x3f020fed	0.5080555
251	0x3f77d2ea	0.96806204
252	0x3f1bde40	0.60886
253	0x3f1ad06b	0.6047427
254	0x3f585837	0.84509605
255	0x3f546c4b	0.8297774

ltc_model.rnn_cell.erev f4 [64, 64]
0	0x3f7f265d	0.9966791
1	0x3f7f39bb	0.99697465
2	0x3f7dff12	0.9921733
3	0x3f7eaf92	0.9948665
4	0x3f7fb3d4	0.9988377
5	0x3f804ad4	1.0022836
6	0x3f7cab20	0.98698616
7	0x3f7c8937	0.98646873
8	0x3f7f6eb8	0.9977832
9	0x3f802c76	1.0013568
10	0x3f7fb6ce	0.9988831
11	0x3f801f13	1.0009483
12	0x3f7fc373	0.99907607
13	0x3f7952cd	0.9739197
14	0x3f7fedd4	0.9997227
15	0xbf803999	-1.0017577
16	0x3f7fc71f	0.9991321
17	0x3f8160e3	1.0107692
18	0x3f8038fd	1.0017391
19	0xbf807982	-1.0037081
20	0x3f8232d5	1.0171763
21	0x3f7e4351	0.99321467
22	0xbf803404	-1.0015874
23	0x3f7d445e	0.98932445
24	0x3f7fd6ef	0.9993734
25	0x3f801258	1.0005598
26	0x3f7e4d2a	0.99336493
27	0xbf7f8245	-0.9980815
28	0xbf8001fa	-1.0000603
29	0x3f7e45f0	0.99325466
30	0x3f803b94	1.0018182
31	0x3f7f5f20	0.99754524
32	0x3f80a641	1.0050737
33	0x3f7fc766	0.9991363
34	0x3f75c6e3	0.960066
35	0x3f838138	1.027381
36	0x3f7e9932	0.9945251
37	0x3f72121b	0.94558877
38	0x3f78e2d0	0.9722109
39	0x3f7f0761	0.99620634
40	0xbf809b00	-1.0047302
41	0xbf7fd89c	-0.99939895
42	0x3f800a30	1.0003109
43	0x3f7ee836	0.99573076
44	0x3f7f6907	0.99769634
45	0x3f801612	1.0006735
46	0x3f7c7615	0.9861768
47	0xbf80043c	-1.0001292
48	0x3f7fbd3a	0.9989811
49	0x3f7f5e72	0.9975349
50	0xbf816ca0	-1.0111275
51	0x3f7f610a	0.99757445
52	0xbf808ad3	-1.0042366
53	0x3f78ac8e	0.971383
54	0x3f8076db	1.0036272
55	0x3f7f26ae	0.99668396
56	0xbf802cdd	-1.0013691
57	0xbf804b01	-1.0022889
58	0x3f7f3509	0.996903
59	0xbf7fb426	-0.9988426
60	0xbf80a5e2	-1.0050623
61	0x3f7fee03	0.9997255
62	0x3f7e3dab	0.9931285
63	0x3f7fa5f7	0.9986262
64	0xbf7ea70c	-0.99473643
65	0x3f80724d	1.0034882
66	0x3f7d40ee	0.989272
67	0x3f7df855	0.9920705
68	0xbf80cc3e	-1.006233
69	0x3f7f8aa1	0.99820906
70	0xbf819335	-1.0123049
71	0x3f7d0a07	0.98843426
72	0x3f80ced9	1.0063125
73	0x3f805b73	1.0027908
74	0x3f80f584	1.0074925
75	0x3f8115a5	1.008473
76	0x3f7fd42a	0.9993311
77	0x3f7828a7	0.9693703
78	0x3f808233	1.0039734
79	0x3f7f5515	0.997392
80	0x3f7dd518	0.9915328
81	0x3f80e66c	1.0070319
82	0xbf7ccc36	-0.987491
83	0x3f7e9d43	0.9945871
84	0x3f81c036	1.0136783
85	0x3f7cc1ef	0.9873342
86	0xbf80b641	-1.005562
87	0xbf80cdf9	-1.0062858
88	0x3f805d70	1.0028515
89	0x3f800e6d	1.0004402
90	0xbf80c998	-1.0061522
91	0x3f810c25	1.0081831
92	0x3f804543	1.0021137
93	0xbf8153a0	-1.0103645
94	0x3f7f4d82	0.9972764
95	0x3f7e196c	0.9925754
96	0x3f7f8804	0.9981692
97	0x3f8081b8	1.0039587
98	0x3f75f614	0.9607861
99	0x3f8375b2	1.0270293
100	0xbf801405	-1.000611
101	0x3f73fe0e	0.9530953
102	0x3f7a249f	0.9771213
103	0x3f7f7b63	0.9979765
104	0xbf7f8696	-0.99814737
105	0xbf80b661	-1.0055658
106	0x3f7df839	0.9920688
107	0x3f7e462f	0.9932584
108	0x3f8011df	1.0005454
109	0x3f817088	1.0112467
110	0x3f7dbc14	0.9911511
111	0xbf7e9269	-0.99442154
112	0xbf811a3e	-1.0086133
113	0x3f7cbf17	0.9872908
114	0xbf814bac	-1.0101218
115	0x3f7f9296	0.9983305
116	0x3f7ea65b	0.9947259
117	0x3f79c3d3	0.9756443
118	0xbf7fb9a3	-0.99892634
119	0x3f8011db	1.0005449
120	0xbf7fffae	-0.9999951
121	0x3f7f16f4	0.996444
122	0x3f7ed94f	0.99550337
123	0xbf7ffea4	-0.99997926
124	0x3f7fc277	0.99906105
125	0xbf7ffab5	-0.99991924
126	0x3f7f34b1	0.99689776
127	0xbf7f1222	-0.99637043
128	0x3f7ec7ea	0.99523795
129	0x3f7fc984	0.99916863
130	0x3f7e0556	0.9922689
131	0xbf808582	-1.0040743
132	0xbf801c0e	-1.0008562
133	0x3f807d2c	1.00382
134	0x3f7c7f9a	0.98632205
135	0x3f7bff46	0.9843639
136	0x3f7f60a4	0.99756837
137	0xbf80134b	-1.0005888
138	0x3f7fd9fe	0.99942005
139	0xbf803a98	-1.0017881
140	0x3f7fa450	0.99860096
141	0x3f795538	0.9739566
142	0x3f7f59ae	0.99746215
143	0x3f7ff676	0.99985445
144	0x3f7febd8	0.99969244
145	0x3f81f7cf	1.015375
146	0x3f8052ae	1.0025232
147	0x3f7ec6c3	0.99522036
148	0x3f822ec8	1.0170527
149	0x3f7e7e3d	0.99411374
150	0x3f8050ee	1.0024698
151	0x3f7d861e	0.9903277
152	0xbf8035c3	-1.0016407
153	0x3f7ffe38	0.9999728
154	0x3f7e53b2	0.9934646
155	0xbf7ff8cd	-0.99989015
156	0xbf808e7a	-1.004348
157	0x3f7f5d14	0.997514
158	0x3f807227	1.0034837
159	0x3f7ef781	0.9959641
160	0x3f8084c2	1.0040514
161	0x3f80441a	1.0020783
162	0xbf856e3c	-1.0424266
163	0xbf79e695	-0.97617465
164	0x3f7e9d6a	0.99458945
165	0x3f740990	0.9532709
166	0xbf8349dd	-1.0256916
167	0xbf806c36	-1.0033023
168	0xbf80dea8	-1.0067949
169	0x3f803cc4	1.0018544
170	0x3f8078f5	1.0036913
171	0xbf802e95	-1.0014216
172	0x3f7fa40b	0.99859685
173	0xbf806cf2	-1.0033247
174	0x3f7c1aef	0.984786
175	0x3f7fafba	0.9987751
176	0x3f802445	1.0011069
177	0x3f7e6b69	0.99382645
178	0x3f7dfdf9	0.99215657
179	0x3f7ee7cc	0.99572444
180	0xbf807040	-1.0034256
181	0x3f7881f5	0.970733
182	0xbf7f3de1	-0.99703795
183	0x3f7e394c	0.9930618
184	0xbf7f3508	-0.99690294
185	0x3f7fb4fe	0.9988555
186	0xbf809d70	-1.0048046
187	0x3f80253a	1.0011361
188	0x3f7eac65	0.99481803
189	0x3f7eeae8	0.9957719
190	0x3f7dbd1d	0.9911669
191	0xbf80a705	-1.005097
192	0xbf7f9d40	-0.9984932
193	0xbf7c8372	-0.9863807
194	0x3f7af636	0.9803194
195	0x3f7a5a9d	0.97794515
196	0xbf82c587	-1.021653
197	0x3f7c9ba2	0.98674977
198	0x3f7d9157	0.99049896
199	0x3f7cbb21	0.98723036
200	0xbf7f24da	-0.99665606
201	0xbf7fa6f1	-0.9986411
202	0x3f811ef4	1.0087571
203	0xbf7e36be	-0.9930228
204	0x3f7b1fc1	0.9809533
205	0x3f752079	0.95752674
206	0xbf7d3aa5	-0.9891761
207	0x3f7c7ae9	0.98625046
208	0x3f7cdc54	0.98773694
209	0xbf7f1710	-0.99644566
210	0xbf7e1356	-0.99248254
211	0x3f7a6545	0.97810775
212	0xbf7c8968	-0.98647165
213	0x3f7cc2fe	0.98735034
214	0xbf80972b	-1.0046133
215	0xbf7f045d	-0.9961603
216	0xbf7c137e	-0.9846724
217	0x3f7d4694	0.9893582
218	0x3f819d04	1.0126042
219	0x3f81ce56	1.0141094
220	0x3f816bc4	1.0111012
221	0x3f7db236	0.99100053
222	0x3f7ead19	0.99482876
223	0xbf830fd8	-1.023921
224	0xbf80ca00	-1.0061646
225	0x3f827f29	1.0195056
226	0x3f7553ce	0.95831
227	0x3f83d5c3	1.029961
228	0x3f80339d	1.0015751
229	0x3f73e1a2	0.95266163
230	0xbf825566	-1.0182312
231	0x3f8098f6	1.004668
232	0x3f7ff734	0.9998658
233	0x3f7ac2a9	0.9795328
234	0xbf816c72	-1.011122
235	0x3f7b2504	0.98103356
236	0xbf7ecdd7	-0.99532837
237	0xbf7d248b	-0.98883885
238	0x3f7e567d	0.9935072
239	0x3f80a871	1.0051404
240	0x3f7b4436	0.98150957
241	0x3f7dbd0a	0.99116576
242	0xbf8156ec	-1.0104651
243	0x3f81311b	1.0093111
244	0x3f7d777e	0.99010456
245	0x3f7a2901	0.97718817
246	0x3f7d8a7b	0.9903943
247	0x3f80cd79	1.0062705
248	0xbf8081b0	-1.0039577
249	0x3f7e376e	0.9930333
250	0xbf80d454	-1.0064797
251	0x3f7c0e6a	0.98459494
252	0xbf7c926a	-0.9866091
253	0xbf7ed647	-0.9954571
254	0x3f815a4b	1.010568
255	0xbf7f5bda	-0.9974953

ltc_model.rnn_cell.sensory_sigma f4 [4, 64]
0	0x40aa9a24	5.331316
1	0x40b40bff	5.6264644
2	0x40513346	3.2687545
3	0x40ef2dc9	7.474339
4	0x408bf70d	4.3739076
5	0x407e0258	3.968893
6	0x40f2b9a3	7.5851607
7	0x40967e7f	4.7029414
8	0x40fcba8d	7.8977723
9	0x40b95743	5.791902
10	0x409c8884	4.8916645
11	0x40ba019c	5.8126965
12	0x40828040	4.0781555
13	0x40852c2f	4.1616435
14	0x40547d6e	3.3201556
15	0x40725ba1	3.7868426
16	0x40813701	4.0379643
17	0x40dc5b52	6.8861475
18	0x40cb5e77	6.3552814
19	0x40413d3f	3.0193632
20	0x40f27b46	7.577548
21	0x40eaf72e	7.3426733
22	0x407a8404	3.9143076
23	0x40aae1d5	5.3400674
24	0x40db0da5	6.8454156
25	0x40bbcf9c	5.869093
26	0x40c90b21	6.2826085
27	0x40f5e808	7.684574
28	0x40dd5b9f	6.917434
29	0x4090a951	4.5206685
30	0x4093b353	4.61564
31	0x40c17113	6.045053
32	0x40a3d96d	5.120291
33	0x40b2f2bc	5.5921307
34	0x40b655d5	5.6979775
35	0x40d104b6	6.531825
36	0x40ed3e3f	7.4138484
37	0x405997a1	3.3998797
38	0x40976bc5	4.7319055
39	0x408160ec	4.0430813
40	0x40a6c9fc	5.2121563
41	0x404e231c	3.220893
42	0x40853e21	4.163834
43	0x40c093f0	6.018059
44	0x40c1a3bc	6.051237
45	0x4044248c	3.0647306
46	0x4085ac0a	4.177251
47	0x4081c5d0	4.055397
48	0x40d2ec65	6.5913568
49	0x40fefd14	7.9683933
50	0x40940775	4.6259103
51	0x40d7498d	6.7277284
52	0x40b80e65	5.751757
53	0x40dd91f2	6.9240656
54	0x40ef046e	7.4692907
55	0x4074202c	3.8144636
56	0x40433149	3.0498831
57	0x40906234	4.5119877
58	0x40a31881	5.096741
59	0x40a06cfb	5.0133033
60	0x40cb79e3	6.3586287
61	0x40ea42ec	7.320669
62	0x40dbc05c	6.8672314
63	0x40ef80dc	7.48448
64	0x404097bb	3.009261
65	0x40d3ba51	6.6164937
66	0x40ebfe21	7.3747716
67	0x40d7c672	6.7429743
68	0x40aa20b3	5.3164916
69	0x40e2f644	7.0925617
70	0x40e51fc8	7.1601295
71	0x409533fd	4.662596
72	0x40ce19dc	6.4406567
73	0x40835abc	4.104826
74	0x406999e6	3.6500182
75	0x40dd5d06	6.9176054
76	0x409679c0	4.702362
77	0x40e3604d	7.1055055
78	0x40f405da	7.6257143
79	0x40bdc45d	5.93022
80	0x40f62e9d	7.69319
81	0x40d4e7d1	6.653298
82	0x409273c7	4.576633
83	0x407214b4	3.7825136
84	0x40a15145	5.0411706
85	0x404a6b49	3.1627982
86	0x4046f2ac	3.1085615
87	0x40bf4feb	5.9785056
88	0x40a5e6a3	5.184404
89	0x40b72574	5.723322
90	0x409d6451	4.9184957
91	0x40ede87f	7.434631
92	0x405e6262	3.4747548
93	0x405f6a40	3.49086
94	0x40bb35c5	5.8503137
95	0x406ec1a6	3.7305694
96	0x40d71009	6.7207074
97	0x408192a2	4.0491495
98	0x40f5e415	7.684092
99	0x40f1fdcc	7.562231
100	0x40bb34a0	5.850174
101	0x40f7a2a4	7.7386036
102	0x40bdf26f	5.935844
103	0x40c6745d	6.2017045
104	0x40c7667b	6.23126
105	0x40ab0c8f	5.345283
106	0x40757d7e	3.8357844
107	0x40a79b63	5.237718
108	0x4082dbef	4.0893474
109	0x405b7bf5	3.4294407
110	0x40d0e1f0	6.5275803
111	0x40a58e6e	5.1736364
112	0x40d4faf9	6.6556363
113	0x40b144ab	5.5396323
114	0x40b6c9f7	5.712154
115	0x40ac68ed	5.3878083
116	0x40412afc	3.0182486
117	0x40d103bb	6.5317054
118	0x409cf9d2	4.9054956
119	0x40a86519	5.262341
120	0x40ab9c6d	5.362845
121	0x409caebd	4.8963304
122	0x40f35a13	7.6047454
123	0x40f9fd04	7.8121357
124	0x40b6d96c	5.7140408
125	0x40aabc6b	5.3355002
126	0x40ef126d	7.4709992
127	0x4083336e	4.100028
128	0x40cdff1b	6.437391
129	0x40725af3	3.786801
130	0x40fdbbf3	7.929193
131	0x40aec05b	5.460981
132	0x40a3870a	5.1102343
133	0x404e1587	3.220064
134	0x40f076a0	7.5144806
135	0x40eeba61	7.4602513
136	0x40b45ee9	5.6365857
137	0x40ffc8f6	7.9932814
138	0x40ca5893	6.3233123
139	0x40c385dc	6.1100903
140	0x4087ad9e	4.2399435
141	0x40977843	4.7334304
142	0x40ab23cd	5.34812
143	0x40e194b8	7.049404
144	0x406be847	3.686052
145	0x40b5b736	5.6786146
146	0x40fa9c00	7.831543
147	0x40a17a8d	5.04621
148	0x40f139d1	7.5383077
149	0x40cce505	6.4029565
150	0x40a9a46f	5.3013225
151	0x40efdf7a	7.49603
152	0x40a728a0	5.223709
153	0x40d0b836	6.5224867
154	0x407472ca	3.8195062
155	0x40f86cd5	7.763285
156	0x4076a611	3.853886
157	0x40c80879	6.2510343
158	0x406df48b	3.7180507
159	0x40a5d7f4	5.1826115
160	0x4062092e	3.5318103
161	0x40c86c57	6.263225
162	0x4054d86c	3.3257093
163	0x40e01568	7.002613
164	0x4047e7b3	3.1235168
165	0x407e2cb5	3.9714787
166	0x40e36914	7.106577
167	0x40c0c9e7	6.0246463
168	0x405184f3	3.2737396
169	0x4095fcc6	4.687106
170	0x40f02ce4	7.50548
171	0x40add549	5.432286
172	0x40d69b8f	6.706489
173	0x40675528	3.6145725
174	0x40bcdfef	5.9023356
175	0x409750e3	4.728624
176	0x40d9cb88	6.806095
177	0x409d71e4	4.9201527
178	0x40c10f76	6.0331373
179	0x40d7a555	6.738932
180	0x40d6d6c3	6.713716
181	0x405a4a0c	3.4107695
182	0x40aaf974	5.342951
183	0x408a956d	4.3307405
184	0x40812ac3	4.03647
185	0x40ff886b	7.9854026
186	0x40cb6b9b	6.3568854
187	0x40dd4513	6.914682
188	0x40ded060	6.9629364
189	0x4053625c	3.3028784
190	0x40c834a2	6.256425
191	0x40eed960	7.464035
192	0x40bcaf68	5.896412
193	0x40a3e7ae	5.122031
194	0x40ca14ab	6.315023
195	0x40e60a41	7.1887517
196	0x4044f1f6	3.0772681
197	0x40c82b9d	6.255324
198	0x40e37936	7.1085463
199	0x40c6fd52	6.218423
200	0x408d9a66	4.4250975
201	0x409e2126	4.9415464
202	0x40eb5d99	7.3551755
203	0x40f1df16	7.558482
204	0x40541b1e	3.314155
205	0x40e3ca7c	7.1184673
206	0x404fb237	3.2452524
207	0x4099f11c	4.8106823
208	0x406c1e78	3.6893597
209	0x406a5a5c	3.661765
210	0x40567b4e	3.351276
211	0x40e1c0f4	7.054804
212	0x406ffbd3	3.7497451
213	0x40d91677	6.7839923
214	0x407c5840	3.9428864
215	0x4084cb4a	4.1498156
216	0x40c90eeb	6.283071
217	0x40cd1ed9	6.4100156
218	0x406193f1	3.5246546
219	0x408da0be	4.425872
220	0x40821660	4.0652313
221	0x40ab9706	5.3621855
222	0x40e52bf9	7.1616178
223	0x405f2231	3.4864619
224	0x40eda07c	7.4258404
225	0x407ea7c7	3.9789903
226	0x40ec9a6f	7.3938518
227	0x40437e98	3.0546017
228	0x40dfb09c	6.990309
229	0x409c0f04	4.876833
230	0x4075c21f	3.8399732
231	0x40af6925	5.481585
232	0x40b58b0f	5.673225
233	0x40c38a29	6.1106153
234	0x40851458	4.1587334
235	0x408764b3	4.2310424
236	0x40e2f044	7.0918293
237	0x40b1f6e4	5.561388
238	0x40cb43ed	6.3520417
239	0x408d2f6c	4.412039
240	0x40680a87	3.6256425
241	0x40d2f4f2	6.5924006
242	0x40755573	3.8333404
243	0x4049a9dd	3.1509926
244	0x40beb0da	5.9590883
245	0x40acd151	5.4005513
246	0x404d571a	3.2084413
247	0x40fea381	7.957459
248	0x40c93088	6.287174
249	0x40a6317b	5.19354
250	0x409f2283	4.972963
251	0x4053b3a8	3.3078403
252	0x40739e8c	3.806552
253	0x40a6c81a	5.2119265
254	0x40950d3f	4.657867
255	0x40854bb8	4.165493

ltc_model.rnn_cell.sensory_mu f4 [4, 64]
0	0x3f000c32	0.5001861
1	0x3f25571e	0.64586055
2	0x3ef38bbf	0.47567555
3	0x3f123b45	0.5712169
4	0x3ee75e01	0.45188907
5	0x3f2fc715	0.6866315
6	0x3f1c5de7	0.61080784
7	0x3f4e1bfb	0.80511445
8	0x3ea9d380	0.33169174
9	0x3f3ba471	0.7329779
10	0x3f151ea5	0.58249885
11	0x3eb57c2f	0.35446307
12	0x3ec48e71	0.38389924
13	0x3edebd4f	0.43503806
14	0x3f079aea	0.52970755
15	0x3f14ae9a	0.5807892
16	0x3ef5d1ba	0.4801157
17	0x3f347b42	0.70500576
18	0x3eafd298	0.34340358
19	0x3ec5416b	0.38526472
20	0x3ed0b1dd	0.407607
21	0x3f204541	0.62605673
22	0x3f18338e	0.59453666
23	0x3f493c78	0.78607893
24	0x3f2a0a1a	0.66421664
25	0x3f11f775	0.57018214
26	0x3eb001cd	0.34376374
27	0x3e991ac5	0.29903236
28	0x3f3f743f	0.7478675
29	0x3f37b1f0	0.71755886
30	0x3f334709	0.70030266
31	0x3f2ea885	0.6822589
32	0x3f3d04c8	0.7383542
33	0x3f12aee7	0.5729813
34	0x3f329818	0.69763327
35	0x3ec1d2fc	0.3785628
36	0x3ef2037d	0.47268286
37	0x3f0f1d3d	0.5590399
38	0x3f2798af	0.6546735
39	0x3f485686	0.78257024
40	0x3f0bdc8e	0.54633415
41	0x3f182bcc	0.5944183
42	0x3f27be49	0.6552473
43	0x3ed488f7	0.41510746
44	0x3eabdbc1	0.33566096
45	0x3f1efe49	0.6210676
46	0x3f0fd7b1	0.56188494
47	0x3eb8d2ac	0.3609823
48	0x3f48e000	0.78466797
49	0x3eb03dc4	0.34422123
50	0x3f1914cc	0.5979736
51	0x3f157953	0.5838825
52	0x3f3d7a09	0.74014336
53	0x3f042348	0.51616335
54	0x3f2c3e97	0.67283005
55	0x3f35aa3f	0.709629
56	0x3ebf284f	0.3733544
57	0x3f0644a9	0.5244852
58	0x3f42972e	0.7601193
59	0x3f0f1698	0.5589385
60	0x3eeb294f	0.45929953
61	0x3ebb4945	0.36579338
62	0x3ecf225f	0.4045591
63	0x3f3a91b5	0.7287858
64	0x3f2fb25b	0.68631524
65	0x3ec84109	0.39112118
66	0x3ebfaf54	0.37438452
67	0x3ee071ea	0.4383691
68	0x3ef9f5fd	0.48820487
69	0x3f1fbc9e	0.6239718
70	0x3f572bab	0.8405101
71	0x3ec0556b	0.3756517
72	0x3f1d4080	0.61426544
73	0x3ec7ad3b	0.38999352
74	0x3f0743b5	0.5283769
75	0x3e9c92c6	0.3058073
76	0x3f0cb51f	0.5496387
77	0x3f05986a	0.5218569
78	0x3ea9681b	0.3308724
79	0x3f2fe735	0.6871217
80	0x3f03e4f7	0.5152125
81	0x3f262857	0.64905304
82	0x3ed3b542	0.41349226
83	0x3eae873b	0.34087548
84	0x3f18ca68	0.5968385
85	0x3f1c5bc2	0.6107751
86	0x3f160d14	0.58613706
87	0x3f541099	0.82837826
88	0x3eecb192	0.46229225
89	0x3ee0ad28	0.43882108
90	0x3f5216f9	0.82066303
91	0x3f006ca7	0.5016579
92	0x3ec6a403	0.38797006
93	0x3ebd6f94	0.3699919
94	0x3f5167b7	0.8179888
95	0x3f28b678	0.65903425
96	0x3efaae2a	0.48961002
97	0x3eac1f28	0.3361752
98	0x3f3df71e	0.74205196
99	0x3eebb81c	0.46038902
100	0x3f2220c8	0.6333127
101	0x3ea40aae	0.32039398
102	0x3edf7d8d	0.43650475
103	0x3f03caab	0.5148112
104	0x3f0c42d1	0.54789454
105	0x3f133937	0.5750918
106	0x3f2b72a9	0.6697183
107	0x3ea0bf26	0.31395835
108	0x3f097332	0.536914
109	0x3f2e7960	0.68153954
110	0x3f217107	0.6306309
111	0x3f41ba91	0.756753
112	0x3f2ae6a7	0.667582
113	0x3e9eed39	0.31040362
114	0x3efbba70	0.49165678
115	0x3f050c94	0.5197232
116	0x3f0aa58d	0.5415886
117	0x3ea6292b	0.32453284
118	0x3f1d309b	0.6140229
119	0x3edb8b56	0.42879742
120	0x3ed83eed	0.4223551
121	0x3ed12a22	0.40852457
122	0x3f256a56	0.6461538
123	0x3f1acce2	0.60468876
124	0x3f598cad	0.8498028
125	0x3f32db88	0.6986623
126	0x3ef46d2c	0.47739542
127	0x3f1b662a	0.60702765
128	0x3f262d9f	0.6491336
129	0x3ec46a59	0.38362387
130	0x3ef0f892	0.47064644
131	0x3f086534	0.53279424
132	0x3f2b9f57	0.6704001
133	0x3f11953d	0.56868345
134	0x3f2551d7	0.64578
135	0x3f132108	0.57472277
136	0x3efa7707	0.48918936
137	0x3ea927e9	0.33038262
138	0x3f05781a	0.52136385
139	0x3f00a8c4	0.50257516
140	0x3ec03b4c	0.3754524
141	0x3ed7930d	0.42104378
142	0x3eacdcc9	0.33762196
143	0x3f1f6a4d	0.6227158
144	0x3f460a53	0.77359504
145	0x3f09512b	0.5363948
146	0x3f59731b	0.8494126
147	0x3ed12d54	0.40854895
148	0x3f4f7b49	0.81047493
149	0x3ed7f837	0.4218156
150	0x3ebc2c40	0.3675251
151	0x3f214f2e	0.63011444
152	0x3f01465d	0.5049799
153	0x3ed68135	0.41895452
154	0x3ee68863	0.4502593
155	0x3f55fd85	0.83589965
156	0x3f45a1ec	0.772002
157	0x3f197429	0.5994287
158	0x3ee07fc5	0.4384748
159	0x3f1c4141	0.6103707
160	0x3f168965	0.588034
161	0x3f309355	0.6897481
162	0x3f288916	0.65834177
163	0x3f10ef39	0.56615025
164	0x3f3424ee	0.7036885
165	0x3e861740	0.26189613
166	0x3ea63fd5	0.32470575
167	0x3ed5dd24	0.4177028
168	0x3efe88d8	0.49713778
169	0x3eb53f67	0.35399935
170	0x3ebaf4d7	0.36514923
171	0x3f1d443b	0.61432236
172	0x3efebc8c	0.49753225
173	0x3f00542e	0.5012845
174	0x3f15fa6c	0.5858524
175	0x3f38435e	0.71977794
176	0x3f0d3381	0.55156714
177	0x3f1c373a	0.6102177
178	0x3eedaf0f	0.46422622
179	0x3f320db7	0.6955218
180	0x3f22fb51	0.6366473
181	0x3f3cfdb9	0.7382465
182	0x3f34750c	0.704911
183	0x3f2017bb	0.6253621
184	0x3f25fe01	0.64840704
185	0x3f324132	0.6963073
186	0x3f4b569c	0.7942903
187	0x3f0bf75f	0.54674333
188	0x3f28a148	0.65871096
189	0x3edeb4f7	0.4349744
190	0x3f1f6f27	0.6227898
191	0x3f1da112	0.615739
192	0x3f060357	0.52348846
193	0x3f0047c7	0.50109524
194	0x3f22a392	0.6353084
195	0x3ee2b082	0.4427529
196	0x3f000e6a	0.50021994
197	0x3f5c6668	0.8609376
198	0x3ee82b88	0.45345712
199	0x3f32c3b7	0.6982989
200	0x3f12d0e0	0.5734997
201	0x3eaf2a52	0.34211975
202	0x3f0d461c	0.55185103
203	0x3ed513e7	0.41616747
204	0x3f1f21a4	0.62160707
205	0x3f0a34b9	0.539867
206	0x3eb7119f	0.3575563
207	0x3ee393ef	0.44448802
208	0x3f573e2a	0.8407923
209	0x3f39cf57	0.72582
210	0x3f475498	0.77863455
211	0x3edbd24c	0.4293388
212	0x3f1447e5	0.579222
213	0x3f248101	0.64259344
214	0x3eaa7cee	0.3329844
215	0x3f363c32	0.711856
216	0x3f11e2c2	0.5698663
217	0x3f0c5b34	0.54826665
218	0x3f356048	0.7085004
219	0x3e9bfd3c	0.3046664
220	0x3ef77d24	0.48337662
221	0x3f0a9ee7	0.54148716
222	0x3ecf318c	0.4046749
223	0x3f383233	0.719516
224	0x3f0e612c	0.5561702
225	0x3f022c0e	0.5084847
226	0x3ea600f5	0.32422605
227	0x3eb6fcab	0.35739645
228	0x3eb5cbc6	0.3550703
229	0x3f27edb8	0.65597105
230	0x3ed94fde	0.42443746
231	0x3f1e8e06	0.6193546
232	0x3ebc076e	0.36724418
233	0x3f009350	0.5022478
234	0x3efded5d	0.49595156
235	0x3ec76741	0.38945964
236	0x3eed7187	0.46375677
237	0x3e9fa84f	0.31183097
238	0x3f280292	0.6562892
239	0x3f415cf5	0.75532466
240	0x3e94d543	0.29068956
241	0x3f3f9056	0.74829614
242	0x3ea97326	0.33095664
243	0x3f2d23fb	0.67633027
244	0x3f3d34cf	0.73908705
245	0x3efa74de	0.48917288
246	0x3f478875	0.7794259
247	0x3f17adb2	0.59249413
248	0x3f2d3845	0.67663985
249	0x3f1a8203	0.6035463
250	0x3f21f4f4	0.63264394
251	0x3f140dab	0.57833356
252	0x3ef86bb9	0.48519686
253	0x3f0ea2d0	0.5571718
254	0x3e949418	0.29019237
255	0x3efacee3	0.48985967

ltc_model.rnn_cell.sensory_w f4 [4, 64]
0	0x3ea108d6	0.31452054
1	0x3e2b5544	0.16731745
2	0x3f63f476	0.8904489
3	0x3f0524a9	0.52009064
4	0x3f283ffb	0.65722626
5	0x3b32a6ae	0.0027259993
6	0x3e402576	0.1876429
7	0x3cc3cb7d	0.023900742
8	0x3e995db9	0.29954317
9	0x3efd667f	0.4949226
10	0x3f72d5af	0.94857305
11	0x3ee416bf	0.44548604
12	0x3f179e59	0.59225994
13	0x3f3bbe64	0.7333739
14	0x3f1312c4	0.5745051
15	0x3f3a9f59	0.72899395
16	0x3d72b59b	0.059255224
17	0x3f06c478	0.5264354
18	0x3f2e10c3	0.67994326
19	0x3ef61117	0.48059914
20	0x3f01390b	0.50477666
21	0x3f43cf1e	0.7648791
22	0x3f2c506c	0.67310214
23	0x3f5bd42b	0.8587062
24	0x3e430e04	0.19048315
25	0x3df6d3bd	0.120521046
26	0x3f0aa3c0	0.5415611
27	0x3e949f06	0.29027575
28	0x3f466eae	0.77512634
29	0x3f811c4f	1.0086764
30	0x3f77b26d	0.9675663
31	0x3e8f0332	0.27932125
32	0x3f595411	0.848939
33	0x3e683570	0.22676635
34	0x3ebc6914	0.36798918
35	0x3f4377fe	0.7635497
36	0x3e0bff76	0.1367167
37	0x3e5c7377	0.21528421
38	0x3f3b5f9e	0.73192775
39	0x3ef441be	0.47706407
40	0x3df8300e	0.12118541
41	0x3ed06d35	0.40708318
42	0x3f66662b	0.89999646
43	0x3f0f1c27	0.5590233
44	0x3db2f9be	0.08739041
45	0x3dd59591	0.10428918
46	0x3f72c688	0.94834185
47	0x3f2f2714	0.68419003
48	0x3ef75759	0.48308828
49	0x3e8a130b	0.26967654
50	0x3f7e0af9	0.9923549
51	0x3f2dffe8	0.67968607
52	0x3f50cb30	0.8156004
53	0x3e7b7c06	0.2455903
54	0x3f374093	0.7158291
55	0x3e7d3c65	0.2473007
56	0x3e0a606a	0.13513342
57	0x3f3e2dce	0.7428864
58	0x3f6fae47	0.936253
59	0x3f73f910	0.95301914
60	0x3ecbcd35	0.39804998
61	0x3e529011	0.2056277
62	0x3f384e21	0.71994215
63	0x3dc9fab7	0.09862273
64	0x3f61ec20	0.88250923
65	0x3e1d817f	0.1538143
66	0x3eed90ed	0.46399632
67	0x3f58f0cf	0.84742445
68	0x3efe1dce	0.49632114
69	0x3e6c17e4	0.23055989
70	0x3f63cc77	0.88983864
71	0x3ebeecfe	0.37290186
72	0x3db2e456	0.08734958
73	0x3f3351eb	0.7004687
74	0x3f7f2a91	0.99674326
75	0x3f77b76e	0.96764266
76	0x3eb9d14d	0.36292496
77	0x3ec76eae	0.3895163
78	0x3f1ca4a0	0.611887
79	0x3f5f8ca2	0.87323964
80	0x3f4f4934	0.80971074
81	0x3f1d9a52	0.615636
82	0x3f8597f3	1.0436996
83	0x3e17e293	0.14832525
84	0x3ed519e4	0.41621315
85	0x3ea84c50	0.32870722
86	0x3ea26fe5	0.31725994
87	0x3e302cd1	0.17204596
88	0x3e59b71a	0.21261254
89	0x3f07c00e	0.5302743
90	0x3e4cfa81	0.20017435
91	0x3f4365f0	0.7632742
92	0x3e960df4	0.2930752
93	0x3ed39c78	0.41330314
94	0x3ec38f92	0.38195473
95	0x3e48149f	0.19539116
96	0x3e42ffbf	0.19042872
97	0x3e47857e	0.19484517
98	0x3f1533ae	0.5828198
99	0x3f4730a3	0.7780859
100	0x3f80c459	1.005992
101	0x3ee3fa9a	0.4452713
102	0x3f6607ba	0.8985554
103	0x3ee13e14	0.43992674
104	0x3f66b386	0.9011768
105	0x3f54ebc2	0.8317224
106	0x3f00e530	0.5034971
107	0x3f6c335b	0.9226586
108	0x3e7fd20e	0.24982473
109	0x3ef9df69	0.4880326
110	0x3f5924a3	0.8482153
111	0x3e877710	0.26458025
112	0x3f216211	0.6304026
113	0x3f346f14	0.7048199
114	0x3f122439	0.5708652
115	0x3efd0bbc	0.49423015
116	0x3d9a0449	0.075203486
117	0x3f1c3e35	0.6103242
118	0x3f34877d	0.7051924
119	0x3e838ca7	0.25693247
120	0x3e716408	0.23573315
121	0x3dfcfc0c	0.123527616
122	0x3ec22a4c	0.37922895
123	0x3ebb3a61	0.36567977
124	0x3efb8016	0.4912116
125	0x3ed90577	0.42386982
126	0x3ec5b314	0.38613188
127	0xbd0e0f4a	-0.03468255
128	0x3e88ded5	0.26732507
129	0x3e331e1b	0.17491953
130	0x3f033e83	0.5126726
131	0x3f614d64	0.88008714
132	0x3efbebb4	0.49203265
133	0x3d8817e2	0.0664518
134	0x3ef8f04a	0.48620826
135	0x3c499d90	0.012305632
136	0x3f22475e	0.6339015
137	0x3cfd6535	0.030932048
138	0x3f518848	0.81848574
139	0x3ed55c69	0.41672066
140	0x3f0371a2	0.51345265
141	0x3f130895	0.5743497
142	0x3f54f082	0.83179486
143	0x3ebd72a3	0.37001523
144	0x3f5993f9	0.84991413
145	0x3f35cd3e	0.710163
146	0xbd42dab8	-0.047571868
147	0x3f3270a6	0.6970314
148	0x3ef10ebb	0.4708155
149	0x3f0f8a10	0.5607004
150	0x3f43c777	0.76476234
151	0x3f5a4d28	0.8527398
152	0x3f76a999	0.96352535
153	0x3f6cc932	0.924945
154	0x3f27aba1	0.6549626
155	0x3f208bbf	0.62713236
156	0x3f2aa44a	0.66656935
157	0x3ed1df09	0.40990475
158	0x3f812ca5	1.009175
159	0x3f209557	0.62727875
160	0x3e8f877a	0.28033048
161	0x3f2c0ae5	0.67204124
162	0x3edc7235	0.43055883
163	0x3edb0aa4	0.42781556
164	0x3e2ded5a	0.16985074
165	0x3f824ae9	1.0179111
166	0x3ea4afcc	0.32165372
167	0x3f276a06	0.65396154
168	0x3f7d980e	0.9906014
169	0x3e951c6b	0.29123244
170	0x3e961afe	0.29317468
171	0x3f080261	0.5312863
172	0x3f828143	1.0195698
173	0x3ef0ccc5	0.47031227
174	0x3ec62cfc	0.38706195
175	0xbc986093	-0.018600738
176	0x3f2a20d4	0.6645634
177	0x3eff95a3	0.4991885
178	0x3f6ee7b3	0.93322295
179	0x3dc57509	0.09641463
180	0x3f10ce6c	0.56564975
181	0x3ec64990	0.38728
182	0x3f19280b	0.59826726
183	0x3f0ce389	0.5503469
184	0x3f2c4e1b	0.6730668
185	0x3f37038c	0.7148979
186	0x3ecec98d	0.40388146
187	0x3f3c97c5	0.7366908
188	0x3f2fcfc1	0.6867638
189	0x3d7747bb	0.060371142
190	0x3e07cb9e	0.13261268
191	0x3e2cd71d	0.16878934
192	0x3f836370	1.0264721
193	0x3f6ba3a1	0.9204655
194	0x3ea9f176	0.33192033
195	0x3f6836f3	0.90708846
196	0x3eb99541	0.36246684
197	0x3f42f693	0.7615749
198	0x3f3fcaae	0.7491864
199	0x3f423d2c	0.7587459
200	0x3f8054fd	1.0025936
201	0x3f3193b3	0.69365996
202	0x3f479306	0.77958715
203	0x3dbeb6f9	0.09312243
204	0x3e0a0742	0.13479331
205	0x3f0628ea	0.5240618
206	0x3f29b92a	0.6629816
207	0x3eb54bf5	0.35409513
208	0xbc512d67	-0.012767172
209	0x3f66290a	0.8990637
210	0x3f198e5a	0.59982836
211	0x3ee1443b	0.43997368
212	0x3f6937e1	0.9110089
213	0x3e925628	0.28581357
214	0x3e80a739	0.2512758
215	0x3f6705c7	0.9024319
216	0x3ddc88df	0.107682936
217	0x3f8a3630	1.0797787
218	0x3ecd6170	0.401134
219	0x3f5428c2	0.8287469
220	0x3f16c80b	0.5889899
221	0x3f250b97	0.6447081
222	0x3e8c84ff	0.27445218
223	0x3e908d00	0.28232574
224	0x3f7efbe4	0.99603105
225	0x3f358c04	0.7091677
226	0x3e837369	0.25673988
227	0x3f760239	0.9609714
228	0x3f6ecd53	0.9328205
229	0xbcf56492	-0.029955182
230	0x3f7195af	0.94369024
231	0x3f656879	0.8961254
232	0x3ef07913	0.46967372
233	0x3e7fcdd7	0.24980865
234	0x3f29005e	0.66016185
235	0x3f21f263	0.6326048
236	0x3f7813b8	0.9690509
237	0x3e450163	0.1923881
238	0x3dc523dc	0.0962598
239	0x3e2c320a	0.16815963
240	0x3f867358	1.050395
241	0x3f0b9b14	0.54533505
242	0x3f4d08c4	0.800915
243	0x3df8074e	0.12110768
244	0x3c178813	0.009248751
245	0x3f68dad9	0.90958935
246	0x3e68602a	0.22692934
247	0x3f69b5dd	0.91293126
248	0x3e921f44	0.2853948
249	0x3c0a422c	0.008438628
250	0x3e741c99	0.23839034
251	0x3e5040cd	0.2033722
252	0x3e1ca3fb	0.15296929
253	0x3eeac49c	0.45853126
254	0x3f66911a	0.9006516
255	0x3f5ce3d5	0.86285144
