LTC_A2C/adaptation_module/training_results/adaptation_module_StandardRNN_result_610_2024327_CfC_result_296_202437_numneuronsadaptmod_64_lradaptmod_5e-05_wdadaptmod_0.0001/best_adaptation_module_loss_CfC_A2C_2.pt (torch, 29492 bytes, 6 tensors)

rnn.weight_ih_l0 f4 [64, 5]
0.08548541 -0.089595266 0.10253475 0.06818524 0.095083095 -0.09699973 -0.08308187 0.058809813
-0.12634255 0.13461724 0.022278693 0.010892684 -0.10869411 0.05123761 0.055985175 0.017222397
0.11535094 0.0340092 -0.10025996 0.094121054 0.04282113 -0.05759589 -0.113288134 0.06196589
0.124493375 -0.10092535 0.008524034 0.046482652 -0.059608884 -0.01703237 -0.07975014 -0.056281235
-0.11263509 -0.011736792 0.063404076 0.061664537 0.11448442 -0.10380147 -0.007362711 0.13073765
0.014148248 -0.037388146 -0.1140856 0.04619823 0.10792496 0.09743551 0.10138894 0.022492869
0.09681305 -0.040454455 0.09686659 -0.009051776 -0.02441315 -0.074391775 0.074339904 0.047747333
0.07820145 -0.08179007 -0.06577735 0.10489716 -0.067164995 -0.07140169 -0.03354882 -0.030666592
-0.09542226 0.092708595 0.0051367334 0.050786898 0.10199511 -0.09074203 0.096285336 -0.057823807
-0.017982392 0.08252114 0.1151619 0.107793674 0.068191774 0.114130594 -0.034548976 -0.019385684
-0.04245204 -0.009513297 -0.015924336 0.07409588 0.07565851 -0.081136845 -0.060888264 -0.031791545
0.009977071 -0.062279817 -0.07826262 -0.023339948 -0.06036403 0.010517339 -0.083096564 -0.029351676
-0.041375272 -0.014807522 0.08682834 0.09481057 -0.040409673 -0.11298224 -0.088116504 -0.10525489
-0.0019293609 -0.04885328 -0.084841706 0.02897859 0.016675329 -0.0078924075 -0.04741419 0.104976356
-0.12089987 0.0007580261 0.06783367 0.08577577 -0.10891568 -0.019397466 0.09208759 0.03185309
0.03718586 -0.057076134 0.081400074 -0.054634437 -0.07644225 0.110205695 0.029017875 -0.0029172152
-0.07697654 -0.03908172 -0.09253987 -0.079576135 -0.015116832 0.014102955 -0.09158489 0.12063257
0.08987264 -0.11700229 0.088658586 -0.08511612 -0.10141721 0.11609582 -0.04914539 -0.030248916
0.025996728 0.07184513 0.009570375 -0.03296018 0.018340752 -0.07419007 -0.08993289 0.03436556
0.014013814 0.053290144 -0.03897023 -0.12132941 -0.030190706 -0.11967817 -0.004717395 0.052401025
0.02011042 0.080829754 0.030319102 0.043981086 0.1204401 0.017977929 0.021545768 -0.05135157
0.0663848 0.09738767 -0.08888761 0.11910588 0.038210332 -0.005936084 -0.102357216 -0.123363525
-0.09708481 -0.10402573 -0.0843088 -0.032268208 -0.1017451 -0.10053256 -0.012256147 -0.11497907
-3.197349e-05 0.020231083 0.024014613 0.080464564 0.07509544 -0.05710515 -0.047192656 -0.0032685767
0.10118422 0.07136871 -0.069442146 -0.010062716 0.022149129 0.04334372 -0.035361223 -0.12339878
-0.07736412 0.005483844 -0.08478279 0.026285589 0.09052299 -0.0042502773 0.06360763 0.085865475
0.076993205 -0.11163328 0.11037771 0.032036256 -0.12339692 0.028003158 -0.07558216 0.11090455
0.09557957 -0.08283458 -0.08439908 0.021983115 -0.032526642 0.054005034 -0.114808746 0.10050965
0.021303656 0.003236073 -0.07302871 0.009605263 0.0734858 0.1349083 -0.07976548 -0.053275663
0.025332632 0.07471928 -0.11682561 -0.04885661 -0.10006185 0.11365185 -0.048897628 0.084551156
0.071178325 0.015778162 0.025534954 0.070799984 -0.027309101 0.066579014 -0.01675557 0.0020219733
0.044101328 -0.12346537 -0.05728136 -0.099713385 -0.03791388 -0.006163176 0.036911782 -0.09932518
00000000: fa12 af3d b97d b7bd bdfd d13d b4a4 8b3d
00000010: edba c23d cba7 c6bd d426 aabd 8fe2 703d
00000020: f15f 01be 1ad9 093e ce81 b63c 3a77 323c
00000030: 049b debd 87de 513d b650 653d fc15 8d3c
00000040: 1d3d ec3d 3b4d 0b3d 1855 cdbd 8ac2 c03d
00000050: 3665 2f3d abe9 6bbd 9c03 e8bd f2cf 7d3d
00000060: 62f6 fe3d f3b1 cebd 64a8 0b3c 9864 3e3d
00000070: 7228 74bd 7887 8bbc 0b54 a3bd 2787 66bd
00000080: 3aad e6bd ac4b 40bc ffd9 813d f493 7c3d
00000090: cf76 ea3d dd95 d4bd e542 f1bb 17e0 053e
000000a0: 0ece 673c 5024 19bd b6a5 e9bd 5b3a 3d3d
000000b0: c307 dd3d 458c c73d 01a5 cf3d f742 b83c
000000c0: ec45 c63d 92b3 25bd fe61 c63d e64d 14bc
000000d0: 16fe c7bc b75a 98bd 853f 983d b592 433d
000000e0: 1528 a03d 8d81 a7bd 46b6 86bd 52d4 d63d
000000f0: cd8d 89bd 0d3b 92bd 7d6a 09bd 8138 fbbc
00000100: bf6c c3bd 01de bd3d 0b52 a83b ec05 503d
00000110: d0e2 d03d f5d6 b9bd 3f31 c53d a8d8 6cbd
00000120: cf4f 93bc d800 a93d 01da eb3d eec2 dc3d
00000130: 21a8 8b3d 4dbd e93d 3a83 0dbd bace 9ebc
00000140: 31e2 2dbd a9dd 1bbc c173 82bc 95bf 973d
00000150: d9f2 9a3d 132b a6bd f965 79bd da37 02bd
00000160: de76 233c 1f19 7fbd 2748 a0bd 6b33 bfbc
00000170: 4640 77bd eb50 2c3c 882e aabd ed72 f0bc
00000180: 1e79 29bd 409b 72bc 0fd3 b13d 0b2c c23d
00000190: 9d84 25bd 3c63 e7bd 6d76 b4bd e08f d7bd
000001a0: 9ce2 fcba 601a 48bd 7dc1 adbd 8264 ed3c
000001b0: b39a 883c 284f 01bc 6235 42bd d8fd d63d
000001c0: 5a9a f7bd 45b6 463a 61ec 8a3d 35ab af3d
000001d0: 2f0f dfbd 6fe7 9ebc 6b98 bc3d 6378 023d
000001e0: 3350 183d aac8 69bd 15b5 a63d 5cc8 5fbd
000001f0: c18d 9cbd 86b3 e13d e5b6 ed3c c02e 3fbb
00000200: e0a5 9dbd 2714 20bd 8b85 bdbd d0f8 a2bd
00000210: 97ac 77bc 1510 673c dc90 bbbd 350e f73d
00000220: 260f b83d e69e efbd a292 b53d 5c51 aebd
00000230: d4b3 cfbd a5c3 ed3d ad4c 49bd 93cc f7bc
00000240: 17f7 d43c 8a23 933d 10cd 1c3c 4101 07bd
00000250: 583f 963c f7f0 97bd bc2e b8bd e7c2 0c3d
00000260: 329a 653c c446 5a3d 3f9f 1fbd 8e7b f8bd
00000270: 8052 f7bc d419 f5bd 6194 9abb 75a2 563d
00000280: 9cbe a43c 128a a53d c45f f83c 8325 343d
00000290: 4da9 f63d 7346 933c c080 b03c 0656 52bd
000002a0: c1f4 873d 3073 c73d b50a b6bd c9ed f33d
000002b0: 7082 1c3d 7b83 c2bb a9a0 d1bd 04a6 fcbd
000002c0: 67d4 c6bd 710b d5bd 18aa acbd ab2b 04bd
000002d0: bc5f d0bd 04e4 cdbd 02ce 48bc 267a ebbd
000002e0: 461b 06b8 a8bb a53c 4bba c43c 9bca a43d
000002f0: a3cb 993d 17e7 69bd 164d 41bd 9e35 56bb
00000300: ac39 cf3d c229 923d af37 8ebd 17de 24bc
00000310: 1772 b53c 2f89 313d eed6 10bd 80b8 fcbd
00000320: 1471 9ebd d1b1 b33b 99a2 adbd e054 d73c
00000330: 1e64 b93d e945 8bbb b844 823d 3dda af3d
00000340: 9dae 9d3d fd9f e4bd b50d e23d 7338 033d
00000350: 86b7 fcbd e166 e53c d2ca 9abd ed21 e33d
00000360: 39bf c33d 2da5 a9bd 6dd9 acbd ef15 b43c
00000370: a83a 05bd 6234 5d3d d920 ebbd 01d8 cd3d
00000380: 0185 ae3c 4c14 543b 1490 95bd 655f 1d3c
00000390: b97f 963d 6725 0a3e 155c a3bd 9537 5abd
000003a0: 6186 cf3c 6c06 993d 4442 efbd de1d 48bd
000003b0: 3aed ccbd 4dc2 e83d e148 48bd 2829 ad3d
000003c0: f1c5 913d 3441 813c ae2e d13c 95ff 903d
000003d0: 56b7 dfbc 945a 883d fa42 89bc 1583 043b
000003e0: 98a3 343d 69db fcbd dc9f 6abd 8836 ccbd
000003f0: 964b 1bbd 78f4 c9bb cf30 173d 006b cbbd

rnn.weight_hh_l0 f4 [64, 64]
0.029385302 -0.038563132 -0.06762502 0.1296795 -0.11017627 -0.0809567 0.1286419 -0.091848396
-0.118085064 0.08679872 0.109968595 0.1023616 -0.07131589 -0.10783685 -0.123322025 0.009525131
0.041389287 0.009414655 0.023889817 -0.06998756 -0.01380483 0.10142527 -0.04657545 -0.105006576
0.12092452 0.09542011 0.10217006 0.11661951 -0.0135263195 0.07056098 0.026700245 0.03551016
-0.009071234 0.06709566 -0.051316924 -0.0012557755 0.056248512 0.032381568 0.10867109 -0.019076979
-0.03734878 -0.082708925 -0.06885985 -0.123868436 0.09443168 -0.10554241 -0.032432117 0.03804918
0.10538105 0.087723166 0.12538609 -0.018805305 -0.039182544 -0.13469219 0.012344999 0.054861683
0.0061642025 0.08506649 -0.0111483205 0.003988867 -0.12346371 0.012901112 0.022870475 -0.028107164
0.031525906 -0.10386838 0.0807048 -0.13232434 0.07061855 -0.021281669 -0.1374756 -0.0022132108
0.081563644 -0.019913308 -0.07111636 -0.098050095 0.0797525 -0.12799685 -0.0510967 -0.1292888
-0.13218775 0.10307257 -0.042041898 0.014985254 -0.00888665 -0.09048135 -0.004640639 -0.09116636
-0.08620854 0.07892581 -0.067107715 0.03405091 -0.02135018 0.040082593 -0.033899684 0.08083698
0.12537733 0.11269693 0.109804235 -0.058753196 0.08929874 -0.07201672 -0.12776774 0.09609968
-0.0049092793 0.09034487 0.08321791 -0.016767383 -0.0027802854 -0.005693736 -0.12023421 0.094911896
-0.08508189 0.034851853 0.10258427 -0.087422386 -0.087150395 0.114737906 0.002243418 -0.12523147
0.026417637 0.07445497 -0.08691941 0.09620891 0.13526973 0.13454244 0.08783802 -0.007240367
0.054561198 -0.04189064 0.015993591 -0.063943535 0.08454051 -0.038904082 -0.07182034 -0.017256634
0.030206183 0.015430039 -0.07166549 -0.077897795 -0.10036531 -0.052360505 -0.013383905 0.09084315
-0.06309041 -0.0036194706 -0.06422901 -0.058775473 -0.067424916 -0.121288374 -0.0860345 -0.01458116
0.022628123 0.046870574 -0.08883346 -0.12257803 -0.06710445 -0.057896078 -0.069962785 0.07100495
0.029106803 0.002948461 -0.08646119 -0.081549846 0.107293785 -0.102921814 -0.004632932 -0.10999676
-0.12281368 0.010079322 -0.04044955 -0.11377201 -0.08006983 0.09829269 -0.0505987 0.08411871
0.117578916 -0.07480343 -0.017140996 0.103644714 -0.03560433 0.04147256 0.12182763 -0.12006239
0.025167763 0.119991444 -0.043744203 -0.12901184 -0.065881066 -0.07530786 0.01805456 0.01284992
0.07514133 0.01342178 0.10715241 -0.07100703 0.006614425 -0.05629275 0.055482164 -0.09184877
-0.10493444 0.023063565 -0.073297635 0.07349349 0.09250743 -0.04629462 -0.04763845 0.003747816
-0.047296487 0.017178258 -0.11033344 0.072484374 0.07888214 0.029438984 0.10905908 0.0060047833
-0.05668795 -0.054821935 -0.02619055 0.13033822 0.0045448933 0.051301405 -0.039773587 0.05839013
0.10701508 -0.10805442 -0.13226384 -0.028952923 -0.083099894 -0.107471734 0.04689446 -0.05776374
0.098988086 -0.016643118 -0.029314177 0.08372335 -0.06282083 -0.09316142 0.021169448 0.07004879
-0.050949287 -0.08216355 -0.08996014 -0.13082369 0.10483037 -0.038449448 0.02800522 -0.018646471
0.113017626 0.058026407 0.06666794 0.007822517 0.029181663 0.054308664 -0.108952746 0.12517154
00000000: 72b9 f03c 60f4 1dbd fd7e 8abd b4ca 043e
00000010: 19a4 e1bd a0cc a5bd b4ba 033e 031b bcbd
00000020: 95d6 f1bd 87c3 b13d 3737 e13d f5a2 d13d
00000030: 110e 92bd 91d9 dcbd 4290 fcbd 4c0f 1c3c
00000040: d087 293d ed3f 1a3c 94b4 c33c a355 8fbd
00000050: a72d 62bc 0db8 cf3d e6c5 3ebd b00d d7bd
00000060: 46a7 f73d 9e6b c33d 893e d13d 36d6 ee3d
00000070: 7f9d 5dbc 4682 903d 79ba da3c 1a73 113d
00000080: 839f 14bc 7369 893d b231 52bd d598 a4ba
00000090: d764 663d 89a2 043d f38e de3d 5347 9cbc
000000a0: 09fb 18bd 4c63 a9bd 6506 8dbd bcae fdbd
000000b0: 6665 c13d 9e26 d8bd 8ad7 04bd 75d9 1b3d
000000c0: 05d2 d73d 34a8 b33d 3665 003e 950d 9abc
000000d0: e07d 20bd c0ec 09be ae42 4a3c a5b6 603d
000000e0: 14fd c93b 5737 ae3d 72a7 36bc 0bb5 823b
000000f0: 8bda fcbd 305f 533c dd5a bb3c ff40 e6bc
00000100: 4f21 013d f2b8 d4bd 8f48 a53d 0880 07be
00000110: 75a0 903d e556 aebc 67c6 0cbe 840b 11bb
00000120: d70a a73d 3c21 a3bc 74a5 91bd 7dce c8bd
00000130: 4755 a33d 9b11 03be c64a 51bd 4864 04be
00000140: 3a5c 07be b617 d33d 2034 2cbd b684 753c
00000150: 5099 11bc 494e b9bd 8010 98bb 6eb5 babd
00000160: 1a8e b0bd dba3 a13d c56f 89bd f878 0b3d
00000170: 93e6 aebc a52d 243d 65da 0abd dc8d a53d
00000180: ea62 003e a6cd e63d 0be1 e03d 31a7 70bd
00000190: 42e2 b63d 817d 93bd 8cd5 02be e9cf c43d
000001a0: 05de a0bb bb06 b93d 276e aa3d c05b 89bc
000001b0: 7335 36bb 8592 babb 5a3d f6bd 2b61 c23d
000001c0: 6a3f aebd d1c0 0e3d b417 d23d 820a b3bd
000001d0: e87b b2bd b5fb ea3d 4f06 133b ae3c 00be
000001e0: cd69 d83c d97b 983d ce02 b2bd 2d09 c53d
000001f0: 2684 0a3e 7ec5 093e 6be4 b33d 9a40 edbb
00000200: 907b 5f3d 8595 2bbd fe04 833c d4f4 82bd
00000210: 9323 ad3d e359 1fbd 8b16 93bd c95d 8dbc
00000220: f572 f73c 46ce 7c3c 5bc5 92bd e188 9fbd
00000230: 548c cdbd f877 56bd 2b48 5bbc f90b ba3d
00000240: 8b35 81bd a434 6dbb 808a 83bd 8dbe 70bd
00000250: 1316 8abd 0a66 f8bd db32 b0bd d1e5 6ebc
00000260: 9d5e b93c 5cfb 3f3d 51ee b5bd 310a fbbd
00000270: 0f6e 89bd 7024 6dbd a648 8fbd 0b6b 913d
00000280: 6471 ee3c f83a 413b 9012 b1bd 9b03 a7bd
00000290: d8bc db3d acc8 d2bd dacf 97bb fb45 e1bd
000002a0: bd85 fbbd be23 253c 6dae 25bd 4d01 e9bd
000002b0: a7fb a3bd ae4d c93d 9540 4fbd 6e46 ac3d
000002c0: 37cd f03d 8a32 99bd 466b 8cbc ae43 d43d
000002d0: d9d5 11bd 22df 293d c480 f93d 45e3 f5bd
000002e0: a02c ce3c 13be f53d 1f2d 33bd ae1b 04be
000002f0: a7ec 86bd 023b 9abd 28e7 933c 7988 523c
00000300: b3e3 993d 07e7 5b3c b972 db3d 226c 91bd
00000310: d2bd d83b 3a93 66bd 4441 633d 351b bcbd
00000320: dee7 d6bd cdef bc3c 121d 96bd c183 963d
00000330: 8974 bd3d 6d9f 3dbd 8920 43bd eb9d 753b
00000340: f6b9 41bd 6bb9 8c3c 80f6 e1bd b072 943d
00000350: f68c a13d 062a f13c 5e5a df3d c6c3 c43b
00000360: a031 68bd f78c 60bd 908d d6bc 6277 053e
00000370: 54ed 943b 6c21 523d a1e9 22bd 7d2a 6f3d
00000380: b92a db3d a34b ddbd 2c70 07be ae2e edbc
00000390: 4730 aabd 241a dcbd 6814 403d ac99 6cbd
000003a0: 44ba ca3d 2657 88bc 4924 f0bc 2677 ab3d
000003b0: 35a8 80bd 6acb bebd 8d6b ad3c bd75 8f3d
000003c0: 33b0 50bd 5d45 a8bd 063d b8bd a5f6 05be
000003d0: 4eb1 d63d 2b7d 1dbd 346b e53c 7cc0 98bc
000003e0: c975 e73d 19ad 6d3d 3389 883d 042a 003c
000003f0: 620e ef3c c372 5e3d 9e22 dfbd f82c 003e

rnn.bias_ih_l0 f4 [64]
0.053409208 -0.030809268 -0.042006932 -0.0004622089 -0.07830991 -0.049002476 0.090134375 -0.06637473
0.09973655 -0.056122784 -0.020379655 -0.06544735 0.044250242 -0.0884177 0.014075175 -0.09264541
-0.0056486716 -0.12078565 -0.10592822 -0.051352877 0.018746804 0.11369359 -0.0766091 0.08646698
-0.009580789 -0.09398744 0.11798865 0.07718842 -0.048061814 -0.018268136 -0.10030546 0.078658834
0.053739622 0.07817895 0.1209758 0.10733665 0.06360526 0.003406703 -0.05166669 -0.034783456
0.03412622 -0.056738652 0.044422444 0.053180452 0.05936325 0.015082761 -0.059316646 -0.023789654
-0.09254823 -0.108353 0.0005970638 0.0868044 0.09364955 0.09085093 0.082969666 -0.0037203655
0.028453352 0.012668435 0.0886514 -0.03286129 -0.053570546 0.0106311105 0.11815431 -0.101087525
00000000: 9dc3 5a3d b863 fcbc 760f 2cbd a154 f2b9
00000010: f260 a0bd d2b6 48bd 5f98 b83d 79ef 87bd
00000020: ad42 cc3d 01e1 65bd 3cf3 a6bc 4309 86bd
00000030: be3f 353d 5714 b5bd 909b 663c e0bc bdbd
00000040: 7e18 b9bb 785e f7bd e5f0 d8bd 6557 52bd
00000050: e692 993c 2fd8 e83d 3be5 9cbd 9a15 b13d
00000060: bef8 1cbc 7d7c c0bd 09a4 f13d f614 9e3d
00000070: 77dc 44bd 0fa7 95bc f36c cdbd e217 a13d
00000080: 141e 5c3d 491c a03d 29c2 f73d 51d3 db3d
00000090: 7943 823d fe42 5f3b 73a0 53bd 1979 0ebd
000000a0: efc7 0b3d ca66 68bd 4ff4 353d bfd3 593d
000000b0: e126 733d af1d 773c 03f6 72bd 85e2 c2bc
000000c0: ed89 bdbd 2de8 ddbd 4684 1c3a 81c6 b13d
000000d0: 56cb bf3d 0d10 ba3d 00ec a93d 60d1 73bb
000000e0: 0117 e93c 458f 4f3c dd8e b53d 8f99 06bd
000000f0: ca6c 5bbd 1c2e 2e3c e3fa f13d fa06 cfbd

rnn.bias_hh_l0 f4 [64]
0.098886445 0.10616876 0.031329695 -0.12790985 0.0363505 0.08815935 -0.06548356 0.109965615
-0.005751527 0.023422735 0.012628741 -0.10344869 -0.046261817 0.052944917 0.04844125 -0.07254602
-0.057622783 -0.015598077 0.08929511 0.057784364 0.014848808 0.035351176 -0.009097211 0.09693426
-0.10604252 -0.12657553 -0.07848012 -0.014020048 0.06858309 -0.07606895 0.056244556 0.015439466
-0.036443993 0.008679584 0.0003595948 -0.07736612 0.004688991 0.08597651 -0.05294829 -0.02588439
0.083816655 -0.037015695 0.1048791 0.060244855 0.024811544 0.033023603 -0.0026326224 -0.046597216
0.013223389 0.015365382 -0.07208705 0.110991925 -0.09194464 -0.06391733 0.030972907 -0.085467085
-0.12938137 -0.09237464 -0.040257126 0.041183084 0.1257889 -0.041170206 -0.02405224 0.07682547
00000000: fa84 ca3d 026f d93d 9153 003d cdfa 02be
00000010: 43e4 143d e48c b43d 3f1c 86bd a735 e13d
00000020: 4e77 bcbb 09e1 bf3c c7e8 4e3c e8dc d3bd
00000030: 087d 3dbd c5dc 583d 556a 463d 0293 94bd
00000040: de05 6cbd 148f 7fbc 5be0 b63d 4caf 6c3d
00000050: 6a48 733c 65cc 103d 780c 15bc 7885 c63d
00000060: d22c d9bd 049d 01be 2fba a0bd 58b4 65bc
00000070: 4b75 8c3d 0aca 9bbd b160 663d d0f5 7c3c
00000080: 4c46 15bd d034 0e3c ff87 bc39 2172 9ebd
00000090: 1ba6 993b 7414 b03d 4ee0 58bd 800b d4bc
000000a0: 11a8 ab3d c59d 17bd dbca d63d 4fc3 763d
000000b0: 9441 cb3c c243 073d 1388 2cbb b9dc 3ebd
000000c0: eaa6 583c 15bf 7b3c 60a2 93bd bc4f e33d
000000d0: 794d bcbd 17e7 82bd e5ba fd3c 5e09 afbd
000000e0: 8d7c 04be ea2e bdbd a8e4 24bd 98af 283d
000000f0: cece 003e 17a2 28bd 3409 c5bc ac56 9d3d

linear.weight f4 [32, 64]
0.061330546 -0.082200125 -0.07377416 -0.014856016 0.04432324 0.031974535 0.10827031 0.07489087
0.0031198212 0.09003896 -0.078259096 -0.023509199 -0.056875624 0.017312452 0.035839424 0.089114286
-0.089059815 0.025625022 0.07114017 -0.092641175 -0.04595582 -0.033703193 0.04702119 -0.121859945
0.0005591717 -0.11894635 -0.0042751236 -0.017856427 -0.08948739 0.03960979 -0.086541384 -0.0076788235
0.029584242 -0.10322454 0.0039921375 -0.11397478 0.107401565 0.0148491915 -0.00052779116 -0.056621842
-0.07439489 0.123746 0.045150556 0.018953146 -0.094458655 0.0212087 -0.030203989 -0.02083087
-0.041620184 0.070320405 0.093575686 -0.11346346 -0.0759926 -0.045433857 0.0026119212 0.09807958
-0.031274293 -0.04732887 0.015237635 0.041158527 0.10864769 0.040289953 0.017427294 -0.036452137
0.06628139 -0.052831247 -0.09516454 0.029557157 0.071798556 0.11537536 -0.10605767 0.00012524023
0.09870163 0.007392151 -0.018285027 0.046476107 0.058620587 0.081231035 -0.044398274 0.1060228
-0.024782928 -0.09029643 -0.02298037 -0.102432124 -0.07845672 -0.006081791 -0.04423834 -0.03860905
-0.025474729 -0.012797055 -0.0845299 0.020134522 -0.022490496 0.031042475 -0.08247341 0.06197816
-0.027494296 0.05164462 -0.09322922 0.078342 -0.061352376 -0.055309013 -0.038465936 -0.08361654
0.030157423 0.07705034 0.09468594 -0.10628641 -0.092931114 -0.031460937 -0.08115891 0.066045634
0.024305174 0.011641944 0.0018317412 -0.008614697 -0.04576011 0.077819906 -0.11138702 0.044223454
0.02012494 0.022384351 0.094559364 0.089991845 -0.05176947 0.047671832 -0.101266876 -0.10944662
-0.062111866 0.010364251 -0.07685487 0.08270807 -0.042045664 -0.09712974 -0.04278981 0.1075701
0.01726605 -0.104246184 0.043250777 0.046908557 -0.023049172 -0.09408097 -0.057804283 0.09572745
0.10377808 0.028363569 -0.1345303 0.024076171 0.097408354 -0.1229862 0.041553278 0.06989614
0.12191681 -0.013257972 -0.05481245 -0.09450145 -0.021554928 -0.025562705 -0.045080446 7.838168e-05
-0.10190964 -0.07195761 -0.07678484 0.10587166 -0.06580489 -0.038154446 0.008040415 0.04382203
-0.11042681 0.08019997 0.07905227 0.031252936 0.070634484 0.017752388 -0.054317903 0.07558949
-0.1154282 -0.04179799 0.10680848 0.11820566 -0.0151517 0.103231445 -0.10304877 -0.09426987
0.060224555 0.010052076 -0.07520679 0.019992407 0.010128507 0.039502412 0.006345416 -0.06690054
0.02570815 -0.08770253 -0.014809834 -0.062720664 0.097270876 -0.013324305 -0.0328295 0.005733246
-0.08518103 -0.12068565 0.12401569 -0.05794662 -0.073990755 -0.029009908 -0.094515234 0.08805441
0.016902091 0.0434065 0.088053964 0.00083062967 0.11692882 -0.04884874 -0.08404237 -0.05317268
0.08213345 -0.10584099 0.07596986 0.08153782 0.067086585 -0.12614857 -0.024972076 0.10121726
-0.10504744 -0.11453116 -0.09654569 -0.04912111 -0.052120894 0.088520385 0.0795618 0.07535364
-0.08016642 -0.026981298 0.03750541 -0.026029617 -0.08180874 0.1156692 -0.10509064 -0.11986687
0.0625233 0.09326297 -0.09339285 0.07315293 0.015108715 -0.037955135 -0.04752067 -0.04267056
0.08706368 0.04525076 -0.015165504 0.019357126 0.07656962 -0.014181039 0.072550766 0.10731086
00000000: bd35 7b3d 8a58 a8bd e816 97bd a666 73bc
00000010: 498c 353d bbf7 023d d3bc dd3d 6260 993d
00000020: ea75 4c3b 5966 b83d 4e46 a0bd 5d96 c0bc
00000030: 6af6 68bd d8d2 8d3c 5ccc 123d 8d81 b63d
00000040: fe64 b6bd 91eb d13c f0b1 913d a8ba bdbd
00000050: 2b3c 3cbd 5c0c 0abd 4b99 403d b591 f9bd
00000060: 6195 123a 259a f3bd 5616 8cbb a447 92bc
00000070: 2a45 b7bd e03d 223d 9c3c b1bd a49e fbbb
00000080: a75a f23c 6367 d3bd 7ad0 823b 9c6b e9bd
00000090: 5af5 db3d 064a 733c 775b 0aba 4eec 67bd
000000a0: 595c 98bd 8b6e fd3d caef 383d a143 9b3c
000000b0: 8a73 c1bd debd ad3c 5b6e f7bc 80a5 aabc
000000c0: ed79 2abd 2504 903d 9ca4 bf3d 885f e8bd
000000d0: 02a2 9bbd da18 3abd c42c 2b3b f2dd c83d
000000e0: 7919 00bd ebdb 41bd 46a7 793c d895 283d
000000f0: ae82 de3d 1407 253d afc3 8e3c d64e 15bd
00000100: 8abe 873d 9465 58bd a0e5 c2bd da21 f23c
00000110: 1f0b 933d eb49 ec3d c434 d9bd eb52 0339
00000120: 1524 ca3d db39 f23b 7bca 95bc bb5d 3e3d
00000130: 241c 703d 755c a63d f7da 35bd 7b22 d93d
00000140: 9105 cbbc 56ed b8bd 5441 bcbc efc7 d1bd
00000150: ebad a0bd c349 c7bb 4333 35bd 8624 1ebd
00000160: 61b0 d0bc bdaa 51bc 031e adbd 27f1 a43c
00000170: fd3d b8bc ca4c fe3c d2e7 a8bd d0dc 7d3d
00000180: b83b e1bc 4f89 533d f6ee bebd c571 a03d
00000190: a14c 7bbd b48b 62bd 758e 1dbd 263f abbd
000001a0: b30c f73c 92cc 9d3d b4ea c13d b0ac d9bd
000001b0: ab52 bebd 2fdd 00bd a536 a6bd ef42 873d
000001c0: a51b c73c dabd 3e3c 0917 f03a a824 0dbc
000001d0: f46e 3bbd 0b60 9f3d e11e e4bd a723 353d
000001e0: 0fdd a43c 635f b73c 57a8 c13d a54d b83d
000001f0: 390c 54bd 8a43 433d 0265 cfbd 8d25 e0bd
00000200: 0369 7ebd d2ce 293c 1666 9dbd d962 a93d
00000210: 1338 2cbd f5eb c6bd 5e44 2fbd b64d dc3d
00000220: 8871 8d3c 067f d5bd ba27 313d 3023 403d
00000230: 9ed1 bcbc 86ad c0bd 2fc4 6cbd c10c c43d
00000240: 9a89 d43d b75a e83c 50c2 09be 643b c53c
00000250: 087e c73d 30e0 fbbd c533 2a3d b525 8f3d
00000260: 85af f93d f737 59bc 0583 60bd fa89 c1bd
00000270: f693 b0bc e168 d1bc 46a6 38bd d860 a438
00000280: 00b6 d0bd 835e 93bd 5f41 9dbd 3ed3 d83d
00000290: b7c4 86bd d647 1cbd f2bb 033c bb7e 333d
000002a0: 7427 e2bd e23f a43d 28e6 a13d 1403 003d
000002b0: d0a8 903d 756d 913c 737c 5ebd aace 9a3d
000002c0: 9f65 ecbd 5f34 2bbd 68be da3d cf15 f23d
000002d0: d63e 78bc 026b d33d 3c0b d3bd 9010 c1bd
000002e0: 06ae 763d 76b1 243c 0406 9abd 1ec7 a33c
000002f0: 0af2 253c 48cd 213d 35ed cf3b 2603 89bd
00000300: e699 d23c 629d b3bd f2a4 72bc b173 80bd
00000310: f435 c73d 304e 5abc 3a78 06bd f4dd bb3b
00000320: 6473 aebd 0a2a f7bd f0fb fd3d 6f59 6dbd
00000330: 7788 97bd 30a6 edbc 3491 c1bd df55 b43d
00000340: 4176 8a3c 04cb 313d a355 b43d 9dbe 593a
00000350: 6178 ef3d 9e15 48bd 681e acbd 99cb 59bd
00000360: 9535 a83d 29c3 d8bd 1696 9b3d 4dfd a63d
00000370: b164 893d 172d 01be 3d92 ccbc ff4a cf3d
00000380: 1d23 d7bd 508f eabd bfb9 c5bd 3833 49bd
00000390: b87c 55bd 2d4a b53d 4cf1 a23d 0253 9a3d
000003a0: 4b2e a4bd e207 ddbc 469f 193d 103c d5bc
000003b0: 578b a7bd f9e3 ec3d c339 d7bd c37c f5bd
000003c0: 370c 803d a800 bf3d c044 bfbd 34d1 953d
000003d0: 8b8a 773c d876 1bbd 09a5 42bd 53c7 2ebd
000003e0: 714e b23d dc58 393d bc78 78bc d692 9e3c
000003f0: 88d0 9c3d 9757 68bc 7f95 943d ccc5 db3d

linear.bias f4 [32]
0.073165454 0.12779993 -0.061727706 -0.06533007 -0.032972373 0.11778794 -0.025119213 0.039574537
-0.07176178 0.06556926 0.026124831 0.022771906 0.1097039 0.035836283 -0.10739668 -0.0984508
-0.09802761 0.092945546 -0.055610795 0.022105841 -0.07853513 0.053357743 0.006354733 -0.10240588
0.08965583 0.03612556 -0.1000621 0.07167701 -0.030840585 -0.07206124 0.09098522 0.06012636
00000000: c5d7 953d fcdd 023e 31d6 7cbd c6cb 85bd
00000010: 0a0e 07bd ce3a f13d cfc6 cdbc e918 223d
00000020: d7f7 92bd 2d49 863d be03 d63c 268c ba3c
00000030: 70ac e03d 11c9 123d caf2 dbbd 93a0 c9bd
00000040: b3c2 c8bd 3c5a be3d 25c8 63bd 4f17 b53c
00000050: 07d7 a0bd a68d 5a3d 5d3b d03b 2dba d1bd
00000060: 7a9d b73d 65f8 133d 5ced ccbd 65cb 923d
00000070: 65a5 fcbc d894 93bd 7656 ba3d 0f47 763d
