LTC_A2C/training_results/CfC_a2c_result_240_202435_learningrate_1e-05_selectiomethod_range_evaluation_all_params_gamma_0.99_trainingmethod_quarter_range_numneurons_48_tausysextraction_True_mode_neuromodulated_randomization_params_[(0.775, 5.75), (1.0, 2.0), (0.8, 2.25)]/checkpoint_CfC_A2C_1.pt (torch, 118580 bytes, 16 tensors)

cfc_model.rnn_cell.w_tau f4 [1, 48]
0	0xbe866584	-0.26249325
1	0xbd8b9b02	-0.06816675
2	0x3de85f4b	0.11346301
3	0xbe9c4223	-0.30519208
4	0x3e7a1a45	0.24424084
5	0x3dfbc02a	0.12292512
6	0xbe88018d	-0.26563683
7	0x3e837335	0.25673833
8	0xbe315dac	-0.17320889
9	0x3ea3d9d5	0.3200213
10	0x3e061e02	0.13097385
11	0x3e137b02	0.14402393
12	0x3d86a494	0.065743595
13	0x3e2bc2c8	0.16773522
14	0xbe518331	-0.20460202
15	0xbe8d8a29	-0.2764447
16	0xbea33648	-0.3187735
17	0x3e499858	0.19687021
18	0x3e6d91a8	0.23200095
19	0x374c759c	1.2186731e-05
20	0xbe0a1749	-0.13485445
21	0xbe42f94f	-0.19040416
22	0x3e596c86	0.21232805
23	0xbcc610a6	-0.02417786
24	0xbde762f9	-0.112981744
25	0x3e99f934	0.3007294
26	0x3c93a189	0.018021362
27	0xbd930895	-0.07179371
28	0x3d1f34b7	0.038868632
29	0x3e83e7a8	0.25762677
30	0xbdda98b6	-0.106736585
31	0x3deb1fb1	0.11480654
32	0x3ddab55e	0.10679124
33	0xbe6f713a	-0.23383036
34	0x3e8cb9be	0.2748546
35	0xbe309788	-0.17245305
36	0xbe99ece6	-0.30063552
37	0x3d41042b	0.047123116
38	0x3e908260	0.28224468
39	0x3e3c4cfd	0.18388744
40	0x3e9e3ccb	0.30905756
41	0x3de8c9ff	0.11366653
42	0x3d1869ff	0.03721046
43	0xbe72df93	-0.237181
44	0xbdc69159	-0.096956916
45	0x3d47a168	0.048737913
46	0x3e8811e2	0.26576144
47	0x3e86e454	0.26346076

cfc_model.rnn_cell.A f4 [1, 48]
0	0x3e09bea2	0.13451627
1	0x3dd5ecbb	0.104455434
2	0x3e8d1d14	0.27561247
3	0xbdeb0911	-0.11476339
4	0xbe4bedc8	-0.19914925
5	0x3ead510f	0.33850905
6	0xbe51f0fa	-0.20502082
7	0xbe619bcc	-0.22032088
8	0x3e69edc8	0.22844613
9	0xbe14fe95	-0.1455024
10	0xbcd6c191	-0.026215347
11	0xbd84b6e3	-0.064801954
12	0xbe2398bd	-0.15976234
13	0x3df85d71	0.121271975
14	0x3e92211b	0.28540882
15	0xbea80f53	-0.3282419
16	0xbd500eb8	-0.050795287
17	0xbddc2476	-0.10749142
18	0x3d82533d	0.06363533
19	0xbeb22788	-0.34795785
20	0x3de9b306	0.11411099
21	0x3d9ad378	0.07559866
22	0x3ddc5c68	0.107598126
23	0xbe3271ce	-0.17426226
24	0xbdceade9	-0.100917645
25	0x3c090f74	0.008365501
26	0xbe846dca	-0.25865012
27	0xbea4518e	-0.3209347
28	0x3e92609e	0.28589338
29	0x3e46ecf9	0.19426335
30	0x3eb30cb1	0.3497062
31	0xbe0fb499	-0.14033736
32	0xbe85a575	-0.26102796
33	0xbe863ee1	-0.26219848
34	0x3d422e1c	0.047407255
35	0xbeb06f5f	-0.3445997
36	0xbdf028c5	-0.11726526
37	0xbe59d6ec	-0.21273392
38	0x3eb36d1a	0.35044175
39	0xbd963ebf	-0.073361866
40	0x3c3060cf	0.0107652685
41	0x3e53886b	0.20657508
42	0xbd92f0b6	-0.07174818
43	0xbcff828a	-0.031190176
44	0x3ca4f1e0	0.020134866
45	0x3e13cd59	0.14433803
46	0x3e093a49	0.1340114
47	0xbe9b796d	-0.30366078

cfc_model.rnn_cell.tau_system f4 [1, 48]
0	0x3f50096c	0.81264377
1	0x409067e4	4.512682
2	0x404ee47e	3.232696
3	0x3fc5104c	1.5395598
4	0x4027be6f	2.6209981
5	0x4002d43c	2.0442038
6	0x3fccad45	1.5990378
7	0x4016ea42	2.358048
8	0x403ac693	2.91837
9	0x40408144	3.0078897
10	0x3fe1e5d6	1.7648265
11	0x4090825e	4.515914
12	0x4148b83c	12.544979
13	0x40bab490	5.8345413
14	0x40797551	3.8977854
15	0x3ff90420	1.9454384
16	0x400a4c1a	2.1608949
17	0x40a1bbd8	5.05418
18	0x3f663767	0.8992829
19	0x4206f549	33.739536
20	0x3fac19c1	1.344536
21	0x40759a80	3.837555
22	0x3f888814	1.0666528
23	0x41950b18	18.630417
24	0x41000269	8.000588
25	0x3fc0f822	1.5075724
26	0x3f825053	1.0180763
27	0x40796696	3.8968863
28	0x40dced76	6.903987
29	0x400dea56	2.2174277
30	0x408b0982	4.3449106
31	0x40948062	4.6406717
32	0x3f841c54	1.0321145
33	0x40753edb	3.8319614
34	0x40370c3c	2.8601217
35	0x3f8d1ebc	1.1025004
36	0x403a3cbe	2.9099574
37	0x401ec37f	2.4806821
38	0x3f936889	1.1516277
39	0x408ef2e9	4.467152
40	0x3f804ec3	1.0024036
41	0x4105e1ff	8.367675
42	0x41376081	11.461061
43	0x4002b282	2.0421453
44	0x3f97239e	1.1807745
45	0x418486fe	16.565914
46	0x40513085	3.2685864
47	0x40344a58	2.8170376

cfc_model.rnn_cell.backbone.0.weight f4 [128, 52]
0	0xbdcb4cae	-0.09926735
1	0xbd33bb7f	-0.043879982
2	0xbe56716c	-0.20941705
3	0x3e11785c	0.1420607
4	0x3d780604	0.060552612
5	0xbd404480	-0.046940327
6	0xbd6cf1e5	-0.057847876
7	0xbe1819f7	-0.14853655
8	0xbb88116c	-0.0041524675
9	0xbd833022	-0.06405665
10	0xbdec9a37	-0.11552852
11	0x3df4b69c	0.119488925
12	0x3d97a773	0.07404985
13	0x3dfaee20	0.1225245
14	0xbd50112d	-0.05079763
15	0x3dd2f98c	0.103015035
16	0x3cddd187	0.02707745
17	0x3dc144c8	0.09436947
18	0x3dede8b9	0.11616654
19	0xbdc0cac2	-0.09413673
20	0xbe177c23	-0.14793448
21	0x3cde6946	0.027149808
22	0xbe077b2f	-0.13230585
23	0xbd3a5d04	-0.045498863
24	0xbdc379ee	-0.095447406
25	0xbde44111	-0.11145223
26	0x3df8ef90	0.12155068
27	0x3dae714b	0.08517703
28	0xbdd24b14	-0.10268226
29	0x3e063858	0.13107431
30	0x3dad0207	0.08447652
31	0x3e21cd0b	0.15800874
32	0xbd94b0d6	-0.07260291
33	0xbd66cea8	-0.056349427
34	0xbe33bac0	-0.17551708
35	0x3d912e08	0.07088858
36	0x3e106ef4	0.14104825
37	0x3cd13463	0.025537675
38	0xbdc84b48	-0.09779984
39	0xbe2d598b	-0.16928689
40	0x3dc1bb87	0.09459596
41	0x3e002ee2	0.12517884
42	0x3e150d23	0.14555793
43	0xbe2b3121	-0.1671796
44	0x3da78b93	0.081809185
45	0xbdf91663	-0.12162473
46	0xbe2dec72	-0.16984728
47	0xbd16def4	-0.03683372
48	0xbe2ca028	-0.1685797
49	0x3d2eee49	0.042707715
50	0xbd8d4043	-0.068970226
51	0x3e37cb67	0.17948686
52	0xbd148690	-0.03626114
53	0x3e25827f	0.16163062
54	0xbe1c2a17	-0.15250431
55	0xbd67c913	-0.056588244
56	0x3dab1b74	0.08354846
57	0x3d6bd0f8	0.057572335
58	0xbd5983a0	-0.053104043
59	0x3e31349d	0.17305227
60	0xbacb730c	-0.0015521958
61	0x3dc36124	0.095400125
62	0x3d9f819f	0.07788395
63	0xbd41d0a8	-0.04731813
64	0x3de286cc	0.11060867
65	0x3def30ad	0.11679206
66	0xbc81b100	-0.01583147
67	0x3dde940a	0.1086808
68	0x3cf9f097	0.03051023
69	0x3e3fc0a7	0.18725835
70	0xbd48c8a0	-0.049019456
71	0xbce8fa8b	-0.02843978
72	0xbe38f35d	-0.18061586
73	0x3d4564e9	0.04819194
74	0xbd8e4f1e	-0.06948684
75	0xbe1b244a	-0.15150562
76	0x3e0b0af0	0.13578391
77	0x3e2a139d	0.16609044
78	0x3ba1d3c9	0.004938577
79	0x3d141dcf	0.03616124
80	0x3d8aa991	0.067706235
81	0xbd511b2d	-0.051051307
82	0xbd05da04	-0.03267862
83	0x3dd3080c	0.10304269
84	0x3e2d0aa1	0.16898586
85	0x3c997ab5	0.01873527
86	0x3ad4fe8c	0.0016250177
87	0x3d3f03e7	0.04663458
88	0xbd76b0dc	-0.06022726
89	0x3ca93f2f	0.020660011
90	0x3d492405	0.049106617
91	0xbd677a25	-0.05651297
92	0xbe010d62	-0.12602761
93	0x3db73ee1	0.0894754
94	0x3da41174	0.080111414
95	0x3caf13a7	0.021371676
96	0xbe11cbf6	-0.14237961
97	0x3e3e555e	0.18587252
98	0x3dec68c5	0.11543421
99	0x3d001807	0.031272914
100	0x3d1e0ea9	0.0385882
101	0x3e1afa3f	0.15134524
102	0x3e14fcd6	0.14549574
103	0x3dc32454	0.095284134
104	0x3cddb8c4	0.027065642
105	0xbe0e2aa8	-0.1388346
106	0x3e271287	0.16315661
107	0x3c463284	0.012097005
108	0x3e11f7e1	0.14254715
109	0xbdfabf47	-0.122435145
110	0x3d392822	0.04520429
111	0x38966af5	7.17248e-05
112	0xbe05a0db	-0.13049643
113	0x3d787a4d	0.06066351
114	0x3df8a228	0.12140304
115	0x3da36f92	0.07980265
116	0xbe0b648b	-0.13612573
117	0x3d054768	0.0325388
118	0xbdcb6e39	-0.09933133
119	0x3d1a4da8	0.037671715
120	0x3df6485e	0.12025522
121	0xbe25676c	-0.16152734
122	0xbe3848aa	-0.17996469
123	0x3cf9092f	0.030399887
124	0x3dfc384b	0.123154245
125	0xbbe5e536	-0.0070158495
126	0x3df89e5c	0.1213958
127	0xbe0c6d00	-0.13713455
128	0x3e1a8167	0.15088426
129	0x3c5c8761	0.013460011
130	0x3e024b2f	0.12723993
131	0x3d961e0a	0.07329948
132	0xbdfe2f95	-0.12411419
133	0xbc208b46	-0.00979883
134	0xbd86c09b	-0.06579705
135	0x3e2fdb82	0.1717358
136	0x3c20d162	0.009815546
137	0x3d87b2f8	0.066259325
138	0x3c8f9894	0.01752881
139	0xbda7187d	-0.08158968
140	0x3d63bd90	0.055600703
141	0x3d0d1275	0.03444143
142	0xbe0275c3	-0.12740235
143	0xbd9f5dbc	-0.0778155
144	0xbe0a3bd8	-0.13499391
145	0xbda09038	-0.078400075
146	0x3db4a92a	0.08821328
147	0xbd5c0e2b	-0.05372445
148	0xbd88f716	-0.06687753
149	0x3dca9bcc	0.09892997
150	0x3d953f90	0.07287514
151	0xbe24a384	-0.16078001
152	0xbdb844ad	-0.08997474
153	0x3ccd933d	0.025094623
154	0xbdbeb12e	-0.09311138
155	0xbd7b3ac0	-0.061335325
156	0x3d1914e3	0.037373435
157	0xbdef2381	-0.11676694
158	0xbd7711c3	-0.060319673
159	0x3cbb27ad	0.022846067
160	0xbdcbbb7f	-0.099478714
161	0x3e1737b8	0.14767349
162	0xbce19e8a	-0.027541418
163	0xbe22e4d4	-0.15907604
164	0xbbae0f35	-0.0053118714
165	0xbd0a10bd	-0.03370737
166	0xbdedd30e	-0.11612521
167	0xbdfbb535	-0.12290422
168	0xbdb400b9	-0.087892
169	0x3df32a76	0.11873333
170	0xbda2f978	-0.07957739
171	0x3c62ce69	0.013843157
172	0x3dbc0849	0.09181268
173	0x3be9dfe6	0.0071372865
174	0x3cd66588	0.02617146
175	0xbe26981c	-0.16268963
176	0x3d76df7f	0.060271736
177	0x3e17ef33	0.14837341
178	0xbe1c9dd4	-0.15294582
179	0xbe14e859	-0.14541759
180	0x3c566679	0.013085955
181	0x3dab3aeb	0.08360847
182	0xbde2c78f	-0.11073219
183	0x3dea6119	0.11444301
184	0x3d9e6f38	0.07736057
185	0x3e25358e	0.1613371
186	0x3d01d3d7	0.031696167
187	0x3d842395	0.06452099
188	0x3d2994f2	0.04140181
189	0xbe147718	-0.14498556
190	0x3e1df7f0	0.15426612
191	0x3d0fd334	0.03511353
192	0x3db20c8f	0.086938016
193	0x3d1c4702	0.038153656
194	0xbd9b9434	-0.07596627
195	0x3d5b55bd	0.053548563
196	0x3e2f51c7	0.1712104
197	0xbdd6dafc	-0.10490987
198	0x3e10db9d	0.14146276
199	0x3db135df	0.08652853
200	0x3d0d252e	0.034459285
201	0x3d9ec5b6	0.07752554
202	0x3ddaf1f7	0.106906824
203	0x3defa801	0.11701966
204	0xbe26ee56	-0.16301855
205	0x3dccb5e8	0.09995633
206	0xbe36472f	-0.17800592
207	0xbd2f540e	-0.04280477
208	0xbcff664a	-0.031176705
209	0xbe087c37	-0.13328634
210	0x3df264d1	0.118356355
211	0xbc27fbcf	-0.010252907
212	0x3d69716a	0.056992926
213	0x3e28fd52	0.16502884
214	0xbd54e74a	-0.051978387
215	0xbe2b9142	-0.1675463
216	0x3e1b06e8	0.15139353
217	0xbc38bead	-0.011275929
218	0x3dce9ac6	0.100881144
219	0xbda42977	-0.08015721
220	0xbd3cf42a	-0.04613129
221	0x3c100c01	0.008791924
222	0x3d976409	0.07392127
223	0x3dcd6b08	0.1003018
224	0x3b999c76	0.004687841
225	0xbdf93529	-0.121683426
226	0x3dc29710	0.09501469
227	0xbe052f12	-0.13006237
228	0xbe1c7f76	-0.15282997
229	0xbd9688e4	-0.073503286
230	0x3d982cab	0.07430395
231	0x3e25fdc7	0.1621009
232	0xbd7ba253	-0.0614341
233	0xbe0279f8	-0.1274184
234	0x3c759254	0.014988501
235	0x3d22440e	0.039615683
236	0xbdc40e32	-0.0957302
237	0xbe23a718	-0.1598171
238	0x3da136f4	0.078718096
239	0x3d95ab16	0.07308023
240	0x3cc295cb	0.023753067
241	0xbe1ddae0	-0.15415525
242	0x3e1f61f6	0.15564713
243	0x3d2510e2	0.040299304
244	0x3d3194c3	0.04335476
245	0xbcebecd9	-0.028799461
246	0x3d11c1ad	0.035585094
247	0x3d0e0a98	0.03467807
248	0x3cc23864	0.02370853
249	0x3cb6ac6d	0.022299016
250	0xb8af21c8	-8.3509425e-05
251	0xbe11d820	-0.14242601
252	0xbdd93615	-0.106060185
253	0xbd67b7a3	-0.056571614
254	0x3dd11b31	0.102102645
255	0xbe1b6990	-0.15176988

cfc_model.rnn_cell.backbone.0.bias f4 [128]
0	0x3d9e406c	0.07727131
1	0xbdbe5941	-0.092943676
2	0x3dd36905	0.10322765
3	0xbdb0ade5	-0.08626918
4	0x3dba2cf2	0.09090604
5	0x3dc09951	0.09404243
6	0x3cad3e15	0.021147767
7	0x3dc9e466	0.09858017
8	0xbde07bed	-0.10961137
9	0x3de9d95d	0.11418412
10	0x3da890dc	0.08230755
11	0x3e0923bb	0.13392536
12	0x3d28d3f7	0.04121777
13	0xbda1765d	-0.07883904
14	0x3d128371	0.035769884
15	0xbca7640b	-0.020433446
16	0x3c5632d8	0.0130736455
17	0x3cbb370c	0.022853397
18	0xbdd34f5a	-0.103178695
19	0x3cc8306c	0.024437152
20	0x3d2dcaa2	0.042429574
21	0x3cec99be	0.028881904
22	0x3e1132dd	0.14179559
23	0xbdb0fedf	-0.08642363
24	0x3c5d1b9b	0.013495351
25	0xbd27596f	-0.040856775
26	0xbd87f440	-0.06638384
27	0x3dd9dc14	0.1063768
28	0xbe0a6428	-0.13514769
29	0xbc4f1e78	-0.012641542
30	0x3d5b717e	0.05357503
31	0x3d168041	0.036743406
32	0x3dc19f1f	0.09454178
33	0x3d210e12	0.03932006
34	0xbdbda646	-0.0926023
35	0xbd190e6b	-0.037367266
36	0xbdecf8b2	-0.11570872
37	0x3c617119	0.013759875
38	0x3d62935f	0.055316325
39	0xbd2e0381	-0.04248381
40	0xbde7f8ec	-0.11326775
41	0x3dc321a4	0.09527901
42	0xbce1b1ab	-0.027550539
43	0xbe123b4a	-0.1428043
44	0xbd0fb72b	-0.035086792
45	0xbcff55e8	-0.031168893
46	0x3db34f38	0.08755344
47	0xbdb43dbd	-0.08800838
48	0xbd90d532	-0.07071914
49	0xbdd7cb28	-0.10536796
50	0xbd5a14ea	-0.0532426
51	0x3dd87a0f	0.10570156
52	0xbd2fb5ec	-0.042898104
53	0xbcb4c8ec	-0.022068463
54	0xbcce6866	-0.025196265
55	0xbe0515d8	-0.12996614
56	0x3d81a4a8	0.06330234
57	0xbd9c5c82	-0.07634832
58	0x39a3e91d	0.00031263466
59	0x3d90c312	0.07068457
60	0xbe04b7e7	-0.12960778
61	0x3d2953bb	0.041339617
62	0xbd1d0d6c	-0.03834288
63	0xbd35c0ed	-0.04437344
64	0xbe107ba4	-0.14109665
65	0xbe0c54db	-0.13704245
66	0xbbf803ff	-0.0075688357
67	0xbd1ebc8a	-0.038754024
68	0xbd830aed	-0.06398568
69	0xbbfeebe7	-0.0077795866
70	0xbd7b760d	-0.06139188
71	0xbd1da220	-0.038484693
72	0xbd6608af	-0.056160625
73	0xbdf5f110	-0.1200887
74	0x3d607c06	0.054805778
75	0xbde5cc82	-0.112206474
76	0xbd417961	-0.047234897
77	0xbd82d210	-0.063877225
78	0x3cf81928	0.030285433
79	0x3e0e5f41	0.13903524
80	0xbe0321a0	-0.12805796
81	0x3dd2fc68	0.10302049
82	0xbd42233f	-0.047396895
83	0xbdaec5fd	-0.08533857
84	0xbcef9a74	-0.029248454
85	0x3c536885	0.012903337
86	0x3d9ae6b7	0.075635366
87	0xbde41568	-0.111368954
88	0xbcd02bfc	-0.025411598
89	0xbdde3293	-0.1084949
90	0xbdf1d141	-0.1180749
91	0x3d0938e4	0.03350152
92	0x3be33f8c	0.0069350656
93	0x3d03e4fd	0.032200802
94	0xbcaadf8b	-0.020858547
95	0x3d964cf2	0.07338895
96	0x3df0b91d	0.117540576
97	0xbd08167a	-0.03322456
98	0x3de7dadd	0.11321042
99	0xbdcc56c2	-0.09977485
100	0x3ddf4251	0.10901321
101	0xbe0b4a5a	-0.13602582
102	0x3d0b181b	0.033958536
103	0x3de29fdf	0.11065649
104	0xbd985d81	-0.074397095
105	0xbdc234bc	-0.094827145
106	0xbd0ca45f	-0.034336444
107	0x3d6ecfaa	0.058303513
108	0xbbcdf549	-0.006285344
109	0x3db809ed	0.08986268
110	0x3d25aadc	0.040446147
111	0xbdb0b719	-0.08628673
112	0x3e011dc7	0.12609015
113	0xbda84564	-0.0821636
114	0x3dc37cd4	0.095452935
115	0x3c3e9a73	0.011633503
116	0x3d557f39	0.052123282
117	0xbdee0231	-0.11621512
118	0xbdc10c3a	-0.0942616
119	0x3d653d70	0.055966794
120	0x3dffb5ce	0.12485848
121	0xbda2e6d9	-0.07954187
122	0x3d8a4aca	0.06752546
123	0xbdc507ee	-0.09620653
124	0xbd24309b	-0.040085416
125	0x3cf2debc	0.029647224
126	0x3de96e65	0.11398009
127	0xbe025052	-0.12725952

cfc_model.rnn_cell.ff1.weight f4 [48, 128]
0	0xbddfe864	-0.10932997
1	0xbc9965f3	-0.018725371
2	0x3d870cf6	0.06594269
3	0xbe29e866	-0.16592559
4	0x3e0c15f9	0.13680257
5	0x3dbe7d6d	0.09301267
6	0xbe1279c6	-0.14304265
7	0xbe274017	-0.16333042
8	0x3cceb097	0.025230689
9	0x3d2daa63	0.04239882
10	0xbaf9d0c9	-0.0019059415
11	0xbd971380	-0.07376766
12	0xbd93f67f	-0.0722475
13	0x3d832508	0.064035475
14	0xbe051b1e	-0.12998626
15	0xbdbf19c1	-0.09331084
16	0xbd83e99d	-0.064410426
17	0x3e4d99ae	0.20078155
18	0xbe04bbd1	-0.12962271
19	0x3deb12cf	0.11478197
20	0x3da7dda9	0.08196575
21	0x3e437de0	0.19090986
22	0xbbd10084	-0.0063782353
23	0xbd9eacff	-0.0774784
24	0x3de6f502	0.112772
25	0xbe1ef927	-0.15524732
26	0x3e2510ef	0.16119741
27	0x3c528215	0.012848397
28	0x3e0cdd8a	0.13756385
29	0xbdfaffa0	-0.12255788
30	0x3d495261	0.04915083
31	0x3d26cf11	0.040724818
32	0x3d8432cd	0.06455002
33	0xbdea9943	-0.114550136
34	0xbda81431	-0.08206976
35	0x3c87781c	0.016536765
36	0xbe41c59d	-0.1892304
37	0x3e47963f	0.19490908
38	0x3e13c45e	0.14430377
39	0x3dbdb937	0.092638426
40	0x3c38e01a	0.011283899
41	0x3dff36ac	0.124616
42	0xbe1c5900	-0.15268326
43	0xbda05c11	-0.0783006
44	0x3d30bce7	0.0431489
45	0x3d6d5e00	0.057950974
46	0x3e017e4c	0.12645835
47	0xbde87923	-0.1135123
48	0x3d2073e8	0.039173037
49	0xbd841592	-0.06449427
50	0x3e411196	0.18854365
51	0x3cfa51b0	0.03055653
52	0xbe12e4c2	-0.14345077
53	0x3e00de05	0.12584694
54	0xbdced641	-0.100994594
55	0x3e14ce7d	0.14531894
56	0xbe064426	-0.13111934
57	0xbce711ce	-0.028206732
58	0xbe27f76c	-0.16402978
59	0xbca6599d	-0.020306403
60	0xbdc5ea7b	-0.09663864
61	0xbddcf8e3	-0.10789659
62	0xbdec6265	-0.11542205
63	0x3b30af6d	0.002696003
64	0x3df50367	0.119635396
65	0x3da3cf99	0.079985805
66	0xbde60960	-0.11232257
67	0x3e2501cb	0.16113965
68	0x3e4ed930	0.20200038
69	0xbd1fca2b	-0.03901116
70	0x3c407e30	0.011748835
71	0x3e09eae6	0.13468513
72	0x3db5e139	0.088808484
73	0x3dcd308f	0.100190274
74	0x3d636e1f	0.05552494
75	0xbe00b1f8	-0.1256789
76	0x3df404a7	0.1191495
77	0x3e1fc2c1	0.15601636
78	0x3d1f8195	0.03894194
79	0x3df4c5ac	0.119517654
80	0xbe1de9dd	-0.15421243
81	0xbe13b00b	-0.14422624
82	0xbe2337c8	-0.15939248
83	0xbe0ff341	-0.14057638
84	0x3c19578d	0.009359253
85	0xbdc54825	-0.09632901
86	0xbb4883b8	-0.0030596089
87	0x3dd002d6	0.10156791
88	0xbd950105	-0.07275585
89	0xbdaf8e01	-0.08572007
90	0x3e37707a	0.17914
91	0xbe1420e9	-0.14465679
92	0xbd93edf5	-0.07223121
93	0x3e3e0861	0.18557884
94	0xbd1721f5	-0.03689762
95	0xbaed5964	-0.0018108306
96	0xbe56c99c	-0.20975345
97	0x3ced61aa	0.028977234
98	0x3dbbde12	0.09173216
99	0xbd37215b	-0.044709545
100	0xbd20da00	-0.0392704
101	0xbe13c52e	-0.14430687
102	0x3de804b9	0.11329026
103	0x3d485dd2	0.0489176
104	0xbdcdc8cb	-0.10048064
105	0x3d4357ef	0.047691282
106	0x3dd7735f	0.10520052
107	0x3d21e588	0.03952554
108	0xbdc95a12	-0.09831633
109	0xbca402b4	-0.02002082
110	0x3da79fd3	0.08184781
111	0x3da515ce	0.080607995
112	0x3d8268f3	0.06367674
113	0x3d8300a7	0.06396609
114	0xbe36cf71	-0.1785257
115	0xbcea314f	-0.028587965
116	0xbd3ffd6e	-0.04687255
117	0xbc8ebb08	-0.017423168
118	0x3d741f4d	0.059600163
119	0xbda2870c	-0.079359144
120	0xbcc72d5d	-0.024313623
121	0xbc26bac9	-0.010176369
122	0x3da9d30e	0.082922086
123	0x3dfc2abd	0.12312839
124	0xbc02b1e2	-0.007976981
125	0x3c1c301e	0.009532956
126	0xbe15747f	-0.14595221
127	0xbd0fbd6b	-0.035092752
128	0x3ca11349	0.019662516
129	0x3e0a48b0	0.1350429
130	0xbb0ca910	-0.0021463074
131	0xbcfcf122	-0.0308767
132	0xbde78249	-0.11304147
133	0x3ddc1db3	0.10747852
134	0x3e2a0b92	0.16605976
135	0xbe2c1782	-0.16805843
136	0x3d980570	0.07422912
137	0x3d1cc981	0.038278107
138	0xbca72f96	-0.020408433
139	0xbe1e8147	-0.15479003
140	0x3e15ca10	0.14627862
141	0xbe0def1e	-0.13860747
142	0xbd065d5f	-0.03280389
143	0xbe0daf93	-0.13836507
144	0x3cc3a322	0.023881499
145	0x3d085c1e	0.033290975
146	0x3d899f31	0.067198165
147	0x3d8e989a	0.069627
148	0x3e23905a	0.15973035
149	0xbd44bfe0	-0.04803455
150	0x3e265255	0.16242345
151	0xbe59ba92	-0.21262577
152	0xbd8910dc	-0.06692669
153	0xbe2c6039	-0.16833581
154	0x3ce46939	0.027882205
155	0xbe161d5a	-0.14659634
156	0x3e06beb7	0.1315869
157	0x3d978b19	0.07399578
158	0xbe35f064	-0.17767483
159	0x3dd6dd25	0.10491399
160	0x3dbaffdd	0.09130833
161	0x3e19b030	0.15008616
162	0x3d7d194d	0.061791707
163	0xbdc50c3b	-0.096214734
164	0x3d45fc6a	0.048336424
165	0x3cb8bd9e	0.022551354
166	0x3e1e6752	0.15469101
167	0xbce1a584	-0.027544744
168	0x3d426a17	0.047464456
169	0xbe482c68	-0.1954819
170	0x3e00dc00	0.12583923
171	0x3e412229	0.18860687
172	0x3e0143b9	0.1262349
173	0xbe3c1f4a	-0.18371311
174	0xbe113d2a	-0.14183488
175	0xbd797339	-0.0609009
176	0x3d2886ab	0.041144054
177	0x3dfd8e9c	0.12380716
178	0x3dd2eadd	0.10298703
179	0xbe39681a	-0.18106118
180	0xbe11e899	-0.14248885
181	0xbda36620	-0.07978463
182	0xbda7d45f	-0.081948034
183	0x3a876a83	0.0010331426
184	0x3cba58c7	0.02274741
185	0x3e01d467	0.12678681
186	0xbd9ace09	-0.07558829
187	0x3e41127d	0.18854709
188	0xbd9cd323	-0.07657459
189	0xbe3f53a5	-0.18684252
190	0xbd0c75b6	-0.034291945
191	0xbddcc48c	-0.10779676
192	0x3daf8ecf	0.085721605
193	0xbe0705d0	-0.13185811
194	0x3d5c1d90	0.05373913
195	0x3ccc3960	0.024929702
196	0x3e4f1bd4	0.2022546
197	0x3e477e3b	0.19481747
198	0x3d69ef32	0.05711288
199	0xbe3562cc	-0.1771347
200	0xbdb86498	-0.09003562
201	0x3e29a822	0.16568044
202	0xbdcf093e	-0.10109185
203	0x3dcfa955	0.101397194
204	0xbe4ba544	-0.19887263
205	0xbd84d532	-0.06485976
206	0xbd832631	-0.06403769
207	0x3d66972d	0.056296516
208	0xbddae954	-0.10689035
209	0x3e037d0e	0.12840673
210	0xbc0913d5	-0.008366545
211	0x3e2628d4	0.16226512
212	0xbe3f7a86	-0.18699083
213	0xbe1da796	-0.1539596
214	0xbe1c6102	-0.1527138
215	0xbd308b84	-0.043101802
216	0x3d6b219c	0.0574051
217	0xbdfc8248	-0.12329537
218	0xbdc43820	-0.095810175
219	0x3de3307e	0.110932335
220	0xbe019fc2	-0.12658599
221	0xbd4fc885	-0.05072834
222	0xbceb3a93	-0.028714454
223	0x3e09bae0	0.13450193
224	0xbe5861a6	-0.21131
225	0xbd577b30	-0.052607715
226	0xbd8268c4	-0.06367639
227	0xbe0400da	-0.1289095
228	0x3d6b61c9	0.057466302
229	0xbe30c54b	-0.17262761
230	0xbda692c4	-0.08133462
231	0xbd7d17d9	-0.06179032
232	0xbe11ba65	-0.1423126
233	0xbced4881	-0.028965237
234	0x3d844d51	0.064600594
235	0xbca8ba11	-0.020596536
236	0xbd5ce08a	-0.053925075
237	0x3d0b831c	0.034060583
238	0x3d25ac40	0.040447474
239	0x3dc7faa6	0.09764604
240	0x3d6cead6	0.057841145
241	0xbd3ac002	-0.04559327
242	0x3e00f752	0.12594345
243	0x3bd6df46	0.006557378
244	0x3e054c02	0.13017276
245	0xbdc59646	-0.09647803
246	0xbe0f3035	-0.13983233
247	0x3db4b55b	0.08823653
248	0x3e027cc9	0.12742914
249	0x3ddcb5e1	0.10776878
250	0x3d8d92ef	0.06912791
251	0x3c70c623	0.014695677
252	0xbe35c86f	-0.1775224
253	0x3c9cf337	0.019158943
254	0x3c5d53a3	0.01350871
255	0x3e339134	0.1753586

cfc_model.rnn_cell.ff1.bias f4 [48]
0	0xb94786c6	-0.00019028326
1	0xbc1056aa	-0.008809725
2	0x3bf5d287	0.0075019035
3	0xbd2ed515	-0.04268368
4	0xbcbf64f0	-0.02336356
5	0x3dc08c25	0.094017304
6	0xbd19b8cd	-0.037529755
7	0x3d169c9d	0.03677045
8	0x3d06d814	0.032920912
9	0xbd8725c4	-0.06599
10	0xbc2fee0a	-0.010737905
11	0xbce36a55	-0.027760664
12	0x3c852668	0.016253665
13	0xbcdeb8db	-0.027187755
14	0xbd56a8d8	-0.052407116
15	0xbd5488b0	-0.051888168
16	0x3db5a2ca	0.0886894
17	0x3d978ec0	0.07400274
18	0x3d89aed4	0.06722799
19	0xbd3f2443	-0.04666544
20	0x3c163c7e	0.009169696
21	0x3ca100f1	0.01965377
22	0xbd9f8ec1	-0.077909
23	0x3d94af54	0.07260004
24	0x3c8dee8f	0.017325668
25	0x3c66c792	0.014085667
26	0x3d8a3ae3	0.06749513
27	0xbd93385f	-0.07188486
28	0xbc865a11	-0.016400369
29	0x3cb06a9a	0.021535207
30	0xbd42462f	-0.047430214
31	0x3d411f92	0.04714925
32	0x3c5b58c7	0.013387865
33	0x3bf3db5c	0.007441921
34	0xbdc1af68	-0.09457284
35	0xbd6c1a28	-0.057642132
36	0xbdab246d	-0.08356557
37	0x3cbb7cf9	0.02288674
38	0xbd5d2b58	-0.053996414
39	0x3d13ebd8	0.03611359
40	0xbda1619d	-0.078799464
41	0xbd1afa33	-0.037836265
42	0xbccc7e5b	-0.024962595
43	0xbd1ce150	-0.038300812
44	0xbcc361ba	-0.02385031
45	0xbda9e208	-0.08295065
46	0x3d507b33	0.050898742
47	0x3d777ab3	0.06041975

cfc_model.rnn_cell.neuromod.0.weight f4 [128, 3]
0	0xbe04c04e	-0.12963983
1	0x3e5b01af	0.21387361
2	0xbe01b26f	-0.12665723
3	0xbdec1eb3	-0.11529293
4	0x3e0a9104	0.13531882
5	0xbd88091e	-0.06642364
6	0x3dfb90c9	0.12283475
7	0xbdec2a13	-0.115314625
8	0xbe4ad093	-0.19806127
9	0x3e4009b0	0.18753695
10	0x3e26fa36	0.16306385
11	0x3d65f44f	0.056141194
12	0xbde583eb	-0.11206802
13	0xbe1856e8	-0.14876902
14	0x3e0f6424	0.14003044
15	0xbe0d902b	-0.13824527
16	0xbe07bcf7	-0.13255678
17	0xbe0ce309	-0.13758482
18	0xbde474fb	-0.11155125
19	0xbde756ef	-0.11295878
20	0xbe5550d2	-0.20831612
21	0xbe51c49b	-0.20485155
22	0x3e551846	0.20810041
23	0x3d8a46e0	0.067517996
24	0xbd2dfd14	-0.042477682
25	0xbd948139	-0.0725121
26	0xbd9e7a55	-0.07738177
27	0xbe3f6ae8	-0.18693125
28	0xbdc50c45	-0.09621481
29	0xbc53c544	-0.01292545
30	0xbe2c8768	-0.16848528
31	0x3c958e3b	0.018256297
32	0xbe5acc63	-0.2136703
33	0xbe16dd28	-0.14732802
34	0x3db1a900	0.08674812
35	0xbdeee0d2	-0.11663975
36	0xbcb70db2	-0.022345398
37	0xbe15b561	-0.14619972
38	0xbe135ce7	-0.14390908
39	0x3d6fea05	0.058572788
40	0xbd9e4b39	-0.07729191
41	0x3dd8e004	0.105896026
42	0x3d2de6dc	0.042456493
43	0x3de94064	0.11389235
44	0xbe03929c	-0.12848896
45	0x3c25f965	0.010130261
46	0x3d6f4afb	0.058421116
47	0xbe55c8a6	-0.20877323
48	0xbdf5795c	-0.11986038
49	0xbe4b19ad	-0.19834013
50	0xbd8dc929	-0.06923134
51	0x3e108ff9	0.14117421
52	0x3e26596b	0.16245048
53	0xbe011b06	-0.12607965
54	0x3def9ad3	0.11699452
55	0x3c8f3af1	0.01748416
56	0x3db56342	0.088568226
57	0x3e20af3e	0.1569185
58	0xbe38439c	-0.17994541
59	0x3dd52189	0.10406787
60	0xbe11ba0c	-0.14231128
61	0x3e263f08	0.16234982
62	0x3dc7c588	0.09754473
63	0x3df6ff5b	0.12060424
64	0xbe06c0de	-0.1315951
65	0x3d398a74	0.045298055
66	0xbdc787f0	-0.09742725
67	0x3e19afc6	0.15008458
68	0xbdddd471	-0.108315356
69	0xbda60a61	-0.08107448
70	0xbc88a96b	-0.016682347
71	0x3daac53c	0.08338401
72	0xbe11917d	-0.14215656
73	0x3dd457e9	0.1036833
74	0x3d970da8	0.073756516
75	0x3d359fd0	0.044341862
76	0xbe5162fd	-0.20447917
77	0xbd65bfbf	-0.056091066
78	0x3d9b62a2	0.07587172
79	0x3e33de02	0.17565158
80	0xbd15eb90	-0.036601603
81	0x3de12f27	0.10995322
82	0xbdd8c3e3	-0.105842374
83	0x3e047a7f	0.12937354
84	0xbe5232d0	-0.20527196
85	0xbe0c487b	-0.13699524
86	0x3ce3ae81	0.02779317
87	0x3db938fa	0.090440705
88	0xbce169fc	-0.027516358
89	0x3e41d0eb	0.18927352
90	0x3bf22055	0.007389108
91	0xbc9482f4	-0.01812885
92	0x3e223299	0.15839614
93	0x3dee5e3d	0.11639068
94	0x3b00bc9a	0.0019643665
95	0xbd3beb8c	-0.045878932
96	0xbd6db247	-0.058031347
97	0x3d9755f1	0.07389439
98	0x3db14899	0.08656425
99	0xbdd5a94b	-0.10432681
100	0xbdd0da23	-0.10197856
101	0xbe005a9f	-0.12534569
102	0x3e230b0e	0.15922186
103	0x3e40f9c3	0.18845277
104	0xbe4434e6	-0.19160804
105	0xbe02c6ed	-0.12771197
106	0x3e0cbc49	0.137437
107	0xbda5b7d6	-0.080917045
108	0x3e02c4df	0.12770413
109	0x3d89b146	0.06723265
110	0xbdf8173f	-0.12113809
111	0x3e043fe2	0.12914994
112	0xbe413938	-0.18869483
113	0xbdb9a64e	-0.09064923
114	0x3dd71d67	0.10503655
115	0x3e01ccf9	0.12675847
116	0x3d996b4b	0.07491168
117	0x3ddc775a	0.10764952
118	0xbd20bbf0	-0.03924173
119	0xbd85396c	-0.06505093
120	0xbdf74578	-0.12073797
121	0x3dc57ad3	0.096425675
122	0xbd1cf665	-0.038320918
123	0xbe25d216	-0.16193423
124	0xbd1f29a4	-0.03885807
125	0xbca6f6dd	-0.020381385
126	0x3e2d91f4	0.16950208
127	0xbe2cdcc1	-0.16881086
128	0xbe3e0d1b	-0.18559687
129	0xbe0c35d6	-0.13692412
130	0x3d3ed1dd	0.04658686
131	0xbdb671df	-0.08908438
132	0x3b6142d9	0.003437212
133	0xbe0e8489	-0.13917746
134	0xbc05a6c1	-0.008157433
135	0x3da764ef	0.081735484
136	0xbd85dd8e	-0.06536399
137	0x3d9ab66e	0.07554327
138	0x3e436018	0.19079626
139	0xbe049eb4	-0.12951165
140	0xbb49f220	-0.0030814484
141	0xbdd507f3	-0.10401907
142	0xbe040362	-0.12891915
143	0x3dd753bd	0.10514019
144	0x3e363e4a	0.17797199
145	0xbd54a9c3	-0.05191971
146	0xbe13dcf8	-0.14439762
147	0xbe1c8712	-0.152859
148	0x3e114ff8	0.14190662
149	0xbde82f86	-0.113371894
150	0x3d363e17	0.044492807
151	0x3ddd340b	0.10800942
152	0xbdcc1e59	-0.09966726
153	0xbcd27bfc	-0.025693886
154	0x3e2cc7ab	0.16873042
155	0x3e096ea9	0.1342112
156	0x3d0dde45	0.0346358
157	0xbd90d263	-0.07071378
158	0xbc831801	-0.016002657
159	0x3e4d6005	0.2005616
160	0x3e4e5f99	0.20153655
161	0xbd35ac2c	-0.04435365
162	0xbdd43a13	-0.10362639
163	0xbd011723	-0.031516206
164	0xbab26fe0	-0.0013613664
165	0x3d8faf55	0.07015864
166	0x3d8433f2	0.0645522
167	0xbddb7849	-0.10716302
168	0x3e2b64bf	0.1673765
169	0x3e01feb0	0.12694812
170	0xbd835683	-0.06412985
171	0xbdec062f	-0.11524617
172	0xba82adcb	-0.0009970007
173	0xbe12dc76	-0.14341912
174	0xbe0b1674	-0.13582784
175	0x3d43c63b	0.04779647
176	0xbc8e083f	-0.017337916
177	0xbe326607	-0.17421733
178	0xbe0f1bac	-0.139754
179	0x3d4eb2ff	0.050463673
180	0xbe00cd35	-0.1257828
181	0xbc9e4a48	-0.01932253
182	0xbc075193	-0.008259195
183	0x3d90e734	0.070753485
184	0xbc7bd5a0	-0.015370756
185	0xbe4cf6aa	-0.2001597
186	0xbdc396ce	-0.09550248
187	0xbd9c69db	-0.07637378
188	0xbde5f451	-0.1122824
189	0xbd57a12e	-0.052643947
190	0xbe53a5a4	-0.20668656
191	0xbc868f3d	-0.016425723
192	0x3de02bfd	0.1094589
193	0x3d3dad35	0.04630776
194	0xbb51819a	-0.0031968118
195	0xbdcd84bf	-0.10035085
196	0xbe464718	-0.19363058
197	0x3d522f77	0.051314797
198	0xbe46414e	-0.1936085
199	0x3c9fe571	0.019518586
200	0x3d555ebc	0.0520923
201	0x3e330c06	0.17485055
202	0x3c38a913	0.011270779
203	0xbe31a0fc	-0.17346567
204	0x3d1e3d28	0.038632542
205	0xbe156582	-0.14589503
206	0xbdce7733	-0.10081329
207	0x3e0cd483	0.13752942
208	0xbc7553fb	-0.014973636
209	0x3d391887	0.045189407
210	0xbda51616	-0.08060853
211	0xbdbfeaf4	-0.093709856
212	0xbe4114ee	-0.1885564
213	0xbcbd1231	-0.023079963
214	0xbd900c79	-0.07033629
215	0xbe13423f	-0.1438074
216	0xbc3a31f1	-0.011364446
217	0xbdb5835a	-0.08862944
218	0x3adbfc9d	0.0016783659
219	0x3df94e21	0.12173105
220	0x3baf80eb	0.0053559444
221	0x3d956258	0.07294148
222	0x3d05a2f4	0.032626107
223	0x3e4255fd	0.18978114
224	0x3d08a01e	0.033355825
225	0x3dd32daa	0.10311444
226	0xbd89a7c5	-0.067214526
227	0xbdd8cd98	-0.10586089
228	0xbe325671	-0.17415787
229	0xbdc98087	-0.09838968
230	0xbe24bbea	-0.16087309
231	0xbd11276a	-0.03543798
232	0xbd5fc292	-0.054628916
233	0xbdac2c20	-0.08406854
234	0xbd4e382b	-0.050346535
235	0xbe431478	-0.19050777
236	0xbde316ee	-0.11088358
237	0xbdf82f7f	-0.12118434
238	0x3da36846	0.07978873
239	0x3ca49659	0.020091223
240	0xbdd571fe	-0.10422133
241	0x3d0d5ba2	0.034511216
242	0x3e398a3c	0.18119138
243	0xbdbf0982	-0.09327985
244	0x3e2dc6b9	0.16970338
245	0x3d05d8a5	0.03267731
246	0x3cefb8f1	0.029262992
247	0x3e50096e	0.20316097
248	0x3d0ba7b4	0.03409548
249	0x3cf7f7d9	0.03026955
250	0xbe004ff4	-0.125305
251	0xbca73fdd	-0.020416195
252	0x3d9d0ce1	0.07668472
253	0x3e364324	0.1779905
254	0x3e1a6c5d	0.150804
255	0xbdec58f0	-0.11540401

cfc_model.rnn_cell.neuromod.0.bias f4 [128]
0	0x3e527eb7	0.2055615
1	0xbe38632b	-0.1800658
2	0x3ee5c95e	0.44880193
3	0xbe0b0faa	-0.13580194
4	0x3f08de61	0.53464323
5	0x3e1da2b3	0.15394096
6	0x3e8b5534	0.27213442
7	0xbcc9f2cb	-0.024651906
8	0x3f0cc5f5	0.5498956
9	0xbddaf6cb	-0.10691603
10	0xbedc7d51	-0.4306436
11	0x3dc825bc	0.09772822
12	0xbf071f22	-0.5278188
13	0xbed75209	-0.42054775
14	0xbeb70a65	-0.35750118
15	0xbf0108ae	-0.5040387
16	0x3ebb2121	0.36548713
17	0x3d3174e1	0.043324355
18	0xbc569b4f	-0.013098552
19	0xbe081fd1	-0.13293387
20	0xbda70145	-0.08154539
21	0xbee68b4c	-0.4502815
22	0x3ee92393	0.45534953
23	0x3f10a78a	0.56505644
24	0x3ec92856	0.39288586
25	0xbf0d4ff4	-0.55200124
26	0xbdf4d88a	-0.11955364
27	0x3e2064da	0.15663472
28	0x3dd81b17	0.10552042
29	0xbe40d312	-0.18830517
30	0x3ed3e090	0.41382265
31	0xbecc9aca	-0.39961845
32	0xbedc1897	-0.4298751
33	0xbe985512	-0.29752403
34	0x3e3467f7	0.17617784
35	0x3eb304c1	0.34964564
36	0xbdc75ee8	-0.09734899
37	0xbe28e625	-0.16494043
38	0xbe0c5cd6	-0.13707289
39	0x3e897f27	0.26854822
40	0x3e529a4b	0.2056667
41	0x3cb85cf3	0.02250526
42	0x3e4f155c	0.20222992
43	0x3e7130b1	0.2355373
44	0x3e76a992	0.24088123
45	0xbddd9462	-0.108193174
46	0xbf0e5bef	-0.5560903
47	0xbd467b46	-0.048457406
48	0xbf10eea9	-0.56614166
49	0xbd9786a4	-0.073987275
50	0xbe5eb57f	-0.21748923
51	0xbd33bce6	-0.04388132
52	0x3f00ba9e	0.50284755
53	0x3ee1fc77	0.44137928
54	0xbe93f49f	-0.2889757
55	0x3ee31e3f	0.44359013
56	0x3e32877b	0.17434494
57	0x3cb2447b	0.02176117
58	0xbedbe0c8	-0.42944932
59	0xbee1580b	-0.44012484
60	0x3ef1b5ea	0.47209102
61	0x3e7cc3ed	0.24684115
62	0xbeefbc91	-0.46823552
63	0x3da9c95b	0.08290359
64	0xbf025006	-0.50903356
65	0xbea71e7a	-0.3264044
66	0x3f120b37	0.5704836
67	0xbe00a8d3	-0.12564401
68	0x3e515923	0.20444159
69	0x3e746a90	0.23868775
70	0xbe32e47f	-0.17469977
71	0x3d94be70	0.072628856
72	0xbe68657f	-0.22694968
73	0xbea118e0	-0.3146429
74	0xbee37de0	-0.44431973
75	0xbf0483d9	-0.51763684
76	0xbb93db5c	-0.0045122337
77	0xbed3fc63	-0.41403493
78	0xbe605d01	-0.21910478
79	0x3edf5c2d	0.43625012
80	0xbf05e644	-0.5230448
81	0x3ec1388d	0.37738457
82	0x3ddea18b	0.108706556
83	0xbd273f3b	-0.040831786
84	0xbdace998	-0.08442992
85	0x3e44319a	0.19159546
86	0xbeb36782	-0.35039908
87	0x3e8a15e1	0.26969817
88	0xbc6d5f85	-0.014488106
89	0x3dbb1bd4	0.09136167
90	0xbeb2b6a2	-0.34904963
91	0x3d97ce4f	0.07412397
92	0xbeab8f6e	-0.33507866
93	0xbec88745	-0.39165702
94	0x3e464088	0.19360554
95	0x3e6fd715	0.23421891
96	0x3efeb84b	0.4974998
97	0x3e8d8e92	0.27647835
98	0xbe7cf0b9	-0.24701203
99	0x3ee2b8ef	0.44281718
100	0x3f03dda2	0.5151006
101	0x3eb9171f	0.36150452
102	0x3e8a3813	0.26995906
103	0x3e3d398d	0.18478985
104	0xbc376121	-0.011192591
105	0x3eb84a67	0.35994264
106	0x3d1589e6	0.036508463
107	0xbf0a8f1b	-0.5412461
108	0x3e984409	0.29739407
109	0x3f055791	0.5208674
110	0x3e7ba0ba	0.24573031
111	0x3f001466	0.50031126
112	0x3e244f1d	0.16045804
113	0x3ed2563d	0.4108142
114	0x3d4405d0	0.047857106
115	0xbe27a68b	-0.16372125
116	0x3eb84cda	0.35996133
117	0xbf0359bb	-0.5130879
118	0xbeded5ed	-0.43522587
119	0xbf0bb489	-0.5457235
120	0x3eee1a13	0.46504268
121	0xbe0052d3	-0.12531595
122	0x3e21ece7	0.15813027
123	0xbee34353	-0.44387302
124	0x3cd26320	0.025682032
125	0xbc67ef02	-0.014156105
126	0xbd6fe783	-0.058570396
127	0xbe3c8659	-0.18410625

cfc_model.rnn_cell.neuromod.2.weight f4 [80, 128]
0	0x3da5c14e	0.080935106
1	0x3d8199b9	0.063281484
2	0x3caf0b90	0.021367818
3	0x3ca502e0	0.020142972
4	0xbdd8d87b	-0.105881654
5	0x3dd5a382	0.10431577
6	0xbddaec31	-0.10689581
7	0x3e0b7a2e	0.13620827
8	0xbe07b81e	-0.13253829
9	0xbc685be5	-0.014182066
10	0x3beca317	0.0072215903
11	0x3e211dde	0.1573405
12	0x3e06b8b7	0.131564
13	0xbd2a95aa	-0.041646637
14	0x3e14187a	0.14462462
15	0x3d31bb47	0.043391492
16	0x3e1a933b	0.15095226
17	0x3d2adfd6	0.041717373
18	0x3d382690	0.04495865
19	0xbe0f8a8b	-0.14017694
20	0x3e023835	0.12716754
21	0x3bf6e978	0.007535156
22	0x3cdad8a6	0.026714634
23	0xbd5a137a	-0.05324123
24	0xbcb68212	-0.02227882
25	0x3e1947d1	0.14968802
26	0xbd532f9b	-0.051559072
27	0xbe06525a	-0.13117352
28	0x3e05e3e1	0.1307521
29	0x3d28a850	0.04117614
30	0x3cd8671c	0.026416354
31	0xbe313335	-0.1730469
32	0x3df3e1fc	0.119083375
33	0x3e277800	0.1635437
34	0xbd380517	-0.04492673
35	0x3db6b659	0.08921499
36	0x3e172723	0.14761023
37	0x3df9fe16	0.12206666
38	0xbde4b84d	-0.11167965
39	0x3d965ed3	0.07342305
40	0x3d5779f2	0.05260653
41	0x3d42f006	0.047592185
42	0xbe0d12ff	-0.13776778
43	0xb9371082	-0.0001745839
44	0xbd06f0f2	-0.032944627
45	0x3d905c6a	0.070488766
46	0xbda8afa0	-0.08236623
47	0x3d96d43c	0.07364699
48	0xbd1b3e26	-0.037901066
49	0xbdc50b1b	-0.09621259
50	0x3b10a506	0.0022071018
51	0xbd2f7fe7	-0.042846587
52	0x3d97160b	0.07377251
53	0x3dee621d	0.116398074
54	0xbdc634a7	-0.096780114
55	0x3df7e5bf	0.121043675
56	0x3d3c63e9	0.04599372
57	0xbd1b4dde	-0.037916057
58	0x3d742dd5	0.05961402
59	0x3dda3d12	0.106561795
60	0xbd480641	-0.04883409
61	0x3e0f2bb0	0.13981509
62	0x3dec4bff	0.115379326
63	0x3d2112d9	0.039324615
64	0x3b9edb71	0.004847937
65	0x3e149850	0.14511228
66	0xbc443d84	-0.011977557
67	0x3cdc965d	0.026927168
68	0x3d87aefb	0.06625172
69	0x3e1f3f1a	0.15551415
70	0xbdda1194	-0.10647884
71	0x3de25986	0.110522315
72	0xbdd79978	-0.10527319
73	0x3da0b631	0.0784725
74	0xbdd0d475	-0.10196773
75	0xbe0e06a1	-0.13869716
76	0xbd7a2549	-0.061070714
77	0x3af51dc9	0.0018700893
78	0xbddb3ea1	-0.10705305
79	0x3d0b3a04	0.033990875
80	0x3e116db4	0.14202005
81	0x3e1b1e35	0.15148242
82	0xbc038c68	-0.008029081
83	0xbdec52ce	-0.11539231
84	0xbdc79c96	-0.09746663
85	0xbdf38979	-0.11891455
86	0x3c26a2e9	0.010170677
87	0xbb93a262	-0.0045054415
88	0xbdc5ccae	-0.0965818
89	0xbe1458af	-0.14486955
90	0xbe21c411	-0.1579745
91	0xbdc68bf3	-0.09694662
92	0x3d1cac61	0.03825033
93	0xbd9b8476	-0.07593624
94	0xbe0e461b	-0.1389393
95	0x3e1110cd	0.14166565
96	0x3c234037	0.0099640405
97	0xbdae458c	-0.08509359
98	0xbe270e3c	-0.16314024
99	0x3e1ed99b	0.15512697
100	0xbdc603b8	-0.09668678
101	0x3c651ee9	0.01398442
102	0xbda7ceda	-0.08193751
103	0x3d8005c8	0.06251103
104	0x3e2d01cb	0.16895215
105	0x3ceb46d3	0.028720295
106	0xbcae1d7a	-0.02125429
107	0x3c366da0	0.011134535
108	0xbdbacb50	-0.0912081
109	0x3d881f85	0.06646637
110	0x3d036258	0.03207621
111	0x3d491eb0	0.04910153
112	0x3d62bb66	0.0553545
113	0xbd0a1d20	-0.033719182
114	0xbe288c91	-0.16459872
115	0x3d81267e	0.0630617
116	0xbc2fd8b2	-0.0107328165
117	0xbda3fd02	-0.08007242
118	0x3e0469a3	0.12930922
119	0xbdef2850	-0.11677611
120	0x3c864219	0.01638894
121	0x3e085e4e	0.13317224
122	0x3cfea687	0.031085266
123	0xbd962d8d	-0.07332907
124	0xbda1a8ac	-0.078935
125	0xbe0585bf	-0.13039301
126	0x3dc6e1a7	0.097110085
127	0x3dc11891	0.09428514
128	0xbdd22f29	-0.10262901
129	0x3dfe58bd	0.12419269
130	0xbe1d340e	-0.15351889
131	0x3d3432e5	0.04399385
132	0x3dc4c724	0.096082956
133	0xbd0ddf03	-0.03463651
134	0xbe0d2a44	-0.13785654
135	0x3cc011fe	0.02344608
136	0xbd17521c	-0.03694354
137	0xbdc20d8a	-0.094752386
138	0xba43a33d	-0.0007462984
139	0x3dc6f92e	0.09715496
140	0xbd806a44	-0.062702686
141	0xbde4bc38	-0.111687124
142	0xbe0b8018	-0.13623083
143	0xbd7e85de	-0.062139384
144	0x3ddbf9e9	0.10741026
145	0xbcae034f	-0.021241812
146	0xbdc9577b	-0.09831139
147	0xbe14fe64	-0.14550167
148	0x3dc810bf	0.09768819
149	0x3dcfd311	0.101476796
150	0x3dd7df7c	0.10540673
151	0xbcd5ad83	-0.026083713
152	0x3bc61470	0.006044917
153	0xbb2f678c	-0.00267646
154	0xbe279013	-0.16363554
155	0x3dae027c	0.084965676
156	0xbdee9fe0	-0.116515875
157	0x3d84c66c	0.064831585
158	0x3c3affc1	0.011413516
159	0x3d8f592d	0.06999431
160	0xbd3898f6	-0.04506775
161	0xbd8b46d9	-0.068006225
162	0x3ce14713	0.027499711
163	0x3d92bce5	0.07164935
164	0x3ca346c5	0.019931206
165	0x3db52b3d	0.08846138
166	0xbe11f16c	-0.14252251
167	0xbdd65ff4	-0.1046752
168	0xbe1efa48	-0.15525162
169	0x3d9efbee	0.077628955
170	0x3d7547c9	0.059882913
171	0x3e002cd5	0.12517102
172	0xbde1129d	-0.10989878
173	0x3d9526b3	0.07282772
174	0xbdee9e86	-0.1165133
175	0x3e1ea709	0.15493406
176	0xbe23c89f	-0.159945
177	0xbcd8b731	-0.02645454
178	0x3da05eda	0.078305915
179	0xbda0b6b6	-0.07847349
180	0xbe0ee5ca	-0.13954845
181	0x3e23e696	0.1600593
182	0xbd88ee6c	-0.066861
183	0xbe0538af	-0.13009904
184	0xbdb809ff	-0.089862816
185	0x3c7f947f	0.015599369
186	0x3cb135af	0.021632044
187	0x3d190b21	0.03736413
188	0x3df69cbc	0.120416135
189	0xbe218393	-0.15772848
190	0xbe09a7f1	-0.13442971
191	0xbd0838f1	-0.03325743
192	0xbe2e1171	-0.16998841
193	0xbd9b3da5	-0.07580117
194	0x3a3f5b2f	0.0007299659
195	0xbdc42804	-0.09577945
196	0x3d4f8c8d	0.05067115
197	0x3dd6098e	0.10451041
198	0x3e2de5a1	0.16982128
199	0x3dcc0113	0.099611424
200	0xbe1a2e1c	-0.15056652
201	0xbdac9ec2	-0.08428718
202	0x3df37431	0.11887396
203	0x3de2d0d3	0.11074986
204	0x3dbdc419	0.09265918
205	0x3e0f99cf	0.14023517
206	0x3e116678	0.14199245
207	0xbddfc7ac	-0.10926756
208	0x3e0cda3c	0.13755125
209	0xbe124347	-0.14283477
210	0xbd5c75be	-0.053823225
211	0xbc8ce356	-0.017198246
212	0xbd018252	-0.031618424
213	0x3d3fa240	0.046785593
214	0xbdc3d8f6	-0.095628664
215	0xbb429de0	-0.0029696152
216	0xbe21ed46	-0.15813169
217	0xbd938faa	-0.07205136
218	0xbde64dfd	-0.11245344
219	0xbd795c1c	-0.060878858
220	0xbd2c1c44	-0.042019144
221	0xbe070450	-0.13185239
222	0xbe29892b	-0.16556232
223	0x3c2a9cb8	0.010413341
224	0xbdb68af1	-0.0891322
225	0xbe0032a7	-0.12519322
226	0xbe20c113	-0.15698652
227	0x3d3b9426	0.045795582
228	0x3e192f12	0.14959362
229	0x3d05fd00	0.032711983
230	0x3e01c237	0.12671743
231	0xbd8d023f	-0.06885194
232	0xbd8dbb71	-0.06920517
233	0xbddfd5c5	-0.10929445
234	0xbe2622a0	-0.16224146
235	0x3d4f6d99	0.05064163
236	0x3d9f4daf	0.07778489
237	0x3dd1c88c	0.102433294
238	0x3d4dc1ba	0.05023358
239	0x3dd44536	0.103647634
240	0xbd254cc2	-0.040356405
241	0xbda832e9	-0.08212835
242	0xbe092fc5	-0.13397129
243	0x3d2c7105	0.04209997
244	0xbc9c2029	-0.019058304
245	0x3d1b0617	0.037847605
246	0xbd6160e9	-0.05502406
247	0x3d25795c	0.04039894
248	0xbddce144	-0.107851535
249	0xbdede3e7	-0.116157345
250	0x3d9d1f91	0.076720364
251	0x3ca1227d	0.019669766
252	0xbe09b913	-0.13449506
253	0xbd8e68e4	-0.069536
254	0x3e251f8b	0.16125314
255	0xbc76a98d	-0.0150550725

cfc_model.rnn_cell.neuromod.2.bias f4 [80]
0	0x3bfdfff9	0.0077514616
1	0x3d7dc141	0.06195188
2	0x3c913323	0.01772458
3	0x3c1e288e	0.009653224
4	0xbbc3d009	-0.0059757275
5	0xbceacca8	-0.02866204
6	0xbdae1481	-0.085000046
7	0xbd0dbad0	-0.034601986
8	0x3c3f35e0	0.01167056
9	0x3d9519ff	0.07280349
10	0x3d06a9ab	0.03287665
11	0xbce42311	-0.027848752
12	0xbcd9bc1b	-0.026578953
13	0x3d84b83e	0.06480454
14	0xbda9afa9	-0.08285458
15	0x3d940057	0.07226627
16	0xbd00b083	-0.031418335
17	0x3d6c6573	0.057713937
18	0x3cb369b3	0.021900987
19	0x3d81712d	0.06320415
20	0x3d84cd40	0.06484461
21	0xbd4af973	-0.0495543
22	0x3d52b26f	0.0514397
23	0xbc8197a0	-0.01581937
24	0xbdaef2ec	-0.085424274
25	0xbc554d31	-0.013018892
26	0xbd000914	-0.031258658
27	0xbd274f98	-0.04084739
28	0x3d6cb450	0.057789147
29	0x3d09b0f3	0.033616018
30	0xbd05ecb3	-0.032696437
31	0xbd063f69	-0.032775316
32	0x3c923604	0.017848022
33	0xbcfb58eb	-0.030682048
34	0x3d9a0612	0.07520689
35	0x3c90596a	0.017620761
36	0xbd587a9a	-0.052851297
37	0x3d373319	0.044726465
38	0x3d9ab0a4	0.07553223
39	0x3d4b1859	0.049583767
40	0xbd278165	-0.040894885
41	0xbcb615b1	-0.02222714
42	0x3db2a5c2	0.08723022
43	0xbbaefb58	-0.005340021
44	0xbd9be45e	-0.07611917
45	0xbd799747	-0.060935285
46	0xbc3bca5a	-0.011461819
47	0x3c60be0f	0.0137171885
48	0x3c7b0ef2	0.015323387
49	0xbcb77a22	-0.022397105
50	0xbcf11d5d	-0.029432947
51	0x3d28259c	0.041051492
52	0x3d971e8f	0.073788755
53	0xbc8d025f	-0.017213045
54	0xbd869b02	-0.06572534
55	0x3c9bf5fa	0.01903819
56	0x3dacd5fd	0.084392525
57	0x3d477475	0.048695046
58	0xbd479d57	-0.048734035
59	0x3d0c3870	0.03423351
60	0x3d0c7633	0.03429241
61	0x3d7dcb12	0.06196124
62	0xbd9a2f26	-0.07528524
63	0x3d6c7248	0.057726175
64	0xbd0268dc	-0.031838283
65	0x3d227bf1	0.03966898
66	0x3ca5de54	0.020247616
67	0x3cc073e7	0.023492767
68	0x3d523987	0.051324394
69	0xbd8ca1bb	-0.06866785
70	0xbd14ef01	-0.036360744
71	0x3d6073cd	0.054797936
72	0x3d1c354e	0.038136773
73	0xbce19e24	-0.027541228
74	0xbd04ad93	-0.032392096
75	0x3d0feb24	0.035136357
76	0xbda52f0e	-0.080656156
77	0x3ccfb01e	0.025352534
78	0xbdae351f	-0.08506226
79	0xbd6ade6c	-0.057341024

cfc_model.rnn_cell.neuromod.4.weight f4 [48, 80]
0	0x3ce9b9bc	0.028530948
1	0xbe04f938	-0.12985694
2	0x3e23ec5a	0.1600813
3	0x3c4f942b	0.012669603
4	0x3e49d76d	0.19711085
5	0xbe188707	-0.14895259
6	0x3df38bdb	0.1189191
7	0x3d522e65	0.051313777
8	0xbe19091c	-0.14944881
9	0xbe1dc646	-0.15407667
10	0xbd17ee76	-0.03709265
11	0xbd578aa7	-0.052622464
12	0x3e2bfb3d	0.16795059
13	0x3d224f50	0.03962642
14	0xbe1412d4	-0.14460307
15	0x3d0a1c34	0.033718303
16	0x3e1dbb0d	0.15403385
17	0x3e3cff6e	0.18456814
18	0x3dfb5ad1	0.12273181
19	0x3d06d44a	0.0329173
20	0xbd94c937	-0.07264941
21	0xbe3fa242	-0.1871424
22	0xbc876149	-0.016525881
23	0xbdfbc5bb	-0.122935735
24	0x3e0867fd	0.13320918
25	0x3e6027ab	0.21890132
26	0x3df0617e	0.11737345
27	0xbd4fd8f5	-0.050744016
28	0xbe13c537	-0.144307
29	0xbc333b8b	-0.010939489
30	0x3dc66013	0.096862935
31	0xbd7e4449	-0.06207684
32	0x3cc39431	0.023874374
33	0x3c3d4bb9	0.011553698
34	0xbe4e895f	-0.2016959
35	0x3e1ff3a1	0.15620281
36	0x3e1148b1	0.14187886
37	0xbcc189a3	-0.0236252
38	0xbdc44b02	-0.09584619
39	0xbe36e3ed	-0.17860384
40	0x3e180b28	0.14848006
41	0xbd13cda9	-0.036084805
42	0xbdec3165	-0.11532859
43	0x3d918c7b	0.07106873
44	0x3e164701	0.14675523
45	0xbe19e5c8	-0.15029061
46	0x3e3eec4f	0.18644832
47	0xbcb8aa01	-0.022542002
48	0x3e59a5c9	0.21254648
49	0xbd0bc04d	-0.03411894
50	0x3d3d0579	0.046147797
51	0x3d71d134	0.059037402
52	0x3e54a5ff	0.20766447
53	0x3e345f0a	0.1761438
54	0xbd4fac31	-0.050701324
55	0xbd4f30cd	-0.05058365
56	0x3c28273d	0.010263261
57	0xbe3a96ac	-0.1822154
58	0xbe109589	-0.14119543
59	0x3dec1746	0.115278766
60	0xbdddbcd8	-0.10827035
61	0x3d07ad94	0.03312452
62	0x3c3b7565	0.011441563
63	0x3d8b71e6	0.06808834
64	0xbdcc1eec	-0.099668354
65	0x3e1de1ef	0.15418218
66	0x3da0d4e7	0.07853108
67	0xbc45b812	-0.012067812
68	0x3da92cd4	0.082605034
69	0x3bdccc13	0.0067381947
70	0xbe578227	-0.21045743
71	0x3e16327f	0.146677
72	0xbe50c9e7	-0.2038952
73	0xbe035d4a	-0.12828556
74	0x3dc3058b	0.095225416
75	0xbe31b43c	-0.1735391
76	0x3d814ecf	0.0631386
77	0x3e3dd2bf	0.18537425
78	0xbdbcdce2	-0.092218176
79	0xbd80184f	-0.062546365
80	0x3e0fb7fa	0.14035025
81	0x3d4437bd	0.04790472
82	0x3db77605	0.08958057
83	0x3d99a53e	0.075022206
84	0xbdae946c	-0.08524403
85	0xbce40985	-0.02783657
86	0x3e422b6a	0.18961874
87	0xbd467eaf	-0.04846066
88	0xbe2ac14d	-0.16675301
89	0x3e27a03a	0.16369715
90	0x3ce0d4b2	0.027445171
91	0xbe52777b	-0.2055339
92	0xbe2781b6	-0.16358075
93	0x3e0396c4	0.12850481
94	0xbd846ac4	-0.064656764
95	0x3d4d8bb2	0.050182052
96	0x3e498056	0.19677863
97	0xbe169d9d	-0.14708562
98	0x3d55380a	0.052055396
99	0xbdb0057a	-0.085947946
100	0x3e24a7ed	0.16079684
101	0xbe2316a0	-0.159266
102	0xbd8083a0	-0.062751055
103	0xbca0810f	-0.01959279
104	0x3d283fdd	0.04107653
105	0x3bc200b2	0.005920493
106	0xba0c97ed	-0.0005363215
107	0xbd862b0d	-0.0655118
108	0xbe1c468c	-0.15261286
109	0x3df619b2	0.1201662
110	0x3d13d4bc	0.03609155
111	0x3d2cb4ce	0.042164616
112	0xbe4ff0d3	-0.20306711
113	0xbe3d5eb0	-0.18493152
114	0xbd4862d5	-0.04892238
115	0xbc9b09a7	-0.018925501
116	0x3d93d4e5	0.07218341
117	0x3e258b85	0.16166504
118	0xbd1afa15	-0.037836153
119	0xbddce230	-0.10785329
120	0xbdd6520b	-0.10464867
121	0xbbc81bb2	-0.006106817
122	0xbd80e9e3	-0.0629461
123	0x3d2f7388	0.04283479
124	0x3def7e9f	0.11694073
125	0xbd46b427	-0.04851165
126	0x3e50da3b	0.20395748
127	0x3e0d05a6	0.13771686
128	0x3db37256	0.08762042
129	0xbd90c46b	-0.07068714
130	0x3e0dda97	0.13852917
131	0x3c44d402	0.012013437
132	0x3e4c2f82	0.19939998
133	0xbdfaccc6	-0.12246089
134	0x3e1b67d1	0.15176322
135	0x3c87bbc9	0.016569035
136	0xb976885c	-0.00023511186
137	0x3db2648c	0.08710584
138	0x3d8baba4	0.06819847
139	0xbddccacb	-0.10780867
140	0xbd5acda4	-0.05341877
141	0x3dac3efe	0.08410452
142	0x3d5dc844	0.054146066
143	0x3e4a0ba0	0.19730997
144	0xbcfb9c53	-0.03071419
145	0x3e4d789f	0.20065545
146	0x3e053755	0.13009389
147	0x3e3d6677	0.18496118
148	0x3e013bcb	0.12620465
149	0xbdc9048a	-0.09815319
150	0xbe1fc522	-0.15602544
151	0xbd2066d5	-0.03916057
152	0xbe1417a6	-0.14462146
153	0xbd4f075d	-0.05054413
154	0xbc2475eb	-0.010037879
155	0xbd9c4fc3	-0.07632401
156	0x3de4517b	0.11148354
157	0x3e613309	0.21992125
158	0x3d3394f0	0.04384321
159	0xbd9af9f7	-0.07567208
160	0x3e4cccc9	0.19999994
161	0x3d971e46	0.07378821
162	0x3a31be93	0.0006780412
163	0xbe4c4a48	-0.19950211
164	0xbd6914f9	-0.056904767
165	0xbd7fd8cf	-0.062462624
166	0x3e09110e	0.13385412
167	0x3d516b03	0.051127445
168	0xbe40fb26	-0.18845806
169	0xbe2e1338	-0.16999519
170	0xbe16bee7	-0.14721261
171	0xbdc92bd2	-0.09822811
172	0x3d61f688	0.05516675
173	0x3e540b71	0.2070749
174	0xbe0dfb5a	-0.13865414
175	0xbe403c0d	-0.18772908
176	0x3e20f75a	0.15719357
177	0xbd842501	-0.064523704
178	0x3db042c8	0.086064875
179	0xbe0553e5	-0.13020284
180	0xbe128b5f	-0.14310978
181	0x3d37b075	0.044846017
182	0x3da77672	0.081768885
183	0xbd482a27	-0.048868325
184	0x3e241787	0.160246
185	0xbe3e04b6	-0.18556485
186	0xbde7d9fa	-0.113208726
187	0xbd2eb083	-0.042648803
188	0x3db717f9	0.08940119
189	0xbdf61db7	-0.120173864
190	0xbe3bdd3e	-0.18346116
191	0x3e0bf328	0.13666975
192	0x3e10a134	0.14123994
193	0x3dbd5974	0.092455775
194	0x3e5c35cb	0.21504895
195	0xbdd1fafa	-0.10252948
196	0x3d2d9f0e	0.042388014
197	0x3c39682b	0.0113163395
198	0xbc2cd1e8	-0.010548092
199	0xbdb84ccb	-0.08999022
200	0x3df1a0f4	0.117982775
201	0xbdd79062	-0.10525586
202	0xbe2ff79a	-0.17184296
203	0x3e592085	0.21203811
204	0xbe39833e	-0.18116471
205	0xbda15ce9	-0.07879049
206	0xbe4e3810	-0.20138574
207	0x3e024395	0.12721093
208	0x3dc9c001	0.09851075
209	0x3e14fc27	0.14549313
210	0x3da74c85	0.08168892
211	0xbdc9396c	-0.098254055
212	0xbd74bd6d	-0.059750963
213	0xbe02691b	-0.12735407
214	0xbe237f2c	-0.15966481
215	0x3e5253f7	0.20539843
216	0x3d32bb64	0.04363574
217	0x3ca18f9a	0.019721795
218	0xbc42afbe	-0.0118827205
219	0xbe0a07f5	-0.13479598
220	0x3d6c616f	0.057710107
221	0x3e5862b8	0.21131408
222	0xbcf008db	-0.029301098
223	0x3e0c051b	0.13673823
224	0xbe061650	-0.13094449
225	0x3e52a71d	0.20571561
226	0x3d184ac0	0.037180662
227	0xbe1fc355	-0.15601857
228	0xbccb0bad	-0.02478584
229	0xbd15148c	-0.03639655
230	0x3e57c8cc	0.21072692
231	0x3e187e90	0.1489203
232	0xbda82fbb	-0.08212229
233	0x3e082bb1	0.13297917
234	0x3dc88d2e	0.09792553
235	0xbdec327c	-0.11533067
236	0xbdfb11e1	-0.122592695
237	0xbcaedb25	-0.02134473
238	0x3d326903	0.04355718
239	0xbe12dd37	-0.143422
240	0xbd842104	-0.0645161
241	0x3e0def7e	0.1386089
242	0xbc42fd8c	-0.011901271
243	0x3c8080f0	0.015686482
244	0x3e125ac8	0.14292443
245	0xbd5d8501	-0.05408192
246	0xbd738695	-0.05945452
247	0x3e0422c4	0.12903887
248	0x3ddbeb73	0.10738268
249	0xbcba1e11	-0.022719415
250	0x3da430f2	0.08017148
251	0xbdbbb134	-0.09164658
252	0xbc8dd956	-0.017315548
253	0x3d7df0de	0.061997287
254	0x3d4bb7af	0.04973572
255	0x3dfda927	0.12385779

cfc_model.rnn_cell.neuromod.4.bias f4 [48]
0	0x3d8dbe5f	0.06921076
1	0x3db08b6f	0.08620345
2	0xbd753c33	-0.059871864
3	0xbde579f8	-0.11204904
4	0x3d0ef491	0.034901205
5	0xbd64bacb	-0.055842202
6	0xbbbfaf92	-0.005849787
7	0xbc049249	-0.008091518
8	0x3d764664	0.060125723
9	0xbd84a6f7	-0.064771585
10	0x3db28108	0.08716017
11	0x3dba9b67	0.09111672
12	0xbdd8140a	-0.10550697
13	0x3d5d1e26	0.05398383
14	0x3d580794	0.052741602
15	0xbbe5c465	-0.0070119374
16	0x3caed413	0.02134136
17	0x3d0d9965	0.034570117
18	0x3dce1108	0.10061842
19	0x3dbdf42f	0.0927509
20	0xbb53085c	-0.0032201027
21	0xbd7c03db	-0.061527114
22	0xbc68b39d	-0.014202979
23	0x3da94d95	0.08266751
24	0x3d815371	0.06314743
25	0x3d765310	0.06013781
26	0xbd99221e	-0.074772105
27	0x3da2aa08	0.07942587
28	0xbd261de7	-0.04055586
29	0xbd79ccb0	-0.06098622
30	0x3d6c9df6	0.05776783
31	0xbde283ff	-0.110603325
32	0xbc7bfa33	-0.015379476
33	0x3d9a77e4	0.075423986
34	0xbda5a2ca	-0.0808769
35	0x3cf5bb7e	0.02999663
36	0xbd414db9	-0.047193263
37	0xbd919edb	-0.071103774
38	0x3cd3d022	0.025856081
39	0xbbf53eaa	-0.007484277
40	0x3cfe9247	0.03107561
41	0xbd00720b	-0.03135876
42	0xbd8518e8	-0.06498891
43	0xbd9ac307	-0.0755673
44	0x3dd5ec5a	0.10445471
45	0xbd3f2d39	-0.046673987
46	0x3d2eaca6	0.04264512
47	0x3d985615	0.07438294
