LTC_A2C/training_results/CfC_a2c_result_589_2024325_learningrate_1e-05_selmet_range_evaluation_all_params_trainmet_quarter_range_numneurons_32_neuromod_network_dims_3_128_80_32_randomization_params_[(0.775, 5.75), (1.0, 2.0), (0.8, 2.25)]/checkpoint_CfC_A2C_2.pt (torch, 96564 bytes, 16 tensors)

cfc_model.rnn_cell.w_tau f4 [1, 32]
0.25452203 0.38261554 -0.13160482 0.20509058 0.23710628 0.12680982 -0.37857285 0.30509415
0.2624892 -0.3378108 0.15218599 0.27785036 -0.28736147 -0.016598197 0.07100768 0.17535354
0.053840235 -0.2565625 -0.10888555 -0.1986911 -0.104461715 0.18759596 -0.3442254 0.35008
-0.2600693 0.0973222 -0.059185725 0.017195458 -0.29707524 -0.36160612 -0.3173411 -0.05215149
00000000: b650 823e 2fe6 c33e 6ac3 06be 4403 523e
00000010: fdcb 723e 6fda 013e 4dd4 c1be 4d35 9c3e
00000020: fc64 863e 8af5 acbe a5d6 1b3e 6742 8e3e
00000030: 0b21 93be f1f8 87bc 796c 913d e18f 333e
00000040: 9487 5c3d 295c 83be 63ff debd ae75 4bbe
00000050: 06f0 d5bd 2819 403e 503e b0be b03d b33e
00000060: ce27 85be dd50 c73d bb6c 72bd 7ddd 8c3c
00000070: 3f1a 98be 7024 b9be 887a a2be cd9c 55bd

cfc_model.rnn_cell.A f4 [1, 32]
-0.055979192 0.29367214 -0.22776802 -0.061653163 -0.016715689 0.23807594 -0.24471629 0.31140143
-0.2836363 -0.07186135 0.2266596 -0.014191321 -0.03188546 -0.41743112 0.3083975 -0.41013643
-0.1637695 0.13600358 0.19496496 -0.16964994 -0.28427076 -0.3680315 -0.41567147 0.29815933
-0.07727748 -0.17408553 -0.32847014 -0.17346555 0.19489045 0.039937083 0.13889681 -0.25305793
00000000: 704a 65bd 325c 963e 053c 69be 0788 7cbd
00000010: 57ef 88bc 2eca 733e e896 7abe 0270 9f3e
00000020: c738 91be 0b2c 93bd 7419 683e b782 68bc
00000030: 549a 02bd 88b9 d5be 47e6 9d3e 67fd d1be
00000040: 31b3 27be 8644 0b3e e5a4 473e b7b8 2dbe
00000050: f08b 91be a06e bcbe e4d2 d4be 57a8 983e
00000060: a843 9ebd 7a43 32be 3d2d a8be f4a0 31be
00000070: 5d91 473e 1195 233d f73a 0e3e cf90 81be

cfc_model.rnn_cell.tau_system f4 [1, 32]
0.86675864 0.7494099 7.146273 0.95760214 1.7239763 7.80703 2.2094772 3.209479
2.8160822 1.0146283 3.0129406 0.85835963 2.0037115 25.198933 2.5198197 3.6906843
3.537306 2.7505956 0.97123677 4.0908375 3.9087524 2.7752624 2.4151216 1.461648
1.4955152 7.1399746 1.0546516 12.659592 2.246056 2.683374 2.5973594 1.9919204
00000000: e5e3 5d3f 54d9 3f3f 45ae e440 6a25 753f
00000010: 41ab dc3f 31d3 f940 1368 0d40 1b68 4d40
00000020: b13a 3440 57df 813f 05d4 4040 75bd 5b3f
00000030: cf3c 0040 6a97 c941 ba44 2140 2c34 6c40
00000040: 3963 6240 c209 3040 f9a2 783f 24e8 8240
00000050: 0029 7a40 e69d 3140 5a91 1a40 4817 bb3f
00000060: 0b6d bf3f ac7a e440 d3fe 863f b08d 4a41
00000070: 62bf 0f40 66bc 2b40 233b 2640 3ff7 fe3f

cfc_model.rnn_cell.backbone.0.weight f4 [128, 36]
-0.10252247 -0.17450158 0.06558809 -0.12187037 0.1785011 -0.113757014 0.09278555 0.09161926
-0.037546497 0.015979163 0.042469814 -0.088571995 0.16691284 0.19647536 -0.08340127 0.092259295
-0.10853973 0.15405178 0.18100971 -0.09146676 0.12554142 -0.11233747 -0.14352508 0.1302066
-0.116276 0.01337975 -0.004381167 -0.02518838 -0.010100363 -0.07438884 -0.025129199 0.11070893
0.058527097 -0.11876931 -0.0666441 -0.1591353 -0.04639268 -0.054881796 0.03895869 0.11804904
-0.016475959 0.15375896 0.18986595 0.17451146 -0.1495161 -0.044526026 -0.15104865 0.17146102
-0.10107695 0.04963405 -0.17070211 -0.08367164 -0.07546786 0.1147444 -0.14567304 0.05296219
0.14758599 0.11313214 -0.19829836 -0.12383692 0.029167807 0.007215791 -0.07360153 0.014387583
-0.018957378 -0.10654571 -0.06591382 0.06793277 -0.023777239 -0.08323398 0.025311751 -0.17969185
0.105061956 0.043472365 0.010624875 -0.057110947 0.04416177 0.11684685 0.018061092 0.04716133
0.15501732 0.0749859 -0.052256476 0.17800498 0.15289766 0.093942486 -0.16859429 0.0016002839
-0.114130095 0.032855973 -0.06984963 0.0928259 0.18918474 0.010084695 0.10301658 -0.17086554
-0.033580553 0.059339378 -0.0949147 -0.15011743 -0.069344334 -0.02161408 0.057715215 0.17483298
-0.16506287 0.093615375 -0.09726948 -0.15049966 -0.07609934 0.09486717 -0.020127993 0.022383766
-0.19268355 -0.14038329 0.08966547 0.13193385 -0.0028541177 -0.11162751 -0.13138415 0.11913501
0.10404683 0.14594002 0.18263076 -0.14545384 -0.1597565 -0.17420702 -0.0020089147 -0.04575446
0.13281925 0.18288478 -0.07180971 0.12651508 -0.069811344 0.1735546 0.08645654 -0.00859887
-0.04232542 0.16273496 -0.099564545 -0.1222208 -0.09402082 -0.0080014365 -0.04840684 0.11116665
0.08330314 0.09019805 0.14228643 -0.17318706 0.18251222 -0.009589985 0.116843276 0.03276193
-0.066657856 0.15320782 -0.0048372867 -0.17209165 0.026247133 0.14416674 -0.0269349 0.10714806
0.043754656 0.029133858 -0.06191697 0.098323904 0.13415408 -0.10205766 -0.14533113 -0.15313078
0.13534714 -0.124163784 0.12120583 -0.055241972 -0.15754384 -0.12747587 -0.13139358 -0.028474214
-0.13875493 0.0033414313 0.14122514 -0.100764506 0.13193716 0.15789412 0.12855117 -0.13020612
0.08368291 0.04691069 -0.17503144 -0.022126408 -0.15544306 -0.028497979 -0.077988 -0.031752963
-0.11564538 0.07409994 0.13359524 0.12066774 -0.0789775 0.05695914 -0.16907418 0.1108649
0.081247635 -0.10088075 -0.12787494 0.09485942 -0.055147972 -0.047560323 -0.050504405 0.06761767
-0.16856074 -0.021147704 0.11760325 -0.041075226 0.14808409 0.036511004 0.110738635 -0.104873054
0.002034982 -0.16321306 -0.058050353 0.15169203 0.078457594 0.17641501 -0.048731435 0.13605872
-0.051900033 -0.08132059 -0.08591767 0.13645564 0.11941342 0.01048876 -0.15651353 0.09990104
-0.07408317 -0.152116 0.036251295 0.08222595 -0.08028626 0.16663605 0.059878435 -0.13918118
0.08218534 0.18106078 -0.0003160525 0.022889806 0.08840394 0.03709264 0.11683579 -0.11491851
-0.19593643 0.122068316 -0.13972251 0.01573025 0.11629943 -0.08142871 0.12838192 -0.00833077
00000000: 4df7 d1bd 8bb0 32be 0c53 863d 2c97 f9bd
00000010: fec8 363e 70f9 e8bd 5a06 be3d e1a2 bb3d
00000020: 5bca 19bd bce6 823c d4f4 2d3d 3c65 b5bd
00000030: 33eb 2a3e d630 493e 49ce aabd 71f2 bc3d
00000040: 144a debd c0bf 1d3e 9c5a 393e ed52 bbbd
00000050: ee8d 003e 3011 e6bd 3df8 12be e154 053e
00000060: 1d22 eebd bd36 5b3c e48f 8fbb dd57 cebc
00000070: fe7b 25bc 2d59 98bd c0db cdbc 5dbb e23d
00000080: 1cba 6f3d 533d f3bd b47c 88bd 5df4 22be
00000090: 4006 3ebd bccb 60bd 2693 1f3d b2c3 f13d
000000a0: 97f8 86bc fd72 1d3e 386c 423e 22b3 323e
000000b0: c01a 19be ec60 36bd 7fac 1abe 7a93 2f3e
000000c0: 6f01 cfbd 134d 4b3d 89cc 2ebe 095c abbd
000000d0: e58e 9abd 1dff ea3d 502b 15be e2ee 583d
000000e0: c820 173e d3b1 e73d ba0e 4bbe 369e fdbd
000000f0: 53f1 ee3c 7172 ec3b 66bc 96bd e6b9 6b3c
00000100: 814c 9bbc a334 dabd d3fd 86bd 5620 8b3d
00000110: 7cc8 c2bc 9476 aabd 975a cf3c 2401 38be
00000120: b92a d73d 1410 323d f513 2e3c 2bed 69bd
00000130: f9e2 343d 674d ef3d dbf4 933c 3d2c 413d
00000140: dcbc 1e3e 3592 993d e30a 56bd f046 363e
00000150: 3491 1c3e eb64 c03d fba3 2cbe 9ec0 d13a
00000160: 0abd e9bd fc93 063d 530d 8fbd 811b be3d
00000170: a5b9 413e 473a 253c 5bfa d23d 60f7 2ebe
00000180: c38b 09bd d90d 733d a362 c2bd 62b8 19be
00000190: 6704 8ebd 0310 b1bc ca66 6c3d 6b07 333e
000001a0: 3e06 29be 6bb9 bf3d 3935 c7bd 951c 1abe
000001b0: f9d9 9bbd b849 c23d 76e3 a4bc 295e b73c
000001c0: d64e 45be a3c0 0fbe 88a2 b73d ab19 073e
000001d0: 260c 3bbb f79c e4bd 9189 06be 0efd f33d
000001e0: 8116 d53d 4d71 153e 8f03 3b3e daf1 14be
000001f0: 3597 23be 5363 32be ffa7 03bb 0769 3bbd
00000200: c501 083e 2646 3b3e f810 93bd 2b8d 013e
00000210: 40f9 8ebd 4cb8 313e 2010 b13d 46e2 0cbc
00000220: 6b5d 2dbd fea3 263e 7fe8 cbbd e64e fabd
00000230: fd8d c0bd 7518 03bc 4046 46bd 57ab e33d
00000240: d69a aa3d c1b9 b83d 89b3 113e f357 31be
00000250: 7ce4 3a3e 501f 1dbc 874b ef3d 6031 063d
00000260: ea83 88bd 83e2 1c3e 1a82 9ebb cb38 30be
00000270: 3a04 d73c 72a0 133e 94a6 dcbc 7170 db3d
00000280: 1538 333d 21aa ee3c a69c 7dbd 0b5e c93d
00000290: b05f 093e 9b03 d1bd afd1 14be 51ce 1cbe
000002a0: 7198 0a3e 9549 febd c33a f83d 6845 62bd
000002b0: 2c53 21be 0989 02be 0a8c 06be c142 e9bc
000002c0: c615 0ebe eafb 5a3b 539d 103e 9f5d cebd
000002d0: 891a 073e ffae 213e eba2 033e c154 05be
000002e0: f261 ab3d 6c25 403d 713b 33be 7142 b5bc
000002f0: 772c 1fbe 9874 e9bc 2cb8 9fbd 650f 02bd
00000300: 7cd7 ecbd b6c1 973d 31cd 083e a620 f73d
00000310: f5be a1bd fd4d 693d c821 2dbe 230d e33d
00000320: 2965 a63d 919a cebd a6f1 02be a845 c23d
00000330: d7e2 61bd 9dce 42bd b5dd 4ebd 227b 8a3d
00000340: 309b 2cbe f33d adbc f9d9 f03d 7f3e 28bd
00000350: 5ba3 173e 908c 153d f0ca e23d afc7 d6bd
00000360: 555d 053b 5321 27be 35c6 6dbd 2855 1b3e
00000370: 60ae a03d 23a6 343e 9d9a 47bd fa52 0b3e
00000380: 2195 54bd 698b a6bd 9af5 afbd 07bb 0b3e
00000390: 068f f43d 0cd9 2b3c 1545 20be eb98 cc3d
000003a0: ebb8 97bd 4cc4 1bbe 3d7c 143d 1466 a83d
000003b0: 1f6d a4bd a4a2 2a3e 1743 753d 8385 0ebe
000003c0: ca50 a83d ff67 393e d9b3 a5b9 6783 bb3c
000003d0: 200d b53d 74ee 173d 9a47 ef3d 655a ebbd
000003e0: 8fa3 48be f4fe f93d 6b13 0fbe badc 803c
000003f0: 652e ee3d 18c4 a6bd 8d76 033e c87d 08bc

cfc_model.rnn_cell.backbone.0.bias f4 [128]
0.043404255 0.13553756 -0.04960823 -0.009076064 0.035540763 -0.10755389 -0.0007249856 0.15864259
0.11296846 0.032894865 -0.1555856 -0.044521336 0.15052271 0.060183126 0.04874323 -0.019618185
-0.16156524 -0.14958514 -0.05025969 0.033841845 0.11374814 -0.071348734 -0.11351045 0.0043436433
-0.07433478 0.0180677 -0.13147774 0.13204992 0.027897444 -0.13237211 0.005002314 0.050097346
0.14089735 0.09984537 -0.10479399 0.13812312 0.08040164 0.11284881 -0.011706 0.13628373
-0.08482647 0.09277824 0.121078044 -0.054093372 0.07076951 0.013689157 0.08849919 -0.0515986
-0.066555396 0.16148669 0.041593753 0.017977161 -0.0542856 -0.040383864 -0.10157704 0.03881768
0.113392584 0.09747829 0.12109427 -0.12840897 0.13778077 -0.050093804 -0.030947212 -0.05728986
-0.16024107 -0.13045546 -0.12116175 -0.112934284 0.14815758 -0.10109875 0.10190211 0.07946379
-0.08810215 -0.04565037 -0.04615566 0.06945383 0.13855581 -0.05251612 0.14007843 -0.12288661
-0.054660805 -0.055365913 0.076621756 0.09962478 -0.04839021 -0.13800189 -0.122424565 -0.080773175
-0.116065264 0.03160421 0.14442848 -0.14629275 -0.017005833 -0.05560831 -0.12866408 0.001907308
-0.0741926 0.16508146 -0.113039725 -0.095087245 -0.13432983 0.002082607 -0.07902167 0.1287781
-0.14322877 -0.06532483 0.0891155 0.09497188 -0.015815249 0.017820485 0.04633724 0.071517915
-0.11173757 -0.015540463 0.15201023 -0.06918385 -0.008533901 -0.07319201 0.0826468 -0.098032326
-0.09923099 -0.100780725 0.11041281 -0.089804955 0.071335316 -0.001067961 0.017015798 -0.12148028
00000000: a9c8 313d 5cca 0a3e 0032 4bbd c6b3 14bc
00000010: 3193 113d 3745 dcbd f60c 3eba 3473 223e
00000020: 025c e73d c4bc 063d d551 1fbe 015c 36bd
00000030: a022 1a3e 9582 763d fba6 473d 51b6 a0bc
00000040: 5c71 25be d92c 19be 1bdd 4dbd bf9d 0a3d
00000050: c9f4 e83d 491f 92bd 2b78 e8bd 1f55 8e3b
00000060: d53c 98bd b702 943c 1aa2 06be 1838 073e
00000070: 2e89 e43c 8e8c 07be 74ea a33b e032 4d3d
00000080: 6547 103e bb7b cc3d 3b9e d6bd 2670 0d3e
00000090: 9da9 a43d 471d e73d 86ca 3fbc f68d 0b3e
000000a0: 80b9 adbd 8502 be3d c4f7 f73d 0391 5dbd
000000b0: 9bef 903d 7c48 603c 103f b53d 0e59 53bd
000000c0: 324e 88bd c45c 253e 365e 2a3d d744 933c
000000d0: 945a 5ebd 8d69 25bd a007 d0bd 4aff 1e3d
000000e0: 5f3a e83d b3a2 c73d 4600 f83d a47d 03be
000000f0: 6716 0d3e 292f 4dbd 0285 fdbc c6a8 6abd
00000100: 3c16 24be 1e96 05be a723 f8bd 174a e7bd
00000110: 9fb6 173e dd0c cfbd 0eb2 d03d e9bd a23d
00000120: e66e b4bd e2fb 3abd b80d 3dbd cf3d 8e3d
00000130: 93e1 0d3e 251b 57bd b870 0f3e faab fbbd
00000140: 02e4 5fbd 5ec7 62bd deeb 9c3d 1408 cc3d
00000150: d034 46bd 5e50 0dbe bbb9 fabd 686c a5bd
00000160: a0b3 edbd 6b73 013d 0fe5 133e c4cd 15be
00000170: d14f 8bbc 8ac5 63bd 84c0 03be a3fe f93a
00000180: 4af2 97bd 1d0b 293e 5f81 e7bd 1abd c2bd
00000190: c28d 09be 597c 083b 1dd6 a1bd 68de 033e
000001a0: 90aa 12be 06c9 85bd 3082 b63d 9e80 c23d
000001b0: fb8e 81bc 44fc 913c 1ecc 3d3d fc77 923d
000001c0: abd6 e4bd 6d9d 7ebc 92a8 1b3e 43b0 8dbd
000001d0: c6d1 0bbc b1e5 95bd ba42 a93d 2cc5 c8bd
000001e0: 9e39 cbbd 2066 cebd 1d20 e23d a9eb b7bd
000001f0: 4018 923d d3fa 8bba b764 8b3c a7ca f8bd

cfc_model.rnn_cell.ff1.weight f4 [32, 128]
-0.18070906 0.17186518 -0.024877151 0.051383182 0.094125256 -0.14705354 -0.15635456 -0.065178275
0.11383007 -0.04703867 0.064142995 -0.101109646 -0.18789314 0.1382496 -0.14948323 0.12679276
0.19790919 -0.026352387 -0.11047582 -0.11366065 -0.081165746 0.16722295 -0.19815743 -0.048226036
0.15372796 0.16102108 0.12819457 -0.0041103945 -0.06410002 -0.10980728 -0.11616743 -0.13507764
-0.07325321 -0.160317 -0.16659078 0.036915734 -0.113459125 -0.08119819 -0.038276885 0.067871414
0.14803529 -0.114097916 -0.14456788 -0.19279294 -0.0377006 -0.10682067 0.018437754 0.07245101
-0.05091902 0.09488136 0.17077853 -0.054500263 -0.044690806 -0.0740667 0.08643046 -0.11951979
0.14063601 0.03605665 0.14265941 0.052061625 0.042751297 0.14033885 0.12472893 0.10039884
-0.12526146 0.16382357 0.067498975 0.19076084 0.061700724 0.15043394 -0.121509574 0.16067892
0.1465896 -0.058642857 -0.1774326 0.15669933 0.106781684 0.05304925 -0.021645544 0.10291234
0.014637134 0.13367014 -0.15014328 -0.041857004 -0.18450285 0.14490221 0.08195618 0.17403038
-0.12414697 -0.06891765 -0.02063098 -0.11250224 -0.028542563 -0.02942264 0.18955807 -0.2022793
-0.08264902 -0.14152908 -0.007193225 0.039195288 0.16973938 0.12528361 -0.025830364 -0.060969844
-0.11679946 0.18945111 0.13780919 -0.062388882 0.0061316183 0.008677047 0.02444415 0.14158526
-0.08560493 0.1006841 0.16473025 -0.04360922 -0.11581079 -0.057145286 -0.15509893 -0.16871184
0.20323797 -0.16793521 0.18840587 0.15025747 -0.13137428 -0.027575744 0.06718938 -0.032920983
-0.06067085 -0.06690106 -0.1802128 0.10097115 0.09359677 -0.086266465 -0.07107101 -0.024476822
-0.11319309 -0.08725782 0.18725438 0.041790985 -0.12861136 -0.109471515 -0.11028348 0.1158494
0.0691027 0.13875882 0.040019613 0.134963 0.0015214975 0.043281127 0.11548233 0.13463885
0.06175853 0.15606903 -0.13035129 0.069945075 0.13402095 0.11436816 -0.04787304 0.012886767
-0.08670935 0.14750549 -0.016044818 0.118317895 0.0734308 -0.021038834 0.12356695 0.058860864
0.15930025 -0.09853265 0.011099774 -0.027833056 -0.18840714 -0.018505612 0.04718105 0.050303478
0.013183579 -0.1476695 0.20027056 -0.1652505 -0.14733289 0.124909185 0.1669337 0.016971916
0.10213554 -0.04147859 -0.19474617 -0.09353397 -0.035965703 0.027808117 0.027785966 0.20515913
-0.035115596 -0.037856054 -0.0661932 0.023225877 0.13753873 0.1518562 0.029502556 -0.16736832
-0.017546857 -0.015204523 -0.07321953 0.1605834 0.056534544 0.007006598 0.0003936537 -0.15300035
0.16347854 -0.13140649 0.15329449 -0.06862885 0.11808043 -0.02713556 0.046766613 -0.09360817
0.054624464 0.11257143 0.17498837 -0.114857234 0.056508817 0.0058825496 0.05458902 0.07910394
-0.08724455 0.0055782637 -0.09266505 0.07508776 0.03207351 0.06373343 -0.12219573 -0.18254131
0.07296757 0.072255336 -0.1553052 -0.17874826 0.1796493 0.042750813 0.07197454 -0.07801368
-0.10437996 0.039445344 -0.028470615 0.13597678 0.18079448 -0.12529945 0.06192735 -0.11005898
0.050542187 -0.1321022 -0.0137047935 -0.1262281 0.007960871 -0.12145222 0.012634002 -0.017810004
00000000: cc0b 39be 6dfd 2f3e 2bcb cbbc 2c77 523d
00000010: bec4 c03d 3495 16be 691b 20be 307c 85bd
00000020: bd1f e93d 9fab 40bd 675d 833d 9312 cfbd
00000030: 0f67 40be 4e91 0d3e 2212 19be f6d5 013e
00000040: b5a8 4a3e f6e0 d7bc 2641 e2bd eac6 e8bd
00000050: 3a3a a6bd 7e3c 2b3e c8e9 4abe aa88 45bd
00000060: dd6a 1d3e b6e2 243e 7045 033e 7db0 86bb
00000070: df46 83bd a4e2 e0bd 31e9 edbd cb51 0abe
00000080: c705 96bd 242a 24be c696 2abe f434 173d
00000090: 425d e8bd 3d4b a6bd 39c8 1cbd 2b00 8b3d
000000a0: 9096 173e 2bac e9bd 9a09 14be 836b 45be
000000b0: f26b 1abd ccc4 dabd c60a 973c 3261 943d
000000c0: 7690 50bd 2951 c23d 91e0 2e3e ab3b 5fbd
000000d0: b50d 37bd 48b0 97bd 7402 b13d cbc6 f4bd
000000e0: e302 103e 23b0 133d 4f15 123e 923e 553d
000000f0: fc1b 2f3d fdb4 0f3e e271 ff3d e89d cd3d
00000100: 8a44 00be 5ec1 273e e73c 8a3d cf56 433e
00000110: e6b9 7c3d 5b0b 1a3e 03da f8bd 0489 243e
00000120: 961b 163e 7e33 70bd e4b0 35be ca75 203e
00000130: 5bb0 da3d 2c4a 593d ff51 b1bc b4c3 d23d
00000140: 97d0 6f3c d3e0 083e 29bf 19be 4072 2bbd
00000150: 51ee 3cbe 3f61 143e a4d8 a73d 0535 323e
00000160: c440 febd b224 8dbd 4d02 a9bc 9367 e6bd
00000170: 18d2 e9bc c007 f1bc 831b 423e 4e22 4fbe
00000180: e443 a9bd 00ed 10be 25b5 ebbb 3d8b 203d
00000190: 29d0 2d3e 594a 003e 339a d3bc 84bb 79bd
000001a0: 8e34 efbd 79ff 413e da1d 0d3e 7c8b 7fbd
000001b0: beeb c83b 2c2a 0e3c 193f c83c bafb 103e
000001c0: a351 afbd 7733 ce3d 0caf 283e 959f 32bd
000001d0: 352e edbd 2d11 6abd 41d2 1ebe ccc2 2cbe
000001e0: 9d1d 503e 35f7 2bbe 78ed 403e 18dd 193e
000001f0: fb86 06be 87e6 e1bc 969a 893d 27d8 06bd
00000200: ff81 78bd 6c03 89bd b489 38be f6c9 ce3d
00000210: aaaf bf3d 79ac b0bd ad8d 91bd 9e83 c8bc
00000220: c7d1 e7bd 3ab4 b2bd 9dbf 3f3e 062d 2b3d
00000230: b2b2 03be 9a32 e0bd 4edc e1bd 7342 ed3d
00000240: b785 8d3d cb16 0e3e 9beb 233d be33 0a3e
00000250: fc6c c73a 8d47 313d 0082 ec3d c4de 093e
00000260: 83f6 7c3d 8fd0 1f3e cf7a 05be 5d3f 8f3d
00000270: ca3c 093e db39 ea3d 8516 44bd 0523 533c
00000280: ac94 b1bd ae0b 173e 6c70 83bc a750 f23d
00000290: e362 963d a259 acbc ab10 fd3d 1718 713d
000002a0: 9b1f 233e 7ccb c9bd d4db 353c 2602 e4bc
000002b0: cded 40be 1599 97bc eb40 413d 050b 4e3d
000002c0: f0ff 573c ac36 17be ba13 4d3e 6d37 29be
000002d0: 6fde 16be 63d0 ff3d abf0 2a3e b008 8b3c
000002e0: 702c d13d 74e5 29bd 8a6b 47be bd8e bfbd
000002f0: c650 13bd d9cd e33c 659f e33c 3c15 523e
00000300: 5fd5 0fbd f30e 1bbd 4d90 87bd 3244 be3c
00000310: f4d6 0c3e 3180 1b3e 58af f13c 9a62 2bbe
00000320: 6dbe 8fbc 641c 79bc 1ff4 95bd fa6f 243e
00000330: c490 673d 9b97 e53b 4e63 ce39 20ac 1cbe
00000340: eb66 273e 6c8f 06be 3bf9 1c3e 488d 8cbd
00000350: 27d4 f13d 654b debc 598e 3f3d a4b5 bfbd
00000360: e7bd 5f3d da8b e63d 2730 333e 453a ebbd
00000370: ca75 673d 67c2 c03b bc98 5f3d 3f01 a23d
00000380: 45ad b2bd dec9 b63b 2cc7 bdbd 9dc7 993d
00000390: 835f 033d ac86 823d c141 fabd 1cec 3abe
000003a0: 0570 953d 9bfa 933d 5408 1fbe c909 37be
000003b0: fcf5 373e 7a1b 2f3d 6367 933d a3c5 9fbd
000003c0: 29c5 d5bd 7191 213d 353b e9bc 7f3d 0b3e
000003d0: 3022 393e 804e 00be 88a7 7d3d 9a66 e1bd
000003e0: 5305 4f3d cd45 07be 128a 60bc f041 01be
000003f0: 506e 023c f1bb f8bd d8fe 4e3c 49e6 91bc

cfc_model.rnn_cell.ff1.bias f4 [32]
0.06651214 0.0275803 -0.016861146 0.02158879 -0.026520928 -0.010246865 0.021988582 0.05829217
0.036931746 0.028379925 0.0076833456 -0.0220815 -0.070645235 -0.077647835 0.038904626 -0.07870597
0.055663187 0.079714336 0.077281 0.069380745 -0.05194799 0.06912792 0.037286215 0.019119639
-0.053137682 -0.07411338 0.08638553 -0.07431547 0.039951738 -0.020066872 -0.048962507 -0.008675087
00000000: 8437 883d 15f0 e13c 6320 8abc f9da b03c
00000010: 6b42 d9bc 78e2 27bc 6621 b43c c5c3 6e3d
00000020: be45 173d 047d e83c 93c4 fb3b 43e4 b4bc
00000030: 73ae 90bd d405 9fbd 755a 1f3d 9830 a1bd
00000040: 15ff 633d 4541 a33d 8045 9e3d 7e17 8e3d
00000050: 6ac7 54bd f092 8d3d 6eb9 183d caa0 9c3c
00000060: e6a6 59bd c1c8 97bd e6ea b03d b632 98bd
00000070: 6fa4 233d 4863 a4bc e98c 48bd f421 0ebc

cfc_model.rnn_cell.neuromod.0.weight f4 [128, 3]
0.06229094 0.2086367 0.10942053 0.13291839 0.14942947 0.04915281 0.061635356 0.18772838
0.1618331 -0.003572378 -0.043121584 0.04286085 0.1632754 0.13825034 0.1380312 0.093592234
0.030298594 0.06821439 -0.13831896 -0.025789585 0.11138285 -0.044722904 -0.024375614 0.014291487
-0.1566486 0.09468152 -0.14152129 -0.1721615 -0.010920523 -0.04843909 -0.12523809 -0.083191305
-0.06694073 0.042686287 -0.122173525 -0.12714466 -0.07737238 0.19917239 -0.17755567 -0.16405834
0.14628 0.007979182 0.15994777 0.061749775 -0.020976556 0.015121929 -0.044307105 0.11129246
-0.17753494 -0.07345304 0.026930831 -0.05724925 0.18413614 0.15769939 0.042262673 -0.12420829
0.20700417 -0.10322359 0.1460712 -0.06135857 -0.097562864 -0.112298295 -0.20412567 -0.12204582
0.19581164 -0.12290255 0.059359502 -0.0017830624 -0.10268111 -0.16892311 0.030061197 0.1825268
0.032959707 0.111665905 -0.18949981 0.14122781 -0.10059084 0.16436693 0.17355853 -0.054601487
0.16261695 0.17950977 -0.039120622 -0.14406158 -0.11042862 -0.20484932 -0.019260474 0.15024109
0.14407726 -0.059520755 -0.14435872 -0.1571358 -0.15318832 0.0042937105 0.18811871 -0.074614756
-0.06723646 0.14541875 0.09683432 -0.028415304 -0.2027804 0.12856075 0.107640415 0.02438059
0.14105378 -0.062422596 -0.18390186 -0.026847495 0.11487843 0.097028516 0.00060477713 0.0029427507
0.11502241 -0.05021917 0.12169273 -0.07896186 0.07105572 -0.15305804 -0.14919579 -0.16454682
0.09806142 0.110452205 -0.14016494 -0.008404823 -0.2007193 -0.09408996 0.1706037 0.050598744
-0.0023599006 0.18845467 -0.151971 -0.20788608 -0.1483382 -0.17892401 -0.18074855 -0.15349771
0.20393462 -0.030995373 -0.06777625 0.074366234 -0.1485387 -0.18856053 -0.11578891 0.15656309
0.06782582 -0.032432605 -0.030544177 -0.20258069 0.06862382 0.06956224 -0.019875793 0.014588408
0.091460004 -0.048312765 0.12909618 -0.08190301 0.074165314 -0.18620832 0.08588134 -0.17435114
-0.15203469 -0.008818215 0.062024243 -0.17088003 -0.027839022 0.1007282 -0.17129122 -0.0026934766
-0.14629127 0.034015335 0.17608763 -0.18937738 -0.014840282 0.014636617 0.10512131 -0.12101867
-0.17037308 0.104501404 -0.0152816465 0.1465729 -0.17321435 -0.06588351 -0.20173699 0.017022783
0.18774872 0.08994733 0.14871207 0.16616832 -0.1287333 -0.20319742 -0.12249555 -0.013701694
-0.066878445 0.18804333 -0.14154948 0.051847022 0.0026831087 -0.16845164 -0.18346003 0.11046209
-0.20090285 0.14772728 0.087026805 0.052283585 0.0796113 -0.17344864 -0.10401496 0.12834491
0.015537908 -0.08425215 -0.15672551 -0.13629732 -0.11453377 0.0046008406 0.01312772 -0.11929941
0.017041085 0.058412276 -0.13139707 0.03764783 -0.14311379 0.17691487 -0.0079439245 0.21180442
0.15464069 0.11700095 -0.15859744 -0.19064853 -0.0824632 -0.08173056 0.121657655 -0.085801914
-0.08873436 0.11598096 -0.0126859145 0.06068972 0.000555452 -0.1651565 -0.14235626 -0.18743041
0.08325784 -0.06643986 0.12095653 0.07892919 0.20330723 0.14348137 0.103128836 0.038493223
0.10481408 0.098237865 -0.072237864 0.0069158673 -0.11923488 -0.07540515 0.1754014 0.17219394
00000000: c924 7f3d dca4 553e df17 e03d c21b 083e
00000010: 0a04 193e 7554 493d 5b75 7c3d de3b 403e
00000020: 93b7 253e 8f1e 6abb 42a0 30bd dc8e 2f3d
00000030: ab31 273e 7f91 0d3e 0d58 0d3e 49ad bf3d
00000040: c234 f83c fcb3 8b3d 7ca3 0dbe ae44 d3bc
00000050: b11c e43d 5d2f 37bd 5eaf c7bc d726 6a3c
00000060: 7e68 20be 62e8 c13d f5ea 10be 1b4b 30be
00000070: feeb 32bc 1168 46bd 6a3e 00be 3460 aabd
00000080: 3918 89bd d1d7 2e3d 1d36 fabd 3632 02be
00000090: 6975 9ebd d9f3 4b3e 27d1 35be e9fe 27be
000000a0: 6dca 153e 1dbb 023c 59c9 233e 55ed 7c3d
000000b0: 07d7 abbc f8c1 773c 5e7b 35bd 4ded e33d
000000c0: b8cb 35be 8c6e 96bd 0c9e dc3c 317e 6abd
000000d0: 2f8e 3c3e f37b 213e a01b 2d3d ea60 febd
000000e0: e7f8 533e e466 d3bd b093 153e 2053 7bbd
000000f0: 0acf c7bd a6fc e5bd 5206 51be 29f3 f9bd
00000100: d982 483e 55b4 fbbd f322 733d a5b5 e9ba
00000110: 794a d2bd 2efa 2cbe e642 f63c 4ee8 3a3e
00000120: c200 073d 18b1 e43d 3d0c 42be 069e 103e
00000130: 9202 cebd ce4f 283e 54b9 313e cfa5 5fbd
00000140: 0f85 263e 69d1 373e f23c 20bd e184 13be
00000150: 6628 e2bd 05c4 51be 24c8 9dbc cdd8 193e
00000160: fd88 133e 09cc 73bd c6d2 13be 35e8 20be
00000170: 66dd 1cbe 41b2 8c3b 31a2 403e 9fcf 98bd
00000180: 45b3 89bd a7e8 143e 1251 c63d 36c7 e8bc
00000190: aaa5 4fbe 6ea5 033e 9472 dc3d ceb9 c73c
000001a0: 6770 103e d6ae 7fbd c550 3cbe 47ef dbbc
000001b0: 6245 eb3d e3b6 c63d e889 1e3a 2adb 403b
000001c0: df90 eb3d 9eb2 4dbd 0a3a f93d c1b6 a1bd
000001d0: a985 913d 3fbb 1cbe c8c6 18be f67e 28be
000001e0: 6dd4 c83d c434 e23d 6687 0fbe 62b4 09bc
000001f0: 5c89 4dbe 3db2 c0bd bdb2 2e3e a140 4f3d
00000200: 90a8 1abb 43fa 403e 499e 1bbe 17e0 54be
00000210: f8e5 17be db37 37be 2616 39be 812e 1dbe
00000220: 3dd4 503e 02ea fdbc 46ce 8abd 534d 983d
00000230: 871a 18be 0316 41be bc22 edbd 1352 203e
00000240: 43e8 8a3d 0dd8 04bd c837 fabc 5071 4fbe
00000250: a58a 8c3d a676 8e3d 8fd2 a2bc 3804 6f3c
00000260: 624f bb3d 9be3 45bd ca31 043e c4bc a7bd
00000270: fce3 973d 65ad 3ebe 8ee2 af3d 1b89 32be
00000280: fbae 1bbe 467a 10bc 220d 7e3d 2dfb 2ebe
00000290: a90e e4bc 964a ce3d f766 2fbe 0a85 30bb
000002a0: 61cd 15be aa53 0b3d 5150 343e 25ec 41be
000002b0: a724 73bc 6cce 6f3c d749 d73d a3d8 f7bd
000002c0: 4876 2ebe d504 d63d df5f 7abc 3517 163e
000002d0: 1a5f 31be efed 86bd 2494 4ebe 5d73 8b3c
000002e0: 3341 403e 4e36 b83d fa47 183e 0728 2a3e
000002f0: aad2 03be fc12 50be f2de fabd 127d 60bc
00000300: 91f7 88bd 6e8e 403e 59f2 10be 8b5d 543d
00000310: 18d7 2f3b 967e 2cbe f2dc 3bbe f339 e23d
00000320: 7ab9 4dbe d245 173e 1c3b b23d 5027 563d
00000330: 400b a33d 859c 31be cc05 d5bd d96c 033e
00000340: b692 7e3c 648c acbd a77c 20be 8691 0bbe
00000350: ae90 eabd a6c2 963b a615 573c 4053 f4bd
00000360: bf99 8b3c b641 6f3d f48c 06be 9c34 1a3d
00000370: 6c8c 12be 2c29 353e 3c27 02bc 42e3 583e
00000380: 215a 1e3e 329e ef3d 5e67 22be 5e39 43be
00000390: 77e2 a8bd 5a62 a7bd a627 f93d eab8 afbd
000003a0: 5cba b5bd 6d87 ed3d 95d8 4fbc c995 783d
000003b0: c19b 113a c91e 29be d7c5 11be c2ed 3fbe
000003c0: 1683 aa3d 9f11 88bd 0fb8 f73d a1a5 a13d
000003d0: c52f 503e c8ec 123e 3635 d33d 12ab 1d3d
000003e0: c4a8 d63d ef30 c93d 72f1 93bd 809e e23b
000003f0: 6b31 f4bd 046e 9abd 6d9c 333e 9c53 303e

cfc_model.rnn_cell.neuromod.0.bias f4 [128]
-0.045456648 -0.21801905 -0.5090786 0.35230324 -0.294688 -0.38857752 -0.5403283 -0.047846843
-0.07652577 0.06422628 0.19193451 -0.18717603 -0.29337466 -0.4845453 0.5411538 -0.19345751
-0.35225397 0.4827138 0.009732257 -0.3820642 -0.10839524 0.268699 -0.027217206 0.07449411
-0.024389321 0.53188914 -0.180496 0.55512065 0.11632196 -0.15253223 0.092708565 -0.32608673
0.2062189 -0.5638539 0.23701684 0.5381426 0.05698981 -0.22392319 -0.26491705 0.52857554
0.53275794 -0.21383561 -0.35423386 -0.0977736 -0.4628387 0.34520003 -0.36168042 -0.3996938
-0.45143256 -0.39082813 -0.3189668 0.12484311 0.04075359 0.05100381 0.25231004 0.55423844
0.49551582 0.05207435 -0.04187309 0.14720672 -0.19881392 0.32617268 0.24911205 -0.45539424
-0.5687033 0.092564635 0.15084271 -0.5028978 0.4687555 0.06463246 0.16896665 -0.30961686
-0.017506838 0.50923663 -0.13689947 -0.040093113 -0.39974725 -0.45370114 -0.54927 -0.4097587
0.4621746 -0.39276367 -0.29197046 0.46875012 -0.45340353 -0.4501158 0.21625791 -0.2313838
-0.06735234 0.26971948 0.15990472 0.42919376 0.51562214 -0.20332718 -0.30039117 -0.18087408
0.4254317 0.45575228 0.16525988 -0.095305234 -0.100292854 -0.29323542 0.15803316 -0.1929621
0.32615608 -0.28717434 0.5479495 0.059315246 0.1066741 0.079815865 0.4209347 -0.4915536
0.2179604 -0.113907784 0.5251992 -0.5620838 0.044664457 0.18931967 -0.31534183 -0.44296247
0.4922262 0.053814366 -0.31265414 -0.32632342 -0.36807916 -0.37298805 0.3199793 0.29697272
00000000: c030 3abd 6340 5fbe fa52 02bf 1761 b43e
00000010: 58e1 96be a2f3 c6be f552 0abf 0dfb 43bd
00000020: 8bb9 9cbd 1189 833d 7b8a 443e 13ab 3fbe
00000030: 3435 96be 5216 f8be 0e89 0a3f ba19 46be
00000040: a25a b4be 4326 f73e 0b74 1f3c eb9d c3be
00000050: 53fe ddbd ea92 893e 9ef6 debc 5e90 983d
00000060: 1dcc c7bc e329 083f f2d3 38be 631c 0e3f
00000070: 353a ee3d 6931 1cbe fddd bd3d d7f4 a6be
00000080: 0c2b 533e bb58 10bf 8bb4 723e b7c3 093f
00000090: 266e 693d 1f4c 65be 35a3 87be ba50 073f
000000a0: d362 083f b9f7 5abe 245e b5be 863d c8bd
000000b0: 32f9 ecbe 0fbe b03e 2d2e b9be aaa4 ccbe
000000c0: 2b22 e7be a01a c8be 9e4f a3be bfad ff3d
000000d0: 3ded 263d 5fe9 503d c82e 813e 92e2 0d3f
000000e0: 40b4 fd3e ea4b 553d 1e83 2bbd 5cbd 163e
000000f0: e095 4bbe 1b00 a73e 3b17 7f3e 6f29 e9be
00000100: 8a96 11bf 8792 bd3d 8376 1a3e e9bd 00bf
00000110: b900 f03e 065e 843d 9805 2d3e 1a86 9ebe
00000120: 806a 8fbc 555d 023f 602f 0cbe ad38 24bd
00000130: acab ccbe 844b e8be f59c 0cbf e4cb d1be
00000140: 26a2 ec3e 5218 c9be 277d 95be 0400 f03e
00000150: 8224 e8be 9475 e6be b772 5d3e e0ef 6cbe
00000160: 06f0 89bd ac18 8a3e 10be 233e 49bf db3e
00000170: d0ff 033f 0035 50be dfcc 99be 0e37 39be
00000180: 2fd2 d93e 5d58 e93e e339 293e 642f c3bd
00000190: 5766 cdbd f422 96be 72d3 213e db97 45be
000001a0: eefd a63e 8408 93be 6b46 0c3f 8bf4 723d
000001b0: f377 da3d 8076 a33d c184 d73e eaac fbbe
000001c0: 0331 5f3e 7c48 e9bd 7473 063f b9e4 0fbf
000001d0: 14f2 363d 04dd 413e 7c74 a1be facb e2be
000001e0: 1305 fc3e 746c 5c3d 3414 a0be dd13 a7be
000001f0: df74 bcbe 4af8 bebe 54d4 a33e cf0c 983e

cfc_model.rnn_cell.neuromod.2.weight f4 [80, 128]
0.08090674 0.008134939 -0.05016631 0.109853104 0.077976145 0.06067832 0.16817644 0.15696177
0.099339485 -0.020129645 0.036418177 -0.020144258 -0.15681528 0.00687265 -0.14224869 -0.10613188
0.14592437 -0.121875025 -0.092366934 0.07283142 0.13595302 0.11589382 0.123208776 0.03662944
0.03098152 -0.12128667 -0.03622994 0.11770764 0.11884099 0.0285214 0.08376399 -0.1730154
-0.00014372569 -0.16324896 0.02788676 0.085045256 -0.11695355 -0.06562443 0.12695673 0.05159336
-0.0044588544 0.12942263 0.14335561 -0.061357904 0.13863738 -0.037252184 -0.14000054 0.15436079
0.15190558 0.10716759 -0.15081161 -0.008248689 0.17156598 -0.14569798 -0.15835236 0.0885412
-0.10854578 0.083377205 0.12427946 0.12745245 -0.03789558 -0.06887023 0.079048924 -0.024173966
-0.022238756 0.005257074 -0.11585765 -0.16358754 0.14435706 0.13845614 0.12393739 0.1583036
-0.08127069 -0.09279471 0.086512305 -0.038633388 0.07273757 -0.025240716 -0.115003206 -0.045127474
0.015137704 -0.035436057 -0.07574077 0.17132002 -0.15456595 -0.07692728 0.03831239 -0.14287679
0.14952204 0.09803434 -0.09924496 -0.11233252 -0.05509881 -0.0034989333 -0.045808528 0.043733172
-0.102681935 0.027062735 -0.09308558 0.16755682 0.041457336 0.116969 -0.14474335 -0.07982598
-0.1304219 0.123302445 -0.12952149 0.10216526 -0.13145092 -0.0055166865 -0.08366701 -0.084577836
0.0024570953 0.1500773 0.0018740412 0.16923034 -0.049145814 -0.015739152 -0.106067896 0.054722186
0.010358347 -0.13725975 -0.108023815 0.16125579 0.16776736 -0.059861805 0.041539986 0.11305738
0.124227405 -0.009319766 0.12924388 0.04223981 -0.12768923 0.16531868 0.028717102 0.113608085
0.09092837 -0.033887982 0.10265071 0.052902404 -0.0020974642 -0.12508336 0.15806139 -0.0023152758
-0.10959096 -0.113470435 0.1424232 -0.019089261 -0.02069826 -0.11286013 -0.054282926 0.02537752
-0.14539488 0.11330346 -0.04033409 0.10676295 -0.064516164 0.06698461 0.15956905 0.12003824
0.071503974 -0.0036937173 -0.031348266 0.118279524 0.15410307 -0.066907525 -0.12004136 -0.00528123
-0.10334063 -0.15744811 -0.003511094 0.07069272 -0.024700642 0.104956985 0.10388665 -0.024189472
-0.012114717 -0.09692334 0.042011183 0.09493544 -0.036899365 -0.12885751 -0.13069439 -0.10627722
0.11327974 0.16784833 0.12586331 0.020087449 -0.03491264 -0.047191653 0.059506204 -0.12654133
-0.14479901 0.1270112 0.12213973 -0.13531117 -0.049069427 -0.013248115 -0.07712986 0.08502664
0.11810931 0.16314971 0.07312805 0.0019956736 -0.092753105 0.10304723 0.13125817 -0.018507032
0.018710911 0.11792385 -0.09973255 0.006766479 -0.11798424 0.0037273504 0.16631809 -0.13047063
-0.08045402 0.04751853 0.11931548 -0.030727211 0.021244137 0.04944325 -0.15116541 0.05783853
-0.025284234 0.12685186 0.03817281 -0.077417195 -0.17066754 -0.06456602 0.009348797 0.08116711
-0.052182235 -0.02137903 0.12815498 -0.06888438 0.08049614 -0.11380851 0.012230736 -0.16516864
0.0068906373 0.12209847 0.091424026 0.12228097 0.011475392 0.09071549 0.047618765 0.070342615
0.0315782 0.15374082 0.14803922 -0.025451228 0.16441922 0.047912464 0.07184257 0.11953737
00000000: 6fb2 a53d 6848 053c 307b 4dbd aafa e03d
00000010: f5b1 9f3d d489 783d 7236 2c3e 96ba 203e
00000020: 8072 cb3d ede6 a4bc 3a2b 153d 9205 a5bc
00000030: 2f94 20be f733 e13b a4a9 11be ac5b d9bd
00000040: 336d 153e 9d99 f9bd e02a bdbd a428 953d
00000050: 4537 0b3e bd59 ed3d e254 fc3d c008 163d
00000060: f5cc fd3c 2565 f8bd d865 14bd b410 f13d
00000070: e862 f33d b6a5 e93c 748c ab3d f32a 31be
00000080: 12b5 16b9 bc2a 27be c672 e43c 352c ae3d
00000090: 5885 efbd 1a66 86bd f200 023e 8f53 533d
000000a0: 951b 92bb 5e87 043e d0cb 123e 6d52 7bbd
000000b0: f5f6 0d3e bf95 18bd 4d5c 0fbe c110 1e3e
000000c0: 238d 1b3e ae7a db3d 5c6e 1abe 8225 07bc
000000d0: feae 2f3e da31 15be 1f27 22be 1755 b53d
000000e0: 404d debd abc1 aa3d 3b86 fe3d e582 023e
000000f0: 6538 1bbd d60b 8dbd 67e4 a13d 7b08 c6bc
00000100: 0d2e b6bc 8843 ac3b c746 edbd 7e83 27be
00000110: 56d2 133e 72c7 0d3e e3d2 fd3d 571a 223e
00000120: 3f71 a6bd 270b bebd 5d2d b13d 0b3e 1ebd
00000130: 6ff7 943d 9ec5 cebc cd86 ebbd 96d7 38bd
00000140: 2204 783c 6625 11bd fa1d 9bbd 846e 2f3e
00000150: 8946 1ebe 0d8c 9dbd 74ed 1c3d 4b4e 12be
00000160: 4e1c 193e 3ac6 c83d f140 cbbd 980e e6bd
00000170: 4aaf 61bd 5c4e 65bb b9a1 3bbd 8e21 333d
00000180: e84a d2bd abb2 dd3c a7a3 bebd 0494 2b3e
00000190: 2bcf 293d 718d ef3d 9a37 14be ce7b a3bd
000001a0: 528d 05be fe85 fc3d 48a1 04be 053c d13d
000001b0: 129b 06be 52c5 b4bb 9c59 abbd 2537 adbd
000001c0: 3807 213b ddad 193e 63a2 f53a b84a 2d3e
000001d0: 1f4d 49bd 65ef 80bc 203a d9bd 5f24 603d
000001e0: 0eb6 293c d28d 0cbe 973b ddbd 3d20 253e
000001f0: 35cb 2b3e a731 75bd d525 2a3d a18a e73d
00000200: f06a fe3d efb1 18bc 8258 043e a703 2d3d
00000210: f7c0 02be 4d49 293e 2140 eb3c 5bab e83d
00000220: a738 ba3d 20ce 0abd 893a d23d 31b0 583d
00000230: 9c75 09bb da15 00be d8da 213e e2bb 17bb
00000240: 3a71 e0bd 3063 e8bd 63d7 113e 1561 9cbc
00000250: 668f a9bc 3623 e7bd c657 5ebd 84e4 cf3c
00000260: 65e2 14be a50b e83d 5c35 25bd 89a6 da3d
00000270: 0d21 84bd 3a2f 893d 1266 233e 9cd6 f53d
00000280: ad70 923d 4b12 72bb 0a67 00bd 893c f23d
00000290: 32cd 1d3e d006 89bd 3fd8 f5bd 2b0e adbb
000002a0: 41a4 d3bd 143a 21be 621a 66bb 58c7 903d
000002b0: 0059 cabc b0f3 d63d 86c2 d43d 0029 c6bc
000002c0: ce7c 46bc be7f c6bd eb13 2c3d 836d c23d
000002d0: ca23 17bd 39f3 03be c0d4 05be dfa7 d9bd
000002e0: 35ff e73d 6fe0 2b3e 50e2 003e 6f8e a43c
000002f0: 8e00 0fbd 094c 41bd c7bc 733d 0d94 01be
00000300: 3146 14be 390f 023e 6524 fa3d 038f 0abe
00000310: 06fd 48bd 9f0e 59bc 43f6 9dbd 7222 ae3d
00000320: 4be3 f13d b810 273e 29c4 953d d9c9 023b
00000330: 57f5 bdbd 6d0a d33d 8b68 063e 0f9c 97bc
00000340: a047 993c 0f82 f13d 9440 ccbd 57b9 dd3b
00000350: b9a1 f1bd 9046 743b 4a4f 2a3e 189a 05be
00000360: 14c5 a4bd caa2 423d ad5b f43d a2b7 fbbc
00000370: 2f08 ae3c 0185 4a3d 1bcb 1abe 18e8 6c3d
00000380: e220 cfbc 74e5 013e 185b 1c3d e88c 9ebd
00000390: 79c3 2ebe 313b 84bd b22b 193c f13a a63d
000003a0: 0abd 55bd 1323 afbc 0f3b 033e 4113 8dbd
000003b0: 29db a43d 7014 e9bd 6d63 483c f821 29be
000003c0: dbca e13b c30e fa3d 853c bb3d 726e fa3d
000003d0: 4803 3c3c 0bc9 b93d e50b 433d ca0f 903d
000003e0: 2558 013d 3c6e 1d3e 9897 173e 187f d0bc
000003f0: 835d 283e dc3f 443d 3322 933d 02d0 f43d

cfc_model.rnn_cell.neuromod.2.bias f4 [80]
0.004823638 -0.016697425 -0.04683901 0.040345557 0.038579956 0.078600824 -0.0036910218 0.045935143
-0.07316453 0.01608116 0.009588549 -0.07490068 -0.0063668946 0.06702084 0.0708783 0.07894116
0.004085139 0.037372235 0.05041827 0.05485761 0.03067135 0.06352786 -0.085915454 -0.0005866099
0.0352373 0.0675273 -0.08084731 -0.073887214 0.08036767 -0.006143108 0.07883211 0.08646
-0.0644991 0.02602111 -0.028098281 0.038610026 0.020074582 -0.053400192 -0.054502588 0.03539192
-0.055101294 0.0152109675 0.038596347 0.04489937 -0.031642754 0.003956329 -0.040606614 0.08649193
0.028799811 -0.033815227 -0.010902231 0.07061131 -0.04236171 -0.08377482 -0.05877535 0.029668944
-0.03742959 0.036286373 0.07098455 0.048068296 -0.020611621 -0.047261015 0.043577723 -0.06721097
-0.049471594 0.07112632 -0.005451669 -0.061875094 -0.047247678 -0.058837704 -0.03940749 -0.08735553
-0.07932343 -0.070794605 -0.07748723 0.083305106 0.049285423 0.08195201 0.050431907 0.06942664
00000000: 9c0f 9e3b 0ac9 88bc 43da 3fbd 6241 253d
00000010: 0406 1e3d 78f9 a03d 12e5 71bb 7d26 3c3d
00000020: 49d7 95bd a3bc 833c 4a19 1d3c 8765 99bd
00000030: 62a1 d0bb 3942 893d a428 913d e7ab a13d
00000040: a1dc 853b a113 193d 6383 4e3d 60b2 603d
00000050: 7c42 fb3c e51a 823d 71f4 afbd b9c6 19ba
00000060: fd54 103d c14b 8a3d 4693 a5bd 2e52 97bd
00000070: ce97 a43d 204c c9bb bb72 a13d f111 b13d
00000080: 1b18 84bd 392a d53c 5e2e e6bc 8c25 1e3d
00000090: 7373 a43c 29ba 5abd 1b3e 5fbd 1ef7 103d
000000a0: e5b1 61bd 6c37 793c 3417 1e3d 67e8 373d
000000b0: d59b 01bd 18a4 813b 1f53 26bd ae22 b13d
000000c0: 95ed eb3c d681 0abd 459f 32bc aa9c 903d
000000d0: 7983 2dbd 2292 abbd 6cbe 70bd 490c f33c
000000e0: c54f 19bd 05a1 143d 5960 913d 43e3 443d
000000f0: b4d9 a8bc c494 41bd 8e7e 323d e8a5 89bd
00000100: baa2 4abd adaa 913d eaa3 b2bb bd70 7dbd
00000110: c886 41bd ceff 70bd c069 21bd 75e7 b2bd
00000120: 5374 a2bd c3fc 90bd a0b1 9ebd de9b aa3d
00000130: 83df 493d 75d6 a73d b091 4e3d 8e2f 8e3d

cfc_model.rnn_cell.neuromod.4.weight f4 [32, 80]
-0.14595905 0.014270557 -0.19336712 -0.07051231 -0.038009405 0.0843876 -0.22992893 0.12879586
0.14895691 0.0639332 0.14301826 0.18058528 -0.037608813 0.028516559 -0.077065594 -0.04593066
0.08302383 0.08486037 -0.036898818 -0.110010035 -0.21013 -0.13915579 -0.20995104 -0.010258505
0.10274046 0.21184792 0.084737346 -0.10162006 0.21317135 -0.08193923 -0.21839088 0.139644
-0.15538415 0.021392321 -0.2016137 -0.14518797 -0.03485574 -0.012730006 -0.16321485 -0.055445783
-0.01815527 -0.22450422 0.1064631 0.10137669 -0.045331977 0.21492967 -0.20950167 0.14947045
-0.054779746 0.10774075 0.12924694 0.14295061 0.22678338 -0.16173457 -0.075745225 -0.20082167
0.09464017 -0.057687607 -0.093556814 -0.18605642 0.111441396 -0.093335114 0.11697082 0.17542982
-0.16162531 -0.14069058 -0.16370384 -0.21831729 -0.035864975 -0.16558476 -0.07073819 0.006296959
-0.021757359 -0.23025392 0.20008567 0.22079074 0.0650635 0.08260844 -0.17296526 0.035821848
-0.16812544 -0.21053547 0.032521926 0.23909988 -0.1059694 -0.03727063 -0.18470046 -0.15132675
-0.06555721 0.013822502 0.012591249 0.17210273 0.011611808 -0.03382006 -0.2262199 -0.07692193
-0.14704593 -0.057450134 -0.08054864 -0.15646815 -0.021785693 0.12466363 0.19401352 -0.044057053
-0.2201072 0.20033619 -0.048582274 -0.046298906 0.042159274 0.17468163 -0.051099703 0.22150262
-0.06699696 -0.18192574 0.17784831 -0.18995224 -0.09088669 0.19448651 0.10346656 0.12322343
0.13731582 -0.1524958 0.017840002 0.05464052 -0.0799583 -0.17865089 -0.2277772 0.1496266
0.17182377 0.1796109 -0.0884677 0.17624038 0.20935665 0.22976968 -0.20952652 -0.1429451
0.09498038 -0.112484924 -0.11612312 0.23117594 0.10188464 -0.0029736746 0.1701416 0.19561759
-0.09208745 0.11650423 0.08021977 0.041680187 0.18616763 -0.07657894 0.23792373 -0.2046222
0.094880484 0.06316126 -0.16307727 -0.16225916 0.1527309 -0.19581722 0.16178066 0.14805116
0.057549827 0.033528637 0.09353899 -0.12216906 0.07376769 -0.1530924 0.16822344 0.21790518
0.13010746 -0.22161436 -0.17540257 -0.019307898 0.12999912 0.15694746 -0.12665072 -0.20485517
0.22315262 0.11280254 -0.07362201 -0.1004175 0.058354344 0.19086733 0.17884038 0.15515059
-0.07332092 -0.2286472 -0.20513052 -0.09020428 -0.036416605 -0.015512778 0.0045142663 0.12928875
0.21626268 0.061201468 -0.0619606 -0.08453388 -0.12432145 0.018197235 0.21314768 -0.22997071
-0.12114851 -0.20667996 -0.01833598 0.2097335 0.002440226 -0.044656623 -0.05145863 0.10371327
-0.02555321 -0.008958119 0.024292858 0.21737061 0.19412 -0.08802135 -0.18637323 0.11360279
-0.12849995 0.17045328 0.15632738 -0.14764749 -0.047891762 0.09389725 0.15092126 -0.19924568
0.23193364 -0.13607377 -0.21187182 0.21800303 0.14266671 -0.07065866 0.1696602 0.09619706
-0.179472 0.19489835 0.06337058 0.053958 -0.075086586 0.043481644 0.17836538 0.1367599
-0.09281675 0.15998183 -0.20478813 -0.18978825 -0.06632544 -0.024712967 -0.016578855 -0.09059108
-0.075154215 0.028196897 -0.21040209 0.16461249 -0.018219138 0.042862702 0.03153899 -0.08126942
00000000: 4a76 15be 0ecf 693c 0802 46be c268 90bd
00000010: c0af 1bbd 68d3 ac3d 7d72 6bbe 10e3 033e
00000020: 2988 183e 69ef 823d 6173 123e 59eb 383e
00000030: b30b 1abd 8f9b e93c 91d4 9dbd ca21 3cbd
00000040: 6608 aa3d 46cb ad3d 3723 17bd f14c e1bd
00000050: 522c 57be db7e 0ebe 68fd 56be 4a13 28bc
00000060: 9769 d23d a9ee 583e c68a ad3d 2e1e d0bd
00000070: 9749 5a3e c1cf a7bd dca1 5fbe d6fe 0e3e
00000080: 061d 1fbe f33e af3c d273 4ebe 28ac 14be
00000090: e4c4 0ebd 8491 50bc cb21 27be 1e1b 63bd
000000a0: 5cba 94bc 6fe4 65be 5309 da3d 959e cf3d
000000b0: 06ae 39bd 8616 5c3e 9b87 56be c80e 193e
000000c0: ba60 60bd 2fa7 dc3d 4f59 043e a561 123e
000000d0: e739 683e bf9d 25be 5020 9bbd 32a4 4dbe
000000e0: b5d2 c13d d749 6cbd b79a bfbd 9385 3ebe
000000f0: 633b e43d 7b26 bfbd 668e ef3d e0a3 333e
00000100: 1b81 25be 3111 10be fba1 27be 918e 5fbe
00000110: 27e7 12bd 0d8f 29be 2fdf 90bd b856 ce3b
00000120: 7d3c b2bc afc7 6bbe 42e3 4c3e f816 623e
00000130: 0340 853d 9d2e a93d ce1d 31be eeb9 123d
00000140: 1329 2cbe 9c96 57be b635 053d 99d6 743e
00000150: 7c06 d9bd 17a9 18bd 1e22 3dbe 66f5 1abe
00000160: dc42 86bd c777 623c 874b 4e3c b33b 303e
00000170: 743f 3e3c e786 0abd 31a6 67be 3f89 9dbd
00000180: 3593 16be d550 6bbd aff6 a4bd 3039 20be
00000190: e977 b2bc a54f ff3d 7bab 463e 2b75 34bd
000001a0: c863 61be ee24 4d3e 35fe 46bd eca3 3dbd
000001b0: 34af 2c3d bedf 323e ec4d 51bd 95d1 623e
000001c0: b435 89bd be4a 3abe de1d 363e d782 42be
000001d0: cd22 babd 7927 473e 47e6 d33d 915c fc3d
000001e0: 859c 0c3e dc27 1cbe 3225 923c bdce 5f3d
000001f0: 2dc1 a3bd 42f0 36be 6d3e 69be b737 193e
00000200: 92f2 2f3e ebeb 373e 8e2e b5bd 5c78 343e
00000210: 9761 563e be48 6b3e 1f8e 56be 3360 12be
00000220: 1385 c23d 7f5e e6bd f5d1 edbd 63b9 6c3e
00000230: e5a8 d03d fbe1 42bb 9939 2e3e fa4f 483e
00000240: 5898 bcbd c599 ee3d 434a a43d d8b8 2a3d
00000250: baa2 3e3e 6bd5 9cbd 47a2 733e 7b88 51be
00000260: b350 c23d b15a 813d bafd 26be 4427 26be
00000270: 7d65 1c3e 4f84 48be d4a9 253e b99a 173e
00000280: 5eb9 6b3d 5355 093d 5f91 bf3d c633 fabd
00000290: 8413 973d 41c4 1cbe c442 2c3e 8922 5f3e
000002a0: e43a 053e e0ee 62be bb9c 33be 992b 9ebc
000002b0: 7d1e 053e d6b6 203e bab0 01be 8ec5 51be
000002c0: 1f82 643e 0505 e73d 23c7 96bd b1a7 cdbd
000002d0: f704 6f3d ba72 433e ef21 373e ccdf 1e3e
000002e0: 4729 96bd 7e22 6abe bc0d 52be 06bd b8bd
000002f0: 9429 15bd 4f29 7ebc 69ec 933b 4564 043e
00000300: f773 5d3e 64ae 7a3d 66ca 7dbd 1920 adbd
00000310: 3f9c febd 5e12 953c 6343 5a3e 717d 6bbe
00000320: b61c f8bd e9a3 53be 5635 96bc 61c4 563e
00000330: 33ec 1f3b dde9 36bd 49c6 52bd 9f67 d43d
00000340: f754 d1bc 13c5 12bc d101 c73c 6796 5e3e
00000350: 65c7 463e 8a44 b4bd a0d8 3ebe 94a8 e83d
00000360: 7e95 03be 4e8b 2e3e 4914 203e e730 17be
00000370: 272a 44bd 344d c03d 1a8b 1a3e 0f07 4cbe
00000380: 0380 6d3e ec56 0bbe edf4 58be 303c 5f3e
00000390: 3917 123e 7db5 90bd 67bb 2d3e f702 c53d
000003a0: 82c7 37be 6f93 473e 6fc8 813d 1003 5d3d
000003b0: ffc6 99bd cf19 323d 6aa5 363e ca0a 0c3e
000003c0: b516 bebd 47d2 233e fbb3 51be da57 42be
000003d0: a2d5 87bd d972 cabc 61d0 87bc d187 b9bd
000003e0: 74ea 99bd 2efd e63c a573 57be 2d90 283e
000003f0: 4d40 95bc cd90 2f3d 072f 013d 9570 a6bd

cfc_model.rnn_cell.neuromod.4.bias f4 [32]
-0.06633393 0.07714788 0.04478638 -0.09456878 0.037284322 0.012120279 0.028798327 -0.101204716
0.03425334 -0.08772751 -0.017677143 -0.008341266 -0.10460554 -0.0033960105 0.039966602 0.0011288831
-0.031171128 -0.11076222 0.05346242 0.10999069 0.080821306 -0.094983116 -0.05721958 0.09091143
-0.057879962 0.1061088 0.043909293 -0.08523329 0.010833778 0.06754729 -0.0066351574 -3.9887134e-05
00000000: 15da 87bd b5ff 9d3d ec71 373d 47ad c1bd
00000010: 72b7 183d 2294 463c 78ea eb3c 6b44 cfbd
00000020: 3b4d 0c3d 7baa b3bd a8cf 90bc cea9 08bc
00000030: 6e3b d6bd 9a8f 5ebb 05b4 233d 08f7 933a
00000040: 985a ffbc 4ed7 e2bd 69fb 5a3d cd42 e13d
00000050: a485 a53d 8286 c2bd 145f 6abd c62f ba3d
00000060: 8a13 6dbd 924f d93d 3bda 333d cb8e aebd
00000070: 2980 313c 3c56 8a3d bc6b d9bb 7c4c 27b8

h2o.weight f4 [2, 32]
0.025034038 0.1451558 0.08053821 -0.013828243 -0.13098952 -0.009193864 0.0779401 -0.15842699
-0.00900159 -0.16154759 -0.14530396 0.1385251 0.008565267 0.0035135588 0.052441142 0.006717371
0.16740759 -0.12895727 -0.067676686 -0.018014975 0.098158084 -0.055299293 -0.042422853 -0.09170578
-0.13113 -0.082629934 0.14015846 0.07520425 -0.07504776 0.128272 -0.07259136 0.17416379
0.15630795 -0.061749347 -0.14004302 -0.053915992 0.166183 -0.083359465 0.13886407 0.14266238
0.058137268 -0.050669327 -0.15194081 -0.057230733 -0.13554852 -0.16259618 0.053942386 0.033792086
-0.09574859 0.119336635 0.012273284 -0.15206166 -0.041363798 -0.16471253 -0.11337565 0.022470452
0.1746515 0.15709752 -0.17484619 0.089911 -0.057040136 0.04737368 0.15731053 0.06549037
00000000: 2f14 cd3c b9a3 143e 38f1 a43d db8f 62bc
00000010: 1e22 06be dca1 16bc 0f9f 9f3d af3a 22be
00000020: 687b 13bc bb6c 25be 90ca 14be 86d9 0d3e
00000030: 5555 0c3c bc43 663b 86cc 563d 641d dc3b
00000040: e56c 2b3e 600d 04be 139a 8abd 2494 93bc
00000050: 1b07 c93d 8381 62bd 96c3 2dbd 3dd0 bbbd
00000060: f146 06be e239 a9bd b385 0f3e b004 9a3d
00000070: a4b2 99bd bc59 033e c7aa 94bd fe57 323e
00000080: 310f 203e e2ec 7cbd 7067 0fbe 04d7 5cbd
00000090: e02b 2a3e 5eb8 aabd 6232 0e3e 1616 123e
000000a0: 5821 6e3d a48a 4fbd 5f96 1bbe c66a 6abd
000000b0: 3bcd 0abe 9d7f 26be b1f2 5c3d 9269 0a3d
000000c0: d617 c4bd c466 f43d e215 493c 0db6 1bbe
000000d0: 166d 29bd 67aa 28be 7e31 e8bd f413 b83c
000000e0: d8d7 323e 2cde 203e e10a 33be 4223 b83d
000000f0: eba2 69bd e70a 423d 0316 213e d11f 863d

h2o.bias f4 [2]
0.1342075 0.14806335
00000000: b16d 093e eb9d 173e

h2v.weight f4 [1, 32]
-0.09009803 0.09230453 0.056585263 -0.032745637 0.14179683 0.08651848 -0.1396752 0.017196335
0.077647686 -0.12619644 0.032732084 0.0840331 -0.089117676 0.12157147 -0.037448864 0.107775494
0.013433929 -0.17023906 -0.17131029 0.021156285 0.07551767 -0.12366635 0.10910892 0.08207546
0.07105613 0.12649277 0.16622242 0.00011135197 -0.07021155 -0.097095676 0.120188646 0.012452244
00000000: 5185 b8bd 280a bd3d f3c5 673d 4a20 06bd
00000010: 3033 113e 9a30 b13d 0407 0fbe 54df 8c3c
00000020: c005 9f3d a439 01be 1412 063d 8c19 ac3d
00000030: 5483 b6bd 76fa f83d fb63 19bd 66b9 dc3d
00000040: fb19 5c3c 2653 2ebe f76b 2fbe f24f ad3c
00000050: 02a9 9a3d c944 fdbd 7f74 df3d 2e17 a83d
00000060: e085 913d 5287 013e 3636 2a3e a285 e938
00000070: 13cb 8fbd 19da c6bd 7725 f63d 7f04 4c3c
