LTC_A2C/training_results/CfC_a2c_result_398_2024323_learningrate_0.0001_numneurons_64_encoutact_identity_neuromod_network_dims_3_256_128_64_randomization_params_[(0.775, 5.75), (1.0, 2.0), (0.8, 2.25)]/checkpoint_CfC_A2C_8.pt (torch, 245364 bytes, 16 tensors)

policy_net.cfc_model.rnn_cell.w_tau f4 [1, 64]
000000 c1 d7 42 3e 0c 90 33 be dd 2e a8 3d 24 f0 f9 bb
       0.19027616 -0.17535418 0.082120635 -0.007627504
000010 71 63 56 3e 3b 2a f3 3d 11 81 84 3e 34 ea 3f be
       0.20936371 0.11873289 0.2587972 -0.18741685
000020 a3 34 13 be db 04 3c 3e d6 95 2d 3e 50 94 16 bd
       -0.14375548 0.18361227 0.16951689 -0.036762536
000030 18 f3 16 3e 84 fa 88 3e 46 63 4a 3e 23 69 89 be
       0.1474117 0.26753628 0.19764432 -0.26838025
000040 01 4a 9d be 8f 14 87 be db 9a 6b be bc 3e 23 be
       -0.30720523 -0.26382872 -0.23008291 -0.159419
000050 05 1e 21 3d bd ce 81 be be 4b 1d be fb 17 29 bd
       0.03933527 -0.2535304 -0.15360925 -0.041282635
000060 d4 e0 f0 b8 3b 58 15 be d1 8c d7 bd b0 44 ef 3d
       -0.00011485969 -0.14584439 -0.105249055 0.11683023
000070 c7 31 ff 3b 68 19 5f be b2 6c 15 3c 48 e6 45 3e
       0.0077879163 -0.21787035 0.009120153 0.19326127
000080 e6 3c 09 be f1 3f af 3c dc 98 13 3e cd f2 a2 bd
       -0.13402137 0.021392794 0.1441378 -0.07956467
000090 6a fc 05 3e 93 a5 af bd 33 86 ce 3d 35 c7 e2 3d
       0.1308457 -0.08576503 0.1008419 0.11073152
0000a0 f5 1e bb ba 15 5e 1d 3e 36 59 b7 bd d6 43 38 bd
       -0.0014276194 0.1536792 -0.089525625 -0.04498657
0000b0 6a 36 c3 bd 97 1a 76 be 77 e8 6b bc 9e 7b 7f 3e
       -0.09531863 -0.2403358 -0.014398686 0.249495
0000c0 97 06 b2 3d 0f 6d 89 3d d8 1e da bd ef 2c 4f be
       0.08692663 0.067102544 -0.10650414 -0.20231985
0000d0 f4 e8 d9 bc 53 27 0e 3e 28 7c d8 bd 35 c2 32 be
       -0.026600339 0.13882188 -0.10570556 -0.17456897
0000e0 63 fd b3 3d 20 dd b4 bd d1 87 74 be 95 a6 f7 bd
       0.08788564 -0.08831239 -0.23879935 -0.1209232
0000f0 4d 23 61 3e cb 1f 7a 3d 14 81 95 be 96 0d f3 3d
       0.21986122 0.061065476 -0.2920004 0.11867826

policy_net.cfc_model.rnn_cell.A f4 [1, 64]
000000 e8 3b 2e 3e 0f 19 e0 bc 71 a0 80 be 5b 3b 8a be
       0.1701504 -0.027355699 -0.25122407 -0.2699841
000010 bc ff 64 be cf b6 1e be fb c2 92 be 48 d0 87 3e
       -0.2236318 -0.15499423 -0.28664383 0.26526093
000020 05 5f 8b 3e 2d 47 86 be dd 05 05 be 7b 77 5c 3d
       0.27220932 -0.26226178 -0.12990518 0.053824883
000030 db 24 57 3e 6c 40 ae bc d5 ff 28 be c2 36 0f bd
       0.21010153 -0.021270953 -0.16503842 -0.03496433
000040 64 32 d8 bd 02 59 5a 3e 56 01 f4 bd 48 36 64 3e
       -0.10556486 0.21323016 -0.11914317 0.22286332
000050 a9 f0 f7 bd 50 56 25 3e c4 be 15 3e fe f0 56 3e
       -0.12106449 0.16146207 0.14623553 0.20990369
000060 e7 41 77 3e d3 db 8b be 40 38 eb 3d f8 50 51 be
       0.24146233 -0.2731615 0.11485338 -0.20441043
000070 69 dc d9 3d da 95 97 bd f6 ac 15 be 6b f4 10 be
       0.10637743 -0.07401629 -0.1461676 -0.14155738
000080 55 f4 48 be 1e a5 5a 3e 7c 29 21 3e 0b 85 b7 3d
       -0.19624455 0.2135205 0.15738481 0.08960923
000090 83 74 f8 bd 82 25 4e 3e e2 94 ad bc 7f 0a 8d 3e
       -0.12131598 0.20131496 -0.021189157 0.2754707
0000a0 8d f8 65 3e 3e 24 ad 3d 13 3b e9 bd fa e1 4e 3e
       0.22458096 0.08454178 -0.11388221 0.2020339
0000b0 8d e0 e6 bd e9 e4 26 be 16 c8 0a be 8b ae 80 be
       -0.112732984 -0.1629826 -0.13552889 -0.25133166
0000c0 46 26 b8 3c be 9a 76 3e 1e 8f 98 bc 55 d9 19 be
       0.022479188 0.24082467 -0.018622931 -0.15024312
0000d0 83 7e 95 be 38 88 5d be 78 df 3b be 14 ca 00 3e
       -0.29198083 -0.21633995 -0.18346965 0.12577087
0000e0 e8 34 8e 3d fa c0 90 3e 76 7b 98 3e 30 0b a0 3d
       0.06943685 0.2827223 0.29781693 0.07814634
0000f0 86 76 93 be d4 fe 64 3e b1 d4 14 bd a7 5b 9b bd
       -0.28801364 0.22362834 -0.03633565 -0.07585841

policy_net.cfc_model.rnn_cell.tau_system f4 [1, 64]
000000 34 6a 53 40 9b 15 b0 3f ad 0e 1c 41 c2 c1 8b 40
       3.3033571 1.3756593 9.753583 4.367402
000010 cc a1 0b 40 15 6a 04 41 2c 0a 4d 40 74 9f 7f 40
       2.1817503 8.275899 3.2037458 3.9941072
000020 25 7a 9e 40 b6 fa 91 40 93 3f 96 40 8e ff 8a 40
       4.95241 4.5618544 4.6952605 4.3436956
000030 8f 04 a7 40 1b de 7b 3f ba 75 98 40 bb c4 24 40
       5.2193065 0.9838578 4.764371 2.5745075
000040 ae a1 af 3f 0d 22 6b 3f e3 9e a9 3f cf fa a9 40
       1.3721216 0.9184883 1.3251613 5.3118663
000050 a4 4b 9b 40 e4 36 68 40 38 c5 87 40 1c c5 cf 3f
       4.8529835 3.6283503 4.2428246 1.6232028
000060 e2 42 a4 41 13 db b7 40 89 41 d1 3f 69 13 43 40
       20.532658 5.7454925 1.6348125 3.0480597
000070 ed c9 04 42 1a d9 16 40 4e f3 c4 40 7e 0f 97 40
       33.197193 2.3570008 6.1547003 4.720641
000080 06 9b a0 40 b0 b5 8e 40 b0 f6 a8 3f 70 6f 17 41
       5.0189238 4.4596786 1.3200283 9.464706
000090 92 0a eb 40 79 67 eb 40 81 f0 7b 40 3e c4 e0 40
       7.3450403 7.356381 3.9365542 7.0239553
0000a0 00 ae 80 40 d4 aa 98 40 13 91 7c 3f f9 46 c6 40
       4.02124 4.770853 0.98658866 6.1961637
0000b0 56 7b d7 3f 3b 57 53 40 20 e8 46 41 a1 3e 74 40
       1.6834514 3.3021991 12.431671 3.8163226
0000c0 c4 93 2b 40 26 c0 b4 40 b4 7f 14 41 fc 5f 88 40
       2.680894 5.6484556 9.2811775 4.261717
0000d0 63 11 2c 41 f3 c2 df 40 0f 09 03 41 bf a4 99 3f
       10.754245 6.9925475 8.189712 1.2003402
0000e0 19 4e 2b 40 a6 0e 52 40 1f ab 24 40 83 67 82 40
       2.6766417 3.282144 2.5729444 4.0751357
0000f0 b1 48 1a 40 4a 87 55 40 f4 3b 0f 40 7c 63 24 40
       2.4106867 3.3363824 2.2380342 2.568572

policy_net.cfc_model.rnn_cell.backbone.0.weight f4 [128, 68]
000000 19 cf 57 3d 8b 5f 89 bd 9e 7a 2f 3e 11 d0 5f bd
       0.052687738 -0.067076765 0.17136618 -0.054641787
000010 eb dd 87 3d 04 a6 ad 3d 1d 3a 04 be b1 d1 9f 3d
       0.06634124 0.084789306 -0.12912793 0.07803667
000020 e3 fc 56 bc 3b 9b e1 3d f8 ce 61 3c 74 88 db 3d
       -0.013121816 0.11015936 0.013782255 0.10719386
000030 2c 99 96 3d e0 81 17 be 79 78 ac 3c 96 8b 23 bd
       0.07353434 -0.14795637 0.02105354 -0.03992804
000040 5a 9e 37 3e d5 d5 e0 bd a1 c0 bc bb f4 03 cb 3d
       0.179315 -0.10978285 -0.005760268 0.099128634
000050 80 19 fa ba 37 59 b1 bd 92 6b 9a 3d ee 0f c5 bd
       -0.0019081086 -0.086595945 0.07540049 -0.09622179
000060 2e e5 2a be 65 f1 ec bc 98 6d fd 3d b2 65 94 3d
       -0.16688988 -0.0289237 0.12374419 0.07245959
000070 f8 10 93 bc 80 7d 0c 3d 5a eb 06 be f4 14 18 be
       -0.017952427 0.034299374 -0.13175717 -0.14851743
000080 15 74 81 3d 83 75 07 3c 8f e4 f4 bd 61 e2 19 be
       0.06320969 0.008267763 -0.119576566 -0.15027763
000090 ba 30 1d be f4 8b 97 bb 27 d1 14 3d 37 37 14 3e
       -0.15350619 -0.004624838 0.036332276 0.14474188
0000a0 53 f9 d4 bd cf a4 90 3d 39 a8 19 3d d2 b3 2a 3e
       -0.10399117 0.07062685 0.037513945 0.16670159
0000b0 ad 0a 1b bd 49 36 38 3c 93 8a 16 be 8b de 1a be
       -0.037851978 0.011243411 -0.147013 -0.15123956
0000c0 00 28 4a 3b af 90 f4 bd e2 88 0a be 71 6e 8f 3c
       0.0030846596 -0.11941659 -0.13528779 0.017508717
0000d0 cf 41 3f 3d a9 bb df 3d 95 ca db 3c c9 f2 e7 3d
       0.04669362 0.10924465 0.026829997 0.113256045
0000e0 d0 8b 18 3e d0 00 de bd 62 65 f2 bc 8b 3c cb bd
       0.14897084 -0.10839999 -0.029589359 -0.09923657
0000f0 b7 c6 21 bc b3 0d 33 3e 39 21 1d 3e f6 83 cc 3c
       -0.0098740375 0.17485695 0.15344705 0.024965268
000100 12 ab ff bd ba c4 fd bb 2e d0 ba 3d be 17 e5 3d
       -0.12483801 -0.007744399 0.091217384 0.11186169
000110 8c 7b 00 be e0 81 42 3d 96 f3 a3 bc de 68 cb bc
       -0.1254713 0.04748714 -0.020013612 -0.024830278
000120 77 6c 1f be ac 59 c4 3c 5f 28 99 3d 04 75 07 3e
       -0.1556872 0.02396854 0.07478403 0.13228232
000130 fc 4d 11 3e bf a9 3a bd 28 8b a6 bd de fa 28 3d
       0.14189905 -0.04557204 -0.08132011 0.04125487
000140 ff 08 ad 3d ce f1 03 bb e6 42 46 bd 9b 2a a7 3c
       0.084489815 -0.002013314 -0.048403643 0.020406058
000150 72 ce 26 be 0f b6 08 be d1 03 0c bb 97 ba de 3d
       -0.1628969 -0.133507 -0.002136458 0.10875433
000160 56 c4 1d be ff 4a 0e bd 8f c6 10 be 4a e6 bf 3b
       -0.15406927 -0.03473949 -0.14138244 0.00585631
000170 ae 19 4a bd ae b4 e1 bd a1 7e 37 bd 8f 16 1c 3e
       -0.049340896 -0.1102079 -0.044798497 0.1524298
000180 f8 a9 c2 bd 42 1a fa bd b6 8d f3 3d 46 5e d5 3d
       -0.09505075 -0.122120395 0.118922636 0.10418372
000190 7f 93 97 3d d6 e1 1e be bc 05 96 bc 76 96 29 be
       0.074011795 -0.15515837 -0.018313281 -0.16561303
0001a0 24 f2 f5 3d 09 5a 3a be 72 ac fa 3d 11 d5 70 bd
       0.12009075 -0.18198408 0.122399226 -0.058796946
0001b0 a1 6a 33 3e e2 b5 bd 3d cc 09 f5 3c bc ea 20 bd
       0.17521144 0.09263207 0.029911898 -0.03928636
0001c0 ff dd 8f 3d 8b c3 e3 bc 72 f1 39 3e 4c c3 23 3e
       0.07024764 -0.027803203 0.1815851 0.15992469
0001d0 5e d9 96 bd 55 d8 1d 3e 10 98 12 3d e4 4b bd bd
       -0.07365678 0.15414555 0.03578955 -0.092429906
0001e0 92 c1 30 3d e5 88 ff 3d 88 5e 32 3e 1b 0d 25 3c
       0.043153353 0.124772824 0.17418873 0.010073925
0001f0 bd 98 12 3e b8 4f 5e bd d9 9b f6 3d ef 4e 01 be
       0.14316078 -0.054275244 0.12041444 -0.12627767
000200 6a 21 02 be 76 3f 83 bd cd 56 07 3e 52 6d 1e be
       -0.12708059 -0.064085886 0.13216706 -0.1547139
000210 64 c3 e6 bd 84 92 7a bd 69 2e 5e 3d 57 d7 15 3d
       -0.112677366 -0.061174884 0.05424348 0.036582317
000220 ec 26 09 be 5f 9b 0c bd dc b9 1a be f4 4a 20 be
       -0.13393754 -0.03432786 -0.15109962 -0.15653592
000230 b6 9b 05 3e 28 44 98 3b 77 9b 02 3e a8 25 90 bd
       0.1304768 0.0046467967 0.12754618 -0.07038432
000240 72 9a 7a bc b8 7f b6 bd 53 0b 1b 3e ac d7 c6 bd
       -0.015295612 -0.08911079 0.15141039 -0.09709105
000250 fc 53 19 3d cd a0 16 3e cd 80 0b 3d 50 19 55 3c
       0.03743361 0.14709778 0.03405838 0.013006523
000260 12 12 ba 3d c4 55 d4 bd 04 38 1a be 6c 5f f2 bc
       0.09085478 -0.10367921 -0.15060431 -0.029586516
000270 64 e9 5e bd 20 a7 b0 bd 0a 68 21 be f0 13 c1 3c
       -0.054421797 -0.086256266 -0.15762344 0.023569077
000280 4f 5f 7e bd c4 8e 1a 3e 56 8d 73 3d 1c 8e 22 3e
       -0.062102612 0.15093523 0.05946096 0.15874523
000290 8e cd 0d 3e 9c fd 32 3d 7a 11 ee bc 81 51 c4 bd
       0.13847944 0.043698892 -0.029061068 -0.09585858
0002a0 b5 e5 af bd 36 cf 1c be 5d bd e0 3d 05 a1 c7 bd
       -0.08588735 -0.1531342 0.10973618 -0.09747509
0002b0 f0 9b 76 bc 6d 76 a9 3c 3e c2 ce 3d 34 96 24 3e
       -0.015051827 0.020686353 0.100956425 0.16072923
0002c0 64 46 e5 bc b1 14 ca bd a5 d4 04 3e f7 e9 c1 3d
       -0.027987666 -0.09867228 0.12971742 0.094684534
0002d0 ca e6 15 3e 5d c3 26 3e da 35 29 bd 49 73 23 be
       0.1463882 0.16285463 -0.041311122 -0.15961947
0002e0 58 25 c7 bc bf 8f 08 3e d5 79 21 3e 3f 77 a6 3d
       -0.0243098 0.13336085 0.15769131 0.08128213
0002f0 82 05 18 3e e3 9c 06 3e be b5 39 3c 18 ad 0f 3d
       0.14845851 0.13145785 0.011334835 0.035077184
000300 c6 29 4e bc c6 fb 28 be a8 9f 49 bd 82 50 1a 3d
       -0.012583202 -0.16502294 -0.049224526 0.037674434
000310 ea 84 13 3e e8 99 b6 3d 60 ec 62 bd 94 fc 17 3d
       0.14406171 0.08916074 -0.055401206 0.03710611
000320 5b 74 db bd 7c e2 fe 3d 94 90 9b bc 2d 9e 18 be
       -0.107155524 0.12445542 -0.018989839 -0.1490409
000330 9b 17 17 be 6d 00 6a bd 50 79 fb 3d 76 ff a4 bd
       -0.14755099 -0.057129312 0.12278998 -0.08056538
000340 d1 bc 1d 3e 2d a4 08 3e 60 8d fa bd f5 a6 e9 3d
       0.15404059 0.13343878 -0.122339964 0.11408798
000350 84 a8 dc 3d f4 f0 63 3d 91 d4 99 bd 32 c8 f1 bc
       0.10774329 0.055649713 -0.07511247 -0.029514406
000360 e4 18 a7 3c 1c e6 d8 3d 76 82 ea bd 2a 49 b4 3d
       0.020397611 0.10590765 -0.11450665 0.088030174
000370 88 fb 2c 3d 27 02 15 3e 77 3e 19 3e 08 22 68 3c
       0.042232066 0.14551602 0.14965235 0.01416827
000380 3a 23 00 be 44 22 7d bd de e4 db bd 61 14 3a 3e
       -0.12513438 -0.061800256 -0.10737012 0.18171836
000390 2f ba a1 bd 16 11 02 be e0 bb 2b 3e 3d f7 e5 bc
       -0.0789684 -0.1270183 0.16770887 -0.028071994
0003a0 71 e4 66 3d fa f9 5a 3d c4 94 c9 3d 91 56 62 bd
       0.056370202 0.053461052 0.09842828 -0.055258337
0003b0 4f 12 ba bc fd e8 52 3d 9b e5 3e bd 5b c0 1c 3e
       -0.022713808 0.051491726 -0.046605688 0.15307753
0003c0 c0 63 72 bd 48 9d 21 be 1e f2 0f be 54 f7 dd bd
       -0.05917716 -0.15782654 -0.14057204 -0.1083819
0003d0 1b de 37 3d 6c 7d ca bd 0f 82 2b 3e b6 e1 2c 3e
       0.04488955 -0.098872036 0.16748832 0.16882977
0003e0 7b b2 97 3c 59 9a b2 b9 c1 1d 01 be 65 a6 2a 3e
       0.018517723 -0.00034065804 -0.12609006 0.16665037
0003f0 98 e2 bc 3d 48 ee c4 bd f7 17 3e bc 52 6b 2c be
       0.09222907 -0.09615761 -0.011602393 -0.16837814

policy_net.cfc_model.rnn_cell.backbone.0.bias f4 [128]
000000 d3 47 9c 3d 6a 8e f3 bc bf d5 b7 3d 32 00 69 bc
       0.07630887 -0.029730994 0.08976316 -0.014221238
000010 49 08 9f bb 93 67 76 bd aa d1 85 bd 07 7f d3 bc
       -0.0048532826 -0.06015737 -0.06534131 -0.025817407
000020 55 27 f4 3d 2b 23 d7 3c 9e 61 59 bc 5f b1 a1 bd
       0.119215645 0.026261887 -0.013267903 -0.07895159
000030 4e 84 71 bd 98 3d a8 3d 8e e5 15 3d 14 6f 45 3d
       -0.058964066 0.08214873 0.036595874 0.048201635
000040 c4 a3 a3 bd d3 08 99 3d 6d b1 2d 3d ae 0b ae 3d
       -0.0799022 0.07472386 0.042405535 0.084983215
000050 a7 e6 bb bd 69 a9 97 3d 35 57 cf bd 0a 9c 81 3d
       -0.09174853 0.07405359 -0.10124055 0.0632859
000060 4f 56 fa bd 2c 8f 6d 3c 98 48 aa bc 82 17 a1 3d
       -0.12223493 0.014499467 -0.020786569 0.07865812
000070 4f bc 79 bd 7b f2 a6 bd 38 31 37 bd 39 38 b8 3d
       -0.0609706 -0.08151718 -0.044724673 0.089950986
000080 5f 2d e8 3d 5d d9 cc 3d 20 22 cf 3d 30 20 fe bd
       0.11336779 0.10002396 0.10113931 -0.12408483
000090 6f 6a ea bd 60 bf 94 3d 93 32 fa 3c b8 f2 71 3c
       -0.11446082 0.072630644 0.030541694 0.014767341
0000a0 dc b9 f8 3d db e4 64 3d 0c 7d 99 bd df d1 57 3d
       0.12144825 0.055882316 -0.07494554 0.052690383
0000b0 04 ef b2 bd 04 83 57 3b e8 ee 9b 3d 9d 25 75 3d
       -0.08736995 0.0032884488 0.07613927 0.059850324
0000c0 3a 18 0e bd 47 e4 9d 3c 57 26 e3 bd 3a 1b cb bc
       -0.034691073 0.01927389 -0.11091297 -0.024793256
0000d0 c8 81 bd bd 59 95 e0 3d 98 dc bf 3d ba 56 8a 3d
       -0.092532694 0.10965986 0.09368247 0.06754823
0000e0 9a dc d0 b9 3a 43 9f 3c bc 2e 80 3d bb 1f 43 3d
       -0.00039837213 0.019441236 0.06258914 0.047637682
0000f0 5c de 57 bd f6 c5 84 3c 0b 0d 6e 3d d6 da 77 bd
       -0.052702293 0.016207676 0.058117907 -0.060511433
000100 97 89 f8 bd df b7 df 3d 12 ad 30 bd 77 30 1a bc
       -0.12135618 0.109237425 -0.043133803 -0.009410969
000110 ec ac b6 3d 5d db dc bd e4 b8 ce bd 05 eb 45 bd
       0.08919701 -0.10784028 -0.10093859 -0.048319835
000120 f4 2c 8a bd b7 29 e5 3c 5a 1e 89 3d c9 05 fd bd
       -0.067468554 0.027973993 0.06695242 -0.12354619
000130 af a4 ec 3d 51 09 d6 3b e1 06 db 3d 23 76 f5 3d
       0.115548484 0.0065318723 0.106946714 0.119854234
000140 aa f1 e4 bd c5 bf c3 3d 0c 15 7f 3c ca ba f8 3d
       -0.11178906 0.095580615 0.015568983 0.12145002
000150 11 a8 79 bd 41 d4 ff 3b 28 5e d2 3b 23 c4 81 3d
       -0.060951296 0.007807285 0.0064199157 0.06336238
000160 6f b7 ef bc eb df c7 3c 94 4f b3 3d 6e 8a 0d 3d
       -0.029262273 0.024398765 0.08755413 0.034555845
000170 b0 79 9a bd 02 c4 a4 bd 8e 0f 77 3d ce 6a c5 3d
       -0.07542741 -0.08045198 0.06031757 0.09639512
000180 82 c2 e9 bd d1 35 0a 3d f9 cf d3 3d 92 a7 f8 bd
       -0.114140525 0.03374273 0.10342402 -0.121413365
000190 6a 2b 92 3a 35 b4 c6 3d 77 06 7b bd ee c0 9c bd
       0.0011151854 0.097023405 -0.061285462 -0.07653986
0001a0 6c 0c 74 3d fe 4f e3 3d 05 d6 bc bd c5 ee 91 bd
       0.05958216 0.11099242 -0.092205085 -0.0712562
0001b0 f7 d3 af 3c a3 1c 05 3c 10 bd b8 3d 5d 7c 38 bc
       0.021463377 0.008124503 0.09020436 -0.011260119
0001c0 c7 da e9 bd 78 2c 7e bd 6b e2 91 3d 0f 6c d0 bd
       -0.114186816 -0.062054127 0.07123264 -0.101768605
0001d0 c7 da a0 3d 33 91 15 3d ab b3 5a 3d 43 c1 df 3d
       0.078542285 0.036515426 0.053394 0.109255336
0001e0 9f 00 89 3d 03 07 44 3d a6 f0 bf 3d 0f 10 9b 3d
       0.066895716 0.04785825 0.09372072 0.07571422
0001f0 73 3d ca bd ac 7b 96 bd a0 68 89 bd d5 20 b8 bd
       -0.09875002 -0.07347807 -0.06709409 -0.08990637

policy_net.cfc_model.rnn_cell.ff1.weight f4 [64, 128]
000000 a3 9a b1 bc a8 57 76 3d 82 72 00 be c8 0b 33 3c
       -0.021680182 0.06014219 -0.12543681 0.010928102
000010 e2 ad 15 3e 62 1a b0 3d 51 6f 15 bd 2d c8 08 3e
       0.14617112 0.08598782 -0.036483113 0.13357611
000020 fa 28 a8 bd cd bd 9b bd 03 66 03 be c4 47 fb 3d
       -0.08210941 -0.07604561 -0.12831883 0.122695476
000030 79 44 cb bd b3 b4 01 be 4f d9 a6 3d 79 07 19 3e
       -0.099251695 -0.12666588 0.08146917 0.14944257
000040 ec d5 36 3e c5 9c 19 be 98 91 4f 3d b7 32 10 be
       0.17855042 -0.15001209 0.05067596 -0.14081846
000050 ba 45 28 3e 73 5e c0 3d f7 37 ec bd 41 80 13 bb
       0.16432849 0.09393015 -0.11534112 -0.0022506865
000060 53 68 37 3e df ea eb 3d 9d e8 dc bd ad 94 2e 3c
       0.1791089 0.115194075 -0.10786555 0.010655564
000070 7d d6 26 3d 2a e8 67 3c 73 bc 11 3e c0 7b 92 bd
       0.040731896 0.014154473 0.14232044 -0.0715251
000080 81 2a 33 3e 92 8c cc bd b9 90 19 bd 3e 1a 25 3e
       0.17496683 -0.09987749 -0.037491534 0.16123292
000090 f3 c1 2e bd 3c bb 16 3e 65 37 07 be 98 b8 e1 3c
       -0.042665433 0.14719862 -0.13204725 0.027553841
0000a0 6f f7 23 be 25 a0 e5 3d 74 ef 0d 3e 0e 54 13 bd
       -0.16012357 0.11212186 0.13860875 -0.035968833
0000b0 cb 39 24 be b9 ad 86 3d af 12 92 bd d1 35 e7 3c
       -0.16037671 0.06576104 -0.0713247 0.028223904
0000c0 26 89 a6 bd 71 e4 66 bc 7f 0f 11 be ac f8 96 bd
       -0.08131628 -0.014092551 -0.14166068 -0.07371649
0000d0 92 16 0a 3d d7 aa 06 be b1 76 15 3e ce a1 8e 3c
       0.03371293 -0.13151108 0.14596058 0.017411139
0000e0 74 59 14 3b 0e d7 81 ba 9a 2c e9 bd 06 f3 01 3e
       0.0022636326 -0.000990601 -0.1138546 0.12690362
0000f0 bd fc e3 bd 6c 24 eb bd c7 dd 0d 3e bf 30 f1 3d
       -0.111321904 -0.11481556 0.13854133 0.11776876
000100 54 f5 32 3e 20 fd 33 3d f7 d8 89 bd 02 c4 0f be
       0.17476398 0.04394257 -0.06730836 -0.14039615
000110 02 35 1f be 9e 5f b9 3c e8 10 24 be 89 bb 2b 3d
       -0.15547565 0.022628602 -0.16022074 0.041926894
000120 81 60 0e be 83 67 26 3d b8 f7 43 bd 6a 18 0c 3d
       -0.13904001 0.04062606 -0.047843665 0.03420297
000130 16 94 b9 3d 79 07 ea bd fb 9a 00 3d 71 c4 05 3e
       0.09061448 -0.114272065 0.0313978 0.13063218
000140 10 40 33 3e 84 20 85 bc 1c dc ad 3d 4d 72 0f 3e
       0.17504907 -0.016250856 0.08489248 0.14008446
000150 2d 14 2f 3d 98 7d db bd 30 e9 7e 3d a3 52 c6 3d
       0.04274385 -0.107173145 0.062234104 0.096837305
000160 0b bf 2a be 8c 63 38 3e 25 a9 df bc d2 8c a4 bc
       -0.1667444 0.18006724 -0.027302334 -0.02008668
000170 d8 2d 97 bd 1f e5 a6 3b 5e cf 72 bd 37 53 8d bc
       -0.07381791 0.0050932313 -0.059279792 -0.017251594
000180 81 01 08 3c 9d 1f 46 3d 57 10 cb bd 55 21 03 bd
       0.00830114 0.048369993 -0.09915226 -0.03201421
000190 2f 31 fb bd af 6a c2 bc 29 0e 0a 3e c2 01 9a 3d
       -0.122652404 -0.023732511 0.13481964 0.075198665
0001a0 22 67 2c 3e 06 c0 03 bd e8 81 1f bd 2c 61 dc 3d
       0.16836217 -0.03216555 -0.038942248 0.107607216
0001b0 20 78 ab 3d 8d 8e 0b 3e c2 cd 31 bd ac 0b 07 be
       0.083725214 0.13628598 -0.043409117 -0.13188046
0001c0 47 86 93 bd b6 f7 4f bc 3b f9 34 3e 45 84 2b 3e
       -0.07203346 -0.012693336 0.17673199 0.16749676
0001d0 d5 4d 9b bd f7 58 57 bd 1b 03 10 be 99 59 ac bd
       -0.07583205 -0.052575078 -0.14063685 -0.08415527
0001e0 4d 26 3b be 37 c3 81 3d 92 a6 26 3e 42 c4 12 be
       -0.1827633 0.063360624 0.16274479 -0.14332679
0001f0 67 8e 2a be 0c e9 10 3d f9 eb 08 bc 4b d7 e8 bd
       -0.16655885 0.0353785 -0.0083570415 -0.11369189
000200 fa 82 23 be 53 df 13 3e c0 d5 29 be 69 3e 18 3e
       -0.15967932 0.1444066 -0.16585445 0.14867558
000210 56 87 01 be 9d 8c d1 3d ba 47 ab bd ad b9 16 be
       -0.12649283 0.10231898 -0.0836329 -0.14719267
000220 d3 0b f8 bd 20 af 2e 3e f1 2f 85 3d 74 2f 01 bd
       -0.1211163 0.17058992 0.06503285 -0.031539395
000230 4f 8c b6 bd 08 72 cb 3c 5e 24 2e 3e 21 83 a2 3d
       -0.089134805 0.024834648 0.1700606 0.07935167
000240 fe a2 f7 3d d8 fd 02 3e be 65 1e be 02 ad 06 3d
       0.12091635 0.12792146 -0.15468499 0.032879837
000250 13 8d b7 bd 1c 84 10 be a4 f5 63 bc 1e a7 21 3d
       -0.08962455 -0.14112896 -0.013913546 0.039466016
000260 93 7a 59 bd 1b f7 cc 3d 6c 78 bc 3d b2 bc a3 bc
       -0.05309541 0.10008069 0.09202656 -0.019987438
000270 c0 50 b5 bd 10 ef 1b 3e ac a9 9a bd 20 a6 c3 3d
       -0.088532925 0.15227914 -0.075518936 0.0955317
000280 61 04 62 3d 40 06 14 3e 23 10 2f 3e 31 ed 31 3e
       0.055179957 0.14455509 0.17096 0.17375638
000290 57 43 fd 3d 86 ba db bd a7 37 7e 3d 45 e8 05 3e
       0.1236636 -0.10728936 0.062064793 0.13076885
0002a0 04 d3 5c bd 0b 04 08 be 4e 06 10 3e e8 82 18 3e
       -0.053912178 -0.13282792 0.14064905 0.14893687
0002b0 80 72 36 3d 6b 50 ad 3d 1a 1d 93 3d 52 7b 6f 3d
       0.04454279 0.08462604 0.07183285 0.058467217
0002c0 0e bf bb bd d1 e4 a5 3d d6 9d a0 bd 5e 6c 2d 3e
       -0.091673 0.08100284 -0.07842605 0.1693587
0002d0 9a e4 65 bd 20 75 a4 bc 27 06 e5 bd d4 08 b2 bc
       -0.056126215 -0.02007538 -0.11182814 -0.021732725
0002e0 7d 7f 5b bc 29 42 01 3e cd 91 ce bd c1 32 fe bd
       -0.013397095 0.12622894 -0.10086403 -0.12412024
0002f0 ef 74 95 bd b1 c2 ff bd ad d2 1d be 6b ae df bd
       -0.07297694 -0.12488306 -0.15412398 -0.109219395
000300 1a 39 d8 3c 1a e3 fe 3d b0 69 d6 3d f7 54 d1 3d
       0.026394416 0.1244566 0.10469377 0.10221284
000310 42 33 3c 3d 2d 00 d3 3d f4 8a 54 3d b5 45 19 be
       0.04594732 0.10302768 0.05189033 -0.14967997
000320 cf 36 19 be c5 7f 6f bd b0 d5 86 3d fd 6a 8c bc
       -0.14962314 -0.05847146 0.065837264 -0.01714086
000330 d7 63 99 3b 63 24 e1 3d b3 44 0f 3e bb 48 06 be
       0.0046810913 0.10993268 0.1399105 -0.13113682
000340 07 e2 98 bc c2 e0 a2 bd de d2 d9 bd ce 7d 81 3d
       -0.018662466 -0.079530254 -0.10635923 0.063228235
000350 51 9c 9a bd f1 69 fe 3c 70 d5 87 3d 8e a4 2f 3d
       -0.07549346 0.031056376 0.06632507 0.04288154
000360 f1 29 f0 bd a8 c6 0a 3e 32 91 bb 3d b1 54 39 bd
       -0.1172675 0.13552344 0.09158553 -0.045246784
000370 1e aa 26 be bd 89 7e 3d cc 91 ed bd 7d 99 e7 bd
       -0.16275832 0.062143076 -0.11600074 -0.113085724
000380 d7 36 0e bd d5 f1 a2 3d 58 3d 7c bc 35 cd 29 3d
       -0.034720268 0.07956282 -0.015395485 0.041455466
000390 f5 36 0f 3e a5 19 12 bd cf e8 12 3d 5d 2d 1e be
       0.13985808 -0.035668988 0.035866555 -0.15446992
0003a0 d0 b7 31 3d cb 26 22 3e 34 f9 06 3e 23 98 1a bd
       0.043388188 0.15835111 0.13181001 -0.037742745
0003b0 1b 37 e3 3d 94 cf 9f 3d 2e 80 f2 3c 98 99 69 bd
       0.11094495 0.07803264 0.029602136 -0.057031244
0003c0 3e 50 cd 3b 26 c2 19 be 4f ef 0b be ed 62 2c be
       0.006265669 -0.15015468 -0.13665508 -0.16834612
0003d0 0c c6 aa bd 77 bf b5 bd 50 78 12 be 92 fa c6 3c
       -0.08338556 -0.0887441 -0.14303708 0.024289403
0003e0 18 7f d4 bd 12 48 f9 bd 11 04 e9 bd c0 1a 18 3e
       -0.10375804 -0.121719494 -0.11377729 0.14853954
0003f0 1c 3d 7c 3c f4 46 80 3d 7f 0c 00 3d e5 3a 49 bd
       0.015395429 0.06263533 0.031261917 -0.04912843

policy_net.cfc_model.rnn_cell.ff1.bias f4 [64]
000000 70 1a 72 3d 39 0d 96 bd ce 67 93 3d 0f f7 0d 3d
       0.059107244 -0.07326741 0.071975335 0.03465944
000010 37 ed 31 3b c6 da c9 3c 09 0f 01 bd 0d 06 d9 bc
       0.0027149448 0.024640452 -0.03150848 -0.026492143
000020 1a 53 6f bd 1e 8a a7 bd ca cd 31 3c a9 31 90 3d
       -0.05842886 -0.08180641 0.010852287 0.07040722
000030 7a 9d c4 bd 47 1d 2a bd 71 5f cd 3b be 81 b9 3d
       -0.09600349 -0.041531827 0.006267481 0.090579495
000040 ae eb 5c 3d 8f ec 92 3d 4d 5f b0 bc 9f ae 41 3c
       0.0539357 0.07174026 -0.021529818 0.011821418
000050 74 17 f6 bc 33 e6 54 3d fe 1a 98 3d 30 6b 0e bc
       -0.03004048 0.051977348 0.07427023 -0.008692548
000060 f6 dd 82 bc 5d 03 f4 ba ed f4 97 3d 00 36 9b bd
       -0.01597498 -0.0018616725 0.07419763 -0.07578659
000070 21 87 26 3d 06 53 86 3d 0b ad df 3c f2 d8 5b 3d
       0.040656213 0.06558804 0.027304193 0.053673692
000080 24 ca 34 bd cf 5c 11 3d 6f 1d 60 bd 13 e6 be bc
       -0.04413809 0.0354889 -0.05471557 -0.023303067
000090 13 52 60 3c 0a 50 a7 bc 7d b1 bc 3d 3b 7f ef 3c
       0.013691443 -0.020423908 0.09213541 0.029235473
0000a0 3e 22 e9 bc 8b fb dd 3b f0 61 b6 bd f6 35 59 bd
       -0.02845871 0.006774371 -0.08905399 -0.053029977
0000b0 7c 35 45 bd eb 7b 3b bd e0 57 a5 3d ce 2e 06 3d
       -0.04814671 -0.045772474 0.080734015 0.03275948
0000c0 ae 40 6c 3d e8 15 66 3d dc cb d3 3c 3f b2 ad bd
       0.05767887 0.056173235 0.025854044 -0.08481263
0000d0 74 c2 10 bd 27 be b0 3d 78 57 60 3d 1c bb 83 bd
       -0.035341695 0.08630019 0.054770917 -0.06432173
0000e0 c6 02 93 3c 7f 00 87 3d 58 0f 24 bc 6f 7c 73 3c
       0.017945658 0.065918915 -0.010013424 0.01486121
0000f0 e1 d3 24 bd 90 19 8a 3a a7 ca a1 bd 0f a5 eb 3c
       -0.040241126 0.0010536183 -0.07899981 0.02876523

policy_net.h2o.weight f4 [2, 64]
000000 86 26 f5 3c 32 a4 27 3d 52 6c c8 bd 06 5f 43 bb
       0.029925596 0.040928073 -0.097862855 -0.0029811277
000010 a7 ea ef 3c a3 a9 bb 3d 8c 45 a9 bd 4d 03 b5 bd
       0.029286696 0.09163215 -0.08265218 -0.0883852
000020 90 76 d9 3d d9 e5 63 3d 5b c4 92 bd c7 46 b2 bd
       0.10618317 0.05563912 -0.07166358 -0.08704906
000030 f9 47 d3 bc 3b 37 43 3c f2 ce 86 3d b6 50 e5 bd
       -0.025791155 0.011915023 0.065824404 -0.11197035
000040 d6 74 18 3d bb a0 8a 3d 51 d3 2f bd ee 39 28 bd
       0.0372208 0.06768938 -0.042926136 -0.04107087
000050 b5 56 86 bd 5f 80 cf bd cc 19 e0 3c 4e 0e 65 3d
       -0.06559507 -0.10131907 0.02735605 0.055921845
000060 fd 28 66 bd ba d1 cf bd 4b 1d f2 bd e7 83 fc 3d
       -0.056191433 -0.10147424 -0.118219934 0.12329846
000070 f4 c9 8e bc 79 55 8e bd 24 92 0a 3d e9 1d a6 bd
       -0.017430283 -0.06949896 0.033830777 -0.08111174
000080 b2 7b c2 3d 82 bc 00 be 95 02 da 3d b0 57 39 bd
       0.09496249 -0.1257191 0.10645024 -0.04524964
000090 18 a4 50 bd 65 b4 a0 bd 03 7d 95 bc 2b 26 0e 3d
       -0.050937742 -0.078469075 -0.018248087 0.03470437
0000a0 1b cf 6a bd e9 c7 cb 3d 20 86 67 3d 09 64 58 3d
       -0.057326417 0.09950239 0.056524396 0.052829776
0000b0 eb d1 52 bd 6f 38 f2 3d 82 75 59 bd 62 61 5d bb
       -0.051469725 0.1182717 -0.05309058 -0.0033779969
0000c0 c6 ed 55 bd 80 63 bd 3d 83 48 7e bd fe 5f 2e bc
       -0.05222871 0.09247494 -0.06208087 -0.0106430035
0000d0 d6 e6 1d bd 39 31 9a bd b7 f1 e0 bd f4 3d d5 bd
       -0.03855022 -0.0752892 -0.109836034 -0.10412207
0000e0 7e ed c2 bd 63 9e 94 3d b9 5d ec 3d fc 0e ed 3d
       -0.09517954 0.07256772 0.11541314 0.11575124
0000f0 d8 f1 1f 3d c9 bd 9f 3d 26 a4 02 3d 66 57 96 3c
       0.039049 0.077998705 0.031894825 0.018352222
000100 9c 51 dd 3c 9e dd b1 3d 76 5d e2 3d 95 00 d7 bd
       0.027016453 0.08684848 0.110529825 -0.10498158
000110 68 12 e7 bd 8b 5c 8a 3d f7 a8 12 bc e5 6f 74 bd
       -0.112828076 0.067559324 -0.008951417 -0.059677023
000120 c9 62 12 3d ff d1 02 3d 26 b0 13 3d 58 3d 82 3d
       0.03573874 0.03193855 0.03605666 0.06359357
000130 ac 6e e1 bc 3f 5b c9 3d 78 bf f8 3c 42 d5 8c 3d
       -0.027518593 0.09831857 0.030364737 0.06876613
000140 c3 01 8b 3d 7b 2f b9 3d f1 87 00 be 76 64 02 bd
       0.067874454 0.09042259 -0.12551858 -0.03183409
000150 47 a9 b4 bd bc 11 07 bd c7 ce 50 bd bb 35 af bd
       -0.088213496 -0.032975897 -0.05097845 -0.0855517
000160 b3 2d ba bc ac 83 86 3d 64 50 a2 bd 99 14 b2 3d
       -0.02272687 0.06568083 -0.079254895 0.08695335
000170 16 6c 73 3d 09 ca b4 bd c9 3c 67 bd 30 6e 52 3c
       0.05942925 -0.08827598 -0.056454454 0.012843654
000180 2e 95 a7 bd 80 65 43 bd 3c 83 54 bb 11 ec 85 bd
       -0.08182751 -0.04770422 -0.0032426855 -0.06539167
000190 b0 63 3a 3d 54 30 60 bd a9 2b a8 3d c2 3e 51 bd
       0.045505226 -0.05473359 0.082114525 -0.05108524
0001a0 d6 ac c2 bc 72 eb 29 3c 0e 46 fa bd c9 96 da 3d
       -0.023764055 0.010371076 -0.12220393 0.10673291
0001b0 ee 0c c9 bd 83 66 c7 bd 2a bb 4e 3d b3 03 92 3d
       -0.09816919 -0.097363494 0.050471462 0.07129612
0001c0 c4 94 c7 bd 94 5e f3 bd 2c 43 e1 bd 5f de e7 39
       -0.09745172 -0.11883274 -0.1099914 0.00044225433
0001d0 cf b1 14 bc 71 d5 cf bc ea 4b 28 3d b8 ac 82 3d
       -0.009075596 -0.025370331 0.041088022 0.063806
0001e0 d7 ff 65 bc 73 a7 f2 bd ff b6 dc bd ae 59 f1 3d
       -0.014038048 -0.11848345 -0.10777091 0.11784683
0001f0 57 78 9b bd fc 04 50 bd 39 12 8c 3d 68 bc b3 3d
       -0.075913124 -0.050786003 0.06839413 0.0877617

policy_net.h2o.bias f4 [2]
000000 1b a2 aa 3c b2 a4 e9 bd
       0.020829251 -0.11408366

policy_net.h2v.weight f4 [1, 64]
000000 1c 42 b3 3d 16 56 8f 3d 88 72 ec 3c 58 09 8a bd
       0.08752844 0.069988415 0.028863207 -0.067400634
000010 18 85 8d 3c 62 b1 8d 3d f4 80 cf bd e8 cd 83 bc
       0.017275378 0.06918599 -0.10132018 -0.016089395
000020 ac 26 16 3d 40 a2 db bb 00 94 d5 3c b8 1c c7 3c
       0.036657974 -0.0067026913 0.026071548 0.024305686
000030 5a 99 bd bd 76 3f a2 bd 00 57 6a bd e8 93 32 bd
       -0.09257765 -0.079222605 -0.057211876 -0.043598086
000040 58 ea 1b 3d 70 55 dd 3c 22 93 bd bd 20 92 6f 3d
       0.038065284 0.027018279 -0.09256579 0.058488965
000050 e0 5e 62 3c 98 2d f7 3d ac d4 0e bd 3c 0f a6 bd
       0.013816565 0.12069243 -0.03487079 -0.081083745
000060 40 1b f9 bc 30 d0 26 bc 20 d3 97 bd c4 7e e7 3d
       -0.030408502 -0.010181472 -0.07413316 0.113034755
000070 e0 6d 67 3c c8 b4 bf bc 8c 0c e0 3d 30 56 b0 bd
       0.014125317 -0.023401633 0.10939893 -0.08610189
000080 90 4d 94 3d d4 75 77 bd 78 d9 36 3d 8c e5 c1 bd
       0.072413564 -0.060415104 0.044640988 -0.09467611
000090 80 6b ac 3a 90 fe a9 3d 5c 89 4c bd be 42 b2 3d
       0.0013154596 0.08300507 -0.049935684 0.08704136
0000a0 d4 9c 91 bd 10 5d 6a 3c 68 93 bf 3c 50 4b 2e bc
       -0.07109991 0.014304414 0.023385718 -0.010638073
0000b0 40 5e 08 3d 30 37 93 bd 78 3f a5 bc 3c 97 53 3d
       0.03329301 -0.071882606 -0.020171866 0.0516579
0000c0 8c 7d 99 bd d8 6c 5a 3d 90 1c fe bc 70 2e 8c 3d
       -0.07494649 0.053326458 -0.031019479 0.06844795
0000d0 e8 36 a7 bc a0 fc e3 3c 08 42 1e bd 40 bf 4f 3c
       -0.020411924 0.027830422 -0.03863719 0.012679875
0000e0 8a 99 f6 bd c0 ff 4c 3c 10 6f 3c bc 9c 6f 3f 3d
       -0.12041004 0.012512147 -0.011501089 0.0467373
0000f0 2a 4b e5 bd 06 97 cc bd 26 f8 93 bd 38 e5 7c bd
       -0.11195977 -0.09989743 -0.07225065 -0.061742038

neuromod_net.0.weight f4 [256, 3]
000000 85 e9 98 be 01 59 65 3d b6 86 cf 3e 18 a8 9d 3b
       -0.2986566 0.055993084 0.40532464 0.004811298
000010 2c d8 31 bd 24 8c 52 bd bd 3e 0d 3e 45 12 a1 bc
       -0.04341905 -0.05140318 0.13793464 -0.019662032
000020 fa d7 92 3e 2c a2 49 be b5 32 02 be 78 6d e4 3c
       0.28680402 -0.1969077 -0.12714656 0.02788423
000030 37 42 05 bf ed 6d 56 3e e7 4a 80 be 38 74 6c bc
       -0.5205416 0.20940371 -0.25057146 -0.014432006
000040 76 01 08 bf b8 95 0a bf 93 2d 83 3e c9 f4 01 3f
       -0.5312723 -0.541347 0.25620708 0.5076414
000050 11 1d 84 3b 28 06 62 be e3 b7 53 be c1 c9 f4 bd
       0.0040317853 -0.22072661 -0.20675616 -0.11952544
000060 fd e9 4b 3e e3 b4 b4 3d a9 2d 08 3e 40 bc 12 3f
       0.19913478 0.08823564 0.13298668 0.57318497
000070 48 b0 08 3f 71 12 e4 3c ac d4 3c 3e af d9 e4 be
       0.53393984 0.027840825 0.18440503 -0.4469733
000080 48 e7 51 be 67 3a 37 3c 4a 19 11 3c 84 79 e5 3e
       -0.20498383 0.011183358 0.008856127 0.44819272
000090 b8 a0 cb 3e 6d a1 da bd 46 82 d8 3e 60 53 b0 be
       0.39771056 -0.10675321 0.4228689 -0.3443861
0000a0 b4 26 a9 be cc 7a 01 3f ef fd 07 bf 97 66 5e bd
       -0.3303734 0.50578 -0.53121847 -0.054297056
0000b0 7d 70 58 3e 4d c2 f1 be 5f e0 6c b9 1d d7 c8 3e
       0.21136661 -0.47218552 -0.00022590299 0.39226618
0000c0 7e e9 34 be b4 32 b9 3e 4e 3f 1e be 2d 91 07 bf
       -0.17667195 0.36171496 -0.15453836 -0.52955896
0000d0 50 01 10 3f 90 f1 8c bc 9f fc d9 bd 8a 8d f5 3e
       0.56252 -0.01720503 -0.10643887 0.47959548
0000e0 65 08 bd 3e 06 ba c6 3e 46 22 35 3e a4 f2 dc be
       0.36920467 0.388138 0.17688856 -0.4315387
0000f0 9a 20 51 be 7a 31 52 3e 00 43 f6 be b7 60 ea be
       -0.20422593 0.20526686 -0.48097992 -0.45776913
000100 7d 2a 03 bf 68 89 e2 3e 1d c3 6e 3e 74 21 0c bf
       -0.51236707 0.44245458 0.23316617 -0.54738545
000110 71 6d 11 3f 2a de fe 3d eb d4 c8 be ba cd 0d be
       0.5680762 0.12444718 -0.39224944 -0.1384801
000120 b6 74 34 3d 54 b9 54 be 13 27 54 be 66 b3 a5 be
       0.044056617 -0.20773822 -0.2071803 -0.32363433
000130 01 0a 65 3e 6b e6 a6 be 75 fe 17 bd 86 7e f3 be
       0.22367097 -0.3259767 -0.037107904 -0.47557467
000140 a0 20 8b 3e 46 6a 2b be 17 84 12 bf 91 9c bc 3e
       0.27173328 -0.16739759 -0.57232803 0.368382
000150 9b ab e7 bd 32 fa 9d 3e a0 6d 5f 3d 0b 96 53 3d
       -0.11312028 0.30854946 0.054547906 0.051656764
000160 cf b6 c1 3e 7d cd f8 be d1 24 59 bb 02 0b c3 be
       0.37834784 -0.48594275 -0.0033133517 -0.38094336
000170 a1 01 05 3f 8a 17 0d 3f 1c a3 bf be d8 fe 8f 3e
       0.5195561 0.5511404 -0.3742913 0.28124118
000180 92 7a de be ec 38 0a 3f 9d 0a 01 be 82 a1 a7 3d
       -0.4345289 0.53993106 -0.12601705 0.08185102
000190 8a a9 99 bd d8 7d 81 3d 00 c9 0a 3f 66 a9 8e be
       -0.0750304 0.06322831 0.5421295 -0.27863616
0001a0 ff 3f ff 3e 4b a8 51 be 52 4b cd be f8 a8 e5 be
       0.49853513 -0.20474355 -0.40096527 -0.44855475
0001b0 27 b3 88 3e 0a b1 08 bf 1a 14 d7 be c2 da db bd
       0.26699182 -0.5339514 -0.42007524 -0.10735084
0001c0 6c 1a 0a 3e fe b8 00 3f 14 3d 0c 3f 78 22 82 be
       0.13486642 0.50282276 0.547807 -0.25416923
0001d0 34 db 4b bd 76 d2 76 3e b3 8a 88 3e c7 70 03 3f
       -0.049769595 0.24103722 0.2666832 0.5134396
0001e0 1b 75 a7 3e 8e 83 24 3e c6 1a a9 3e 41 7c 03 bf
       0.32706532 0.16065809 0.3302824 -0.5136147
0001f0 89 f5 3d bd 23 1d 0b 3f ed 7e 1a be 9c 29 f2 bd
       -0.04637674 0.54341334 -0.15087481 -0.118243426
000200 3b 16 01 bf 40 ec cb 3c 35 94 0d 3f 17 3c e0 bd
       -0.50424546 0.024892926 0.5530427 -0.10948961
000210 2a c4 bd 3e b6 22 27 bc f4 77 23 be 8b 38 ad be
       0.37063724 -0.010201147 -0.15963727 -0.338322
000220 d9 33 06 be 10 2a f7 3e 05 fe 4d be 52 99 ae 3e
       -0.13105716 0.4827428 -0.20116432 0.3410135
000230 c8 b0 7b bc 1f 8c d2 3e e9 ae 40 3e 90 3e b2 be
       -0.015361972 0.4112253 0.18816723 -0.34813356
000240 ad 3a cc 3e 63 90 e4 bd 6e d5 fb bd 7e e0 a0 3e
       0.39888516 -0.11160352 -0.12296568 0.31421274
000250 7e 32 e3 3e 59 61 08 3f 1f 55 08 bf c4 a8 91 3e
       0.4437446 0.5327354 -0.53254884 0.2844907
000260 15 76 19 3d f4 71 1b be 9c 1c bf be c1 e4 0d 3f
       0.037466127 -0.15180188 -0.37326515 0.55427176
000270 a3 d6 10 bd a6 1b cd 3e ef 8e e2 3e e4 c5 d1 be
       -0.035360944 0.40060157 0.44249675 -0.4097129
000280 68 b6 a5 3e 64 f6 ca be c2 de b2 3e c7 08 b2 3e
       0.32365727 -0.39641106 0.34935576 0.34772322
000290 f1 ce 6e 3d 30 45 c8 3d 3e d8 e2 3e a0 79 88 bd
       0.058302823 0.097788215 0.44305605 -0.06663823
0002a0 e6 a6 de be 6e 54 e6 be 1b 40 d4 be 59 b2 6a 3d
       -0.43486708 -0.4498629 -0.4145516 0.05729899
0002b0 5c ee ed 3e b9 38 9f 3e 05 99 a6 3e ad 31 9c bd
       0.46470916 0.31097963 0.3253862 -0.076266624
0002c0 e9 3a bc bd 8f 7f f3 3d 0f a5 3d be 39 ec 90 bd
       -0.09190924 0.11889564 -0.18519996 -0.07076306
0002d0 0f 47 09 be 3e d7 ab 3e 6a fb 1d bd a2 7c 17 3e
       -0.13406013 0.33562654 -0.038569845 0.14793637
0002e0 06 ad 01 bf 04 e3 bd 3e 7d d5 0a 3f 81 88 0c bf
       -0.5065464 0.37087262 0.5423201 -0.5489579
0002f0 32 2e c8 be b6 5a f1 3e 63 fa d2 be d0 6e 2d 3e
       -0.39097744 0.4713952 -0.41206655 0.16936803
000300 26 27 be 3d 80 af ae be 26 af 09 bf 5f c3 ad 3e
       0.09284811 -0.3411827 -0.5378288 0.3393812
000310 3c d9 0c bf 52 03 0b bf 26 d8 c5 3e 9b d9 95 3e
       -0.55018973 -0.5430194 0.3864147 0.29267582
000320 db b5 d5 be 71 9d 2a bd 91 8b 15 3e 14 17 2c 3e
       -0.41740307 -0.041654054 0.14604022 0.16805679
000330 f4 f5 d4 3e 25 67 0d 3f 32 2a 08 3e 17 27 8f 3d
       0.41593897 0.5523551 0.13297346 0.06989878
000340 3e 58 98 be 81 68 b9 be de b3 10 bf 07 38 8d bd
       -0.29754823 -0.36212543 -0.56524456 -0.06895452
000350 cd e9 0f bd 5f 27 3c 3e 6c ea bd 3e dc ea 00 bc
       -0.03513508 0.18374394 0.37092912 -0.007868495
000360 a2 7a 11 3f b9 97 57 3e df 5f cd 3d 95 54 76 3e
       0.5682775 0.21053971 0.100280516 0.24055703
000370 b7 3b 46 be 17 35 dd be cb 05 d2 3d 03 ae dd 3e
       -0.19358717 -0.43204567 0.10255011 0.43296823
000380 c1 15 82 bd 7f ea f7 3e ae f5 24 3e b9 ba 9e 3e
       -0.063518055 0.48421094 0.16109344 0.31001833
000390 45 65 0d 3f 5b f9 ac bd a6 8f 3a 3e 35 71 0f 3f
       0.5523265 -0.08445998 0.1821886 0.56032115
0003a0 18 a9 74 3e c5 ee c7 3d d6 46 96 3e a0 28 00 3f
       0.23892629 0.097623385 0.2935092 0.5006199
0003b0 73 fb b3 be 36 2e a0 3e 13 3c ab 3d 31 1c 8f 3d
       -0.35152778 0.31285256 0.083610676 0.06987799
0003c0 9f 54 05 3f 46 d0 91 3e 58 3c 86 be 25 97 9c bd
       0.52082247 0.28479213 -0.26217914 -0.07646016
0003d0 4d 16 be 3e 8e de 3c be a5 7e b1 be 42 c6 b7 bd
       0.3712639 -0.18444273 -0.34666935 -0.089733616
0003e0 7e 62 a7 be 36 03 b5 3b 0c 02 20 be 13 c9 ff 3e
       -0.3269233 0.0055240644 -0.15625781 0.49958095
0003f0 a8 37 fc 3e 92 c8 13 bf 13 c7 e3 3e 22 b0 8e be
       0.49261212 -0.5772792 0.4448782 -0.27868754

neuromod_net.0.bias f4 [256]
000000 40 d1 17 be 31 da 87 3e 90 aa f0 bc ca 34 00 3f
       -0.14825916 0.26533654 -0.029378206 0.5008055
000010 1c 6f ec bd d0 92 d6 3e d9 a4 2d bd c4 6c 8d be
       -0.1154463 0.41908884 -0.04239354 -0.27622044
000020 38 7b 06 bf 94 eb 61 bd 7d 2b 86 3e 46 b2 21 be
       -0.52531767 -0.055156305 0.26205054 -0.15790662
000030 dc 79 4b 3d 5f ff b4 be 50 19 09 be ee 83 f3 be
       0.04967676 -0.35351083 -0.13388562 -0.47561592
000040 89 e2 8f 3e 2b 64 83 be 00 1a 34 3e 0e c5 fe 3e
       0.2810252 -0.2566236 0.17588043 0.49759716
000050 ee 61 b4 be 35 02 a3 be 42 d1 f8 3d fc 01 94 3e
       -0.35230964 -0.3183762 0.12149288 0.28907764
000060 66 34 b1 3d 7a aa 86 3e 96 c1 f4 3d 26 f0 14 be
       0.08652572 0.26301938 0.11950986 -0.14544734
000070 45 be 44 bd b7 5f 86 3d f1 4d 11 bd 5a 7f 35 be
       -0.048033018 0.06561225 -0.03547472 -0.17724362
000080 28 c1 7a be df 89 ae 3e de 3b 1c 3e 04 b2 c0 3e
       -0.24487746 0.34089562 0.15257213 0.37635815
000090 14 d3 58 3e ec 78 5e be 08 a4 41 bd d5 1a 1e 3e
       0.2117427 -0.21725816 -0.047275573 0.15439923
0000a0 2c 79 ca 3e 4f 62 95 be 81 9c 7e 3e 9e 2e f4 3e
       0.39545572 -0.29176566 0.24864389 0.47691816
0000b0 5f d8 c4 3e 44 69 bd bd ff 8f 8e be c1 6c d3 3e
       0.38446328 -0.092485934 -0.27844235 0.4129391
0000c0 f5 f0 d1 bd 6f 9b b1 3d 11 a7 00 be 01 8b ab be
       -0.10251037 0.08672225 -0.12563731 -0.3350449
0000d0 d9 55 56 3d 26 48 eb 3e a4 ce 12 3f 90 c2 c5 3e
       0.052327964 0.45953482 0.5734656 0.38625002
0000e0 12 19 ff be 90 6a 7c be dd 8e 6a be 95 d4 e3 3e
       -0.49823815 -0.24650025 -0.2290606 0.44498125
0000f0 b5 50 1b be 56 2b a4 be db 16 ed 3e 5c e4 62 3c
       -0.15167506 -0.32064313 0.463065 0.01384839
000100 86 71 ab be 44 ee 10 be e6 e2 d4 be a4 75 08 3f
       -0.3348505 -0.14153391 -0.4157936 0.53304505
000110 44 a0 11 3f 19 a8 91 be bf 36 f2 3d 51 fe 7d be
       0.5688517 -0.2844856 0.11826848 -0.24804045
000120 74 e0 aa 3d 1d 7f 6d 3e af 5e f5 be d6 7e 7a be
       0.08343592 0.23193021 -0.479238 -0.24462447
000130 3c bb e6 bb 70 54 bb bd 22 a0 ee be 83 20 9d 3e
       -0.007041363 -0.091469646 -0.46606547 0.30688867
000140 d3 0c 39 3e e3 1c bb be 8d 5c ed 3d 6b eb fa 3e
       0.18071298 -0.36545476 0.11589918 0.49007735
000150 e4 21 ab 3e 6d 1b 4f 3e 98 75 a3 be 70 ef 78 3e
       0.33424294 0.20225306 -0.31925654 0.24310088
000160 cc b5 5e be 32 97 42 be 0f 16 df 3e e6 7c 8b be
       -0.21749038 -0.19002989 0.43571517 -0.27243727
000170 9c 5f 05 be 0a c4 fc be 8b 1b 07 3f 43 d3 93 be
       -0.13024753 -0.49368316 0.527764 -0.28872117
000180 c7 97 d8 3d a7 1f 96 3e 3d f3 6f be d1 65 bc be
       0.10575824 0.29321024 -0.23432632 -0.3679643
000190 91 f4 ba 3e f7 97 e1 be 53 de d8 bc a2 30 b5 3d
       0.36514714 -0.44061252 -0.0264732 0.088471666
0001a0 c3 e0 0e 3e 73 bf b5 be e9 e8 df be 76 eb 9d 3d
       0.13952927 -0.35497627 -0.43732384 0.07710926
0001b0 17 b5 b8 be b5 77 d0 be ab 0f bc 3d bb f6 f9 be
       -0.3607566 -0.4071633 0.09182676 -0.48821053
0001c0 d6 60 a2 3d 00 d0 b8 3e 2a 95 6c be df 9c c3 be
       0.07928626 0.3609619 -0.23103777 -0.3820562
0001d0 b6 98 69 3e e6 84 e0 be fb 4b a7 3e ba c6 2c 3e
       0.22812161 -0.43851393 0.32675156 0.16872683
0001e0 40 cf 07 bf 5a 3a e5 3e 31 9d c1 be cd f8 f2 3e
       -0.53050613 0.4477108 -0.3781524 0.47455445
0001f0 d7 d1 e1 be 28 c1 22 bd 81 d5 4d be b6 82 59 3e
       -0.44105408 -0.03973499 -0.20100977 0.21241269
000200 6a 71 34 be df a2 32 3e 44 91 b9 be 1f a9 0e 3f
       -0.17621389 0.17444943 -0.3624364 0.5572681
000210 41 72 a9 be 7d 32 07 3e 0d 97 96 be 03 8d 2b 3d
       -0.3309498 0.13202854 -0.29412118 0.041882526
000220 51 84 bf 3e fa 1b 6b be 6b aa 40 bd e3 ca ef 3d
       0.37405637 -0.22959891 -0.047037523 0.117086194
000230 de 61 5c 3e c5 1b fa 3e 0b 28 f5 be a9 49 67 be
       0.21521708 0.4884931 -0.47882113 -0.22586693
000240 51 d8 5b bd bb 06 f6 3d 72 e2 ee be 8e a4 6a be
       -0.053673092 0.120130025 -0.4665714 -0.22914335
000250 27 13 e0 3e 3e 2e 84 be d2 d5 e0 be a8 d7 03 3f
       0.43764612 -0.2581653 -0.43913132 0.5150094
000260 1c e0 12 bf cd 9a 0e 3f a5 47 fb 3e 19 be 2b 3d
       -0.57373214 0.5570496 0.49078098 0.041929338
000270 51 9a 0c 3f 7e 5e 46 be fe ae 75 be 5b 95 7c be
       0.5492297 -0.19371983 -0.23992535 -0.2466635
000280 25 c2 b6 3c 0e 9b 82 3e a6 7c 13 bf df 20 58 3e
       0.022309372 0.25508922 -0.57612073 0.2110629
000290 33 0f fd be d1 73 10 3f 2a 7c 47 3e 00 1b b4 3e
       -0.4942566 0.5642672 0.19480959 0.3517685
0002a0 d9 23 9a 3e c8 2b 33 3e af 11 30 3d 0f 0d ff 3e
       0.30105475 0.1749717 0.042985614 0.4981465
0002b0 49 43 c4 3e 12 95 94 be 7e 34 88 3e 84 37 82 bd
       0.38332585 -0.29019982 0.26602548 -0.06358245
0002c0 9b 94 ad 3e d4 7e b9 bd cd 26 12 3f 4f c0 c6 3e
       0.3390244 -0.09057394 0.57090455 0.38818595
0002d0 12 45 fa 3e 23 08 97 be e2 12 b1 bd 3e 4e 7d 3e
       0.4888082 -0.29498395 -0.0864618 0.24736878
0002e0 42 d2 3d bd 13 ca 94 3c a3 48 b2 be ec f7 bf 3e
       -0.046343096 0.018162763 -0.34821042 0.37493837
0002f0 ea 39 20 be 95 53 b8 be ce a3 a4 be 82 90 bf be
       -0.15647092 -0.36001268 -0.32156223 -0.37414938
000300 71 3b ec be c1 05 67 3e a9 ba f3 3d 6e e3 dd 3e
       -0.461391 0.22560789 0.11900837 0.43337578
000310 e8 fd bf be cc fb 01 bf f3 47 a6 be b2 a0 35 be
       -0.37498403 -0.50774837 -0.32476768 -0.17737082
000320 73 20 78 bd e9 8c cd 3e 0f 48 bf be aa 6a 08 3e
       -0.06057782 0.40146568 -0.37359664 0.13321939
000330 b2 f8 d1 3e 0a 5b 65 3e 4e aa bc be a8 b3 18 be
       0.41010052 0.2239801 -0.36848682 -0.14912283
000340 e7 eb 69 3e aa 7b 08 be 19 07 40 3e 30 aa 29 be
       0.22843896 -0.13328424 0.18752708 -0.16568828
000350 93 7e 61 3e d5 eb fc be d2 d2 12 3f 79 9a 03 bf
       0.2202094 -0.49398676 0.57352936 -0.5140758
000360 a6 ed c8 3d 06 f9 21 be f4 76 c1 be 14 83 6c be
       0.09810953 -0.15817651 -0.37786067 -0.23096877
000370 9e ae ee be b4 ed 4f 3e ef 28 ef 3d 0f 41 4a 3e
       -0.46617597 0.2030552 0.11677729 0.1975138
000380 17 d1 12 3f 8e e2 9b be 1c e1 5c 3e 40 a6 cc bd
       0.57350296 -0.30446285 0.21570247 -0.09992647
000390 11 72 7a 3e 0f 95 d5 3e b8 9c b5 be cd 3b 89 be
       0.24457575 0.41715285 -0.3547113 -0.26803437
0003a0 61 46 22 bc 3f eb bc 3e 93 eb 80 3e 5e 12 f0 3e
       -0.009904475 0.3689823 0.2517973 0.46889013
0003b0 d7 5a 0f bf 5a 9d 0e be 04 1d cd be 60 d7 25 3e
       -0.55997986 -0.13927212 -0.400612 0.1619544
0003c0 87 a5 d4 3c 6c af f7 3e 6a 30 90 3e 78 64 a3 be
       0.025957836 0.48376024 0.28161937 -0.3191259
0003d0 f9 64 01 3f 74 3f fe 3e 64 7c a2 3e a6 ad 77 be
       0.505447 0.49657786 0.31735528 -0.24187335
0003e0 16 3e 69 3e 42 ad 7b 3e 07 39 d0 3e 4c 0e da bd
       0.2277759 0.24577811 0.40668508 -0.10647258
0003f0 2d 41 0e bf c8 b7 83 bd 30 d3 73 3e 32 84 54 bc
       -0.555682 -0.06431538 0.2381103 -0.012970971
