LTC_A2C/training_results/CfC_a2c_result_522_2024325_learningrate_0.0001_selectionmethod_range_evaluation_all_params_trainingmethod_original_numneurons_48_tausysextraction_True_mode_neuromodulated_neuromod_network_dims_3_192_96_48/checkpoint_CfC_A2C_0.pt (torch, 155508 bytes, 16 tensors)

cfc_model.rnn_cell.w_tau f4 [1, 48]
-0.18163072 -0.1751832 -0.24504249 0.19501443 0.0034308117 -0.2925642 -0.19870959 0.20738485
0.09451945 -0.014070967 0.2137525 0.26283896 -0.1937262 -0.0012827765 -0.0032225335 -0.12473568
-0.15585192 0.17554924 0.08183379 -0.09355933 0.024607867 0.002553985 0.02743728 0.018613175
0.06449273 0.26451752 -0.12018291 -0.0042941226 -0.29666227 0.015360105 0.04608457 -0.07081401
-0.30575427 0.15408672 -0.009649841 -0.14887476 -0.2111775 -0.027050126 0.23391865 -0.14732926
-0.036655966 0.05140574 0.08842734 -0.19954675 0.10932389 -0.19760436 -0.0021542201 -0.0036215323
00000000: 67fd 39be 3a63 33be 6bec 7abe ddb1 473e
00000010: 78d7 603b faca 95be 877a 4bbe b25c 543e
00000020: 6a93 c13d ea89 66bc efe1 5a3e d492 863e
00000030: 2960 46be d622 a8ba 2431 53bb 6c75 ffbd
00000040: a597 1fbe 2ec3 333e 7998 a73d 099c bfbd
00000050: 7096 c93c c260 273b 26c4 e03c a87a 983c
00000060: c414 843d d76e 873e 7522 f6bd b6b5 8cbb
00000070: 1ee4 97be f3a8 7b3c 2dc3 3c3d f006 91bd
00000080: d38b 9cbe e9c8 1d3e 5e1a 1ebc a072 18be
00000090: ea3e 58be 3a98 ddbc 5f88 6f3e 7bdd 16be
000000a0: 9124 16bd d38e 523d 6519 b53d fc55 4cbe
000000b0: 34e5 df3d cc58 4abe d12d 0dbb 3b57 6dbb

cfc_model.rnn_cell.A f4 [1, 48]
0.37914324 0.149463 0.32966408 -0.343652 0.39295614 0.11785449 -0.24561325 0.08808903
0.2412357 0.13044758 -0.079413295 -0.3104296 -0.09202852 0.3093049 -0.0755973 -0.13115978
-0.07688797 -0.31411693 -0.37264094 -0.25993964 0.06871158 -0.09523813 0.17020588 -0.23131119
-0.2566627 0.20071894 -0.18779157 -0.36625534 -0.07568585 0.10134558 0.35692918 -0.109950535
-0.20046557 -0.106468774 0.33386123 -0.23394142 0.15982349 -0.026201673 0.12265886 -0.37658626
0.03054162 0.35943288 -0.35965726 -0.119657025 0.35115385 -0.21675695 0.29596993 -0.28837815
00000000: 101f c23e d40c 193e bbc9 a83e 28f3 afbe
00000010: 8c31 c93e b25d f13d 0a82 7bbe 0568 b43d
00000020: 7e06 773e 0d94 053e 70a3 a2bd a1f0 9ebe
00000030: 7379 bcbd 365d 9e3e c2d2 9abd c04e 06be
00000040: 7177 9dbd efd3 a0be cbca bebe cf16 85be
00000050: a8b8 8c3d 350c c3bd 734a 2e3e d7dc 6cbe
00000060: 4b69 83be 4489 4d3e 6f4c 40be d285 bbbe
00000070: 2f01 9bbd 458e cf3d 6cbf b63e bf2d e1bd
00000080: d946 4dbe 4d0c dabd dcef aa3e 578e 6fbe
00000090: c5a8 233e e4a4 d6bc 9234 fb3d eacf c0be
000000a0: 6b32 fa3c 9607 b83e ff24 b8be be0e f5bd
000000b0: 70ca b33e 89f5 5dbe 5f89 973e 4da6 93be

cfc_model.rnn_cell.tau_system f4 [1, 48]
1.0805011 1.0763198 1.7242515 1.1889572 1.1629845 1.4768411 4.3516946 2.1406035
1.0060422 36.937096 1.4511641 2.466337 3.03625 1.1042625 2.828889 1.2216465
1.4333798 1.2673842 4.0950503 2.4032803 4.2403536 4.0596685 1.3211472 1.5118576
1.8560768 1.3955224 2.089662 1.0938678 1.3056761 10.065036 1.4129794 12.290891
2.0770512 2.3347065 5.343025 1.009414 1.0540959 2.0439615 1.10432 2.2902517
3.8026738 2.3982441 4.5219393 1.3217171 0.95368344 1.2203741 1.556081 5.2074995
00000000: dc4d 8a3f d9c4 893f 46b4 dc3f c02f 983f
00000010: addc 943f 2109 bd3f 1541 8b40 a6ff 0840
00000020: fec5 803f 96bf 1342 bfbf b93f 77d8 1d40
00000030: ec51 4240 7958 8d3f 840c 3540 ea5e 9c3f
00000040: fd78 b73f a539 a23f a70a 8340 58cf 1940
00000050: fab0 8740 cee8 8140 5a1b a93f 8d84 c13f
00000060: ed93 ed3f 7aa0 b23f 06bd 0540 dc03 8c3f
00000070: 6520 a73f 630a 2141 82dc b43f 7da7 4441
00000080: 68ee 0440 d56b 1540 10fa aa40 7a34 813f
00000090: 9dec 863f 44d0 0240 5c5a 8d3f 7c93 1240
000000a0: 025f 7340 d57c 1940 bab3 9040 072e a93f
000000b0: 9924 743f 3835 9c3f aa2d c73f d6a3 a640

cfc_model.rnn_cell.backbone.0.weight f4 [128, 52]
0.002122924 -0.24019739 0.23862328 0.15406778 0.048689235 0.10442603 -0.11055587 0.020106299
0.20267288 -0.115036264 -0.02897094 0.019101903 -0.059129693 -0.049375687 -0.10834118 -0.056494594
0.015971072 -0.16798921 -0.09199538 -0.050445925 -0.16842979 -0.11642231 0.0038876627 0.19595832
0.073124856 0.110226706 -0.07634691 0.15152931 0.013268472 -0.13488254 0.11900441 -0.078376465
0.012743294 -0.045255736 -0.09690496 0.12885441 0.14368914 0.024552379 0.14122523 0.055824455
-0.20149314 -0.04748871 -0.22122212 0.115731135 -0.04811689 -0.13715783 -0.21653846 0.03960499
0.07497335 -0.13641272 0.11897017 -0.03081811 0.20293953 0.018640807 -0.1135418 0.071700186
0.1691858 -0.14222679 0.101094894 0.03520894 -0.10710622 -0.13380423 -0.10005348 0.12421731
-0.1377377 0.17463896 0.08666508 0.1702899 0.07623183 -0.1405288 0.027458506 -0.05087993
-0.029061552 -0.02695977 0.05767177 0.19187404 0.033349924 -0.0105425315 0.023287544 0.14693408
0.030991217 0.03077332 -0.13488537 -0.031580836 0.12575021 -0.0107408855 -0.017116118 -0.06393969
-0.05286968 -0.0850374 0.051850222 0.22185922 -0.15325755 -0.14191571 0.13974477 0.025150213
0.028812956 0.10745227 -0.13290226 0.15494893 -0.17068925 -0.084358715 0.09405241 -0.1378862
0.03600848 -0.20879614 0.025542716 0.2934896 0.10515603 -0.08483663 0.16252457 0.090543404
0.16716759 0.053839326 0.1145512 -0.07511037 0.19031602 -0.027137745 0.11618039 -0.13114432
0.13880417 -0.030221686 -0.14654347 -0.14949048 0.029568424 0.10207596 -0.16051376 0.06994788
0.1386443 0.008849869 -0.015669703 0.105049625 0.1075754 0.013199233 0.0225896 -0.23355228
-0.114899464 0.08394588 -0.007868097 -0.11490478 0.05713682 -0.17913178 0.079316385 0.09405673
-0.15033673 -0.13603124 -0.13321613 -0.016449694 -0.107005864 0.118955925 -0.16725065 -0.16688326
-0.023543568 -0.042293046 -0.019786956 0.050998896 0.03437257 -0.042820726 0.20764285 0.25720957
0.05886888 -0.027438363 -0.03527388 -0.10308281 -0.08017772 -0.06238311 -0.18968756 0.14393984
-0.022917701 -0.062595956 -0.15597458 0.18031713 0.035190262 0.1457959 0.025716191 -0.22504058
-0.19887991 -0.21516462 -0.046426293 0.08275358 0.005583538 -0.24102561 -0.06913734 0.081101276
0.11141723 -0.051658764 -0.18788202 -0.0997775 -0.07498076 -0.049862176 -0.010724585 0.0011274245
-0.15344885 -0.062177945 0.12409834 0.084364265 0.10342924 0.15845491 0.050702672 0.15556586
-0.01590664 0.16146545 0.0606027 -0.19547479 0.022278465 0.097038426 0.13075863 -0.1834311
0.043660752 0.1641705 -0.1017475 -0.29219446 -0.0049570147 -0.15947947 0.051415265 0.012788135
-0.18622191 0.06993975 0.10476419 -0.12881754 0.022405967 0.13366975 0.07705995 -0.1365933
-0.17179236 -0.088728085 -0.14678998 0.16300547 0.13538256 0.13423888 0.006757095 -0.13697965
0.15007882 0.1621708 0.14457361 -0.08852849 -0.030709475 -0.009230727 -0.15652646 0.19819508
-0.1303034 -0.02110714 0.1909714 -0.14591002 -0.17489977 -0.02204538 0.18597761 -0.014297499
0.096285805 -0.16593207 0.056016877 -0.09261865 -0.027630206 -0.043622237 0.15029664 -0.11748604
00000000: c120 0b3b 4ef6 75be a959 743e f2c3 1d3e
00000010: 5d6e 473d 50dd d53d 1e6b e2bd f7b5 a43c
00000020: 7b89 4f3e 2298 ebbd 7754 edbc 987b 9c3c
00000030: fa31 72bd 293e 4abd fbe1 ddbd e066 67bd
00000040: c4d5 823c 5d05 2cbe 1368 bcbd 63a0 4ebd
00000050: dc78 2cbe d26e eebd 28c8 7e3b 4ca9 483e
00000060: 7cc2 953d 8abe e13d c55b 9cbd 802a 1b3e
00000070: 0164 593c a61e 0abe 96b8 f33d d783 a0bd
00000080: 40c9 503c 145e 39bd 1c76 c6bd 69f2 033e
00000090: 3f23 133e 1222 c93c 599d 103e 2fa8 643d
000000a0: 3854 4ebe 8683 42bd 0d88 62be 7204 ed3d
000000b0: 3716 45bd 1a73 0cbe 42bc 5dbe d838 223d
000000c0: a18b 993d c7af 0bbe a2a6 f33d 4376 fcbc
000000d0: 61cf 4f3e 9bb4 983c 9a88 e8bd 8cd7 923d
000000e0: 0b3f 2d3e e6a3 11be d70a cf3d 4037 103d
000000f0: 825a dbbd fa03 09be d7e8 ccbd a565 fe3d
00000100: 1d0b 0dbe 8ed4 323e 767d b13d 7a60 2e3e
00000110: 6f1f 9c3d c8e6 0fbe a9f0 e03c 7967 50bd
00000120: 7e12 eebc bcda dcbc 3c39 6c3d a17a 443e
00000130: ee99 083d 95ba 2cbc 85c5 be3c e375 163e
00000140: 4be1 fd3c 5418 fc3c 641f 0abe e85a 01bd
00000150: aac4 003e 8afa 2fbc 1a37 8cbc d0f2 82bd
00000160: e18d 58bd 1728 aebd e660 543d 102f 633e
00000170: 8cef 1cbe 5a52 11be 4119 0f3e d207 ce3c
00000180: 2609 ec3c f00f dc3d 8817 08be efaa 1e3e
00000190: 2ac9 2ebe 43c4 acbd 8d9e c03d 0a32 0dbe
000001a0: a17d 133d a8ce 55be f53e d13c 4544 963e
000001b0: 0b5c d73d d4be adbd d76c 263e d26e b93d
000001c0: fb2d 2b3e a086 5c3d d299 ea3d 77d3 99bd
000001d0: 34e2 423e fa4f debc fcef ed3d b24a 06be
000001e0: ae22 0e3e 7893 f7bc 7e0f 16be 0814 19be
000001f0: 7b39 f23c 330d d13d b85d 24be d640 8f3d
00000200: c5f8 0d3e 0aff 103c c05d 80bc 4224 d73d
00000210: 7e50 dc3d 9941 583c d30d b93c 5428 6fbe
00000220: 6950 ebbd d1eb ab3d 31e9 00bc 3353 ebbd
00000230: 4c08 6a3d 526e 37be a170 a23d d1a0 c03d
00000240: dff1 19be c64b 0bbe cf69 08be 82c1 86bc
00000250: e425 dbbd 2a9f f33d c143 2bbe 72e3 2abe
00000260: 71de c0bc 793b 2dbd 4118 a2bc 38e4 503d
00000270: 41ca 0c3d c964 2fbd 54a0 543e f9b0 833e
00000280: 7f20 713d 6bc6 e0bc 587b 10bd 151d d3bd
00000290: 3734 a4bd 6f85 7fbd 753d 42be f764 133e
000002a0: e7bd bbbc 4f32 80bd cdb7 1fbe 0ea5 383e
000002b0: aa23 103d 854b 153e c3aa d23c 0a71 66be
000002c0: 2da7 4bbe 1d54 5cbe 7f29 3ebd b57a a93d
000002d0: 1df6 b63b 6bcf 76be e197 8dbd 6d18 a63d
000002e0: b72e e43d 2498 53bd 2564 40be 2558 ccbd
000002f0: 838f 99bd 483c 4cbd 2bb6 2fbc 17c6 933a
00000300: b221 1dbe 4dae 7ebd 4527 fe3d 2cc7 ac3d
00000310: b6d2 d33d 0142 223e 9bad 4f3d a84c 1f3e
00000320: a44e 82bc 3357 253e 893a 783d 8b2a 48be
00000330: 5481 b63c 15bc c63d 97e5 053e 5dd5 3bbe
00000340: 9ed5 323d 501c 283e fe60 d0bd 839a 95be
00000350: 746e a2bb 964e 23be d098 523d 5385 513c
00000360: f5b0 3ebe 923c 8f3d 9c8e d63d bfe8 03be
00000370: b88c b73c b9e0 083e 9bd1 9d3d 1ddf 0bbe
00000380: 56ea 2fbe 12b7 b5bd 1d50 16be e8ea 263e
00000390: baa1 0a3e eb75 093e 9f6a dd3b 6544 0cbe
000003a0: 43ae 193e 1a10 263e 1b0b 143e 6d4e b5bd
000003b0: 7092 fbbc 7a3c 17bc 7948 20be a7f3 4a3e
000003c0: 416e 05be e2e8 acbc 028e 433e 7069 15be
000003d0: ed18 33be 8398 b4bc ea70 3e3e 0f40 6abc
000003e0: 7e31 c53d 19ea 29be f471 653d d9ae bdbd
000003f0: be58 e2bc 3bad 32bd 5de7 193e 859c f0bd

cfc_model.rnn_cell.backbone.0.bias f4 [128]
-0.012618373 0.020353924 -0.13192883 -0.028595492 0.065860376 0.057082396 0.0072231726 0.12732647
-0.02644644 0.16577217 0.0043583955 0.065610886 0.071618274 0.0069127604 0.0756189 -0.04022454
0.13721259 -0.012009142 -0.017245192 0.06304899 0.12552166 0.007270641 0.046433236 0.063543595
-0.095662564 0.10639401 -0.03732048 -0.13775839 0.0069912034 0.049128972 0.00822744 -0.06431955
0.042780895 -0.04568866 0.08426848 0.02107736 0.09921776 0.08262577 0.03116077 -0.008207796
-0.024624279 -0.08209159 0.06082888 0.06972029 -0.031173607 -0.057274427 -0.08679491 -0.105774626
0.06325977 -0.14220974 0.068760894 0.024528751 -0.11349925 0.16044524 0.07452024 -0.09529331
-0.12765351 0.086859554 0.05688466 0.18837354 -0.1345946 0.078355625 -0.0067180977 -0.07510897
-0.11554745 -0.04309479 -0.011217733 -0.036695518 0.03699305 0.06639875 -0.027450064 -0.020318437
-0.11793994 0.13122895 0.09129217 -0.07959662 -0.11660013 0.07812382 -0.10047287 0.15085497
-0.025795477 -0.03875528 0.02565136 -0.15612425 0.059488382 0.10111824 -0.038104933 0.077910125
-0.07171597 0.031599034 0.072829425 -0.012788259 -0.081149295 -0.08760138 0.14381047 -0.020102177
-0.07351937 -0.1033948 0.022486398 -0.06484996 0.07103226 -0.07571809 -0.14012322 -0.18331274
0.03318441 0.017699724 -0.1439321 -0.12587896 -0.14383975 -0.0016283692 0.03129609 0.053171463
-0.119427405 -0.11211759 0.024915138 0.055752095 0.021516306 0.0673443 -0.04341614 0.0043241964
0.061716698 0.08801535 -0.16732483 -0.009908999 0.0051787575 -0.079504736 -0.043040894 0.06244776
00000000: 4bbd 4ebc 46bd a63c 5a18 07be 1841 eabc
00000010: cee1 863d 3bcf 693d 5db0 ec3b df61 023e
00000020: 34a6 d8bc 2ec0 293e dfd0 8e3b 005f 863d
00000030: 9aac 923d 7084 e23b 15de 9a3d 7dc2 24bd
00000040: 7581 0c3e fec1 44bc ca45 8dbc d41f 813d
00000050: c088 003e 8f3e ee3b c730 3e3d 2523 823d
00000060: bcea c3bd 1ae5 d93d 5cdd 18bd 8910 0dbe
00000070: 7716 e53b 763b 493d 62cc 063c f8b9 83bd
00000080: 053b 2f3d 0824 3bbd f494 ac3d 6daa ac3c
00000090: ae32 cb3d b337 a93d df44 ff3c fe79 06bc
000000a0: dbb8 c9bc a31f a8bd b427 793d 83c9 8e3d
000000b0: cb5f ffbc 9798 6abd 88c1 b1bd 5ea0 d8bd
000000c0: 578e 813d 6e9f 11be 83d2 8c3d 85f0 c83c
000000d0: 4b72 e8bd c24b 243e 119e 983d 2429 c3bd
000000e0: 9ab7 02be 6ce3 b13d e4ff 683d fee4 403e
000000f0: 2bd3 09be ea78 a03d 7d23 dcbb bbd2 99bd
00000100: 24a4 ecbd 2a84 30bd 95ca 37bc 0a4e 16bd
00000110: 0686 173d 11fc 873d f5de e0bc da72 a6bc
00000120: 7f8a f1bd e260 063e 64f7 ba3d 8d03 a3bd
00000130: 0dcc eebd 62ff 9f3d b8c4 cdbd ba79 1a3e
00000140: 0951 d3bc dbbd 1ebd cd22 d23c 09df 1fbe
00000150: 17aa 733d 1417 cf3d eb13 1cbd 588f 9f3d
00000160: d3df 92bd fd6d 013d 9827 953d d985 51bc
00000170: 9a31 a6bd 5a68 b3bd 0d43 133e 52ad a4bc
00000180: 5391 96bd a7c0 d3bd 6535 b83c 0ed0 84bd
00000190: 5d79 913d 1612 9bbd 767c 0fbe 56b6 3bbe
000001a0: 60ec 073d 03ff 903c f062 13be 6ae6 00be
000001b0: ba4a 13be 016f d5ba 5430 003d 52ca 593d
000001c0: 5b96 f4bd e89d e5bd d51a cc3c 4f5c 643d
000001d0: f742 b03c cfeb 893d 1fd5 31bd fdb1 8d3b
000001e0: a6ca 7c3d 6441 b43d 3357 2bbe 5b59 22bc
000001f0: 91b2 a93b 61d3 a2bd a64b 30bd 39c9 7f3d

cfc_model.rnn_cell.ff1.weight f4 [48, 128]
0.014661033 -0.15927939 0.20732985 0.18938665 0.15788506 -0.03035009 0.044115525 -0.2285336
-0.18917625 -0.05734479 -0.0031325119 -0.13038439 -0.11385099 0.0071943114 -0.05531909 0.030886743
0.04869957 -0.1301774 0.09269084 0.1237388 -0.20597143 0.10565615 -0.25656626 0.20851272
0.05445317 0.18307482 0.052746143 0.17160413 0.12857392 0.07225302 -0.17338206 0.17054574
-0.15857236 -0.15156987 -0.15860094 0.09216046 0.17572366 -0.0747705 -0.2224604 0.10929013
0.0017952814 0.077332996 0.065278076 -0.022298872 0.11211387 0.13870627 -0.09281818 -0.16762084
0.059880793 0.13509047 -0.12685534 -0.1763656 0.1366654 -0.22108288 0.06730636 0.07040883
0.011646357 0.017908776 0.14462899 -0.17443553 0.2220608 0.21510331 -0.04871801 -0.068161145
-0.16441336 -0.15134074 -0.19192488 -0.1050323 -0.108308546 0.07778321 -0.10051286 -0.16432084
0.19668242 -0.1265497 0.09234817 0.1758112 0.083154425 0.03687999 -0.036216114 -0.07807758
0.0027756754 -0.19668917 -0.004420162 0.09575314 -0.09279636 -0.14607993 -0.20609556 -0.01939119
0.15315163 0.040022057 -0.10744495 -0.17683582 -0.19847724 -0.06930458 0.08328263 -0.059681367
-0.1038394 -0.07331683 -0.09859613 -0.11758644 -0.16537428 0.018112928 0.12110333 0.12815288
0.023610221 0.15068229 0.0336244 -0.085090615 0.17452785 -0.08434943 -0.04421889 -0.021878356
-0.009612364 -0.20099156 0.0010952658 -0.14013702 0.05972671 -0.21735251 -0.03690368 -0.007924452
0.100061886 -0.10721649 0.16280124 0.055861514 -0.07793359 0.00573883 0.050395634 0.037607465
-0.16941664 0.030600525 -0.16768096 -0.054813575 0.140227 0.06536884 0.23776779 -0.022047894
-0.10849937 0.23226419 -0.109061085 -0.11017013 -0.11189303 0.12943922 -0.17717238 0.14077128
-0.22288543 0.0120950295 0.05901301 -0.051520973 -0.14025985 -0.026124839 -0.1940267 -0.046314206
-0.07905747 -0.075064704 0.08723461 0.06163064 0.266556 0.08921821 0.09216479 -0.038593896
-0.048126042 -0.09476447 -0.19655517 0.18997982 -0.04266725 0.108232364 -0.04057869 -0.061798997
0.15462013 0.18119603 -0.29597178 0.029126953 0.059145007 0.25030053 -0.24727069 -0.0005792654
0.14856279 0.2557593 -0.052128427 -0.05951076 0.04409821 0.033295136 0.20957084 0.056421604
0.11684916 -0.072385274 0.14524032 0.030979767 0.09319096 0.14338276 0.011300915 -0.08715381
0.13030897 0.11715738 -0.1682427 -0.1148404 -0.12765673 0.13300942 0.01852097 -0.0744707
0.22870511 -0.01845152 -0.094119884 0.0023544244 0.043256376 -0.24071714 -0.015902799 0.10720326
0.01726891 0.07337557 -0.1083852 -0.016421892 0.056926303 -0.05858654 0.034986522 -0.1314937
0.06775365 -0.12177068 0.015280621 -0.111637846 -0.05371242 0.10642663 0.11980861 0.074068174
-0.037576374 -0.039466772 0.016669521 0.28354713 0.11532717 -0.07969963 0.06238296 0.20344102
-0.19961537 0.12757395 -0.028555559 0.14422202 -0.035465375 0.17984131 -0.12375376 -0.13166101
0.024129083 0.007885127 0.10948174 -0.075122535 0.16648546 -0.21807674 0.15415147 -0.11624996
0.004506088 -0.022396853 -0.046789665 0.19250503 0.06421963 0.04645503 0.20666908 -0.12175772
00000000: d434 703c 231a 23be 474e 543e 93ee 413e
00000010: 9fac 213e c0a0 f8bc 7bb2 343d b604 6abe
00000020: 6bb7 41be 5fe2 6abd d44a 4dbb 7c83 05be
00000030: b52a e9bd 42be eb3b 4596 62bd 3206 fd3c
00000040: 3379 473d 394d 05be b2d4 bd3d c56a fd3d
00000050: 2dea 52be 4062 d83d a75c 83be 5c84 553e
00000060: 4a0a 5f3d f777 3b3e 570c 583d feb8 2f3e
00000070: e2a8 033e 64f9 933d 118b 31be 8ba3 2e3e
00000080: cb60 22be 2235 1bbe 4968 22be a0be bc3d
00000090: e7f0 333e 4721 99bd a9cc 63be 81d3 df3d
000000a0: a64f eb3a c360 9e3d 83b0 853d 20ac b6bc
000000b0: f59b e53d 0409 0e3e 7517 bebd cca4 2bbe
000000c0: 9045 753d 2855 0a3e 5ee6 01be 2f99 34be
000000d0: 04f2 0b3e 8d63 62be ebd7 893d 8132 903d
000000e0: 5dd0 3e3c 6db5 923c 9f19 143e 3a9f 32be
000000f0: e863 633e 0b44 5c3e 898c 47bd 1298 8bbd
00000100: fa5b 28be 11f9 1abe f587 44be 2d1b d7bd
00000110: dfd0 ddbd ce4c 9f3d b0d9 cdbd b943 28be
00000120: 1e67 493e 3f96 01be 0a21 bd3d da07 343e
00000130: de4c aa3d 790f 173d 5957 14bd 23e7 9fbd
00000140: 1be8 353b e368 49be 02d7 90bb 391a c43d
00000150: 050c bebd fa95 15be b70a 53be 46da 9ebc
00000160: c8d3 1c3e 2bee 233d 190c dcbd 7314 35be
00000170: 9e3d 4bbe 8fef 8dbd 1590 aa3d 7374 74bd
00000180: c0a9 d4bd 2227 96bd c5ec c9bd 29d1 f0bd
00000190: e057 29be 9061 943c 0605 f83d 823a 033e
000001a0: 396a c13c 754c 1a3e bdb9 093d fd43 aebd
000001b0: 6eb7 323e 65bf acbd de1e 35bd 3d3a b3bc
000001c0: 2d7d 1dbc bbd0 4dbe 068f 8f3a 1480 0fbe
000001d0: ffa3 743d a891 5ebe 5028 17bd 90d5 01bc
000001e0: 3fed cc3d 5294 dbbd 5eb5 263e 0bcf 643d
000001f0: a59b 9fbd cc0c bc3b a76b 4e3d 490a 1a3d
00000200: 8e7b 2dbe f4ad fa3c 8fb4 2bbe 3384 60bd
00000210: ab97 0f3e 19e0 853d 6679 733e c99d b4bc
00000220: eb34 debd aad6 6d3e 6b5b dfbd e1a0 e1bd
00000230: 2c28 e5bd b78b 043e ad6c 35be 5926 103e
00000240: 143c 64be 3b2a 463c a0b7 713d a807 53bd
00000250: 47a0 0fbe c203 d6bc efae 46be f7b3 3dbd
00000260: e2e8 a1bd 86bb 99bd 0fa8 b23d 6970 7c3d
00000270: 077a 883e 09b8 b63d e5c0 bc3d a214 1ebd
00000280: d01f 45bd e013 c2bd c245 49be 128a 423e
00000290: dbc3 2ebd eea8 dd3d d735 26bd f220 7dbd
000002a0: bd54 1e3e 748b 393e 9d89 97be a69b ee3c
000002b0: 0942 723d 6427 803e 8734 7dbe d8d9 17ba
000002c0: d820 183e e2f2 823e 9e84 55bd 8ec1 73bd
000002d0: 53a0 343d 7b60 083d bd99 563e 571a 673d
000002e0: 9d4e ef3d bb3e 94bd e1b9 143e 48c9 fd3c
000002f0: e7da be3d eed2 123e 7927 393c b27d b2bd
00000300: b76f 053e 35f0 ef3d d047 2cbe 7231 ebbd
00000310: 72b8 02be 9f33 083e 4ab9 973c 1884 98bd
00000320: ac31 6a3e a427 97bc edc1 c0bd b04c 1a3b
00000330: 992d 313d 8e7e 76be 9646 82bc 628d db3d
00000340: 8777 8d3c ee45 963d 0ff9 ddbd 3487 86bc
00000350: 8e2b 693d 71f8 6fbd 074e 0f3d 49a6 06be
00000360: 6dc2 8a3d e862 f9bd 925b 7a3c 62a2 e4bd
00000370: 8e01 5cbd 34f6 d93d 375e f53d 0eb1 973d
00000380: afe9 19bd e9a7 21bd 858e 883c 172d 913e
00000390: a730 ec3d 8f39 a3bd 4685 7f3d d852 503e
000003a0: f967 4cbe bfa2 023e 59ed e9bc f0ae 133e
000003b0: 2444 11bd 5228 383e 9c72 fdbd 25d2 06be
000003c0: 5baa c53c 9f30 013c f637 e03d d8d9 99bd
000003d0: 2a7b 2a3e 824f 5fbe e2d9 1d3e 7614 eebd
000003e0: cea7 933b 9b79 b7bc 85a6 3fbd 0a20 453e
000003f0: 9585 833d a147 3e3d 0fa1 533e 1d5c f9bd

cfc_model.rnn_cell.ff1.bias f4 [48]
0.0018632938 0.053296637 0.019145563 0.06677995 0.028688742 -0.11175801 0.06882149 -0.015243367
0.0149937775 -0.011877136 0.08381203 -0.035537597 0.06324254 0.10067612 -0.021706406 0.059372634
-0.027390352 -0.014212576 0.10139137 -0.038874738 0.033511817 0.070908554 -0.01815608 0.09445884
-0.0038956665 -0.064255364 -0.018942226 -0.035161607 0.07553787 -0.09720615 -0.049403783 -0.036253884
0.06784389 -0.113176644 0.036326062 -0.07020735 0.10357832 0.11054343 0.023941787 -0.024398284
0.107303835 0.0011448056 -0.12716264 -0.044699095 -0.004031208 0.03372543 -0.024308326 0.0079895295
00000000: c439 f43a 934d 5a3d 28d7 9c3c edc3 883d
00000010: a704 eb3c 62e1 e4bd 48f2 8c3d 51bf 79bc
00000020: 76a8 753c 5298 42bc a4a5 ab3d df8f 11bd
00000030: 4e85 813d 482f ce3d a2d1 b1bc b830 733d
00000040: bb61 e0bc dddb 68bc 47a6 cf3d 1e3b 1fbd
00000050: b043 093d 8138 913d 0fbc 94bc a373 c13d
00000060: 704e 7fbb 5198 83bd ba2c 9bbc 9e05 10bd
00000070: 99b3 9a3d 0514 c7bd 9f5b 4abd f47e 14bd
00000080: bdf1 8a3d 28c9 e7bd a3ca 143d dfc8 8fbd
00000090: df20 d43d 9864 e23d 9121 c43c e9de c7bc
000000a0: 1dc2 db3d 4d0d 963a ec36 02be 6616 37bd
000000b0: 3918 84bb ad23 0a3d 4122 c7bc 84e6 023c

cfc_model.rnn_cell.neuromod.0.weight f4 [192, 3]
-0.006496614 0.02486018 -0.039419256 0.06335206 0.077745646 -0.028778397 -0.09706658 -0.17719
0.06289829 0.15885618 0.13671084 0.07352751 0.010713646 0.088268094 0.13994704 0.019954106
0.1398975 0.16285387 0.10998898 0.10032105 -0.02163706 -0.09865011 -0.05529384 -0.0840691
-0.17122248 0.06526759 0.02558764 0.03721235 -0.1078097 0.115304835 0.030465486 0.11584424
0.04596609 -0.1571555 -0.011145433 0.015621991 0.038560864 0.10529404 0.014872855 -0.16111292
0.16135453 0.16113189 0.15905252 -0.12678833 -0.009360227 -0.08633948 0.07044268 -0.03568453
-0.084489755 0.061855514 0.06292578 -0.009030698 -0.16460302 0.037732717 -0.050354198 -0.0073292423
-0.17014123 0.1349936 -0.012296338 -0.03548342 0.12308639 -0.1674425 -0.0813866 -0.048916303
0.13563146 0.11721473 0.00064957223 -0.03300693 -0.0035163236 -0.06179479 -0.13686858 0.13474739
0.08135767 -0.0669536 -0.1403263 0.16769223 -0.08970509 -0.12380269 0.06270731 0.009480401
0.10588473 0.09251116 -0.058767237 -0.09323606 -0.06695096 0.10242274 -0.034578394 -0.16919346
0.10296866 0.03258833 -0.024726162 0.15266465 -0.023093138 -0.15050906 0.031857684 -0.020689784
0.14832418 0.016495038 -0.033311516 0.08971189 0.10049398 0.060541052 0.17845759 -0.12952994
-0.1045596 -0.023340402 0.17493282 0.14956434 -0.092001446 0.034817584 -0.006869857 0.038262412
0.1204468 -0.08368664 -0.04769267 -0.08368625 -0.16293806 -0.0592041 0.08309559 0.014208638
-0.14556 0.024937617 -0.11635341 0.11395047 -0.14490056 -0.037025187 0.007300111 -0.019503854
0.13203283 0.07407616 -0.011771248 0.086362645 0.002477148 -0.0015300629 -0.03550186 0.15364993
0.1536325 0.16654125 -0.15681104 0.030439824 0.094560176 0.089009635 0.070496574 -0.09382705
-0.0046477593 -0.01336765 -0.14745523 0.059208754 -0.10948297 0.062932074 -0.07036801 0.0316015
0.025548933 -0.0607246 0.16268352 -0.043129764 0.16107225 0.101781234 0.045695778 0.1537146
-0.021155719 -0.02975778 -0.064624205 -0.07427057 0.048863314 -0.08580361 0.061954543 -0.14704531
-0.1269291 -0.122787155 -0.056156676 -0.0540342 0.052025814 0.12321074 0.0028626928 0.02973152
-0.030834183 0.17449053 0.041346204 -0.10145493 -0.020353464 0.16069053 0.040199406 0.0006749404
-0.074204475 0.0072795595 0.1302524 -0.08619822 0.04567092 -0.09497158 0.011083657 0.092543095
0.092510596 0.0647389 -0.14043628 0.046873003 0.0057855314 -0.06332283 0.12027484 0.13234808
-0.04679039 0.00193279 -0.1309373 -0.045603223 -0.07664076 -0.084240705 0.09185536 -0.16139233
-0.110627845 0.16436805 -0.121824816 -0.15873949 -0.14374864 -0.018843956 -0.13874604 0.050318703
-0.027568161 -0.106714636 0.11997035 0.0018627989 -0.06806185 -0.06034135 0.0657093 0.16141006
-0.027253162 0.10984931 0.15379064 -0.028162444 0.012640244 -0.13493516 0.16033357 0.07564322
0.005573756 0.056705624 2.9113153e-05 0.092842594 -0.06331376 0.061686553 -0.13985059 -0.12937394
-0.14390776 -0.11923159 -0.12656483 -0.05542915 -0.032630727 0.14367205 -0.029747166 -0.04686582
0.05248549 -0.04466745 -0.15926397 0.10448085 0.14827418 -0.06923678 0.074743345 0.0535131
00000000: 8ce1 d4bb 94a7 cb3c 1676 21bd babe 813d
00000010: 1c39 9f3d acc0 ebbc d8ca c6bd 4c71 35be
00000020: d2d0 803d 32ab 223e edfd 0b3e 9795 963d
00000030: 4a88 2f3c e7c5 b43d 474e 0f3e cb76 a33c
00000040: 4a41 0f3e 2ac3 263e e741 e13d 1f75 cd3d
00000050: 3440 b1bc 1209 cabd cb7b 62bd 6c2c acbd
00000060: f254 2fbe 04ab 853d 2c9d d13c fa6b 183d
00000070: 55cb dcbd f124 ec3d c192 f93c bf3f ed3d
00000080: f046 3c3d 5fed 20be 569b 36bc 61f3 7f3c
00000090: fff1 1d3d 67a4 d73d 46ad 733c c9fa 24be
000000a0: 1f3a 253e c2ff 243e aade 223e cdd4 01be
000000b0: a35b 19bc c1d2 b0bd 4044 903d f129 12bd
000000c0: f708 adbd 355c 7d3d 3bdf 803d 7ef5 13bc
000000d0: b28d 28be 9f8d 1a3d 3440 4ebd 242a f0bb
000000e0: 8139 2ebe c33b 0a3e 9476 49bc 1057 11bd
000000f0: b814 fc3d 0c76 2bbe 05ae a6bd 765c 48bd
00000100: f9e2 0a3e 470e f03d 0e48 2a3a 4632 07bd
00000110: 1f72 66bb 891c 7dbd 4727 0cbe 38fb 093e
00000120: da9e a63d f81e 89bd b3b1 0fbe 83b7 2b3e
00000130: 4db7 b7bd 448c fdbd b16c 803d af53 1b3c
00000140: 18da d83d 7e76 bd3d eab5 70bd 8cf2 bebd
00000150: 961d 89bd 03c3 d13d 13a2 0dbd 0d41 2dbe
00000160: 3ce1 d23d 577b 053d 858e cabc 1f54 1c3e
00000170: d22d bdbc 0c1f 1abe 347d 023d 9f7d a9bc
00000180: 4be2 173e 9a20 873c a871 08bd deba b73d
00000190: cacf cd3d e5f9 773d 96bd 363e 7fa3 04be
000001a0: 5823 d6bd 5f34 bfbc 9721 333e 6527 193e
000001b0: 416b bcbd e29c 0e3d 8a1c e1bb 0cb9 1c3d
000001c0: d0ac f63d e763 abbd 6459 43bd b263 abbd
000001d0: 3cd9 26be 0080 72bd 052e aa3d 59cb 683c
000001e0: ae0d 15be f949 cc3c b24a eebd dd5e e93d
000001f0: d060 14be b9a7 17bd c535 ef3b 8cc6 9fbc
00000200: 9d33 073e 3eb5 973d 31dc 40bc e6de b03d
00000210: a657 223b 648c c8ba 666a 11bd 6856 1d3e
00000220: d751 1d3e ca89 2a3e 1393 20be f05c f93c
00000230: c4a8 c13d af4a b63d 8260 903d 6528 c0bd
00000240: 3b4c 98bb fd03 5bbc 81fe 16be e184 723d
00000250: 9b38 e0bd 88e2 803d 1a1d 90bd 9370 013d
00000260: ff4b d13c 5cba 78bd 8296 263e d6a8 30bd
00000270: 20f0 243e ae72 d03d 7f2b 3b3d 5c67 1d3e
00000280: c24e adbc 96c6 f3bc b259 84bd 2b1b 98bd
00000290: e624 483d ceb9 afbd 0cc4 7d3d 0c93 16be
000002a0: b4f9 01be d577 fbbd 8b04 66bd f752 5dbd
000002b0: 0519 553d ea55 fc3d 049c 3b3b 848f f33c
000002c0: f897 fcbc a5ad 323e a35a 293d 9ac7 cfbd
000002d0: 4fbc a6bc 0f8c 243e 22a8 243d 7cee 303a
000002e0: 84f8 97bd 5f89 ee3b e360 053e b188 b0bd
000002f0: 6e11 3b3d 7680 c2bd 3a98 353c 3c87 bd3d
00000300: 3276 bd3d d495 843d 87ce 0fbe e8fd 3f3d
00000310: 8e94 bd3b 66af 81bd a852 f63d 4186 073e
00000320: 48a7 3fbd ac55 fd3a 6d14 06be 72ca 3abd
00000330: d5f5 9cbd 6486 acbd aa1e bc3d 0844 25be
00000340: da90 e2bd 1950 283e 4a7f f9bd 9b8c 22be
00000350: d832 13be a45e 9abc 7113 0ebe fc1a 4e3d
00000360: a0d6 e1bc 348d dabd 04b3 f53d 2929 f43a
00000370: 0364 8bbd 7e28 77bd 9992 863d ae48 253e
00000380: 0642 dfbc adf8 e03d 4b7b 1d3e edb4 e6bc
00000390: 0719 4f3c 712c 0abe 7c2e 243e d5ea 9a3d
000003a0: 0ea4 b63b 2844 683d 0538 f437 4224 be3d
000003b0: a5aa 81bd 0aab 7c3d fe34 0fbe 9a7a 04be
000003c0: 8e5c 13be b12f f4bd 369a 01be ad09 63bd
000003d0: cca7 05bd c41e 133e 54b0 f3bc 60f6 3fbd
000003e0: 06fb 563d 37f5 36bd 1816 23be 0efa d53d
000003f0: 30d5 173e 03cc 8dbd 0a13 993d 8d30 5b3d

cfc_model.rnn_cell.neuromod.0.bias f4 [192]
-0.5502112 -0.49130413 -0.042552706 0.35015398 0.35272017 0.1114333 -0.5137985 0.5438734
0.2218184 0.50296324 -0.4580746 0.49970388 -0.42479184 -0.51257163 0.10631828 0.09069649
-0.0048173238 -0.39629236 0.04681202 -0.17071088 -0.48401773 0.3683242 -0.50587964 -0.28668055
0.05592363 -0.35864902 -0.36750937 -0.1443001 0.22549431 -0.21388268 -0.24831656 0.40006053
-0.27722675 0.15991627 -0.1391088 -0.07515574 0.24135809 0.1262201 0.42820594 0.07666157
-0.54649216 -0.36681163 0.30665922 0.25739896 -0.45702595 0.01773406 0.48628706 0.43916228
0.113149546 -0.29736227 -0.11579851 -0.0037138197 -0.4933806 0.025341589 -0.5154934 0.04837193
-0.1452035 -0.09408467 0.5484556 -0.42731532 0.5338977 -0.14443706 0.15448292 -0.36304715
0.1085297 -0.3661912 0.27725127 -0.17094724 -0.5712141 0.5244538 0.31923735 0.09197669
-0.4042774 0.50074416 0.5694022 0.26737285 -0.34397218 0.4003294 -0.039890405 -0.13143902
0.5692344 0.3004587 -0.35620013 0.2886669 0.24043082 0.25053614 -0.08472514 0.24796821
-0.1694686 -0.35416147 0.020225057 -0.34706047 0.44341493 -0.020258402 0.45167783 -0.3915928
-0.25282028 -0.3359726 0.12806456 -0.055520017 -0.52827865 0.47458422 0.40477714 -0.45886245
0.09734023 0.17227775 0.3428215 0.4447627 0.5500156 0.46701542 -0.20036332 0.026230609
-0.24450433 0.57576233 -0.17018731 -0.33783683 0.24607068 -0.0959393 0.1662049 -0.006290975
-0.06819356 0.38351858 0.2936783 0.3031994 0.16047247 -0.40870816 -0.32907763 -0.27999997
-0.27716658 -0.28675258 0.16339713 0.1404063 -0.17008296 -0.4395146 0.25341696 -0.16820407
0.47704673 0.094115034 0.20949982 0.2612065 0.18320917 -0.55258757 -0.110126674 -0.06726152
0.4760941 -0.1786114 -0.026282268 -0.562644 0.26987147 -0.11378753 0.18857524 0.0026415726
0.40586188 0.4951557 0.32856366 0.43952757 -0.51514953 0.3307475 -0.55037755 0.5577934
0.4602255 0.56518966 0.16398291 0.4931179 -0.22086662 0.35378465 -0.07562037 -0.5286886
0.34681544 0.06574407 0.44580755 0.37561384 -0.392737 0.5047129 -0.04934287 -0.35019976
0.042483553 0.402932 -0.45654318 0.048492417 -0.15507863 0.048553675 -0.15634917 0.46893913
-0.43246663 0.18503807 -0.2911959 0.29493186 -0.021801833 0.18478942 -0.47165838 -0.45567027
00000000: a4da 0cbf 378c fbbe bf4b 2ebd 6247 b33e
00000010: bd97 b43e 2437 e43d 4c88 03bf 4a3b 0b3f
00000020: 5d24 633e 33c2 003f c188 eabe 30d9 ff3e
00000030: 517e d9be e537 03bf 66bd d93d 15bf b93d
00000040: a4da 9dbb d5e6 cabe f6bd 3f3d d5ce 2ebe
00000050: 2cd1 f7be fd94 bc3e 5481 01bf cbc7 92be
00000060: 2d10 653d d8a0 b7be 302a bcbe 68c3 13be
00000070: fbe7 663e 1004 5bbe b246 7ebe bcd4 cc3e
00000080: aaf0 8dbe 17c1 233e 8a72 0ebe 41eb 99bd
00000090: 9326 773e d83f 013e cf3d db3e be00 9d3d
000000a0: e9e6 0bbf bcce bbbe 7002 9d3e ccc9 833e
000000b0: 4eff e9be 0547 913c 9efa f83e e1d9 e03e
000000c0: f3ba e73d de3f 98be c527 edbd 8e63 73bb
000000d0: 629c fcbe 2a99 cf3c 60f7 03bf a521 463d
000000e0: 3ab0 14be 77af c0bd 9667 0c3f 13c9 dabe
000000f0: 85ad 083f 4fe7 13be c530 1e3e 51e1 b9be
00000100: d244 de3d 6a7d bbbe e1f3 8d3e cb0c 2fbe
00000110: 163b 12bf 9b42 063f 1473 a33e 465e bc3d
00000120: 73fd cebe c530 003f 58c4 113f 18e5 883e
00000130: 1f1d b0be faf7 cc3e 1f64 23bd f397 06be
00000140: 58b9 113f b9d5 993e dd5f b6be 26cc 933e
00000150: 7f33 763e 4646 803e 6084 adbd 61eb 7d3e
00000160: 2d89 2dbe a754 b5be 05af a53c e9b1 b1be
00000170: 4807 e33e f3f4 a5bc 5142 e73e da7e c8be
00000180: a971 81be 9a04 acbe 5b23 033e f568 63bd
00000190: 453d 07bf b4fc f23e f33e cf3e 05f0 eabe
000001a0: 515a c73d 9469 303e 4d86 af3e f0b7 e33e
000001b0: d3cd 0c3f a51c ef3e 0b2c 4dbe 93e1 d63c
000001c0: 585f 7abe 2965 133f 9545 2ebe f3f8 acbe
000001d0: f4f9 7b3e d37b c4bd 9e31 2a3e 8624 cebb
000001e0: 11a9 8bbd 8c5c c43e 015d 963e f43c 9b3e
000001f0: e552 243e 3242 d1be dd7c a8be 285c 8fbe
00000200: c7e8 8dbe 3cd1 92be 9451 273e abc6 0f3e
00000210: 3a2a 2ebe 0f08 e1be debf 813e b03d 2cbe
00000220: 783f f43e 62bf c03d 1f87 563e dcbc 853e
00000230: 2f9b 3b3e 6176 0dbf 188a e1bd 68c0 89bd
00000240: 9bc2 f33e e8e5 36be e94d d7bc 7009 10bf
00000250: 982c 8a3e 7009 e9bd de19 413e 3c1e 2d3b
00000260: 21cd cf3e 0c85 fd3e 7f39 a83e c209 e13e
00000270: d7e0 03bf bc57 a93e 8be5 0cbf 8ccb 0e3f
00000280: ada2 eb3e 45b0 103f 23eb 273e f379 fc3e
00000290: dc2a 62be 4323 b53e dade 9abd 2358 07bf
000002a0: cb91 b13e d4a4 863d e340 e43e 7550 c03e
000002b0: d314 c9be dd34 013f c01b 4abd 624d b3be
000002c0: 3c03 2e3d 1a4d ce3e 07c0 e9be fc9f 463d
000002d0: efcc 1ebe 38e0 463d ff19 20be ca18 f03e
000002e0: 446c ddbe 9f7a 3d3e a117 95be 4f01 973e
000002f0: c299 b2bc 7039 3d3e 357d f1be 9d4d e9be

cfc_model.rnn_cell.neuromod.2.weight f4 [96, 192]
0.013590266 0.057869863 0.0021217035 -0.036827892 0.021180606 0.12909186 0.06713643 0.13824925
-0.119079135 -0.08352918 -0.03127359 -0.032881077 -0.13961811 -0.06307578 0.0035861558 0.058332674
-0.07550835 -0.13753898 -0.08696362 -0.078545615 -0.025507653 -0.04626905 -0.003869102 -0.010830149
0.088888824 0.019725414 -0.13185932 0.0026764448 0.07876862 0.080137275 -0.034725323 -0.08858609
0.07292524 -0.08194527 0.03178351 -0.09871073 0.12774377 -0.14422044 -0.12026359 0.10577776
-0.10871181 -0.11818115 -0.014588642 0.042459935 -0.11243898 -0.011072767 -0.11950735 -0.08467003
-0.085994035 0.060626257 0.12653907 0.10473198 0.116605364 -0.08066768 -0.13773933 0.071678296
0.08606038 -0.13806935 -0.053507827 -0.0689767 0.11202547 -0.06829948 0.043010212 -0.077310234
-0.014511494 -0.043155316 0.12837455 -0.107595555 -0.07877053 0.0576002 -0.07610006 0.0035206066
-0.05146531 0.026514903 -0.00967201 -0.07521395 -0.031263422 0.047688637 0.13199975 -0.041828338
-0.04603199 0.07492026 0.1466516 -0.00030300947 -0.09906821 0.13597551 -0.05349792 0.0963015
0.10552778 0.052032594 -0.0033992028 -0.10361594 -0.017187348 -0.11878898 0.05572502 -0.07361641
0.14239468 0.014377057 0.053661216 -0.039676744 -0.08852533 0.0029677777 -0.009980097 -0.017752863
0.09541896 0.051731408 -0.11720292 -0.000764565 -0.09588089 0.13302572 -0.13835216 0.011155596
-0.028496848 -0.11169661 0.11604816 0.14081264 0.13674012 -0.10160955 -0.10628926 -0.10762788
-0.02815802 -0.038675252 -0.08595166 0.063849576 0.017209848 0.02544008 -0.074971825 0.09467527
0.084900096 -0.05853314 0.042953797 -0.058219377 -0.103664316 -0.07146573 0.12173263 -0.07815979
-0.011982989 -0.091246106 -0.09056148 -0.123714775 0.10067001 -0.009884792 -0.03999553 0.07840778
0.03576946 0.08808729 -0.13967413 0.036709838 0.029436462 -0.12982038 0.08684082 0.036495198
-0.1278859 -0.050371904 0.08467747 -0.102841966 -0.005938008 -0.06110744 -0.042548757 0.13071625
-0.10992143 0.09917729 -0.035043966 0.09382694 0.111435875 -0.05254585 0.10799812 0.057283096
0.1070422 0.13011809 -0.073221944 -0.109468326 0.097119786 -0.014697251 -0.04867747 0.07048385
0.10087224 0.12371217 0.027851257 0.06285399 0.02516689 0.07015849 0.11163234 0.12688045
0.13760816 0.13658746 -0.06000356 0.10020267 0.01146097 0.07928327 0.10867137 0.07340279
0.040273163 -0.06704674 -0.07900584 0.05574326 0.13355763 0.096581385 -0.12118352 -0.022099154
0.004303788 0.093556985 -0.02179908 -0.08792459 -0.042785894 -0.091944724 0.07206061 0.010484655
-0.027741924 -0.074428655 -0.10139061 -0.07417012 0.008046638 0.054793518 0.13670889 0.0076728724
7.0647024e-05 -0.06915304 -0.0652377 0.13351694 -0.08247383 -0.05027751 0.061374474 -0.085602574
-0.0023356774 -0.04463416 -0.02611297 0.13983676 -0.041066892 -0.08769477 -0.052855287 0.020314084
-0.011144869 -0.05707359 0.062897 0.11257155 0.11296746 -0.061253004 0.027104113 0.009573228
-0.0534874 0.0266754 -0.1349456 0.050924126 0.060250077 0.062158253 0.028327817 0.00805338
0.06617591 -0.0846861 0.10315976 0.07591572 -0.023351133 0.042580478 -0.09082908 0.082624644
00000000: b5a9 5e3c f308 6d3d 470c 0b3b d8d8 16bd
00000010: f382 ad3c a830 043e d37e 893d 3691 0d3e
00000020: c3df f3bd 5911 abbd bc18 00bd 4fae 06bd
00000030: 0df8 0ebe e02d 81bd b605 6b3b 3eee 6e3d
00000040: 1fa4 9abd 05d7 0cbe fb19 b2bd 86dc a0bd
00000050: 6df5 d0bc 9e84 3dbd c390 7dbb f070 31bc
00000060: 580b b63d 3197 a13c 2106 07be 4b67 2f3b
00000070: 7151 a13d 031f a43d 243c 0ebd a06c b5bd
00000080: d459 953d ecd2 a7bd 6d2f 023d da28 cabd
00000090: 43cf 023e 86ae 13be c24c f6bd 03a2 d83d
000000a0: 4ca4 debd f508 f2bd 3305 6fbc 78ea 2d3d
000000b0: 6846 e6bd 8d6a 35bc 45c0 f4bd 7b67 adbd
000000c0: a41d b0bd 3d53 783d 7593 013e b87d d63d
000000d0: cbce ee3d 1935 a5bd 8a0b 0dbe 12cc 923d
000000e0: 6d40 b03d 0d62 0dbe 062b 5bbd a843 8dbd
000000f0: 9c6d e53d 99e0 8bbd 7a2b 303d d454 9ebd
00000100: 9ec1 6dbc a1c3 30bd 9e74 033e 0f5b dcbd
00000110: 7252 a1bd 30ee 6b3d 59da 9bbd fab9 663b
00000120: 4acd 52bd c835 d93c 5a77 1ebc c509 9abd
00000130: 130e 00bd 2955 433d f12a 073e 3154 2bbd
00000140: 0a8c 3cbd cb6f 993d d62b 163e 3edd 9eb9
00000150: 46e4 cabd 2a3d 0b3e a320 5bbd b939 c53d
00000160: f31e d83d 2120 553d 29c5 5ebb 9834 d4bd
00000170: 7bcc 8cbc a347 f3bd eb3f 643d 33c4 96bd
00000180: e9cf 113e bf8d 6b3c ddcb 5b3d 1584 22bd
00000190: c54c b5bd 0c7f 423b 9083 23bc 746e 91bc
000001a0: 046b c33d 50e4 533d 1608 f0bd 176d 48ba
000001b0: 335d c4bd e537 083e 30ac 0dbe f6c5 363c
000001c0: 3972 e9bc 31c1 e4bd a8aa ed3d 3031 103e
000001d0: 9a05 0c3e ab18 d0bd 2fae d9bd 026c dcbd
000001e0: a6ab e6bc f169 1ebd 6d07 b0bd 91c3 823d
000001f0: abfb 8c3c b767 d03c d48a 99bd 1ce5 c13d
00000200: 1ae0 ad3d 72c0 6fbd 52f0 2f3d 7177 6ebd
00000210: f54d d4bd a05c 92bd f54e f93d 3d12 a0bd
00000220: 4c54 44bc 3ddf babd 4c78 b9bd 2c5e fdbd
00000230: 142c ce3d d3f3 21bc 5ad2 23bd 4294 a03d
00000240: ff82 123d 1c67 b43d bc06 0fbe 0e5d 163d
00000250: bc24 f13c a2ef 04be 9ad9 b13d fd7b 153d
00000260: 85f4 02be c552 4ebd 626b ad3d cf9e d2bd
00000270: 9f93 c2bb cc4b 7abd 9b47 2ebd 7bda 053e
00000280: 7d1e e1bd 771d cb3d 438a 0fbd 5728 c03d
00000290: 7e38 e43d 513a 57bd 1e2e dd3d aea1 6a3d
000002a0: f138 db3d ad3d 053e 63f5 95bd ee30 e0bd
000002b0: bde6 c63d bdcc 70bc 0762 47bd d659 903d
000002c0: 1b96 ce3d ce5c fd3d 5228 e43c 98b9 803d
000002d0: cb2a ce3c 41af 8f3d 7f9f e43d f3ec 013e
000002e0: 27e9 0c3e 95dd 0b3e 4bc6 75bd 0f37 cd3d
000002f0: cbc6 3b3c 445f a23d 188f de3d 3454 963d
00000300: 79f5 243d cd4f 89bd d0cd a1bd 0b53 643d
00000310: 55c3 083e 76cc c53d 112f f8bd 4909 b5bc
00000320: ca06 8d3b ce9a bf3d fc93 b2bc cf11 b4bd
00000330: 4340 2fbd 844d bcbd 8394 933d d5c7 2b3c
00000340: 0843 e3bc 0d6e 98bd e1a5 cfbd 81e6 97bd
00000350: 0cd6 033c 2b6f 603d 6afd 0b3e b86c fb3b
00000360: 5528 9438 1ca0 8dbd 589b 85bd aab8 083e
00000370: 0ae8 a8bd caef 4dbd cd63 7b3d 6750 afbd
00000380: 2a12 19bb 4fd2 36bd deea d5bc 5e31 0f3e
00000390: c235 28bd 5199 b3bd c97e 58bd b969 a63c
000003a0: f898 36bc ffc5 69bd 24d0 803d ea8b e63d
000003b0: 7c5b e73d 6ee4 7abd 7209 de3c 07d9 1c3c
000003c0: 9b15 5bbd 5e86 da3c 2e2f 0abe d195 503d
000003d0: c9c8 763d a799 7e3d bd0f e83c 53f2 033c
000003e0: 3c87 873d e86f adbd 6d45 d33d b379 9b3d
000003f0: e04a bfbc de68 2e3d 9904 babd 1c37 a93d

cfc_model.rnn_cell.neuromod.2.bias f4 [96]
0.038683914 -0.027781151 -0.036634605 -0.0078093805 0.0245781 -0.04630245 -0.04299035 -0.02817952
-0.016208123 0.024733674 0.055770364 -0.05909089 -0.04205376 0.05638455 -0.03176965 -0.010368159
0.0317934 0.022940544 -0.05348182 0.010968652 -0.021441663 0.052078996 0.018666293 -0.0632023
-0.03318507 0.06509295 -0.014030902 0.063033246 0.06236662 -0.037585005 -0.031748828 -0.0015630382
0.06432562 -0.027885936 -0.01278646 0.050045993 0.024967853 0.064166196 -0.025393378 0.016789373
-0.026236907 0.030191489 0.0098289875 0.004918386 -0.024207732 -0.030467683 -0.009896743 0.03300412
0.062081214 1.7807977e-05 0.06255491 -0.02488909 0.024153626 -0.0434129 0.004142073 -0.07744888
0.061848607 0.055197757 -0.027097082 -0.051811263 -0.015569534 0.005388178 -0.058609422 -0.030545147
-0.03169486 -0.04371814 0.06248885 -0.039320644 -0.03470757 0.0035769523 -0.03690877 0.03074912
-0.019197466 -0.041480057 0.043625057 -0.05538856 0.046326395 0.041175365 -0.011407403 0.041022535
0.05265648 0.008113154 -0.05766306 -0.0034033346 -0.035118498 0.033057787 0.05945094 0.052137278
-0.0050464575 -0.022600537 -0.06896944 0.016245391 -0.037394334 -0.058534946 -0.009591754 0.005847853
00000000: 0673 1e3d 4c95 e3bc 2b0e 16bd d5e5 ffbb
00000010: 0358 c93c a3a7 3dbd a616 30bd bdd8 e6bc
00000020: e6c6 84bc 469e ca3c 776f 643d 4a09 72bd
00000030: 9040 2cbd 7cf3 663d e420 02bd 36df 29bc
00000040: cc39 023d cfed bb3c c10f 5bbd dcb5 333c
00000050: 6da6 afbc c950 553d 0eea 983c 3570 81bd
00000060: 11ed 07bd 744f 853d dee1 65bc 9317 813d
00000070: 2474 7f3d bcf2 19bd 0f0b 02bd dcde ccba
00000080: 27bd 833d 0c71 e4bc 4d7e 51bc 07fd 4c3d
00000090: 6289 cc3c 9169 833d c605 d0bc de89 893c
000000a0: c8ee d6bc 2454 f73c c309 213c 6a2a a13b
000000b0: 4b4f c6bc 5d97 f9bc f325 22bc 542f 073d
000000c0: df48 7e3d 5762 9537 ca1c 803d 34e4 cbbc
000000d0: d3dd c53c bad1 31bd 3aba 873b 859d 9ebd
000000e0: f754 7d3d 0b17 623d b3fa ddbc 0c38 54bd
000000f0: 5c17 7fbc 508f b03b 6f10 70bd d139 fabc
00000100: 78d2 01bd cb11 33bd 4ff4 7f3d af0e 21bd
00000110: 8629 0ebd 4d6b 6a3b a72d 17bd 94e5 fb3c
00000120: 0144 9dbc fee6 29bd 30b0 323d 1ddf 62bd
00000130: bfc0 3d3d 80a7 283d 1ee6 3abc 3f07 283d
00000140: 52ae 573d 09ed 043c 1a30 6cbd 7b0a 5fbb
00000150: 6ad8 0fbd 9a67 073d d482 733d e68d 553d
00000160: c15c a5bb c324 b9bc da3f 8dbd 0e15 853c
00000170: cd2a 19bd 57c2 6fbd bb26 1dbc 599f bf3b

cfc_model.rnn_cell.neuromod.4.weight f4 [48, 96]
0.017786955 -0.1393592 -0.12657322 0.06197159 -0.084678076 0.11008384 -0.018088972 0.12808484
-0.012166815 0.13175268 0.17081966 -0.021492863 -0.026048895 0.13800368 0.16800423 0.040212378
-0.023027249 0.029185206 0.04237556 -0.11675771 0.01550742 -0.11955751 0.08779357 0.009209273
0.17170855 -0.05905267 -0.13328452 0.16325995 0.15465197 0.03604154 0.020034285 -0.08120491
-0.13605173 0.17133962 -0.13620518 -0.10406655 0.11831448 -0.15127365 0.0585902 0.11227606
-0.14562841 0.12119459 0.06637797 0.12877814 0.04439849 -0.14495051 -0.134336 0.12042804
-0.1441804 -0.09914326 -0.1556139 0.12723507 -0.18071538 0.02505956 -0.16968648 0.062294398
-0.019903587 0.19530146 0.062727265 0.10536891 -0.05500048 0.020533374 0.11084743 0.1450283
0.16370821 -0.07278883 0.09641901 0.1769864 0.12429207 0.15723361 -0.18020572 0.07780276
0.1491331 0.14940019 -0.062000703 0.056839388 0.082306296 0.011520371 0.19081981 0.14768422
-0.021775527 -0.12361663 0.066033944 -0.0839191 0.15513583 0.14313766 -0.11581562 -0.16629854
0.013837207 -0.11872695 -0.052154213 -0.053144053 0.00455399 -0.0017661017 0.0041521075 0.07993437
-0.12013291 -0.07990835 0.095962994 0.106333 -0.017845549 -0.0342741 -0.012132781 -0.12017395
0.17043614 -0.18215038 0.18127929 0.19932185 0.1843026 0.053099867 -0.008540568 0.18823667
0.036502272 -0.07053294 -0.05662557 -0.09250019 -0.05144203 0.20948009 -0.06622876 0.07313356
0.094847836 -0.07439327 0.07610293 0.008121236 -0.011792186 -0.09638084 0.059267182 -0.08177686
-0.04806071 -0.025170924 -0.1409374 0.0654191 -0.14570881 -0.050387833 -0.015270196 0.14958854
0.11675205 0.13653891 -0.1443927 -0.026022037 -0.05293194 0.032710858 -0.08825187 0.16100669
-0.109905295 0.13606167 -0.011966641 -0.14227478 0.022520283 -0.17538233 0.11041261 0.027322918
-0.08945555 -0.16944079 0.024688588 0.09730614 0.19654329 0.041280452 0.20268458 -0.17376319
-0.18120931 -0.053390507 0.008536791 -0.15133764 -0.008373866 0.14719896 -0.15642618 -0.026477812
0.15147626 0.07698071 -0.0993341 0.067985944 0.19937995 0.007870834 0.020998295 -0.17659815
-0.17820777 -0.04641876 -0.11593307 0.15100977 0.00073545426 -0.16420677 -0.12718672 -0.023697486
-0.114552535 -0.090503395 -0.14866865 -0.18361181 0.094979145 -0.013550133 0.124889694 0.1218603
-0.1550095 -0.20038374 -0.065669306 -0.082650214 0.021655936 0.07550479 0.12971675 -0.1278064
-0.0014525427 0.109628156 -0.08851458 0.18057351 0.121172905 -0.08341448 0.021565406 -0.04585432
0.18055993 -0.08619771 -0.11834337 -0.1662136 0.12997758 0.0015627244 -0.07190879 0.12198724
-0.164852 0.15696113 -0.04317909 -0.06668837 0.08840865 0.09811686 -0.033458654 0.01057686
0.012991954 0.13638887 0.18702312 0.11452882 -0.14629935 -0.123719424 -0.021039145 -0.086920224
0.0989174 0.025352575 0.08554553 0.066942185 -0.16526052 -0.15305 0.12580517 -0.012688838
-0.020202726 0.16754346 0.094168 -0.14152227 0.02804874 -0.10767794 0.18045996 -0.005165201
0.10580168 -0.10510925 -0.17816538 -0.068404466 0.19547082 0.0984754 0.01820179 0.18426815
00000000: f3b5 913c 2eb4 0ebe 699c 01be ecd5 7d3d
00000010: b36b adbd a373 e13d 532f 94bc ac28 033e
00000020: 5257 47bc 2dea 063e 59eb 2e3e cd11 b0bc
00000030: 7e64 d5bc d650 0d3e 4d09 2c3e bcb5 243d
00000040: a4a3 bcbc d015 ef3c ff91 2d3d ab1e efbd
00000050: d512 7e3c 91da f4bd 1dcd b33d 7ee2 163c
00000060: 5ed4 2f3e 36e1 71bd bd7b 08be 9e2d 273e
00000070: 165d 1e3e 4ba0 133d f11e a43c c34e a6bd
00000080: 2551 0bbe a773 2f3e 5f79 0bbe d820 d5bd
00000090: dd4e f23d 7be7 1abe 47fc 6f3d fef0 e53d
000000a0: 9d1f 15be df34 f83d 2cf1 873d 6bde 033e
000000b0: 31db 353d e86d 14be 608f 09be faa2 f63d
000000c0: 07a4 13be 9f0b cbbd 4059 1fbe e949 023e
000000d0: 740d 39be b549 cd3c 4bc2 2dbe 6928 7f3d
000000e0: d90c a3bc 1bfd 473e 2777 803d a8cb d73d
000000f0: 2f48 61bd 9b35 a83c fa03 e33d 4c82 143e
00000100: 20a3 273e 4f12 95bd 5477 c53d ec3b 353e
00000110: d78c fe3d d901 213e d987 38be 0e57 9f3d
00000120: 59b6 183e 5dfc 183e 73f4 7dbd 6bd0 683d
00000130: 3490 a83d f0bf 3c3c 4566 433e 883a 173e
00000140: 9762 b2bc b72a fdbd ce3c 873d c7dd abbd
00000150: eddb 1e3e ae92 123e bd30 edbd 2a4a 2abe
00000160: 74b5 623c 1d27 f3bd a89f 55bd 94ad 59bd
00000170: a339 953b 8a7c e7ba 670e 883b a2b4 a33d
00000180: 3e08 f6bd fda6 a3bd 3f88 c43d 1ec5 d93d
00000190: d430 92bc 0063 0cbd 92c8 46bc c31d f6bd
000001a0: d086 2e3e a185 3abe 47a1 393e 071b 4c3e
000001b0: d2b9 3c3e 3f7f 593d bded 0bbc 1dc1 403e
000001c0: 6883 153d 9373 90bd 37f0 67bd bd70 bdbd
000001d0: e1b4 52bd f381 563e f2a2 87bd 0cc7 953d
000001e0: 953f c23d 805b 98bd dadb 9b3d ef0e 053c
000001f0: 0334 41bc 5163 c5bd 25c2 723d a07a a7bd
00000200: 4fdb 44bd 4133 cebc e551 10be 73fa 853d
00000210: b134 15be 7963 4ebd d82f 7abc bd2d 193e
00000220: b31b ef3d dbd0 0b3e aedb 13be 2b2c d5bc
00000230: 29cf 58bd d2fb 053d 65bd b4bd f0de 243e
00000240: 0716 e1bd c053 0b3e bb0f 44bc 7bb0 11be
00000250: 757c b83c 6d97 33be 0220 e23d 50d4 df3c
00000260: 7934 b7bd e381 2dbe b93f ca3c 7148 c73d
00000270: a542 493e b115 293d 8c8c 4f3e faee 31be
00000280: ef8e 39be 01b0 5abd e6dd 0b3c 41f8 1abe
00000290: 8a32 09bc 53bb 163e 2f2e 20be ffe7 d8bc
000002a0: 981c 1b3e 10a8 9d3d ad6f cbbd 373c 8b3d
000002b0: 422a 4c3e acf4 003c 9e04 ac3c 25d6 34be
000002c0: 197c 36be 9921 3ebd 516e edbd 4ea2 1a3e
000002d0: 80cb 403a d225 28be 3c3d 02be 3b21 c2bc
000002e0: 859a eabd d859 b9bd 983c 18be bc04 3cbe
000002f0: 6d84 c23d 6101 5ebc 2bc6 ff3d e591 f93d
00000300: cfba 1ebe 6531 4dbe a17d 86bd 8444 a9bd
00000310: ca67 b13c 41a2 9a3d 78d4 043e aedf 02be
00000320: 3f63 beba ba84 e03d 2247 b5bd 43e8 383e
00000330: 8029 f83d 36d5 aabd efa9 b03c bdd1 3bbd
00000340: b4e4 383e 6d88 b0bd 025e f2bd e633 2abe
00000350: d818 053e 54d4 cc3a ea44 93bd 72d4 f93d
00000360: f6ce 28be 6bba 203e 8fdc 30bd ea93 88bd
00000370: 980f b53d 7ef1 c83d f10b 09bd 914a 2d3c
00000380: 34dc 543c 86a9 0b3e fd82 3f3e 168e ea3d
00000390: 7fcf 15be 9c60 fdbd 495a acbc 3b03 b2bd
000003a0: 3595 ca3d 34b0 cf3c 7f32 af3d fc18 893d
000003b0: 0e3a 29be 24b9 1cbe 12d3 003e d8e4 4fbc
000003c0: 3080 a5bc 8390 2b3e 27db c03d 37eb 10be
000003d0: 79c6 e53c 4086 dcbd 7fca 383e d940 a9bb
000003e0: 8dae d83d 8543 d7bd fc70 36be a417 8cbd
000003f0: 8129 483e 78ad c93d ec1b 953c cab0 3c3e

cfc_model.rnn_cell.neuromod.4.bias f4 [48]
-0.06829948 -0.020579336 -0.04276539 0.0010708899 0.10336071 -0.037649754 0.008430146 -0.059955213
0.007114668 -0.08623596 -0.04777468 0.07411046 0.0746557 0.0150705045 0.07844019 -0.0190188
-0.0019119396 -0.06257421 -0.0041291937 0.045242283 -0.011675983 0.07659937 -0.012016355 -0.029056383
-0.039556306 0.047915526 -0.030504892 -0.032137003 0.027780991 -0.07489977 0.017562743 -0.08782927
-0.046792716 0.03214589 0.022580862 -0.024359727 0.058200955 0.015296746 0.086378284 0.065969676
-0.08619274 0.078986734 0.03111533 -0.111572586 0.08681858 0.031225154 0.013092471 0.0119546205
00000000: 99e0 8bbd ff95 a8bc c32a 2fbd 1a5d 8c3a
00000010: c8ae d33d a136 1abd 981e 0a3c 9993 75bd
00000020: 2922 e93b 7b9c b0bd 62af 43bd 3ac7 973d
00000030: 16e5 983d 47ea 763c 40a5 a03d 51cd 9bbc
00000040: 0c9a faba e826 80bd 304e 87bb f94f 393d
00000050: 9f4c 3fbc 21e0 9c3d 3fe0 44bc a707 eebc
00000060: cb05 22bd 1243 443d 65e5 f9bc 17a2 03bd
00000070: f694 e33c 0d65 99bd bedf 8f3c d5df b3bd
00000080: b8a9 3fbd 69ab 033d 80fb b83c 0d8e c7bc
00000090: 2064 6e3d 349f 7a3c 19e7 b03d 1c1b 873d
000000a0: d285 b0bd ccc3 a13d 94e5 fe3c 2b80 e4bd
000000b0: f1cd b13d e5cb ff3c ce81 563c 50dd 433c

h2o.weight f4 [2, 48]
0.22757436 0.008272374 0.26373273 0.13072602 0.07054518 0.14426376 -0.04560283 -0.08365876
0.03511765 0.14568357 0.019604478 -0.14944081 0.0015530268 -0.060136966 -0.14369838 0.07563747
-0.12534472 -0.049838707 0.119507946 0.1562608 -0.040279683 0.116455466 -0.10031212 0.11284483
-0.19370973 0.1080211 0.1614557 -0.028477415 0.079399206 0.07868498 -0.06281104 0.1376902
0.034422126 -0.050852098 -0.16838035 0.17382011 -0.0367054 0.1402971 0.06795891 -0.012841629
-0.02007549 -0.03482853 -0.26663673 0.14607131 0.006199327 0.048418205 0.07362173 -0.04205362
-0.1918104 -0.18077114 -0.20779212 0.10893987 -0.13677642 -0.18228018 -0.09439489 0.033375777
0.13649035 -0.14623079 -0.021354998 0.1651982 -0.11349316 0.1706589 -0.06661089 0.06182379
0.09799549 -0.16467862 -0.12813684 -0.054396722 0.088013284 -0.16793346 -0.0018213723 -0.09019832
0.21472877 -0.20900919 0.05298502 0.10111948 0.11713347 -0.11964052 -0.1024536 0.08423891
0.053363387 0.18246913 0.008320608 0.107776426 0.111760505 -0.13171805 -0.19514157 0.18284011
0.114058286 0.10198574 0.15850501 -0.1233922 -0.021407224 0.19865322 -0.11992616 0.016400905
00000000: 4109 693e da88 073c fa07 873e 0bdd 053e
00000010: fe79 903d e1b9 133e 08ca 3abd 4955 abbd
00000020: 86d7 0f3d 132e 153e 9299 a03c 0307 19be
00000030: ef8e cb3a 2e52 76bd ab25 13be d1e7 9a3d
00000040: 5e5a 00be ac23 4cbd 95c0 f43d d502 203e
00000050: 4ffc 24bd 3480 ee3d 7170 cdbd 311b e73d
00000060: d85b 46be 2b3a dd3d a554 253e 7849 e9bc
00000070: 0d9c a23d 9725 a13d 13a3 80bd a9fe 0c3e
00000080: 37fe 0c3d 4a4a 50bd e66b 2cbe e6fd 313e
00000090: 6758 16bd 0baa 0f3e 0a2e 8b3d b265 52bc
000000a0: 5b75 a4bc 5ca8 0ebd 9c84 88be b893 153e
000000b0: b923 cb3b 2b52 463d fdc6 963d 6b40 2cbd
000000c0: f269 44be 121c 39be 75c7 54be de1b df3d
000000d0: 1e0f 0cbe a8a7 3abe 1c52 c1bd 0ab5 083d
000000e0: 20c4 0b3e 86bd 15be adf0 aebc b829 293e
000000f0: 1a6f e8bd 35c1 2e3e 4a6b 88bd f13a 7d3d
00000100: dcb1 c83d 83a1 28be 4e36 03be 19cf 5ebd
00000110: 4f40 b43d c0f6 2bbe 1dbb eeba e6b9 b8bd
00000120: dce1 5b3e 8106 56be d206 593d bb17 cf3d
00000130: ace3 ef3d 1706 f5bd 31d3 d1bd 7385 ac3d
00000140: 9193 5a3d 30d9 3a3e 2953 083c e3b9 dc3d
00000150: b1e2 e43d 19e1 06be 31d3 47be 703a 3b3e
00000160: 6497 e93d e6dd d03d 234f 223e 0db5 fcbd
00000170: 345e afbc c06b 4b3e d99b f5bd 315b 863c

h2o.bias f4 [2]
0.03988574 -0.049624234
00000000: 3b5f 233d c842 4bbd
