LTC_A2C/training_results/CfC_a2c_result_268_202437_learningrate_5e-05_selectiomethod_range_evaluation_all_params_trainingmethod_original_numneurons_64_tausysextraction_True_mode_neuromodulated_neuromod_network_dims_3_192_96_64/checkpoint_CfC_A2C_1.pt (torch, 178548 bytes, 16 tensors)

cfc_model.rnn_cell.w_tau f4 [1, 64]
000000 b3 9a b5 3d e5 55 c1 bd 41 ff 4d 3e 08 9b d3 b8
       0.08867397 -0.09440211 0.20116903 -0.00010090141
000010 dd 8c 08 ba a7 a0 71 be e4 e9 01 3e 9a d6 48 3a
       -0.00052089785 -0.2359644 0.12686878 0.00076613727
000020 46 40 c6 bd 52 16 cd 3d 5c 64 6a be 2c d9 00 bc
       -0.09680228 0.10014023 -0.22889847 -0.007864278
000030 94 e2 e8 39 ca 74 97 ba 7c a1 5d be cd 72 85 be
       0.00044419302 -0.0011555192 -0.21643633 -0.2606415
000040 a2 32 b6 bc 33 e9 e5 3d 75 a4 0d 3e 3a 6c 94 bc
       -0.02224094 0.1122612 0.13832267 -0.018118013
000050 29 60 64 3d 92 f5 6c 3d a9 8a 5a be 20 f4 3c 3a
       0.055755768 0.05785138 -0.21341957 0.00072080083
000060 7b 8b 58 bd 9c 6e 7a bd e2 d8 4a 3e e1 ec d7 ba
       -0.052867394 -0.06114064 0.19809297 -0.0016473794
000070 f4 08 1f 3e 05 7a 5d 3b c1 d7 ad bc 92 94 74 bd
       0.15530759 0.0033794653 -0.021221044 -0.059712
000080 31 19 fd bd e9 db f8 bd 9d e0 6d ba c8 4d 2d ba
       -0.123583205 -0.121513195 -0.00090743025 -0.00066110166
000090 9c 34 53 bb 65 90 16 bd 98 2a 8c 3e 61 a7 27 ba
       -0.0032227403 -0.0367588 0.27376246 -0.0006395486
0000a0 b4 a2 fb 3b 5c af ba 3d 54 70 f4 bd f5 ce 33 be
       0.007679308 0.091154784 -0.119354874 -0.17559417
0000b0 cc b0 17 3a 7b ef 26 3a ee 4e 36 bc 1a 0f ec 3d
       0.00057865377 0.0006368083 -0.011127217 0.11526318
0000c0 aa 7e 3f be de 02 9b 3d 6b fa 84 bd c2 22 32 b9
       -0.18700662 0.07568906 -0.06493076 -0.00016988351
0000d0 a0 77 06 ba ed 26 d1 3d 18 f1 1a ba b8 48 f9 3d
       -0.000512952 0.10212503 -0.00059105596 0.12172073
0000e0 80 27 9c 3d d5 4d ff 3b 11 c3 ff bd 2a 60 26 38
       0.076247215 0.0077912607 -0.12488378 3.9667044e-05
0000f0 2b 15 40 bd fb 43 8b 3e 9d 59 2a be 1b 96 1c ba
       -0.046895187 0.27200302 -0.16635747 -0.0005973295

cfc_model.rnn_cell.A f4 [1, 64]
000000 04 e5 9d 3e 39 42 a1 be 47 03 95 bd 03 ac d4 bd
       0.30838788 -0.31495836 -0.07276016 -0.10384371
000010 bb 11 ae bd 58 69 8c 3e c3 30 23 be fb b1 fb bd
       -0.084994756 0.2742412 -0.1593657 -0.122898065
000020 12 a2 9a be 2c bc 4f be e8 a5 03 3e 8e 2b 24 3e
       -0.30201775 -0.20286626 0.12856257 0.1603224
000030 f7 17 9d be 96 04 28 be 79 88 6d 3d ed 7e 1f be
       -0.30682346 -0.16408 0.05799148 -0.15575762
000040 48 fd 8d 3d 1a bc 9b 3e 1f 2c 15 be 58 e7 78 be
       0.06933075 0.30416948 -0.14567612 -0.24307
000050 2a 84 a5 bd 31 fa 90 be ee 71 0a 3e 78 60 91 3e
       -0.08081849 -0.2831588 0.13520023 0.28393912
000060 a2 64 0f 3e 66 b3 b1 bd f1 01 92 be d8 b8 dc 3d
       0.14003232 -0.08676796 -0.28517106 0.10777444
000070 cf 73 a5 3e 94 1d 6d be 4b ff 9b 3e dc 61 4f 3e
       0.32314917 -0.23155814 0.3046821 0.20252174
000080 2d d0 9b 3e d5 af 89 be 52 c6 08 be 66 5c bc bd
       0.30432263 -0.26891962 -0.13356903 -0.09197311
000090 7e 08 2d 3e 01 53 fb 3d 77 a9 95 bd 86 72 2e 3e
       0.16897771 0.12271691 -0.073077135 0.17035875
0000a0 5d 80 43 3e 50 0a 34 bd d1 8c af 3d 24 fb 7e be
       0.19091935 -0.043955147 0.085717805 -0.2490049
0000b0 ad fb 1d bd 45 fd 00 3e dd ed 82 3e 79 ab 32 be
       -0.038570095 0.12596615 0.255721 -0.17448224
0000c0 fc da 9b be b2 98 ab 3e 95 3d 59 be a5 f8 51 be
       -0.3044051 0.33514935 -0.21214898 -0.20505007
0000d0 29 79 a8 3e b3 d6 92 be 0d 15 f9 3d 23 7a 85 be
       0.32904938 -0.28679428 0.12162218 -0.26069745
0000e0 ee 64 77 3e bd 68 61 3d 6d a2 a2 be 00 29 53 be
       0.24159595 0.055031527 -0.31764546 -0.20621109
0000f0 34 9d 83 be f2 f4 88 3d fe 80 90 bd 5f 39 e5 3d
       -0.25705874 0.066873446 -0.07055853 0.11192583

cfc_model.rnn_cell.tau_system f4 [1, 64]
000000 04 c7 22 40 3d b5 d6 3f c2 02 28 40 d9 73 37 40
       2.543397 1.677406 2.6251683 2.8664458
000010 f3 73 46 40 38 f0 a4 3f 3f 27 23 40 0d 58 30 40
       3.100827 1.2885809 2.5492704 2.7553742
000020 3c 2e 07 40 8f 53 9e 3f 17 0e 3e 40 fd f6 b2 40
       2.112197 1.236925 2.96961 5.59265
000030 76 06 17 40 13 c2 75 40 8e 65 58 40 f5 84 16 40
       2.3597693 3.8399704 3.3811984 2.351865
000040 3c ea e6 40 a6 b2 90 40 e8 60 8c 40 a3 9c 01 41
       7.216093 4.5218077 4.3868294 8.100741
000050 86 6a a1 40 ec db 07 41 a9 0e 2b 40 24 0c 25 41
       5.0442533 8.491192 2.6727698 10.315464
000060 b3 53 75 40 dd ee 09 41 ed 56 b7 3f b4 1b 12 40
       3.8332336 8.620816 1.4323403 2.2829409
000070 aa 7e 90 3f c6 60 ed 3f a8 da 37 41 93 90 b1 40
       1.1288655 1.8545158 11.490883 5.548898
000080 59 7b f4 3f b8 c8 04 40 45 ac 40 40 27 ef 62 42
       1.9100143 2.074751 3.0105145 56.733547
000090 05 ad 08 40 a9 57 ae 3f 8d f8 21 40 38 5d 0a 41
       2.1355603 1.3620502 2.5307953 8.6477585
0000a0 6e b3 92 3f 77 05 fa 3f 38 f6 7f 3f cd c1 43 40
       1.1461008 1.9532918 0.99985075 3.0587037
0000b0 a1 b2 5a 40 74 e0 07 40 13 81 9f 40 f0 8d d8 40
       3.4171526 2.1230745 4.984506 6.7673264
0000c0 ae 51 8e 40 ac fb cf 3f 3a 9a 24 41 55 69 54 40
       4.4474707 1.6248679 10.287653 3.318929
0000d0 be 6f 57 40 27 c2 cd 40 ff e1 65 41 83 8a 51 40
       3.3661952 6.42995 14.367675 3.274079
0000e0 7a f7 f6 40 49 28 07 40 cb 9d 8a 40 00 bb 04 42
       7.7177095 2.1118338 4.331762 33.182617
0000f0 3a a6 08 40 73 14 29 40 8a 0e c9 3f a1 f0 b1 40
       2.1351457 2.6418731 1.5707562 5.5606236

cfc_model.rnn_cell.backbone.0.weight f4 [128, 68]
000000 45 c9 24 3d 7b 5f 3b 3e 3c 95 9a bd d7 dd 89 3d
       0.040231008 0.18298142 -0.075479954 0.06731766
000010 78 29 26 be 41 b3 32 3d 70 79 b2 bb 34 d9 bb bc
       -0.16226757 0.04362798 -0.0054466054 -0.022930719
000020 8e 2b 04 be 4a 6c d4 3d 1d 39 6f 3e a2 8a c7 bd
       -0.1290724 0.10372217 0.2336163 -0.09743239
000030 9e 09 66 3b ca 84 fc 3d 66 82 bc 3d e9 01 0f bc
       0.0035100947 0.12330015 0.09204559 -0.008728483
000040 17 37 3e 3e 72 ad bf 3d 02 50 5c be e4 00 02 3e
       0.18575703 0.09359254 -0.21514896 0.12695652
000050 2f 36 31 bd 26 92 42 3d 14 e4 2d 3d 46 e4 e2 bd
       -0.043264564 0.04750266 0.04245384 -0.11078696
000060 ae 29 73 3e 4d 0f 21 be fa 14 f1 3d ce d1 85 bd
       0.23746368 -0.15728493 0.11771579 -0.06534158
000070 7a 30 ba 3d 79 2b d9 3d 6e 3f f7 3c 45 d0 1d be
       0.090912774 0.10603995 0.030181613 -0.1541148
000080 b5 41 18 be 68 34 a7 bc bc f5 13 bd 5c 93 98 3d
       -0.14868815 -0.020410731 -0.036123022 0.074499816
000090 b2 7f 29 bd b9 c8 b6 3d 83 36 4a 3b 44 e7 6b 3e
       -0.041381545 0.089250036 0.0030855245 0.2303744
0000a0 7d 7b 07 be dc 86 f6 3c 7f b3 18 3d e1 9f e0 bc
       -0.13230701 0.030093603 0.037280556 -0.027419986
0000b0 8c 6a c6 bd f2 b1 02 3e 50 88 86 3c 83 77 d1 bb
       -0.09688291 0.12763193 0.01642242 -0.0063924207
0000c0 5b 9b e9 bc ba b3 01 be f3 99 e5 3d 0c 6c c5 bd
       -0.028516462 -0.12666216 0.11211004 -0.09639749
0000d0 43 cf 1a 3e 98 da b8 3c c8 d8 40 3e f5 28 4b 3e
       0.15118127 0.022565171 0.18832695 0.19839843
0000e0 83 ff 0a be 13 20 f8 3c e7 e7 1b be 30 57 4a 3d
       -0.13574032 0.030288732 -0.15225182 0.049399555
0000f0 3e 01 16 be 16 a5 db 3d 69 7d 6c bd 9f e8 ca 3d
       -0.14648911 0.10724847 -0.057736788 0.0990765
000100 be 48 ab 3d ac b3 8f 3d e8 46 13 bd 1e 3d 05 3e
       0.08363484 0.070166916 -0.035956293 0.13011596
000110 7e f9 21 3d b0 1c 6d 3e e8 fc 74 be 68 85 13 be
       0.039544575 0.23155475 -0.23924601 -0.14406359
000120 4a 4a ce bd 51 58 b5 3d 7a 82 9f bd e7 a7 d7 3d
       -0.10072763 0.08854736 -0.07788558 0.10530072
000130 d5 ee 1e be f5 41 89 3d f5 b5 a4 39 2a f4 96 3d
       -0.15520795 0.067020334 0.00031416086 0.07370789
000140 ad 82 22 3b 7e 3f 48 bd b7 b1 8d bd 63 bd 91 3c
       0.0024797127 -0.048888676 -0.06918662 0.017790502
000150 9b 0b 41 bd 13 4e 07 3c 72 60 e4 3d 4f cf 2f be
       -0.04713021 0.00825836 0.11151208 -0.17168926
000160 f6 7f a4 bd 71 e9 e4 bd 61 39 80 bd 5c a1 39 3d
       -0.08032219 -0.11177338 -0.06260944 0.0453199
000170 d7 7c 04 3e dc 0b 55 bc ee 43 57 bd f1 4a 0a 3e
       0.12938248 -0.013003316 -0.052555017 0.1350515
000180 31 7c ac bc b9 c8 25 3d d1 04 66 3d c2 bf 02 3d
       -0.021055313 0.040474627 0.056156937 0.031921156
000190 fa 92 09 be 86 9a 4a 3b 2d fd 85 3d cf 18 57 bd
       -0.13434973 0.0030914857 0.0654243 -0.052513894
0001a0 ca 9e 08 be d8 90 2d 3d 86 c8 b5 bd e7 ab 21 3e
       -0.13341823 0.042374462 -0.088761374 0.15788232
0001b0 dd bd 07 be f4 55 05 3e cd 3d 19 3e 5a 4d d2 bd
       -0.13256021 0.1302107 0.14964981 -0.1026866
0001c0 fe 90 3b 3e f9 de 81 bc f7 fd 0b 3e 2f 59 2d 3d
       0.18317029 -0.015853392 0.13671099 0.04232138
0001d0 7f a2 bc 3c a1 f1 ca bd 90 be 18 be 5e 28 58 3d
       0.023026703 -0.09909368 -0.14916444 0.052772872
0001e0 d3 0a a7 3c 4f 76 04 3e 2c 22 22 be d8 0d 3f bb
       0.020390904 0.12935756 -0.15833348 -0.0029152539
0001f0 a8 58 90 bd a5 85 1e 3e d3 87 64 3d 24 53 fb bc
       -0.0704816 0.15480669 0.055793595 -0.030679293
000200 5e ac 2a be 4a 51 ad bd c0 d4 31 39 aa 37 0d bd
       -0.16667315 -0.0846277 0.00016959291 -0.034476914
000210 28 9e 04 be 92 50 e6 bc 9a c6 12 be c5 3f 3f 3c
       -0.12950957 -0.02811459 -0.14333573 0.011672919
000220 eb 03 6d bd 45 ad 60 be a3 b4 06 3e a3 ad 67 3e
       -0.057865065 -0.21941097 0.13154845 0.22624831
000230 f8 84 5e 3e 92 04 55 be c9 87 41 bd 59 28 1b be
       0.21730411 -0.20802525 -0.047248635 -0.1515211
000240 2c 31 b7 bd 06 74 15 be 16 40 07 be b9 e3 34 be
       -0.08944926 -0.1459504 -0.1320804 -0.17664994
000250 c4 2f 0c bd db ff 4c be aa 82 1c bd d8 e0 e9 3d
       -0.03422524 -0.20019476 -0.03821055 0.11419839
000260 3b 83 44 be ac 27 b1 3d a2 d1 5f 3e f2 ab b5 bc
       -0.19190685 0.08650145 0.21857312 -0.022176716
000270 18 0a a7 bd dd ca f6 3c bf 56 d4 bc a6 2f 17 be
       -0.08156222 0.03012603 -0.02592027 -0.1476427
000280 0c 87 74 bb e4 c8 0e 3e cb 90 06 3e dd 93 06 3e
       -0.003731194 0.13943821 0.13141172 0.13142343
000290 55 66 fb 3d 17 82 ff 3c 3e a9 14 be 03 5c 10 bd
       0.12275378 0.031189961 -0.14517686 -0.035244
0002a0 d0 46 ba bd 1c 33 dc 3c 18 f5 ae 3d c7 85 8d b7
       -0.09095538 0.02687984 0.08542842 -1.6870805e-05
0002b0 6b a4 00 3e 1c 94 b1 bd 34 fb 4d bd d6 5d f8 bd
       0.1256272 -0.08670828 -0.050288394 -0.12127273
0002c0 c5 97 c1 3d 49 91 b8 3c a0 5b 46 3d cf d9 6c 3d
       0.09452776 0.022530215 0.048427224 0.057824906
0002d0 92 77 76 3c d3 e5 0b be e2 0a ad 3d 7e c4 57 be
       0.015043156 -0.1366189 0.08449341 -0.2107105
0002e0 48 c9 63 be 93 b6 8a bd e3 ba d0 3d d9 f4 08 3e
       -0.22244751 -0.067731045 0.10191896 0.13374652
0002f0 8d 34 19 bd c3 8c 2b 3d 72 f0 85 bd 79 f6 11 be
       -0.037403632 0.041882288 -0.06540002 -0.14254178
000300 70 26 e9 3d 08 6b e3 3c f4 eb 21 be ec d4 9e 3d
       0.113842845 0.027760997 -0.15812665 0.077554554
000310 b1 93 cd 3c 38 6a fa bd 34 bc 4d be e5 c6 22 be
       0.025094839 -0.12227291 -0.20091325 -0.15896185
000320 60 6c a2 bd 1e 88 51 bd 15 31 c1 bd 90 a0 7e 3d
       -0.07930827 -0.051155202 -0.0943319 0.062164843
000330 37 2f 34 3e 11 f8 17 3e 24 d6 dc bd d3 7f 8d bd
       0.17596136 0.14840724 -0.107830316 -0.06909146
000340 33 31 b3 3d 8d fa 08 be f8 0a 0f be 7f 6d 0d be
       0.087496184 -0.13376828 -0.13969028 -0.138113
000350 24 b5 fe bd 7c 6b ed 3d f7 f1 f6 3d af 4f 20 3d
       -0.124368936 0.11592767 0.1205787 0.039138492
000360 69 ad 13 3e ed 19 78 3d 2c 67 58 bc 5c 22 e5 bc
       0.1442162 0.0605716 -0.013208192 -0.027970485
000370 8b 98 06 3e 19 58 a8 3d 33 7d b9 bd 89 28 a4 bd
       0.13144128 0.08219928 -0.09057083 -0.08015544
000380 a1 29 32 be fd 69 02 bd 1e 72 28 3e 0a 73 fc bc
       -0.17398693 -0.03183936 0.16449782 -0.030816574
000390 34 6e b2 bd 14 e8 6d bd 33 b6 da ba 2e ce 82 3d
       -0.08712426 -0.058082655 -0.001668638 0.06386982
0003a0 98 05 28 be 02 0d ab bd 33 34 2c 3e e0 c8 f5 3d
       -0.16408384 -0.083520904 0.16816787 0.120012045
0003b0 58 fd d4 3d 20 70 4d 3e 76 b6 76 3d 52 83 8b 3c
       0.10399884 0.20062304 0.060232602 0.017030392
0003c0 f5 0d 56 bd 32 30 e1 3c 36 79 a0 bd 26 48 02 3e
       -0.052259404 0.027488802 -0.07835619 0.12722835
0003d0 bd f9 03 be d8 76 d3 3d 33 71 0e 3e 6c 7c 04 3e
       -0.12888236 0.10325402 0.1391037 0.12938088
0003e0 bc d8 cb 3d c2 35 ed bd 84 dd f6 bb 22 5a ce 3d
       0.09953448 -0.11582519 -0.007533731 0.10075785
0003f0 6c d7 0b bd 0b b4 b4 bd 6a 19 a4 bc 38 a1 f0 bd
       -0.03414099 -0.08823403 -0.02003165 -0.117495

cfc_model.rnn_cell.backbone.0.bias f4 [128]
000000 f4 eb bc 3d 27 0f 29 bd f5 84 a0 3d 7c 9f 93 3d
       0.09224692 -0.041274216 0.078378595 0.072081536
000010 51 42 4d 3d 8d 20 33 bd 5f a4 93 bd f0 1b c7 3d
       0.050112072 -0.043732215 -0.07209086 0.097221255
000020 af b3 e3 bb dd 20 04 3d a1 e2 63 3c 10 36 ed 3d
       -0.00694891 0.032257903 0.013909013 0.11582577
000030 2d 70 3b bd 55 e6 44 bd e9 cd 95 3d 9b 16 8c bd
       -0.045761276 -0.048071224 0.07314665 -0.06840249
000040 66 5f ac bd d3 0a 93 3d 81 6e e0 bd 94 6f ff bd
       -0.08416633 0.07179799 -0.10958577 -0.12472454
000050 b5 ca e1 bc 6b ab e9 bd 40 4d a9 bd 09 30 0c bd
       -0.027562479 -0.114096485 -0.082666874 -0.034225497
000060 e9 ca b5 3d 20 d9 a6 3d 8b dc 7f bd 5b ea e2 bd
       0.08876593 0.08146882 -0.062466186 -0.11079856
000070 85 57 06 be d5 3c 14 3d 97 0d 38 bd 46 61 eb 3d
       -0.13119324 0.036190826 -0.044934835 0.11493163
000080 3d cb 9f bd bb 5f 2b 3d 59 ed 27 bb 74 9c 24 3c
       -0.078024365 0.041839343 -0.0025623648 0.010047067
000090 73 fe 86 bd e9 7c b2 3d 61 b0 c6 3d 32 65 41 3d
       -0.06591501 0.08715231 0.0970161 0.047215648
0000a0 dd 85 c0 3c 9a d7 81 bd d4 6d ac bd b5 22 98 3d
       0.023501331 -0.06339951 -0.084193856 0.07428495
0000b0 9d 5c b9 bd 6f d9 95 3d 04 e2 8d bc 19 f8 49 bc
       -0.09050868 0.07316863 -0.017319687 -0.0123272175
0000c0 b8 cc ed 3c c1 5f 96 3d 58 61 6b 3d 4f e4 72 3d
       0.029028282 0.07342482 0.05746588 0.059299763
0000d0 d7 85 e1 3d 4a 43 42 bd b5 1b d8 bc 98 b0 d0 bd
       0.11011856 -0.047427453 -0.0263804 -0.101899326
0000e0 58 9e 11 bc bf ca 9d bd c3 86 9f 3d e0 e2 6c bd
       -0.00888785 -0.077046864 0.07789376 -0.057833552
0000f0 40 45 07 be 5f 03 5e bd e5 f2 b2 3d 13 3c c8 bd
       -0.1321001 -0.054202434 0.08737735 -0.09777083
000100 f4 e5 d7 bd 41 89 ee bd a0 1f 77 3a f4 c9 42 3d
       -0.10541907 -0.11647273 0.0009427015 0.04755588
000110 44 4a b4 3c 76 4e 8b bd e7 45 d2 3c d2 97 8d bd
       0.022008069 -0.068020746 0.025668098 -0.06913723
000120 2c 6d ec 3d d6 dc de bb 67 fc 0a 3e 4f 60 0e 3d
       0.115442604 -0.006801228 0.13572846 0.034759816
000130 08 cf fe 3d ab b8 8f 3d ac e1 a8 bd be f4 b0 3d
       0.12441832 0.070176445 -0.082461685 0.08640431
000140 dd 37 a7 3d 71 84 bc bd 47 0c 2b bd fc ae 9c bd
       0.08164952 -0.09204949 -0.041759755 -0.07650563
000150 5d 73 de bb 43 55 25 3d e5 a5 e9 3d c2 89 65 bd
       -0.0067886547 0.040364515 0.11408595 -0.05603958
000160 06 f7 a5 bd e8 a0 b7 3d 8e 96 23 3d 3d c3 10 3d
       -0.081037566 0.08966237 0.039938502 0.035342444
000170 ea db 03 bd 49 47 0a bd c3 22 b5 3d 4e b4 0e bd
       -0.03219215 -0.03375939 0.08844521 -0.03483992
000180 4b 8f a5 3d 1f 04 d1 3d 5d 30 15 3d 5d 6b 66 bd
       0.080839716 0.10205864 0.036423076 -0.056254733
000190 07 8f f2 bd cd 46 9e bd b6 ff 47 bd 4a 75 9f bd
       -0.118436866 -0.07728348 -0.04882785 -0.07786043
0001a0 32 1e 86 3d 17 03 9d bd bf 93 8b bd 54 68 cb 3d
       0.06548728 -0.07666605 -0.0681529 0.099320084
0001b0 40 e6 32 3d ca a0 b4 bd ac 35 b9 bd d0 06 17 be
       0.043676615 -0.088197306 -0.0904344 -0.14748693
0001c0 a7 58 a1 bc db 9a db bd 74 c9 b3 3c 6e 29 a6 bc
       -0.019695593 -0.10722896 0.021946646 -0.020283427
0001d0 2a e9 45 3c 0e 03 18 3d 4f 48 1c 3d 79 52 50 bd
       0.012079516 0.03711229 0.038154896 -0.050859902
0001e0 87 ba 05 3c 4a 0b 46 3d 8d e6 6c 3d 20 e4 0b 3d
       0.008162147 0.04835061 0.057837058 0.034153104
0001f0 31 b7 3e 3d 5a 7b b0 bd 61 a3 ff bc 61 a4 17 3d
       0.046561424 -0.086172774 -0.031205835 0.037022

cfc_model.rnn_cell.ff1.weight f4 [64, 128]
000000 e9 d5 d6 3d d2 23 36 3e 54 51 46 3d a4 6a 68 bd
       0.10490019 0.17787102 0.048417404 -0.056742325
000010 f8 f1 c7 bd e9 1e e3 bd b1 cb c5 bd 22 b2 b7 3d
       -0.09762949 -0.1108988 -0.09657992 0.08969523
000020 7f 79 dd 3c f6 52 4a bb f9 ce ad bb 39 12 89 bd
       0.027035473 -0.0030872202 -0.005304214 -0.06692929
000030 6d f9 00 bc 5b 1e 11 3e 3c 8f 1a bd ca 86 e1 3d
       -0.007871968 0.14171736 -0.037734255 0.11012037
000040 b8 f9 9c bc 67 8e 2a 3e 54 76 f1 3d 91 94 30 be
       -0.019162044 0.16655885 0.117901474 -0.17244174
000050 b5 f7 92 3d 3e 4c 85 bd 2a 82 7f 3e 87 8c 37 3e
       0.071761526 -0.06508683 0.24951997 0.179247
000060 8a a9 09 be ce c6 16 3e 02 bc de 3d 84 8a cc bd
       -0.1344358 0.14724275 0.108757034 -0.09987357
000070 cc ab ed bd 8c fb 96 3c 5a b8 e1 bc 74 d6 e4 bd
       -0.11605033 0.018430494 -0.027553726 -0.11173716
000080 d4 86 2b bd 55 9d 3f 3e aa 4c 25 bd 96 4d aa 3c
       -0.04187663 0.18712361 -0.040356316 0.020788949
000090 97 4c 01 3e 24 fc 46 3a e9 f0 be bc 7c 64 0e 3e
       0.12626873 0.00075906725 -0.023308234 0.13905519
0000a0 c0 9d 12 3e c7 ca 1a 3d 01 88 70 3d 20 cc 8b bc
       0.1431799 0.03779104 0.058723453 -0.017065108
0000b0 11 7f a7 bd 94 8c 89 3d be 25 8c 3d f5 9e d5 3d
       -0.08178533 0.06716266 0.06843136 0.10430709
0000c0 cc a1 80 3d 93 87 0e 3e c6 91 c2 bd be bf 00 3e
       0.0628086 0.13918905 -0.0950046 0.12573144
0000d0 9d a6 f3 3c d1 e7 88 3e 0e fc 4e 3d 15 28 aa bd
       0.029742533 0.26739362 0.050533347 -0.08308426
0000e0 05 48 5b 3d 25 2c 61 3e f0 9b b7 3d 6c 3b 89 bd
       0.05353548 0.21989496 0.089652896 -0.06700787
0000f0 cb d3 1c be 06 3b 27 bc 93 a8 25 bd 95 e9 6f bd
       -0.15315168 -0.010206943 -0.040443968 -0.05857237
000100 25 93 62 bc 0e bc 26 3e 81 0c 1c bd 93 82 0c be
       -0.013829027 0.16282675 -0.038097862 -0.13721685
000110 72 c9 09 be 10 b8 41 be f7 58 57 3c c4 17 39 3d
       -0.13455752 -0.1891787 0.013143769 0.04518868
000120 31 5f f5 bd 9e 42 c2 bd 85 c9 14 3d a2 29 e5 bd
       -0.11981047 -0.094853625 0.036324997 -0.111895815
000130 19 6c 89 3a 1b 6d 51 bd 82 84 f1 bd ed 6e fb bc
       0.0010484486 -0.05112944 -0.11792852 -0.030692542
000140 1e 2c bc 3d 50 02 7b 3d b8 82 2c be ed 9e dc 3d
       0.09188102 0.061281502 -0.1684674 0.107725
000150 73 f7 8c bc 45 3e 70 3e e4 e0 a7 3c 43 e5 ed 3d
       -0.017207837 0.23461254 0.020492978 0.11615994
000160 67 80 9b 3d 63 e3 0e 3e 42 8b 3e 3e 4a d1 07 3e
       0.0759285 0.13953929 0.1860781 0.13263431
000170 3c 42 32 be a6 82 90 3d 3e 60 44 be b0 cc 42 be
       -0.17408079 0.07056169 -0.19177338 -0.19023395
000180 04 46 a9 3d 44 0f 4b bd 20 9f 8d 3d 61 6b a2 3d
       0.082653075 -0.049575105 0.06915116 0.07930637
000190 ee b8 3c be 98 6f 2c be 42 0f 58 3e e7 88 0f 3e
       -0.1842992 -0.16839445 0.2109957 0.14017068
0001a0 40 53 85 3d 69 c9 1b bd 32 47 e1 bd f1 f9 39 bd
       0.06510019 -0.038033877 -0.109999076 -0.04540438
0001b0 31 9b 20 bd e4 3f d9 3d 0b e7 fa 3d 1f 3f 31 be
       -0.039210502 0.10607889 0.12251099 -0.17309235
0001c0 44 96 d7 bd ec 97 07 3e a7 a1 1b be 58 db 08 be
       -0.10526708 0.13241547 -0.15198384 -0.13364923
0001d0 22 0a 6d be df 94 99 3b c9 7f 64 bd 3e b1 53 be
       -0.23148397 0.0046869363 -0.055785928 -0.20673081
0001e0 3f 8d 9c bd 2a 5c b9 3d f4 ab c4 bd 45 6c cb bd
       -0.07644128 0.09050782 -0.0960311 -0.0993276
0001f0 b7 5c c8 3d c3 72 c5 bc 18 7b 14 be 0f 87 be bd
       0.09783309 -0.024102574 -0.14500082 -0.09303104
000200 dc 60 9f 3d 71 79 b3 3d 4d 6a 0d 3e da 35 12 be
       0.07782146 0.087633975 0.13810082 -0.14278355
000210 89 67 56 3c 7b 6f 01 be 62 84 6f 3c 07 ee 21 be
       0.013086208 -0.12640183 0.014618965 -0.15813456
000220 2f 45 04 3e 2d d3 39 3d 78 82 8f 3b 7b 62 9d bc
       0.12917016 0.04536741 0.0043795668 -0.019211998
000230 1e 86 a2 bd e5 c6 2f 3e 1b be 09 3e 1b cb 1e be
       -0.07935737 0.17165716 0.13451426 -0.15507166
000240 5b aa f1 3c 23 9e 4c bd ac 2b 87 bc 36 a3 03 3e
       0.029500177 -0.0499555 -0.016500317 0.12855229
000250 a7 33 45 bd 09 a1 01 be 6f cd 81 bc a9 15 16 bc
       -0.048144963 -0.12659086 -0.015845029 -0.009160438
000260 97 c3 59 3d 26 bc 1f be 45 62 f9 3d f2 a5 c6 3d
       0.053165045 -0.15599117 0.121769466 0.0969962
000270 4d 9c f6 bc dc 81 da 3d ef 44 72 3d a1 2f e9 3d
       -0.030103827 0.106693 0.05914777 0.113860376
000280 64 88 f3 bd 42 70 1f 3e dd 53 bd 3d d7 f5 d8 bd
       -0.11891249 0.15570167 0.09244511 -0.10593765
000290 2e b8 ae 3c a7 2d 28 3e 91 c3 19 3e 36 85 3d 3c
       0.021328058 0.16423665 0.15016009 0.0115674045
0002a0 4a 8c 96 bd 94 b5 67 3e f0 03 fa bc 0b 64 23 3e
       -0.07350977 0.2262786 -0.030519456 0.15956132
0002b0 a9 36 e7 bd a2 ee 16 be 45 80 b3 bd 63 76 0b 3e
       -0.112897225 -0.14739469 -0.087647 0.1361938
0002c0 94 5c 88 3d 71 b9 15 3e 73 a0 2f be 0f 3e c0 3b
       0.06658283 0.14621522 -0.1715105 0.005866773
0002d0 f0 9d 4d bd 6b eb b8 3d 5c 16 bb 3d 14 ad 4f be
       -0.05019945 0.090292774 0.09135124 -0.20280868
0002e0 0b ab 92 bc c2 46 fe bc 14 56 f3 3d 43 37 a7 3d
       -0.017903825 -0.0310396 0.118816525 0.08164837
0002f0 79 1a a1 3d d1 72 a1 3c aa db 44 3d b7 63 1f be
       0.078663774 0.019708069 0.04806105 -0.15565382
000300 9e e8 87 3c 78 96 43 3d b6 f5 24 ba ff db 52 3e
       0.016590413 0.04775092 -0.00062927173 0.20591734
000310 b9 fe 39 be 33 56 33 be 5a e2 9f 3d c1 34 c7 3d
       -0.18163575 -0.17513351 0.07806845 0.09726859
000320 b2 65 0f 3d 71 3f 74 3e 77 f1 4f 3e a0 58 bc 3d
       0.035009094 0.23852326 0.20306955 0.091965914
000330 37 c8 a8 3d e3 7a 1e bd 3c 50 23 be 72 18 5f be
       0.08241313 -0.038691413 -0.15948576 -0.21786669
000340 cc 31 21 3b 7b ff 36 3e 03 16 7f bd 17 60 2a 3e
       0.0024596332 0.17870896 -0.06227685 0.16638218
000350 55 59 af 3d 8b 93 10 3e 32 30 d4 bd b2 5d c8 bd
       0.085619606 0.14118783 -0.10360755 -0.09783496
000360 82 ba c1 bc 4a 48 12 be f0 55 d4 3d dc d2 04 3d
       -0.023648504 -0.14285389 0.10367954 0.032427654
000370 32 71 91 bd 01 81 6e 3d 13 48 7d bc 9c ff b4 bd
       -0.071016684 0.058228496 -0.015459078 -0.08837816
000380 51 12 43 3d ed eb 24 3d 08 ed 6c 3e fe 5e 34 3d
       0.04762489 0.04026406 0.23137295 0.044035904
000390 67 d2 34 bd 67 60 95 3d e6 fd d7 bb f4 10 f2 3d
       -0.044145968 0.07293778 -0.0065915463 0.1181964
0003a0 c6 8e 38 bd fa 89 9d bd c2 24 86 3b fd dc 31 3c
       -0.045058034 -0.076923326 0.0040937373 0.01085591
0003b0 3b ec 80 3d 62 83 1f 3d 37 7e fe 3d e9 65 b0 3d
       0.062950574 0.038943656 0.12426417 0.08613188
0003c0 f6 57 82 bd a5 e3 11 bb 1e 33 58 be 80 7f 0c be
       -0.063644335 -0.002226093 -0.2111325 -0.13720512
0003d0 e3 7f d5 bd f8 2c 52 3d d7 47 45 bd 06 f7 cd 3d
       -0.10424783 0.051312417 -0.048164215 0.100568816
0003e0 03 44 6c 3d 89 f0 49 3e f0 aa 12 be 7c f3 5a 3e
       0.05768205 0.19720663 -0.1432302 0.21381944
0003f0 80 68 28 be 88 cb 26 3e 7f 58 1d be 5e 8d 94 bc
       -0.16446114 0.16288579 -0.1536579 -0.018133815

cfc_model.rnn_cell.ff1.bias f4 [64]
000000 c2 00 36 bd e6 69 1b ba e0 f6 a4 3c d0 ce 1e 3c
       -0.044434316 -0.0005928561 0.02013725 0.009692863
000010 2f 34 37 bc 7d d0 86 bd b5 47 aa 3d 07 1b 9f 3d
       -0.011181875 -0.06582735 0.08314458 0.07768827
000020 b3 ea d5 3c 38 a7 6b bd 70 bf 07 bd 7d c0 94 3c
       0.02611289 -0.05753252 -0.033141553 0.018158192
000030 c9 bb 34 bd 5a 6d 0c bd 40 0a 85 3d b5 5d fb bb
       -0.0441244 -0.034283973 0.06496096 -0.007671083
000040 06 f3 10 3b 0d fb 57 3d 8e d1 45 3d b4 b9 f0 bb
       0.002211751 0.052729655 0.04829555 -0.0073463563
000050 8e a8 23 3d 3f 63 b8 3b bd 48 25 3d 36 98 a2 bd
       0.03995567 0.0056270654 0.04035257 -0.07939188
000060 67 35 83 bd df 0d e0 3c 7f 11 b3 bd cf 1b ba bd
       -0.0640667 0.027350364 -0.087435715 -0.09087335
000070 d8 02 0a 3d 6d b3 a2 bd a0 1d 5e bd 83 f3 34 3d
       0.03369412 -0.07944379 -0.05422747 0.044177543
000080 5e e3 96 bd 32 71 55 bd 57 62 d5 bd 9d 93 87 3c
       -0.073675856 -0.052109905 -0.104191475 0.01654988
000090 3a e9 2a bd 43 e8 82 bd e5 49 9f bb cd 90 ce bc
       -0.04172633 -0.06391957 -0.004861104 -0.02521553
0000a0 26 07 98 ba ea f7 69 bb 4c 5a 92 bd b2 1d d9 3d
       -0.001159881 -0.0035700747 -0.07146129 0.10601367
0000b0 9b 1a dd 3d e6 eb 85 3d 63 6b 00 be 58 35 9a bd
       0.1079609 0.06539135 -0.12540965 -0.07529706
0000c0 bf f3 15 bd 51 e6 af bd 86 6c f9 bc ed ed 78 bd
       -0.036609408 -0.08588851 -0.030447256 -0.06077378
0000d0 d7 20 49 bb a4 7c 49 3d 50 62 fe 3b ee 15 90 3d
       -0.003068974 0.049191132 0.0077631846 0.07035433
0000e0 cc 55 07 bd a8 58 b2 bd e6 68 51 bd 73 8e fe 3c
       -0.033040807 -0.08708316 -0.05112543 0.031073784
0000f0 cd 01 7e 3d 38 b6 98 bd 5e 1e c3 3c a4 10 e0 bd
       0.062013436 -0.074566305 0.023818191 -0.10940674

cfc_model.rnn_cell.neuromod.0.weight f4 [192, 3]
000000 05 9a 95 3d 64 e1 93 3d 2d 7b 94 3d 6b ec 1d 3e
       0.073047675 0.07220724 0.072500564 0.15422218
000010 0c 92 f6 3d 77 8b f7 bd b6 d2 d7 bc 36 cc 7a bd
       0.12039575 -0.12087148 -0.026345592 -0.061229907
000020 0e 19 90 bd 6a 7e d5 bd ff f0 d0 3d 0b 6c 85 3d
       -0.07036029 -0.10424502 0.10202216 0.06514748
000030 e9 bd 7b bd cb a4 d0 bd 5a f5 14 be 56 62 12 3e
       -0.06146041 -0.10187682 -0.14546719 0.14295325
000040 bf 1b a6 b8 03 02 1f 3e e5 ed 7b bd 47 21 9d 3d
       -7.920665e-05 0.15528111 -0.06150617 0.07672363
000050 0b 32 dd bc 11 ac 30 3e 38 fe 56 bd 6c a7 86 3c
       -0.027001401 0.17253138 -0.052488536 0.016437255
000060 db b7 6a 3d 7a 1a 1f 3e 17 57 1c 3e a1 08 ff 3d
       0.057304244 0.15537444 0.15267597 0.12452818
000070 b4 dc 55 bd b3 df 25 3e f3 cd 07 be bc 3f 13 bd
       -0.052212432 0.16198616 -0.13262157 -0.035949454
000080 f4 4d 47 3d 8b bb 6a ba d3 9d 97 3d 8c ef 6a bd
       0.048658326 -0.00089543377 0.074031495 -0.057357356
000090 00 40 4f bd 44 50 e7 3d 57 80 30 3d 38 24 57 3b
       -0.050598145 0.11294606 0.043091144 0.0032827985
0000a0 65 ba 17 3a d0 c2 4b 3d d0 9d e2 3d ec 3a c1 3d
       0.0005787968 0.049746335 0.110652566 0.094350666
0000b0 42 8b c5 3d ec 8b 4b bd 57 1c 6e bc df a0 0d be
       0.09645702 -0.049693987 -0.014533124 -0.13830899
0000c0 79 eb a9 3d 19 b1 0a be a2 bc 6d bd 1f 76 c3 bd
       0.08296866 -0.1354412 -0.058041222 -0.09544014
0000d0 dc a0 d2 3d 2a c4 0f 3e d3 5b e1 3c 40 8e bb 3d
       0.10284588 0.14039674 0.027509606 0.091579914
0000e0 76 e9 87 3d 17 2c 0f 3e cf 1c 83 bd 0d 64 1e 3e
       0.06636326 0.13981663 -0.06401979 0.15467854
0000f0 d0 68 d8 3d 59 ca 73 3b 46 2b 2d be 92 9f f3 3b
       0.105668664 0.0037199466 -0.16911039 0.0074347937
000100 a1 ae 71 bd bd f0 85 bd 48 eb cd bd 5c 23 ed 3d
       -0.05900443 -0.06540058 -0.10054642 0.1157901
000110 9d 29 19 be 45 9f 24 3e 77 6b 8a bd df df 12 3c
       -0.1495728 0.16076382 -0.067587785 0.008964508
000120 82 85 4d 3d 71 73 67 bd 0d f8 7f 3b af cb 40 bd
       0.05017615 -0.056506578 0.0039057762 -0.047069248
000130 97 06 1a be fe e0 8f bd 04 be 03 be 2b 83 07 be
       -0.15041576 -0.07025336 -0.12865454 -0.1323363
000140 bf aa 25 bd 2a 07 30 3d 67 a8 82 3b d9 d8 d2 bd
       -0.04044604 0.042975582 0.0039873603 -0.10295267
000150 21 3a 5f 3c e6 3a 96 3d 6b 1e ed bb 5a 17 b7 bd
       0.013624699 0.07335453 -0.007236292 -0.08940001
000160 f3 38 3c bd f9 0b 85 bd 09 b0 03 3e cd c8 57 bd
       -0.04595275 -0.06496424 0.12860121 -0.052681733
000170 49 f4 66 3d 0d 41 0b bd 71 d6 fd 3d f8 fa e2 3b
       0.056385312 -0.033997584 0.12394417 0.0069268905
000180 28 10 c6 3d e8 54 3e 3d ce cf 21 be 99 c1 b3 bd
       0.0967105 0.04646769 -0.15801927 -0.0877716
000190 89 6f ff bd 1e 75 df 3c f1 8d 91 bd 65 c2 14 3e
       -0.124724455 0.027277526 -0.07107151 0.1452728
0001a0 52 14 06 3d 9c 5d 7e 3c 7d e3 24 be 33 01 1b 3d
       0.032734223 0.015525248 -0.16102405 0.03784294
0001b0 e4 d5 aa 3d 5b 40 c7 bd 83 a5 13 3e 89 dd 09 be
       0.08341578 -0.09729072 0.14418606 -0.13463415
0001c0 a9 15 13 3e af 9e 9f bd 5b 17 3b 3d 6e c2 5d 3d
       0.14363731 -0.07793938 0.04567657 0.0541405
0001d0 c8 30 dc 3d 7f 12 31 be 6e d5 24 be 06 aa 0e be
       0.10751492 -0.17292212 -0.16097042 -0.13932046
0001e0 f4 16 3c bd e4 f5 99 3d bf d6 1b bd 58 94 8c bd
       -0.045920327 0.07517603 -0.038046595 -0.06864232
0001f0 a5 c8 f3 bc 70 1f 2b be 3a 20 8b b9 2e 21 0a be
       -0.02975876 -0.16711211 -0.00026536157 -0.1348922
000200 07 dd 02 3e f0 26 9f 3d 2b 67 6d 3d 63 02 15 3e
       0.12779628 0.077710986 0.057959717 0.14551692
000210 2b b3 91 bd c2 cf 2c be 8a 27 e9 3d 11 10 e7 3d
       -0.07114252 -0.16876128 0.113844946 0.11282361
000220 83 f9 cf bd 25 5a 05 be a0 c1 00 3e 3c 9b c3 3d
       -0.101550125 -0.13022669 0.12573862 0.09551093
000230 77 0f 20 be 60 2c d7 3c 98 c4 70 bc 5e d4 10 3d
       -0.156309 0.026266277 -0.014695309 0.03535878
000240 d7 eb b0 3d ab 1f 11 bd 5e a7 dc 3d f6 2e 65 3d
       0.08638733 -0.03543059 0.1077411 0.05595299
000250 cd 79 eb 3d 90 bb cc 3d cb b2 3c 3d a9 fa b1 3d
       0.11497841 0.09996712 0.046068948 0.08690388
000260 4a e3 cd bd 88 f5 fb 3d d9 e6 1b bd e5 7b 8d bd
       -0.100531176 0.12302691 -0.03806195 -0.06908397
000270 d7 db b3 3d 5c 8a b2 bd 78 2b 2b 3e 24 48 81 3d
       0.087821655 -0.08717796 0.16715801 0.06312588
000280 77 2a c0 bb 8e 94 1e 3e d8 ee 22 be 16 ef 2a 3e
       -0.005864437 0.15486357 -0.15911424 0.16692767
000290 26 a9 0d 3d 7a a9 a3 3c 41 38 0e be 86 71 ca 3c
       0.03458514 0.019978274 -0.13888647 0.024712335
0002a0 04 33 aa 3d df be e7 bc 12 6b a0 bc 52 b1 70 3d
       0.08310512 -0.028289257 -0.019582305 0.058762856
0002b0 42 6e 9c bd 00 4b b0 bd 7d 82 1e 3e 37 11 23 3c
       -0.076382175 -0.08608055 0.15479465 0.009952835
0002c0 1a 3c 42 bd 27 94 ee bd 91 ef d4 bd 5d 73 ba 3d
       -0.0474206 -0.116493516 -0.10397256 0.09104035
0002d0 f1 33 08 3e 3e b1 ac bd ee 28 40 3d d7 cf cc bd
       0.13301064 -0.08432244 0.046914034 -0.1000058
0002e0 01 d9 21 be e9 38 20 be 1b 42 30 3d df 81 6b 3c
       -0.15805437 -0.1564671 0.043031793 0.014374225
0002f0 cf bc c5 bd 57 fc f5 3d 3a 68 fc bc 90 e7 fe bd
       -0.09655153 0.12011021 -0.030811418 -0.12446511
000300 dc 3f 18 be 9d f6 2a bd d5 d5 00 3e 50 ed 84 bd
       -0.1486811 -0.041739095 0.1258157 -0.06490576
000310 3f be 74 3c 2c 53 bd 3d 5e aa 4c 3d b7 85 9d 3d
       0.014937936 0.092443794 0.049967162 0.0769152
000320 43 09 66 3d 13 5e c2 3b e4 52 aa bd 8d 40 39 3c
       0.056161176 0.0059316247 -0.083165914 0.011306894
000330 ad f7 d1 3d ca 29 15 3d 4c 6a e6 bd f6 8f 20 be
       0.102523185 0.036416806 -0.11250743 -0.15679917
000340 dc e3 75 bd 12 9c 12 3e 22 a2 ce 3d f6 d6 c3 3d
       -0.060031757 0.14317349 0.10089518 0.09562485
000350 76 88 fe 3d cc 8a 94 bd 9a 79 85 3c d2 09 9b bd
       0.124283716 -0.07253036 0.016293336 -0.075702325
000360 bc d1 45 bd f5 b6 08 be e2 eb 59 bd c2 f7 41 3d
       -0.04829572 -0.13351043 -0.05320347 0.04735542
000370 9a 05 d7 3c dc ab c3 3c e0 a1 e5 bc f8 e7 d2 3d
       0.026247788 0.02388566 -0.02803129 0.10298151
000380 a6 aa 7c bd 57 f3 04 be 55 90 8d 3d 1a 83 23 be
       -0.06168618 -0.12983452 0.06912295 -0.1596798
000390 f7 2a b6 bd ca 35 a1 bd 5e 2c fc bd 9c 23 15 be
       -0.08894914 -0.078715876 -0.1231315 -0.14564365
0003a0 f9 4b 00 be c4 54 0d 3d 78 7c 04 3c dd ea 46 3c
       -0.12528981 0.034504667 0.008086316 0.012140957
0003b0 fd 79 5c 3d 28 2e 29 3e e9 80 a2 bd 85 78 28 be
       0.053827275 0.16521513 -0.07934744 -0.16452225
0003c0 fe d6 1e 3e 3c d1 28 be 55 da 1f 3d ce e8 ab bd
       0.155117 -0.16486067 0.039026577 -0.08394013
0003d0 48 ae 27 3e 24 45 cd bd cb 55 19 be cd 4a 03 bd
       0.16375077 -0.10022953 -0.14974134 -0.032053757
0003e0 ce 7f 9b 3d 94 da 89 bd 5c 90 32 3e 6f d3 b2 bc
       0.07592736 -0.067311436 0.17437881 -0.021829335
0003f0 8d fe 89 3b b6 27 a6 bc 53 56 c9 bd 84 83 1e 3e
       0.004211253 -0.020282608 -0.09830918 0.15479857

cfc_model.rnn_cell.neuromod.0.bias f4 [192]
000000 26 45 3b 3d 12 12 02 3e 36 b9 26 be c1 62 b4 bd
       0.045720242 0.12702206 -0.1628159 -0.08807898
000010 fd 24 75 3e d2 bb 3b bd 98 af cb 3e 87 f0 12 3f
       0.23939891 -0.045833416 0.39782405 0.57398266
000020 b2 4f eb 3e 7a 91 02 bf c3 a2 19 be 76 ad 61 3e
       0.4595924 -0.5100323 -0.15003495 0.22038826
000030 2a 73 c3 be d2 9f af bd d7 f9 a8 3e d2 fd fb 3e
       -0.381738 -0.08575405 0.33003113 0.49217087
000040 8b 1f 0d 3f 60 1c c1 bd 2f 37 7a 3e 41 d0 1b 3e
       0.55126256 -0.0942924 0.24435113 0.15216161
000050 dc 7f b2 3e 8f 27 d9 be 39 07 04 bf e4 47 09 3f
       0.34863174 -0.42412993 -0.5157352 0.5362532
000060 a2 43 49 bd b6 70 0c 3f fc 6c f7 3e e3 fc 47 3e
       -0.049136765 0.54859483 0.48325336 0.19530062
000070 be 04 d6 3e 5a ea 8c be 91 3d 01 3d 67 cc a6 be
       0.41800493 -0.27522546 0.031552855 -0.32577822
000080 f4 50 bd be 24 f1 f8 be 98 09 76 3e 56 6c 02 be
       -0.36975825 -0.48621476 0.24027097 -0.1273664
000090 f5 9a 1f 3e ea de 5a 3e 82 25 87 3e c1 71 38 be
       0.15586455 0.21374097 0.26395804 -0.18012144
0000a0 27 d7 13 3e c5 b6 31 3e 22 ec 59 be ab 81 13 3e
       0.14437543 0.17354877 -0.21281484 0.14404933
0000b0 c6 a9 38 bd 99 7b 23 bd 6a a4 78 bd b7 21 d4 3e
       -0.045083784 -0.039912794 -0.060703672 0.41431972
0000c0 32 b5 07 bf 83 e1 84 3e 5d f3 d4 be 8f 34 ab 3e
       -0.5301086 0.25953302 -0.4159192 0.33438537
0000d0 68 90 8d 3d 0f 80 4c 3e bb ea 8e be ca 5c 92 bd
       0.06912309 0.19970725 -0.2791346 -0.07146604
0000e0 00 de 61 bd e5 55 f2 3e 79 38 9c 3e e7 92 f9 3e
       -0.055143356 0.47331157 0.30511835 0.4874489
0000f0 75 5c 89 3e 11 a5 82 be 6b 79 db 3d d2 9d a9 bd
       0.26828352 -0.2551656 0.10716518 -0.08282055
000100 3f eb 20 3e b1 95 6b 3c 41 8e ce bd 10 16 b0 be
       0.1571474 0.014378951 -0.100857265 -0.34391832
000110 4b 6f e4 3e 23 3f 20 be 51 a8 d0 3d 32 95 e5 be
       0.4461616 -0.15649085 0.10188354 -0.4484039
000120 66 bc 35 3e fa 32 24 be d9 a3 ae 3e ff 21 81 be
       0.1774765 -0.16035071 0.3410938 -0.2522125
000130 31 fc 5c be d4 39 d8 be 32 bd a1 3e 54 5b 28 be
       -0.21580578 -0.4223162 0.31589657 -0.16441089
000140 99 a8 79 be 71 7a 7d 3d 7f a0 fd 3e 76 98 c1 3c
       -0.24380721 0.061884347 0.4953651 0.02363227
000150 72 ab 28 bd 60 66 c9 be ce be d8 be d2 80 13 3f
       -0.041179128 -0.39335918 -0.42333072 0.5761844
000160 af 0c 80 3e 26 ba 06 bd 54 3c 0f 3e f6 bf dd 3e
       0.25009677 -0.03289237 0.13987857 0.43310517
000170 76 b1 09 3f a2 01 b8 be 90 b4 ec 3d 70 25 a5 be
       0.5378641 -0.35938746 0.11557877 -0.32255125
000180 fd 3e 81 bd 1f 9f 03 3f 1e 32 1d be 3e d8 cd 3d
       -0.06310842 0.51414675 -0.1535115 0.100510105
000190 c8 e8 00 be c4 56 e9 be 6a 71 cc be b0 10 c9 be
       -0.12588799 -0.4557401 -0.39930278 -0.39270544
0001a0 f9 b8 10 3f b5 97 88 3b 91 3c 13 3f 3b 72 d1 3d
       0.56532246 0.0041684755 0.5751429 0.10226866
0001b0 d9 72 11 3f da 3e d2 3d 8e 40 d7 3e d7 5c 8e be
       0.5681587 0.10265894 0.4204144 -0.27805206
0001c0 0c d9 97 3e 5e b4 c6 bd 75 18 ab bd 44 4d 4b 3d
       0.2965778 -0.09702371 -0.08354274 0.049634233
0001d0 41 ee e2 3e ed ff 73 be 6a c2 46 3c 42 c2 b6 3e
       0.44322398 -0.23828097 0.012131313 0.35695082
0001e0 06 d6 81 3d 60 5e a2 be b6 a8 e1 be ea 38 af 3e
       0.0633965 -0.31712627 -0.4407403 0.3422311
0001f0 67 6d 21 be 89 02 b8 3d b7 1b 0e bf 25 e3 0e 3f
       -0.1576439 0.089848585 -0.5551104 0.55815345
000200 a2 99 0e be f3 6e 0d 3f ca b6 8a 3d 66 bc a0 3d
       -0.13925794 0.5524742 0.067731455 0.07848434
000210 ed 3f a6 be d1 80 06 3f ba a0 7a 3e cd 04 e6 be
       -0.32470647 0.5254031 0.24475375 -0.44925538
000220 2e 12 11 bf be 5b 0e 3f cd c8 8c be c2 db 8e be
       -0.56668365 0.5560874 -0.2749695 -0.27902037
000230 5d 21 8f be 52 8a fd 3e 4f 0e f2 3e 4a 6a 92 3e
       -0.27955142 0.49519593 0.47276542 0.28596717
000240 cb 53 b0 be 52 fa 92 3d be 31 1d 3c b3 ae ce 3e
       -0.3443893 0.07176651 0.009594379 0.4036766
000250 09 bb e8 3c b4 1f 23 bd a6 5c 85 3e 05 40 0c 3f
       0.028409498 -0.039825156 0.26047248 0.54785186
000260 d3 6e 3e be 1d 06 0e 3f 10 24 6a 3d e2 19 de be
       -0.18596964 0.5547808 0.057163298 -0.43379122
000270 a6 2a ca be 8a 1c 33 3e ba cc f0 3e 5e 9f f2 3d
       -0.39485663 0.17491356 0.47031194 0.11846803
000280 03 59 f1 3e 24 39 0f 3f 59 b4 3a bc 8f f7 c3 be
       0.47138223 0.55946565 -0.011395537 -0.3827481
000290 10 fa c9 be 5d 9c 3e bd b0 5f bf 3d 15 eb a1 be
       -0.39448595 -0.04653584 0.09344423 -0.31624666
0002a0 bb 58 bc 3d 55 71 ec be be 97 54 be e6 a2 b2 3e
       0.091966115 -0.46180215 -0.2076101 0.34889907
0002b0 61 83 38 3e 08 98 71 be f8 fe 00 3f 5c 54 5d be
       0.18018867 -0.23593152 0.5038905 -0.21614212
0002c0 b7 b7 c3 be 2c b9 3a be 1b 1f d4 3e e2 df a6 3e
       -0.382261 -0.182347 0.41429982 0.32592684
0002d0 a6 56 8c be 91 09 81 3c 5a 4a e0 be 92 4e 02 be
       -0.27409858 0.015751632 -0.43806726 -0.12725285
0002e0 3a 61 f7 be 05 9f f4 be 80 8e 0c 3f 7f 5c 5a bd
       -0.48316365 -0.47777572 0.5490494 -0.053310867
0002f0 f5 1d e6 be 88 cf a4 be 4e 0b f6 3e 6e 2a ae be
       -0.4494473 -0.32189584 0.480555 -0.34016746

cfc_model.rnn_cell.neuromod.2.weight f4 [96, 192]
000000 ff fb e2 bd dd 9d 3a 3d 5d 9f 2b 3d 24 f7 9e 3d
       -0.11083221 0.045560706 0.041900028 0.07761982
000010 fb 35 0d be 27 6b bb 3d 92 79 d7 3d d3 37 db bd
       -0.13790123 0.09151297 0.105212346 -0.10704007
000020 a6 fa 95 3c 16 53 e9 bc 5b f0 dd bd a5 e2 9e bd
       0.018307995 -0.028482001 -0.1083686 -0.07758073
000030 b8 4c b4 bd 7d 22 96 3d d7 35 fa 3d 7f fa 66 3c
       -0.088036954 0.07330797 0.122173004 0.014097809
000040 0f 28 bb bd 22 dc 00 be 8b 99 fc 3d 13 ec fa 3d
       -0.091385 -0.12583974 0.123339735 0.12252059
000050 df ed 90 bd 64 5e cc bd 6f da 94 3d 15 9a 10 3d
       -0.0707662 -0.09978941 0.072682254 0.035303194
000060 79 a8 94 3d 16 59 95 bb f8 41 09 be 2c 0c 8e 3c
       0.07258696 -0.004557739 -0.13404071 0.017339788
000070 b3 b7 0c 3d 50 41 03 be a9 9a fe 3d cd c8 dd 3d
       0.034354877 -0.12817883 0.12431843 0.10829315
000080 61 b1 17 3d 9a de d3 bd cf c4 b6 3d a6 c4 15 3d
       0.037034396 -0.10345192 0.08924257 0.03656449
000090 b1 d0 d2 bd 1b 96 f5 bd 3b c0 0b 3e 5a 6d aa 3d
       -0.10293711 -0.11991521 0.13647549 0.083216384
0000a0 20 4f 45 bc 2c e3 14 bd a0 00 72 3d c7 c1 b2 bd
       -0.012042791 -0.03634946 0.059082627 -0.08728366
0000b0 24 ac 1b 3d 6e af d4 3d ae a8 fd bd af 48 62 3d
       0.038005963 0.10385023 -0.12385689 0.055245098
0000c0 94 c3 9e 3d 57 8e 46 bd df ee d7 bd 91 97 9c bd
       0.07752147 -0.04847559 -0.10543608 -0.076460965
0000d0 3f f9 09 3e 50 7a f2 3d d4 d3 ad ba fb a5 fb bd
       0.13473986 0.118397355 -0.0013261982 -0.12287518
0000e0 70 85 b5 3d eb 73 34 bd 10 98 b3 3d 59 41 60 bd
       0.08863342 -0.04405586 0.08769238 -0.05474982
0000f0 33 a1 0b 3e 45 56 c7 3d 23 3d b2 3b cf 9a 6c 3d
       0.13635711 0.097332515 0.005439417 0.057764824
000100 cd 95 9e bd 30 7e cb 3d 1c 4a b6 bc 77 1a 6c 3d
       -0.07743416 0.09936178 -0.022252135 0.057642426
000110 d9 b5 cd 3d a2 8b cf bd d4 d1 a0 bb 88 13 95 3c
       0.1004445 -0.10134055 -0.004907826 0.01819779
000120 2c 21 da bd e7 d6 17 bc 67 d5 00 bd b2 f8 f3 bb
       -0.10650858 -0.009267545 -0.031453516 -0.0074454183
000130 df d3 3f 3d fe 97 94 3d 05 9c 44 3c 6d cc cf bd
       0.046832915 0.07255553 0.012000089 -0.10146413
000140 00 9f 11 3e 04 ce d2 3d 08 8f 83 bd a1 98 d2 bc
       0.1422081 0.102932006 -0.064237654 -0.025707545
000150 5c 4b 61 bc b0 f8 70 3d 9f 23 43 bd a1 41 c9 3c
       -0.013750877 0.058830917 -0.047641393 0.024567427
000160 94 3d da 3d 36 96 b1 bd 7f d9 0d be a1 16 b4 bc
       0.10656276 -0.086712286 -0.138525 -0.021983447
000170 b2 de 0c 3c 88 30 e2 bd 0e ba c3 3c 62 64 eb 3d
       0.008598017 -0.11044413 0.023892429 0.11493756
000180 53 3b 01 3e 32 82 4c 3c ed c0 d0 bc 84 8b 98 3d
       0.12620287 0.012482213 -0.02548262 0.074484855
000190 40 d9 03 3e 9e cd 60 3d 95 f0 e3 3d c9 52 0c 3e
       0.12875843 0.05488359 0.11129872 0.13703455
0001a0 ee da aa bd e1 18 c6 3d fa 0f 05 be 29 95 4f bd
       -0.08342539 0.09672714 -0.12994376 -0.05067936
0001b0 65 37 b6 3d b2 24 85 3d 85 a9 c0 bd c4 0c 9e bd
       0.088972844 0.0650114 -0.09407333 -0.077172786
0001c0 a0 e0 44 3d af 8d b6 bd 8c d1 10 be 15 23 f5 bd
       0.04806578 -0.08913743 -0.14142436 -0.11969582
0001d0 a4 44 d3 3d 79 31 0b 3d e3 e8 e3 3d 26 12 7d bd
       0.103158265 0.033982728 0.11128404 -0.061784886
0001e0 57 1e f4 bd 99 08 13 be 80 58 b9 bb ba b3 0a be
       -0.11919849 -0.14358748 -0.005656302 -0.13545123
0001f0 28 50 79 3d 08 44 ca 3d e0 f6 58 3d 03 45 9f 3d
       0.06086746 0.09876257 0.052969813 0.07776835
000200 8a bf df 3c 38 09 3a 3d 10 ef 05 be 74 0d 12 3e
       0.027313013 0.045418948 -0.13079476 0.14262944
000210 e2 97 98 bd 57 a6 a2 3d 52 5a 65 3d b4 27 7f 3c
       -0.07450844 0.07941883 0.05599434 0.015573431
000220 ab c4 51 3d fa d4 0d be 5e c2 06 be 73 f0 55 bd
       0.051212948 -0.13850775 -0.13160083 -0.052231263
000230 3c 19 ba 3d 15 10 fc 3d 35 a6 83 bc 6e b9 f7 3c
       0.09086844 0.12307755 -0.016070465 0.030239787
000240 85 0e 0e 3e 74 43 34 3d 44 9f 2d bd c3 9c ef 3d
       0.13872726 0.04400964 -0.042388216 0.11699822
000250 6a 85 4f 3c e5 7f d2 bd 3a a4 30 3d df 86 0a be
       0.012666086 -0.102783 0.04312537 -0.13528012
000260 cf cc 71 3d 02 53 6f bd 17 cf 06 3e 36 48 06 be
       0.05903321 -0.05842877 0.13164936 -0.13113484
000270 bb 6d 46 bd cb 5c 16 3d c2 9f 60 3d 72 f6 ec bd
       -0.04844449 0.036709588 0.054839857 -0.11570443
000280 0b c7 0b be 68 94 90 3c 75 7a 11 3e 0d 9f 29 3d
       -0.13650148 0.01764889 0.1420687 0.04141145
000290 6e 8a 19 bb 9f a6 fa 3d 28 6b 07 bc 8e 73 fd bd
       -0.0023428458 0.12238812 -0.008265294 -0.12375556
0002a0 2a 07 57 bd 68 db e5 bd 61 27 cc bc bd d6 f2 3d
       -0.052497067 -0.11223489 -0.024921121 0.11857364
0002b0 af ba ee bc dc cf 2c 3d a4 00 70 3d 81 17 0c 3e
       -0.029141752 0.042190418 0.05859436 0.13680841
0002c0 51 6b 21 3d 4f 75 97 bd 54 05 02 3e 79 64 d1 3d
       0.039408986 -0.07395422 0.12697345 0.10224242
0002d0 f4 dc 0c 3e 50 e0 d1 bd f1 ee 94 bd 7f bb 03 bd
       0.13756162 -0.10247862 -0.07272137 -0.032161232
0002e0 cf 4d 7f 3d 38 f3 0f 3e 41 50 27 3d 73 86 36 bd
       0.062330063 0.14057624 0.04084802 -0.044561815
0002f0 10 1b ec bb 08 b0 b5 bd b1 c2 c1 bd 29 f0 d6 bd
       -0.0072053745 -0.08871466 -0.094609626 -0.10495026
000300 3c 1f d7 bc 6a 0b fe 3d 08 d6 93 bd 05 dd c6 bd
       -0.02626001 0.12404521 -0.072185576 -0.09710125
000310 d1 84 0a be 7f 56 c2 bd 0b 08 a5 3d 29 bd 02 3e
       -0.13527228 -0.09489154 0.08058175 0.12767471
000320 01 9f c5 3d 42 0d f1 3b b9 1e 0a bd 71 6d 02 be
       0.09649468 0.007356317 -0.033720706 -0.12737061
000330 bf be b6 bd 10 15 62 3d b9 6f 99 3d 53 b8 19 3d
       -0.08923101 0.055195868 0.074920125 0.0375293
000340 6e 74 77 3c 0d f5 d9 3c 77 00 39 bd 19 a7 a6 bd
       0.015103443 0.026606107 -0.04516646 -0.0813734
000350 12 a6 84 b8 6c ea d5 bd 41 bb c5 3d 16 25 00 be
       -6.3251835e-05 -0.10445103 0.096548565 -0.12514147
000360 36 dc ce 3d b8 0c 9e bd 22 31 28 3d 3a b3 2c 3b
       0.10100596 -0.0771727 0.04106248 0.0026351945
000370 52 96 01 3e e0 8c 15 3d bb 55 e8 3d 33 4f fe 3d
       0.12654999 0.036511302 0.11344477 0.1241745
000380 4d d8 0d 3e 97 d9 97 bd f2 60 a8 bd 18 99 a2 3d
       0.13852043 -0.07414549 -0.08221616 0.079393566
000390 86 c2 08 3d 85 d6 5a bd 44 21 da 3d 15 bc c5 bd
       0.033388637 -0.053427238 0.10650876 -0.096550144
0003a0 ce aa 9b bd 1a 1d 68 bd 16 d9 be bd cf 49 12 3e
       -0.07600938 -0.05666838 -0.093187496 0.14285968
0003b0 68 92 f4 3d 25 b8 45 bb 66 d6 81 bd 64 c1 e0 bc
       0.11941987 -0.0030169573 -0.063397214 -0.027435966
0003c0 0f 08 b0 bd 23 d8 6e 3d 22 31 d7 bd e5 15 98 3d
       -0.08595287 0.058311593 -0.10507418 0.07426051
0003d0 d0 01 55 3d fc 80 e8 3d 40 13 c9 bd fe 66 06 3e
       0.05200368 0.11352727 -0.09818125 0.13125226
0003e0 a0 76 aa 3c 5c b0 0f 3e 35 bd b8 3d 48 3d 28 3d
       0.020808518 0.1403212 0.090204634 0.041074067
0003f0 dc ff d4 3d bf 5f a4 3d d3 6d 82 3d 70 e3 0e be
       0.10400364 0.080260746 0.063686036 -0.13953948

cfc_model.rnn_cell.neuromod.2.bias f4 [96]
000000 a2 d0 68 bd 39 d3 81 bd bd f3 46 bd c2 1e 05 bc
       -0.056839593 -0.06339116 -0.04857229 -0.008125009
000010 d8 d1 11 3d 11 1e 11 bd e9 1e 5e bd 0b 29 4c bc
       0.035600513 -0.035429064 -0.054228697 -0.012460957
000020 58 f7 52 3c 1a 65 64 bd a4 2d 0d 3d 6c 64 4a 3d
       0.012876354 -0.05576048 0.034467354 0.049412176
000030 3c c5 36 3c 59 4f 0d bd 28 f9 7c 3d 11 fa 7c bc
       0.011155423 -0.0344995 0.06176105 -0.01544048
000040 6c 2f 21 3c 17 51 43 3d 25 50 87 3c 7a c0 44 3d
       0.009837966 0.047684755 0.016517708 0.048035122
000050 3f b8 ae bb a2 42 cb bc 8c 83 88 3d 01 43 0c 3d
       -0.0053320224 -0.024812046 0.066657156 0.034243587
000060 67 1e 1c bc d8 e2 3d bd 9c 9a fb 3c 2c 98 f2 3c
       -0.009528733 -0.046358913 0.030713372 0.029613577
000070 c5 34 c2 3c 5c 94 82 bd ca 5e 86 bc 88 14 15 3d
       0.023706803 -0.063759536 -0.01640262 0.036396533
000080 04 aa 76 3b 7b 16 04 bc 35 86 3e 3d 5d 87 41 3b
       0.0037637958 -0.008062 0.04651471 0.0029530146
000090 02 c8 89 bd cd 07 87 bd c3 f6 c2 ba 4d 76 61 bd
       -0.067276016 -0.06593285 -0.0014874566 -0.05504446
0000a0 dd 9b 96 bb f9 04 7e 3d bb c7 7f 3d 09 c2 2b 3d
       -0.004596217 0.06201646 0.062446337 0.041933093
0000b0 76 83 44 bd de ce 49 bd f4 36 95 3d 84 5c 0e 3d
       -0.047976933 -0.04926955 0.07285872 0.0347562
0000c0 62 d1 49 3d 51 4b c1 bb fb f6 59 bd 83 a5 d8 3b
       0.04927195 -0.005898871 -0.053214055 0.0066115274
0000d0 2a 1f 2d bd 73 13 78 bc e1 2b fc 3c fd 97 c8 ba
       -0.04226605 -0.015141356 0.030782642 -0.0015304085
0000e0 74 f6 78 bd 58 e5 3a 3d c6 ff 89 3c ba 5d 8d 3c
       -0.06078191 0.045628875 0.016845595 0.017256606
0000f0 8c 87 4b bd 12 04 f7 bb f2 93 e5 bc 15 61 4f 3d
       -0.049689814 -0.007538327 -0.028024647 0.050629694
000100 05 3a c7 3c ea 4c 1d 3d eb 15 87 3d e6 e7 82 3d
       0.024319658 0.03840343 0.065959774 0.06391887
000110 e1 7e a7 3c 75 7d 7f 3d e6 68 24 bc 0b ae 09 bd
       0.020446243 0.062375505 -0.010034775 -0.033613246
000120 1a 49 59 3d 60 47 61 3c cd 81 55 bb 65 22 87 3c
       0.05304823 0.013749927 -0.0032578588 0.016495893
000130 bd 7f 7f 3d c2 02 5e bd d1 53 2c 3d fd 07 b6 bb
       0.06237768 -0.05420185 0.04207212 -0.0055551515
000140 d0 90 1a 3d 26 a3 5a bd c9 9d db 3c b9 27 50 3c
       0.03773576 -0.053378247 0.026808636 0.012704783
000150 ea a5 c4 3c ad 72 67 bd c1 f9 45 3d 02 93 77 3d
       0.024004895 -0.056505848 0.048333887 0.060442932
000160 6f 2c 79 3d 70 f1 60 3c 65 09 fb 3c bf 2f d5 bc
       0.06083339 0.013729438 0.030644128 -0.026023744
000170 8b b2 8e bc d5 2a 72 bd f2 53 96 bd f5 91 8b bd
       -0.01741912 -0.05912288 -0.0734023 -0.068149485
