LTC_A2C/training_results/LTC_a2c_result_323_202438_learningrate_5e-05_selectiomethod_range_evaluation_all_params_trainingmethod_quarter_range_numneurons_64_tausysextraction_True/checkpoint_LTC_A2C_8.pt (torch, 96870 bytes, 21 tensors)

ltc_model.rnn_cell.gleak f4 [64]
00000000: 0496 723e 20e4 093f 7737 583f 8cf7 023f
00000010: 81ec ef3e 3168 e53e 0424 213f f987 f53e
00000020: 8fbb 3d3f 7b65 8e3e 4bd9 d33e d9a6 043f
00000030: f199 6f3d 0810 2d3f 27f3 883e 347a f83e
00000040: ce4f 453d 5313 db3c a575 353f 2b23 7a3f
00000050: 5951 003f 044d a53e 7bcf a03e 758d c83e
00000060: 6998 2e3f 0e97 163f 787c 1b3f f75c 803f
00000070: 4ffe 773f 0ff2 0c3f 3bba 2d3f 2d16 f03d
00000080: d8be a33e 7026 fc3e a92c 033f e993 613f
00000090: 49db 5b3f f2d9 d43e a535 5a3f 8e6f 573e
000000a0: bf5d 513e 9bff 713f a5ef 463d 04c8 e43e
000000b0: 19c1 303f de09 c63d 4300 fb3e 983f 5a3f
000000c0: 9c3f ac3e 84e0 543f 7308 b53e 4ac0 4f3d
000000d0: bec4 7e3f e88c f53e f529 c83e 89db 693f
000000e0: 1e71 513f b814 553f 4162 243f 0af5 ed3d
000000f0: 7f5b ac3e 248d 2d3f 2e6b 983d 397f b93d
0.23690039 0.53863716 0.8445963 0.51158977 0.46860126 0.44806054 0.6294558 0.479553
0.74114317 0.27811798 0.4137672 0.5181709 0.05849642 0.67602587 0.2674801 0.48530734
0.04817181 0.026742613 0.70882636 0.9770991 0.50124127 0.3228532 0.31408295 0.39170423
0.6820131 0.5882424 0.607368 1.0028371 0.9687242 0.5505685 0.6786229 0.1172298
0.3198154 0.49248075 0.5124002 0.8811632 0.8588148 0.4157253 0.85238105 0.21038648
0.20445918 0.9453065 0.048568387 0.4468385 0.69044644 0.09669851 0.49023637 0.85253286
0.3364228 0.83155084 0.3535801 0.05072049 0.99518955 0.47959065 0.3909451 0.9135061
0.8181323 0.8323474 0.64212424 0.11619003 0.33663556 0.6779349 0.07442318 0.09057469

ltc_model.rnn_cell.vleak f4 [64]
00000000: b752 2ebe fbcc 123e 2b66 b43d d02d 4ebe
00000010: fcbe 3e3e adb9 563d 4c22 12be ea37 4cbd
00000020: 1a4f 143c 76a7 a1bd d5ce b5bd b604 d0bd
00000030: 2ccf 6f3d 166f d7bd 8e68 813b 7e85 27be
00000040: a3fb b13d 7bb1 65bd 10c4 3ebe 25bc bb3d
00000050: 13e3 43bd fa0e b73d 3a88 f03b a324 de3c
00000060: ffc7 f43d 221a 36be bebe 193c 8e67 0fbe
00000070: a2ec 3c3e d4c6 273e 7cf2 18be aa4e b53d
00000080: 1e79 2dbe 461d 373e 0376 43bd eae4 093d
00000090: c54d 11bd 6fe7 533c ba6d 403e 4cf3 d6bd
000000a0: 5f6b 283e 0261 a2bd 1d4a 18be aba9 18be
000000b0: acba b13d 3eef 46be 2e1e 08be a5d7 3bbd
000000c0: 8e86 653d 6a50 ff3d d990 4b3e d3be c6bd
000000d0: 233c d5bc bd19 bc3d 69a2 ac3d 12e3 3e3e
000000e0: f91c f83d b4bb 7f3d 8daa ff3d 8d9f 28be
000000f0: fd9d dcbc c2b8 373e 7543 2cbd b7af adbc
-0.1702374 0.14336006 0.088085495 -0.20134664 0.18627542 0.052423168 -0.14270896 -0.04985801
0.009052062 -0.07893269 -0.08877341 -0.101571485 0.058547184 -0.10519235 0.0039492315 -0.16359517
0.08690574 -0.05607746 -0.1862948 0.09166745 -0.047823977 0.089384034 0.007340458 0.02711708
0.11952209 -0.17783406 0.009383855 -0.14004347 0.18449643 0.1638444 -0.1493625 0.088528946
-0.16940734 0.1788226 -0.047719967 0.033665575 -0.035474557 0.012933596 0.18791857 -0.10495624
0.16447209 -0.07928659 -0.14872022 -0.14908473 0.08678183 -0.19427201 -0.13292763 -0.04585995
0.056036524 0.1246651 0.19879474 -0.097043656 -0.026029652 0.09184597 0.08429415 0.18641308
0.12114901 0.062434867 0.12483702 -0.16467114 -0.026930803 0.17941573 -0.04205652 -0.021201951

ltc_model.rnn_cell.cm f4 [64]
00000000: bad3 b33e 1b05 153f 425e 1e3f 0e7f 0a3f
00000010: 597d 233f b4e6 ea3e 5418 ce3e 6e59 043f
00000020: d789 0a3f 810f 2e3f 929d be3e c9d6 fa3e
00000030: 53b7 113f c9a8 fc3e f995 ea3e 1403 033f
00000040: 93dc 013f daf0 0e3f b7c6 d63e 2256 1c3f
00000050: 215f 243f a12f 2b3f 168b a43e 0801 f93e
00000060: 8f20 143f a858 0d3f d84b bc3e fa66 043f
00000070: 581b 103f 2d44 263f 494d 273f bcf7 013f
00000080: c0b8 213f 84e5 063f 83c6 1a3f 4014 243f
00000090: f1b2 e03e 8a01 1d3f 13e6 263f d413 f83e
000000a0: 408f b93e b916 b73e d359 b23e 2d24 df3e
000000b0: 407c 173f 3272 213f adb4 f63e 93e6 143f
000000c0: 61c5 d43e 1796 153f 834e cb3e 6336 113f
000000d0: 5b3a 0d3f 818f 1f3f db13 d53e f21b e33e
000000e0: edc1 f53e c12e 233f 1a6d 053f 84c0 ab3e
000000f0: 4422 b83e a82c 003f 8dd4 b53e 351e e93e
0.35122472 0.58210915 0.61862576 0.5410012 0.6386314 0.45879138 0.40252936 0.5169896
0.54116577 0.6799241 0.37229592 0.48991993 0.56920356 0.49347523 0.45817545 0.5117657
0.50727195 0.5583626 0.41948482 0.6106893 0.64207655 0.6686955 0.32137364 0.486336
0.5786218 0.55213404 0.36776614 0.5171963 0.56291723 0.6494778 0.653523 0.5076864
0.6317253 0.52693963 0.60459155 0.640934 0.4388652 0.61330473 0.65194815 0.48452628
0.36242104 0.35759524 0.34834155 0.43582287 0.59173965 0.63064873 0.4818472 0.5816433
0.41556838 0.58432144 0.39708337 0.5672361 0.5516717 0.62328345 0.4161671 0.44357258
0.47999516 0.63743216 0.521196 0.33545315 0.35963643 0.5006814 0.35513726 0.4553086

ltc_model.rnn_cell.sigma f4 [64, 64]
00000000: b4be bc40 97d2 8140 d49c 4a40 a547 df40
00000010: 302b 4840 2f7b 4840 41de e540 221f d940
00000020: c85d 6d40 38cc aa40 db14 c540 104b c740
00000030: cc54 ea40 e093 fc40 8346 c240 2504 ba40
00000040: 1048 8740 cb3f 7c40 f8f2 4240 2e6c a540
00000050: 616c ab40 b103 ca40 3c47 e340 bd92 ae40
00000060: 5c06 ff40 6b5a cd40 1d58 bd40 3221 d140
00000070: ef6e 9540 a12f 6a40 6dd7 be40 0244 ec40
00000080: 3802 a840 4672 f340 1671 c640 f4d9 da40
00000090: 47fc fc40 b8b2 a440 cd77 c940 98e1 fd40
000000a0: c7c6 d040 7333 bd40 ac08 d940 ee32 f540
000000b0: 7b1b 7f40 e2c9 db40 9d64 bb40 898d b940
000000c0: 4fe9 f740 d8c6 d840 be0b 8c40 03a7 a540
000000d0: 7906 e340 aa1b 9640 a315 8040 df38 a340
000000e0: 46c8 8240 7df4 b040 a215 9a40 ca6d f540
000000f0: a1f7 f340 9cb4 4040 df47 ed40 d6d4 8840
00000100: acb3 6e40 70eb f040 28fc af40 f9ca 4a40
00000110: 0905 5e40 c944 9340 e2b2 db40 9855 d240
00000120: bdfc da40 3895 e840 96bd b140 4f7e a040
00000130: f5f0 a740 b401 fc40 dab8 c640 480c a440
00000140: 1abb 6d40 b904 af40 0079 d840 7fff c840
00000150: 9282 b440 cc86 6440 c3cf a540 45af fb40
00000160: 369a 4a40 6aa0 f040 846a 7540 bce5 d040
00000170: 0a3f d840 ec75 9040 f18f b640 67cb 8340
00000180: f93a d940 7dba 8940 b34d b040 0937 fb40
00000190: 437f d540 d3aa ff40 4d11 dc40 d21d 8e40
000001a0: ad79 8340 efd8 a540 eb06 7840 cc1a 9440
000001b0: 1710 e840 e6a0 cb40 4454 cd40 6688 d840
000001c0: 4830 8640 4a04 e240 96bb b340 b6c9 d440
000001d0: ff63 5a40 9b4a 6940 876f f840 a3ee ea40
000001e0: 5497 fe40 d8fc b140 a423 7240 5b4c 9a40
000001f0: bc3c ce40 3a4a 8340 eb72 8440 b7ba af40
00000200: 0cca 9d40 0ffe b740 e9d3 f940 b329 7840
00000210: bb0f c140 4944 8a40 c054 9640 5d1a ed40
00000220: 62f9 c440 6bfc 9840 416c d040 7f1a 5040
00000230: f6d2 b440 4f54 c340 14f1 bd40 ee3e 7e40
00000240: 04f4 ec40 fedc 7a40 f4af b840 4e0a da40
00000250: bf9c 9b40 35cd ed40 adb9 7640 8e03 ca40
00000260: 782d f540 932e fb40 1e2e 9940 3f07 e540
00000270: b787 b440 1bb9 8840 6827 4140 6481 ef40
00000280: 6928 9240 86aa 7c40 aaf4 a440 7de3 9540
00000290: ea2d ae40 3f24 cb40 7c71 4540 be6c 7440
000002a0: 844b b240 04f6 8f40 6c1b ed40 dd22 9e40
000002b0: aa9f d340 8145 ba40 0c7c c740 840c a240
000002c0: 5a6c 4340 9ed2 cd40 7cbd e840 cd93 8b40
000002d0: 70bf af40 0728 4040 9798 a740 ee0d c940
000002e0: 9461 7a40 7bb5 9b40 4688 9540 32dd c740
000002f0: 381e 9b40 1138 d940 60f9 9a40 061f fb40
00000300: 45dc 9d40 2dff ed40 280b b540 dbe9 ec40
00000310: ed69 dd40 86ba c140 2cc8 8640 0111 cf40
00000320: 028c 9f40 f724 e840 d19b 6840 ca58 d040
00000330: 4f44 e540 1a95 9a40 cbe8 9c40 67b3 fc40
00000340: d276 9f40 ecf0 ae40 175a b140 366c d940
00000350: 9509 8740 f501 9840 b85b f840 428e 9040
00000360: 475f c640 a900 4f40 16c4 ee40 03c6 7340
00000370: ac9a c840 636a 8940 77fa 6640 6eb8 9c40
00000380: fa68 5840 608f cb40 5aaf ec40 7d85 d740
00000390: 63c9 ae40 843a b940 7c04 b240 0ba4 9d40
000003a0: a518 bc40 a512 5a40 d27d fa40 3f97 ef40
000003b0: d611 9640 1f4e 6a40 6796 9040 57a8 f840
000003c0: 291f cb40 1210 ad40 0033 a640 ea96 cf40
000003d0: c699 8540 d1b6 af40 d0fb 7540 8c45 cd40
000003e0: 0130 9440 05d4 cf40 683a bf40 bdaa d940
000003f0: d146 4e40 21ac 7940 0ef0 6140 29ec dd40
5.898279 4.056957 3.165822 6.9774957 3.127636 3.1325185 7.1833806 6.7850504
3.708849 5.337429 6.158796 6.227913 7.322851 7.893051 6.0711074 5.813006
4.2275467 3.9413936 3.0460796 5.1694555 5.35698 6.3129506 7.1024456 5.4554124
7.9695263 6.4172873 5.917006 6.535302 4.6697917 3.659157 5.963797 7.3833017
5.250271 7.6076994 6.2013044 6.8391056 7.9057956 5.1468163 6.295874 7.9337883
6.524265 5.9125304 6.7823086 7.662467 3.9860523 6.868394 5.856032 5.7985272
7.74723 6.774273 4.3764334 5.176637 7.09454 4.690877 4.002641 5.1006923
4.0869474 5.5298448 4.8151407 7.669652 7.623978 3.0110235 7.4150233 4.275981
3.7297163 7.52874 5.499531 3.1686385 3.4690573 4.6021466 6.8655863 6.5729485
6.843352 7.268215 5.554393 5.0154185 5.2481637 7.875208 6.210065 5.126499
3.7145448 5.4693265 6.7647705 6.2811885 5.6409388 3.5707273 5.1816115 7.865145
3.1656623 7.519582 3.8346262 6.5280437 6.757695 4.5143948 5.705071 4.1185794
6.788449 4.3040147 5.509485 7.850468 6.671785 7.9896026 6.877112 4.44114
4.108603 5.182731 3.8754222 4.628271 7.251964 6.363391 6.4165363 6.76665
4.1933937 7.0630236 5.6166487 6.649623 3.4123533 3.6451786 7.763614 7.3416305
7.9559727 5.5621147 3.7834253 4.8218207 6.444914 4.102811 4.139028 5.4915423
4.930914 5.749763 7.807118 3.877545 6.03317 4.3208356 4.6978455 7.409468
6.155442 4.7808127 6.5132146 3.2516172 5.650752 6.1040416 5.9356785 3.972591
7.404787 3.9197383 5.7714787 6.813758 4.862884 7.4312997 3.8550828 6.312934
7.6618004 7.8494353 4.7868795 7.1571345 5.6415668 4.272596 3.0180302 7.4845448
4.567433 3.947908 5.154866 4.6840196 5.4431047 6.3481746 3.0850515 3.819137
5.571718 4.498781 7.4095974 4.941756 6.6132402 5.8209844 6.2338924 5.064028
3.0534883 6.43196 7.2731304 4.361792 5.492119 3.002443 5.2373767 6.2829504
3.9122057 4.8659034 4.672885 6.2457514 4.847439 6.788094 4.8429413 7.847537
4.9331384 7.4373994 5.657612 7.403547 6.9191804 6.054019 4.211935 6.4708257
4.985841 7.2545123 3.6345103 6.5108385 7.1645885 4.830701 4.903417 7.8968997
4.9832544 5.4669094 5.5422473 6.7944593 4.2199197 4.750239 7.761196 4.5173655
6.1991305 3.2344153 7.4614363 3.8089607 6.268881 4.2942367 3.6090372 4.8975134
3.3814073 6.361252 7.396405 6.735045 5.4620833 5.788393 5.5630474 4.926275
5.8780084 3.407388 7.827859 7.4872127 4.6896772 3.6610181 4.5183597 7.7705493
6.3475537 5.4082117 5.1937256 6.487172 4.175021 5.4910665 3.8434944 6.4147396
4.63086 6.4946313 5.9758797 6.802092 3.2230723 3.901131 3.5302768 6.935078

ltc_model.rnn_cell.mu f4 [64, 64]
00000000: bdfd 433f 3b87 bd3e 24d6 1c3f 1e17 303f
00000010: 9470 373f cb3a be3e 1604 2f3f 8675 d63e
00000020: 6967 ca3e c00e db3e 45f7 de3e 0400 4a3f
00000030: cc40 063f 4ca0 493f 589e 0b3f 25ee b73e
00000040: ab38 3f3f 0c41 b33e d760 3d3f cb81 413f
00000050: 6341 183f 4543 213f 5563 1b3f 5d82 b83e
00000060: 970d fa3e 7ef4 0a3f 79a4 a63e 91ea 183f
00000070: 3927 0a3f 374f 0d3f b81c 1d3f ed89 093f
00000080: 23b7 4f3f ca1d 3b3f 16cf 163f bad2 233f
00000090: 8eb6 a53e 3d80 153f cbb6 a53e a426 d73e
000000a0: 9d83 463f 755a e33e 35a8 173f 1c12 f13e
000000b0: b191 e13e 1276 e43e e9e7 343f 64a1 053f
000000c0: 18fb 9b3e 02f4 353f 2556 bb3e fbe7 d13e
000000d0: 07ef 993e 05b0 353f a996 493f b899 3d3f
000000e0: 9765 343f f9d1 213f 2ecf 343f cc22 f43e
000000f0: 3b5d 2b3f 6459 a93e 4995 953e 2b80 083f
00000100: 1aa4 b73e 0f6f 193f a960 e73e 7580 103f
00000110: 6188 a93e 2568 013f 9fff 273f 905b 2d3f
00000120: 21d6 103f de9c 123f 910e db3e b8b1 383f
00000130: 7e9d 293f f35f 243f 0d35 3a3f 57a5 bc3e
00000140: 8e64 fd3e 7a6a b43e 8dd0 ac3e 2f65 d93e
00000150: 8f3b 3c3f 405b 1f3f d228 d13e 3b4f 453f
00000160: 9ee9 303f 99e8 ec3e 82ba 393f 88c0 0b3f
00000170: 86a8 263f a3ca 243f 9edd 083f bc71 003f
00000180: eb74 ea3e b5e1 093f 5831 3b3f 6309 ef3e
00000190: cc61 e43e 81af e53e c7b7 303f f385 3c3f
000001a0: dee8 063f 5e52 bf3e 0477 323f 963b 413f
000001b0: cc76 3f3f d2e2 3f3f b980 0c3f 0917 233f
000001c0: 6fd1 f53e 19d9 0d3f e5dc f23e 0c13 b33e
000001d0: b13f 2b3f df14 db3e 5d09 eb3e d0a1 a93e
000001e0: 9bd9 413f 143e 2b3f 29c7 c83e a400 033f
000001f0: c5ec b03e fd63 e53e 6938 353f 2284 433f
00000200: 4eec 0d3f 91ec a83e 9d62 4a3f 2b3d 3b3f
00000210: 17f7 2a3f 89e6 b03e 3c21 d03e eed8 433f
00000220: 7ec9 423f 0d0a 193f 18c4 f03e 286b f03e
00000230: b748 263f ba97 d23e 15ae 9c3e 0be6 393f
00000240: 7cca c13e 4fe1 f93e 5f7c e73e afa9 003f
00000250: a306 163f b93e 1c3f d7fb 043f 1c36 143f
00000260: ffb5 393f 683d b13e 2cf6 c63e 7b6d f83e
00000270: 6a13 293f a01d d33e c988 c43e cccb fb3e
00000280: c615 f13e 3e61 263f caa1 023f de4b e33e
00000290: 629d 0e3f 1be1 433f b22f b33e 536d 2e3f
000002a0: 8aec 9b3e 7644 153f 3f76 e33e 1b9a b13e
000002b0: bd1c a33e 5870 a93e 72a9 283f 6825 253f
000002c0: 2dd7 073f 95ae 133f 47f5 ee3e 29cb 213f
000002d0: 7923 473f 3f26 1b3f 3ab6 0f3f 74ba b93e
000002e0: 814f 043f adab 453f 9dae d93e 253a 233f
000002f0: 0742 df3e cb3c 4b3f 7359 f03e 876a 453f
00000300: 84ef 4b3f dcf8 2b3f 5206 d63e c884 2e3f
00000310: 2244 e73e 4c4b 3f3f 531e a73e 8566 fa3e
00000320: 0867 bb3e 14f2 f03e 74cf f03e bd24 0e3f
00000330: 612a e63e 704f b23e fdf0 f13e a48f bb3e
00000340: 6a10 e73e c5c1 063f 935a 1b3f 2322 ef3e
00000350: 37e5 263f d80d 393f d1b2 dd3e 0e6a a13e
00000360: e0a8 d03e 4584 443f d4c5 2d3f 39d3 b03e
00000370: 916f f33e 85c1 3b3f 09ac df3e d260 f33e
00000380: 641e 1e3f 55b6 b03e f304 213f 38bb 223f
00000390: 91ed 273f 3fc3 ed3e 4259 db3e 7a32 093f
000003a0: 3504 3d3f 9930 153f 6ef0 e73e 91f5 e53e
000003b0: d947 1a3f a774 c33e 77e9 153f 3f12 443f
000003c0: b5ac b03e 7e6c c83e f690 133f d012 133f
000003d0: 985a c03e c5e8 3e3f 23ae 443f af17 f43e
000003e0: 1f18 483f a5c2 e83e bb1c 143f a60b 253f
000003f0: e3ab 273f 1d9f 443f b300 c33e 02fd 293f
0.7655905 0.37017235 0.6126425 0.68785274 0.71656156 0.3715423 0.6836561 0.41886538
0.3953202 0.4278469 0.43548027 0.78906274 0.5244262 0.7876022 0.5453849 0.35923877
0.74695843 0.35010564 0.7397589 0.75588673 0.5947477 0.6299327 0.60698444 0.3603696
0.48838493 0.54279315 0.32547358 0.5973292 0.539661 0.55199 0.61371946 0.53726083
0.8113882 0.7309233 0.5890974 0.6399342 0.3236584 0.583988 0.32366022 0.42021668
0.77544576 0.4440495 0.5924104 0.4708413 0.44056466 0.4462133 0.70666367 0.5219939
0.30465007 0.7107545 0.3658916 0.409973 0.30065176 0.7097171 0.78745514 0.7406268
0.70467514 0.6321102 0.7062863 0.47682798 0.66939133 0.33076012 0.29215458 0.5332057
0.35867387 0.59935087 0.45190933 0.5644601 0.3311186 0.50549537 0.6562442 0.6771784
0.56576735 0.5727061 0.4278455 0.7214618 0.6625594 0.64208907 0.727372 0.36844894
0.4949078 0.35237485 0.33752862 0.4246001 0.7352838 0.6224861 0.40851456 0.7707402
0.6910647 0.46271208 0.72550213 0.54590654 0.65100896 0.643717 0.5346316 0.50173545
0.45792326 0.53860027 0.7312217 0.4668685 0.44605863 0.4486046 0.6903042 0.7364189
0.5269908 0.3736753 0.69712853 0.75481546 0.74790645 0.74955475 0.54883915 0.63707024
0.48011348 0.5540939 0.47434154 0.3497547 0.6689406 0.4278936 0.4590558 0.33131266
0.75722665 0.668916 0.39214447 0.5117285 0.3455564 0.44802848 0.707892 0.76373494
0.554387 0.32992986 0.7905672 0.7314021 0.6678328 0.34550884 0.40650356 0.76502883
0.760887 0.5978096 0.47024608 0.46956754 0.64954704 0.41131383 0.30601564 0.7261664
0.37849796 0.4880471 0.45212075 0.50258917 0.58603877 0.6103321 0.5194678 0.57895064
0.7254333 0.34617162 0.3885969 0.48521027 0.6604525 0.4123354 0.3838561 0.49178922
0.47086924 0.6499213 0.5102812 0.4439382 0.557089 0.7651536 0.34997326 0.68135566
0.30453902 0.5830759 0.44426152 0.34687886 0.31857863 0.33093524 0.65883553 0.645102
0.5306271 0.57688266 0.46671507 0.6320062 0.777885 0.60605234 0.5613743 0.36275065
0.51683813 0.7721508 0.42516032 0.63760597 0.43605062 0.7938964 0.46943244 0.7711567
0.79662347 0.67176604 0.41801697 0.6817136 0.4516917 0.7472427 0.32640323 0.4890634
0.36602044 0.4705969 0.47033274 0.5552481 0.44954208 0.3482623 0.47254172 0.36633027
0.4512971 0.5263942 0.6068508 0.46705732 0.65193504 0.7228675 0.4330049 0.31526226
0.4075384 0.7676433 0.67879987 0.3453615 0.47546056 0.7334216 0.4368594 0.47534806
0.6176512 0.34514108 0.62898177 0.63566923 0.6559687 0.46438023 0.42841536 0.53592646
0.73834544 0.5827728 0.4530062 0.44913915 0.6026588 0.38174936 0.58559364 0.7659034
0.34506765 0.39145273 0.5764307 0.5745058 0.37569118 0.7457393 0.7682821 0.4767432
0.78161806 0.45461002 0.5785634 0.644709 0.65496653 0.7680529 0.3808647 0.66401684

ltc_model.rnn_cell.w f4 [64, 64]
00000000: b878 dc3e 495e 503f 6fcf 8e3d 0558 1f3f
00000010: 1f64 0c3f 169a 6a3f e662 e93e f559 043e
00000020: fa29 b33e 22bb 893e b5f0 c73e ce86 ec3d
00000030: 093a fc3e 6227 d73e 60e4 943e 1cee 263f
00000040: c65e 043e 9bd2 853e e486 3a3f b3c5 6b3f
00000050: 4d8b 1e3f 2287 733f 836b b03e 87f3 e33e
00000060: 5746 a43e 9734 c63e 0344 b83e 3447 613f
00000070: 59bf 253f 7add 1f3d e82d fd3e 37df 103f
00000080: 800f 62bc b9fd 2a3f cbba 223f f38b cd3e
00000090: f752 743f 6cbf 5b3f 2776 433e 716c ec3e
000000a0: 3525 983e 33f4 953e 3604 7d3f 9dee 453e
000000b0: 721e 653e b734 683f c30c 3e3f 0a7b ac3e
000000c0: c794 2a3f 19e3 4e3f c2e0 043f 9203 083d
000000d0: 5084 a93d 04ac 513d 566f 393e ceda 3c3f
000000e0: 1839 433f 52db 40bb 80a4 233f 50d3 2b3f
000000f0: 559c 4b3f d7c7 ae3e 48c7 593f a8e0 a23d
00000100: e61e 353f f608 263f 17f9 d83d f2b6 7a3f
00000110: fe6f 203f d0af 073e c6e2 733f 1806 473f
00000120: b9bf af3e 3c0f fa3e 10af 003f 1d8f d13e
00000130: bb61 c03e d17f 513f 755e 223f 3fb8 da3e
00000140: 018f 1b3f c293 443f 6015 603f 3e0d 423f
00000150: 295f a23e 1a2f b23d be01 4d3e 5115 ea3e
00000160: 26f3 3c3f 3487 483f ce1b 243e 11f4 cc3e
00000170: 1fcc 763f 786e c73e 7a9d f23e 380d 693f
00000180: 1362 1a3f afcc 4d3f fc23 943e cc8e 183f
00000190: 661d 883e 63f6 2b3f 993d 163d ef92 613f
000001a0: 6042 cf3e de15 543e 5409 193f 7224 2b3f
000001b0: f7fb 273e 5908 603f 2201 6f3f b7eb ee3e
000001c0: 20d4 a43b c759 c23e be75 223f 3ae5 cf3e
000001d0: 1bbe f53e 3948 4d3f 9e20 1e3f 08ea 873e
000001e0: 7d35 a53e f843 0f3f 2dbf 0e3f 6961 123f
000001f0: 351b 9a3e 7e47 523e fb84 683e 0cca 7e3e
00000200: 4f90 153f 4201 093f 42a9 af3e b246 e73c
00000210: 3df2 0b3f 463b 903e 27cf 383f f2d2 483f
00000220: 6d30 713f cb7a 633f 459c 253f 16bc b73c
00000230: d0e5 5b3e 4f0a 193f 8045 093f db63 913e
00000240: 36ea 533f 85bb 213f 0442 b93d 3e32 683f
00000250: 26e6 583f 01ac 103e a217 583f 4047 8d3e
00000260: 1889 bb3e 2e63 f73d 317c 603f f25e dd3e
00000270: 72b9 643f 4c4e b53e 407a d43e 7fe1 a33d
00000280: 8e2d b13c b507 573f eeb8 313f 2e14 803e
00000290: 1a1c df3e c580 783f c643 103f b1b1 943e
000002a0: cfea 5d3f 9104 483f 6326 ae3e d999 153f
000002b0: ed33 593f 26da 273f 15a9 6b3f 36f9 de3e
000002c0: c0bf 493e ed51 263f 2ca9 c93d 0f5d 603c
000002d0: 59b3 bd3d e3e9 873e e4f3 bc3e 509a 073f
000002e0: 2712 7a3f e465 0c3f eda3 323f 0312 0b3f
000002f0: 6d7a ef3e 893e 653f b9ed 513f 5066 453f
00000300: 4033 6d3e d307 b73c 8f13 373f 3b0a e23e
00000310: 8df7 4c3e a3e7 ad3e 9d99 0d3f 7ad0 343e
00000320: 0a7e 443f 3a6e 093e a7f4 6e3f 4356 aa3d
00000330: e4d9 313f 6daf 433d fed7 fa3e eee8 da3e
00000340: 34b9 c63e 2b42 be3e ad9e c43e 75d8 6d3f
00000350: cda6 2a3f d02f 483f cacc 033f e710 293f
00000360: c9cd 5d3f 4107 5a3e cf01 4d3f 6b98 cb3d
00000370: 3072 0c3f 43b2 183f 9d54 5a3f 3298 903e
00000380: 8f2e a93e 5e00 d43e 87ac 4f3d ea67 1f3f
00000390: c47c 2d3e b17d 6d3f a3d6 9d3e 1ff7 ff3d
000003a0: b61e ff3d 3c00 edba d5b7 c93e 2687 253f
000003b0: 6201 c23e 4f48 9a3e d4c3 273f 611d cb3b
000003c0: 1698 103d eb6b b43e 8d07 d33e c02b 9d3e
000003d0: eb2b 593f 4b71 3a3f 573e 093f 24ca 493f
000003e0: c16a 1b3f a9f9 a03e 729d c73e bb3d 6d3f
000003f0: 8f37 253f ef21 713c 522f 3f3f 3dd8 123d
0.4306085 0.8139387 0.069731586 0.6224368 0.5484027 0.91641366 0.45583266 0.12924941
0.34992963 0.26900584 0.39050832 0.115491495 0.49263027 0.42022234 0.29080486 0.65207076
0.12926778 0.26137242 0.72862077 0.9209854 0.61931306 0.9512807 0.34457025 0.44521734
0.32084915 0.38711998 0.3598939 0.8799927 0.647451 0.039029576 0.49449086 0.565906
-0.013797641 0.667934 0.63566273 0.40145835 0.95439094 0.8583896 0.1908804 0.46176484
0.29715887 0.29287872 0.9883455 0.19329305 0.22374895 0.90705436 0.7423822 0.3368762
0.66633266 0.80815274 0.51905453 0.03320653 0.0827719 0.051189438 0.18108878 0.7377137
0.76258993 -0.00294276 0.6392288 0.6711931 0.7953542 0.3413684 0.85069704 0.07953006
0.7075027 0.64857423 0.10594385 0.979354 0.62670887 0.13250661 0.95267904 0.77743673
0.3432596 0.48839748 0.50267124 0.409295 0.37574562 0.8183566 0.6342538 0.42718694
0.6076508 0.7678796 0.87532616 0.75801456 0.31713226 0.0870039 0.20020196 0.45719388
0.73808515 0.78331304 0.16026232 0.40029958 0.96405214 0.38951468 0.4738577 0.91035795
0.603059 0.8039045 0.28933704 0.5959289 0.2658493 0.6717283 0.036679838 0.8811483
0.40480328 0.20711467 0.5977986 0.66852486 0.1640471 0.8751274 0.93361104 0.4666421
0.00503017 0.3795912 0.6346091 0.40604573 0.479966 0.8018833 0.6176852 0.2654574
0.3226737 0.5596309 0.5576046 0.57179886 0.30098882 0.20535085 0.22706978 0.24881762
0.5842332 0.53517544 0.3430882 0.028231952 0.546665 0.28170222 0.7219109 0.78446877
0.94214517 0.8885924 0.64691573 0.022428554 0.21474385 0.59781355 0.53621674 0.28396496
0.8277925 0.6317676 0.090457946 0.90701663 0.8472618 0.14128114 0.8441106 0.27593422
0.36628032 0.12079464 0.876895 0.432365 0.8934547 0.35411298 0.4149952 0.08001994
0.021628167 0.83996135 0.69422805 0.25015396 0.43576127 0.97071487 0.56353414 0.29041818
0.86686414 0.7813197 0.34013662 0.5843788 0.8484486 0.65567243 0.92054874 0.43549508
0.19702053 0.6496876 0.0984672 0.013694062 0.092627235 0.2654563 0.36904824 0.5296984
0.9768395 0.5484297 0.6978138 0.5432436 0.4677309 0.89548546 0.8200336 0.7710924
0.23164082 0.022342598 0.7151422 0.4414843 0.20016308 0.33965787 0.5531252 0.17657652
0.7675482 0.13420954 0.9334206 0.08317234 0.694731 0.04777472 0.48992914 0.42755836
0.38813174 0.37159857 0.3840231 0.9290841 0.6666077 0.78197956 0.5148436 0.66041416
0.8664213 0.2129183 0.80080885 0.09941181 0.54861736 0.59647006 0.8528536 0.28241116
0.33043334 0.4140653 0.050701644 0.62267935 0.16942126 0.92769915 0.30827817 0.124983065
0.124570295 -0.0018081735 0.39398065 0.64659345 0.3789168 0.30133292 0.65533185 0.0061985706
0.03530129 0.35238585 0.41216698 0.3069744 0.8483264 0.7282912 0.5361075 0.7882407
0.6070977 0.31440476 0.3898731 0.9267232 0.645379 0.014717563 0.7468158 0.035850752

ltc_model.rnn_cell.erev f4 [64, 64]
00000000: b3b9 803f 1da0 7f3f 4ce9 803f 1a03 7e3f
00000010: 4caa 7d3f be09 813f f675 7e3f 0130 803f
00000020: a020 7f3f 907d 7e3f 47ab 7b3f 0bde 803f
00000030: 20af 7d3f 63a7 803f b882 813f 461c 7fbf
00000040: a510 7e3f 2f45 803f 9758 813f 2754 83bf
00000050: a2a1 7e3f aa2f 7d3f 37f5 80bf e9f0 803f
00000060: 53d8 7d3f 00fe 7d3f e807 813f 6fec 80bf
00000070: 82c0 7ebf 1d74 793f e318 7c3f d065 7e3f
00000080: e6e5 7d3f 815e 7e3f 077a 7f3f ffb5 803f
00000090: d35c 7d3f eb35 7e3f 2c27 803f f851 7e3f
000000a0: d2dc 80bf d5f0 80bf e805 7e3f 78b5 803f
000000b0: 70b2 7e3f 701c 7e3f 8925 813f 06f1 80bf
000000c0: afe9 803f f903 783f 62d6 7dbf 2d1d 7e3f
000000d0: 36dc 80bf e7f6 803f b71a 7e3f 55ee 803f
000000e0: 1140 7ebf d67a 7ebf 4201 813f 3d4f 7ebf
000000f0: e475 81bf 21e9 7d3f dcf6 803f 82f3 813f
00000100: 7a69 7ebf c3ff 813f eab8 803f e9fa 7d3f
00000110: e012 81bf a9ce 803f 61ad 80bf 417e 803f
00000120: 7aae 803f 5ad5 7f3f 6538 7c3f 3f69 803f
00000130: b56e 803f 4636 803f 0c10 803f 6f1a 813f
00000140: 4601 7e3f c863 803f eb28 7ebf da58 7e3f
00000150: 0286 803f cc85 7e3f 5cf9 80bf 6a18 80bf
00000160: 1fd0 7d3f 789e 7e3f d7ca 7ebf 8842 7e3f
00000170: bab5 803f 8fe2 82bf 0c30 7e3f 2bcd 7e3f
00000180: b41e 813f e15c 7e3f feca 7f3f 1c18 813f
00000190: 997a 81bf ba24 7e3f 189f 803f 6770 7e3f
000001a0: b7de 80bf 40f6 80bf 821b 7e3f fc60 803f
000001b0: cbc8 7f3f 3555 7f3f e08f 803f c89b 80bf
000001c0: be42 7ebf 2ccd 803f 0b5c 7ebf ea57 7e3f
000001d0: 943f 7e3f 9efb 803f e6d8 80bf 8cee 803f
000001e0: 2e62 7fbf ffb4 803f bbed 803f 6298 7fbf
000001f0: ad39 7c3f 3aee 80bf 389e 803f 4eec 7ebf
00000200: 0eed 803f 5233 813f 0700 813f 2427 81bf
00000210: 6c28 81bf fc13 813f 5cfc 7d3f e72b 813f
00000220: baca 803f c4d8 80bf 9ce4 7a3f 9be3 7dbf
00000230: 3abf 7e3f 6cf2 803f f495 813f cdfd 803f
00000240: 6085 7d3f 1e64 803f 162e 813f 20a2 7a3f
00000250: 0ad9 7e3f 0b61 7e3f f8ad 7d3f 5008 813f
00000260: 0e22 81bf a49f 7d3f d60e 813f 103f 81bf
00000270: 5ff3 7dbf eb22 793f c6a6 7b3f bb28 7e3f
00000280: 2415 803f 0ad2 7d3f a66d 80bf 7cd2 7dbf
00000290: 0922 7c3f 79dd 7d3f d45a 7fbf d31c 81bf
000002a0: f21d 81bf 2dac 7d3f b093 7d3f 64f8 7dbf
000002b0: 895f 7e3f 7b24 81bf 140c 813f a3c5 7d3f
000002c0: e31c 813f bf42 7b3f be31 813f 9bf9 7d3f
000002d0: e308 81bf 1e29 813f 7421 81bf d21f 813f
000002e0: 0ddc 7dbf 390e 813f 34d0 7dbf 0a79 803f
000002f0: 61f7 7b3f a1b3 7d3f f70d 813f 7860 7ebf
00000300: ada9 7fbf 615d 80bf 776b 803f 0ef1 7f3f
00000310: ff64 80bf 4d2f 803f 39bd 7e3f 12f5 7e3f
00000320: 238b 80bf cd99 7fbf 7a79 7b3f 07c5 7fbf
00000330: 7f6f 7e3f ad8e 803f 7455 7dbf 3379 7f3f
00000340: f0ad 7e3f ddbc 80bf 8de1 7ebf 6f10 763f
00000350: ec37 80bf 108b 7d3f 4739 80bf b66e 7ebf
00000360: 18c2 80bf eb3d 7e3f e8d7 7f3f 2064 7e3f
00000370: 1b1b 803f e5d2 783f 22bb 7b3f 7386 80bf
00000380: 1709 82bf 4013 7f3f 3fd2 803f 0fdc 7f3f
00000390: 650b 7e3f c97d 7f3f f27f 80bf d91a 7f3f
000003a0: 817c 7f3f 7383 7e3f 482f 80bf 8229 803f
000003b0: 61b2 7fbf 81e0 80bf 45ee 803f bc38 803f
000003c0: db8c 803f 2adb 723f 66da 7ebf 96e6 7f3f
000003d0: a4b1 7e3f cb5c 803f d1e1 7e3f 115c 803f
000003e0: 5932 7fbf da26 803f e061 7fbf ef15 803f
000003f0: bb82 81bf 01a7 80bf 25ed 803f d9d4 7ebf
1.0056671 0.9985369 1.0071197 0.9922348 0.9908798 1.0081098 0.99398744 1.001465
0.99659157 0.99410343 0.98308223 1.0067762 0.99095345 1.0051082 1.0118017 -0.99652517
0.9924415 1.0021113 1.010516 -1.0260056 0.9946538 0.98900855 -1.0074834 1.007352
0.9915821 0.992157 1.0080538 -1.0072154 -0.99512494 0.974428 0.98475474 0.99374104
0.9917892 0.9936295 0.99795574 1.0055541 0.98969764 0.9930102 1.0011954 0.99343824
-1.0067389 -1.0073496 0.9922776 1.005538 0.99491024 0.9926214 1.008958 -1.0073555
1.0071315 0.9688106 -0.9915525 0.9926327 -1.0067203 1.0075349 0.99259514 1.0072733
-0.9931651 -0.9940618 1.0078509 -0.9933966 -1.0114102 0.9918385 1.0075336 1.0152438
-0.99379694 1.0156177 1.0056431 0.99210984 -1.0083885 1.0063068 -1.0052911 1.003853
1.0053246 0.99934924 0.9852355 1.0032119 1.0033785 1.0016563 1.0004897 1.0086192
0.99220693 1.0030451 -0.99281186 0.99354327 1.0040896 0.9942291 -1.0076098 -1.000745
0.9914569 0.99460554 -0.9952826 0.9932027 1.0055459 -1.022539 0.99292064 0.9953181
1.0087495 0.9936047 0.99919116 1.0085483 -1.0115539 0.9927479 1.0048552 0.9939026
-1.0067967 -1.007515 0.99260724 1.0029597 0.9991576 0.9973939 1.0043907 -1.0047541
-0.9932059 1.0062613 -0.99359196 0.99352896 0.9931576 1.0076787 -1.0066192 1.0072799
-0.99759185 1.0055236 1.007255 -0.9984189 0.98525506 -1.0072701 1.0048285 -0.9957932
1.0072343 1.0093787 1.0078133 -1.009007 -1.0090461 1.0084224 0.99213195 1.0091523
1.0061867 -1.0066152 0.9800508 -0.99175423 0.9951054 1.0073981 1.0123887 1.0077454
0.9903164 1.0030553 1.0092189 0.97903633 0.99549925 0.99366826 0.9909358 1.0080662
-1.0088518 0.9907172 1.0082653 -1.009737 -0.9919948 0.97318906 0.9830135 0.992809
1.0006452 0.9914862 -1.0033462 -0.991493 0.98489434 0.99166065 -0.9974797 -1.0086921
-1.0087264 0.99090844 0.9905348 -0.9920714 0.99364525 -1.0089258 1.0081811 0.99129695
1.008694 0.9814872 1.0093305 0.9920899 -1.0080837 1.0090673 -1.0088334 1.0087836
-0.99163896 1.0082465 -0.9914582 1.0036938 0.98424345 0.99102217 1.0082387 -0.9936595
-0.9986828 -1.0028497 1.0032796 0.99977195 -1.0030822 1.0014435 0.9950748 0.995927
-1.0042461 -0.99844056 0.98232234 -0.99910015 0.9938888 1.0043541 -0.98958516 0.9979431
0.9948416 -1.0057636 -0.99562913 0.96118826 -1.0017066 0.9904032 -1.001748 -0.9938768
-1.0059233 0.9931323 0.9993882 0.9937153 1.0008272 0.971968 0.98332417 -1.0041031
-1.0159024 0.9963875 1.0064162 0.9994516 0.99236137 0.9980131 -1.0039046 0.9965034
0.9979935 0.99419326 -1.0014429 1.0012667 -0.9988156 -1.0068513 1.0072714 1.0017314
1.0042986 0.9486567 -0.99552 0.9996122 0.9948981 1.0028318 0.9956332 1.0028096
-0.996862 1.0011857 -0.9975872 1.0006694 -1.0118021 -1.0050966 1.0072371 -0.9954353

ltc_model.rnn_cell.sensory_sigma f4 [4, 64]
00000000: e162 e140 ed38 4a40 89c4 b140 6311 4540
00000010: 1c67 9c40 4b96 8e40 a6c3 bb40 b9e8 d040
00000020: faa4 ba40 ee50 e240 0024 dd40 8fa2 4040
00000030: e8ab d040 5467 d240 977a 7340 5d05 9240
00000040: 1c33 f740 7867 9d40 6cbb b040 a1c6 c740
00000050: 7c6b a340 7fe0 4140 518f e640 099c 6b40
00000060: 6518 a240 2e53 8440 6dcf 8940 bcb9 8740
00000070: 12cb 6e40 45e2 a940 7d23 a140 778d 4140
00000080: a646 8f40 954c 4640 a9d3 ae40 8107 b040
00000090: dbe4 af40 0253 f140 b499 ae40 9811 6a40
000000a0: 08b7 7e40 af5d b640 a22d a040 0fc4 e040
000000b0: efd9 f040 5491 cf40 4a1e ff40 9bf7 d940
000000c0: 8ddb 8940 b910 de40 d1f2 9640 9ea8 4240
000000d0: 3590 dc40 682a ca40 d306 3f40 30b6 d240
000000e0: 58bb 6e40 84d5 7d40 bb1b 0041 f63a 7540
000000f0: 8f3e e240 2942 9c40 af44 5240 2b82 bb40
00000100: 9b0d c540 07aa 6d40 5aaf b140 0632 f240
00000110: 1e49 ad40 f3bb 4d40 f672 ce40 89fe 8d40
00000120: 1868 ea40 981e ad40 927f 8b40 398f fb40
00000130: 319c a840 773b d340 a846 b140 41f4 5f40
00000140: 4def c140 76f1 eb40 ad6f 4a40 cebd b440
00000150: b796 8440 af93 d640 5f6b 8b40 ce2e ac40
00000160: c9f3 7440 4599 a540 58a9 c440 f9f9 d740
00000170: 8470 a840 2048 9a40 af1a b640 63c8 6940
00000180: 6000 8940 7e64 bc40 88d0 f340 154b d440
00000190: 3509 bf40 9533 f940 d40e b240 23af e140
000001a0: 4d03 a140 2eab 6e40 c7fb fb40 c7b5 da40
000001b0: 5937 dc40 47c1 5040 056b db40 e2fd b340
000001c0: b525 c740 28eb f940 8d06 fd40 d476 d240
000001d0: 3e8e b640 0221 de40 f181 c140 ac4f df40
000001e0: a0b8 9e40 94b0 da40 da5d e640 089e e540
000001f0: 9122 9440 ed10 4340 1b76 6540 3b95 8240
00000200: ac4a d940 2f8f 8640 7769 6b40 bfea de40
00000210: cd8b 8240 0b9c 6940 9978 bf40 e814 e140
00000220: 1d06 e840 6cd5 7940 7aaa b340 a963 d040
00000230: 1c82 fb40 8f2b c340 7d64 f040 408d 8340
00000240: 1e89 9540 7a7b ad40 a1cc a040 3a30 ab40
00000250: 90f8 e640 34be ed40 b250 f540 f5e8 de40
00000260: b4c3 8640 1437 9f40 2789 3f40 3d8a b340
00000270: 9f2d 7940 e329 d040 3c86 8440 9504 b840
00000280: 670e c440 2ece 7b40 9982 be40 b3c2 e540
00000290: cd7d ef40 b5fd 7440 06e5 ba40 7608 6040
000002a0: 14eb 9c40 74ad ed40 58a7 ae40 972c ad40
000002b0: 8b50 a540 9ab3 f240 743d fd40 d64b ff40
000002c0: 619a f440 79c3 d040 e468 d940 2dd9 9e40
000002d0: f499 7e40 3645 a740 c6ec b740 c633 7340
000002e0: 66a8 e340 1abd 4140 cf01 e640 7491 6940
000002f0: 499c ff40 4e4f db40 1b79 dd40 9cf7 fa40
00000300: 9b5c f340 6da9 c040 cfc7 a340 08c0 ce40
00000310: 237b 9b40 39d0 9a40 7101 6d40 42cd 9540
00000320: c5ef 4640 af11 9d40 555b cd40 c96f 6340
00000330: 2587 5e40 bbf8 4040 14bf 7440 862b a240
00000340: 0dc3 7140 597b 9740 8b02 ad40 9eee ad40
00000350: 7955 dc40 c592 6e40 b1aa da40 2bef 9140
00000360: ed26 8040 a19a f640 9d98 bc40 3cba 9f40
00000370: aa22 ae40 2014 b540 301a ea40 2040 fc40
00000380: 39ad d540 8e64 ed40 6e1d 9140 9b0c 8540
00000390: a6d4 a640 d27b b140 d929 ca40 b5ea ae40
000003a0: b165 8e40 54b0 8540 d8e3 9b40 df5c ac40
000003b0: 7411 9d40 e4e4 ac40 d6fd 5440 ae8f 5e40
000003c0: 1347 8940 1a6e 8740 79ec 9c40 aea6 5b40
000003d0: 3d4c ae40 a44d 9c40 3b0c d240 4a8b fd40
000003e0: 94b1 df40 3603 9e40 58aa 8c40 da96 8540
000003f0: 8873 e840 e261 9f40 2da1 d540 08d6 bb40
7.04332 3.1597245 5.555241 3.0791862 4.8875866 4.4558463 5.867633 6.5284085
5.8326387 7.072379 6.9106445 3.0099218 6.5209846 6.5751133 3.8043573 4.5631547
7.724989 4.9188805 5.5228786 6.2429967 5.1068707 3.0293272 7.2049947 3.6813986
5.065478 4.135154 4.3065705 4.2414227 3.7311444 5.308871 5.035582 3.0242593
4.477374 3.0984242 5.4633374 5.500916 5.4966865 7.541383 5.4562626 3.6573238
3.9799213 5.698936 5.0055704 7.023933 7.526603 6.4864902 7.9724474 6.8114753
4.3080506 6.9395413 4.7171407 3.0415416 6.8926034 6.3176765 2.9847915 6.5847397
3.7301846 3.966157 8.00677 3.8317237 7.0701365 4.883076 3.285442 5.8596396
6.157911 3.7135026 5.552655 7.5686064 5.4151754 3.2145965 6.4515333 4.437321
7.3252068 5.4099846 4.3593225 7.861233 5.2690663 6.601009 5.539875 3.499283
6.0604615 7.373225 3.1630661 5.6481695 4.143398 6.705528 4.356857 5.3807135
3.8273795 5.1749597 6.145672 6.7492642 5.263735 4.8213043 5.6907573 3.6528556
4.281296 5.887267 7.6192055 6.6341653 5.969874 7.7875466 5.56431 7.052629
5.031653 3.729198 7.8744845 6.8346896 6.8817563 3.2617967 6.856814 5.6247416
6.223353 7.8099556 7.9070497 6.5770054 5.7048635 6.9415293 6.047112 6.9784756
4.960037 6.834055 7.1989565 7.175541 4.6292195 3.047908 3.5853336 4.0807166
6.790365 4.2049785 3.678312 6.9661555 4.0795655 3.650149 5.9834714 7.033802
7.2507463 3.9036512 5.61456 6.5121655 7.8596325 6.099067 7.5122666 4.1109924
4.672988 5.421323 5.024979 5.349637 7.217842 7.429468 7.6661005 6.965937
4.2113895 4.9754734 2.992746 5.610625 3.8934095 6.505113 4.141386 5.7505593
6.126758 3.9344592 5.953442 7.180017 7.4841065 3.827985 5.840457 3.5005164
4.903696 7.4274235 5.4579277 5.411693 5.166082 7.584424 7.9137516 7.9780073
7.643845 6.5238614 6.794054 4.9640107 3.9781466 5.2271986 5.747653 3.800035
7.1143064 3.0271668 7.187721 3.6495028 7.987828 6.8534307 6.9210334 7.8427258
7.6050544 6.020682 5.1181407 6.4609413 4.8587813 4.837918 3.703213 4.681306
3.1083844 4.9084086 6.417399 3.5536978 3.4769986 3.0151813 3.8241625 5.067813
3.77753 4.733807 5.4065604 5.435378 6.8854337 3.727708 6.8333364 4.5604453
4.0047517 7.7063756 5.8936296 4.9914837 5.4417315 5.6587067 7.3156967 7.8828278
6.6773953 7.4185247 4.5348425 4.1577888 5.213458 5.546365 6.3176084 5.4661508
4.4499135 4.1777744 4.871563 5.386337 4.9083805 5.4029408 3.327993 3.4775195
4.289926 4.23219 4.9038663 3.4320483 5.4468064 4.8844776 6.563993 7.923253
6.990427 4.937892 4.395794 4.1746645 7.264103 4.9806986 6.675925 5.869877

ltc_model.rnn_cell.sensory_mu f4 [4, 64]
00000000: f8dd de3e d96f 263f e0d9 0e3f e38b fd3e
00000010: c229 f03e 6e67 a53e 362a 203f 7caf 473f
00000020: 1f51 bb3e 0e9d de3e 4c47 333f 8bb3 0e3f
00000030: 565b a93e 4281 223f 219d ce3e 58da 433f
00000040: 1b8b c93e 031f 313f f54c 1b3f 6c41 393f
00000050: db71 403f 9dd6 0c3f 2eb4 113f 1a8c e13e
00000060: 82a3 e53e 2e63 343f cb60 1c3f 28b1 093f
00000070: 4ff5 3a3f 7da2 003f e928 e53e 50fc 2e3f
00000080: 08e6 463f 8efb a33e 9ea9 2b3f 535f e33e
00000090: 314b 3a3f 9a12 023f 5fcb 063f 302e ba3e
000000a0: 7678 2b3f 0f55 383f 9482 d13e 7e4d 333f
000000b0: 50eb 303f 604b b13e 2bb7 2c3f 7b7d da3e
000000c0: c1f8 c53e 0998 153f 96a4 123f e1cc d63e
000000d0: 236a 103f cdf6 133f bffe aa3e 2247 193f
000000e0: 2fc7 263f 3b6d d63e ff40 e53e 2f1f 273f
000000f0: 2e7a b93e 45df f03e c25a a53e 31d2 a23e
00000100: 4c80 c23e bc52 123f e7bc a13e 2890 c43e
00000110: 5060 123f 8716 1d3f a584 473f cbdf 033f
00000120: ff38 483f 4fc9 9e3e ad00 f53e 55d5 ae3e
00000130: 5524 253f 5f2d 333f 944a 133f 44f9 c63e
00000140: e811 fc3e 122f 023f bfdd 3a3f 125d b33e
00000150: da7a 8a3e 66a9 d93e 613e 393f 42a8 a83e
00000160: a119 343f 11fa e93e 2ab1 173f ae03 1e3f
00000170: ed5e ce3e 2cc9 4d3f d3a1 343f f9af fa3e
00000180: 1b0f f03e 6733 b03e b134 fe3e 579f 233f
00000190: e4c9 af3e 130e 443f 642f 023f 0996 2b3f
000001a0: f3e1 f43e 0874 1c3f 26a8 073f ceac 443f
000001b0: 3f43 253f 7f26 923e d126 a13e 3783 1f3f
000001c0: d5ff 433f ecad e73e fcc3 bb3e 3b18 ca3e
000001d0: 1b61 1c3f 4036 103f a1d9 f43e 831c db3e
000001e0: 8af2 393f 7660 413f 1d32 fe3e 9b37 ff3e
000001f0: 2447 343f 8b0a 233f f58e 143f 2810 3e3f
00000200: 669b dd3e 73fe 4c3f 2054 193f 2ec2 343f
00000210: f318 1c3f 5c64 213f 159d 133f 09ef 293f
00000220: 8eb4 493f 2dc5 423f 869e f73e 621d 203f
00000230: c390 a53e ddd4 0d3f 107e 433f f890 143f
00000240: 8fc4 2f3f d587 363f 85b9 4e3f 5acb 363f
00000250: 274f 383f 87d1 b63e c1c3 c13e 4edf d03e
00000260: 9d56 a83e f077 0f3f 6c5a c23e e847 9d3e
00000270: 92e5 b03e 9254 413f 0ff1 193f 2246 143f
00000280: f9fe e93e 56d0 223f 283f fd3e 132a ab3e
00000290: 3c84 433f 0211 163f 0254 2c3f b84f c63e
000002a0: 43b9 493f 8a73 e23e e7e1 433f 9db0 073f
000002b0: ca61 0b3f 12f6 e03e d8bf f93e 58ad 333f
000002c0: fe53 003f c3ad 273f 8af5 2b3f aa23 0e3f
000002d0: 8991 383f 1ead eb3e 3748 f93e fd06 ed3e
000002e0: 4cd4 2f3f 2535 383f f3fb 2f3f 91bf f83e
000002f0: 0a72 e33e 1a97 c53e 5675 943e 10f0 3c3f
00000300: e9ea 1e3f 6876 3c3f fd75 3a3f 8f14 ac3e
00000310: 447e 223f 8987 a33e 8cc3 ff3e ba68 213f
00000320: 96e1 ca3e efc1 233f ff3e 323f 0a7c dd3e
00000330: fe60 443f 546a fe3e 5dad 1d3f 4fe4 b43e
00000340: 8b95 af3e 8bf8 0f3f 41af 3e3f 0e87 313f
00000350: 0629 063f 4d14 3a3f 42b6 0e3f e672 1f3f
00000360: ea4c f93e 17f8 153f 9fc8 273f 9be2 323f
00000370: 495c 213f 8d47 0b3f 8d7f 053f 3fcc 0e3f
00000380: 2392 ff3e 02c0 023f eb0f ee3e 4017 ff3e
00000390: 2751 893e 843d 1d3f 31a2 303f 4803 2b3f
000003a0: b2a1 2d3f f398 203f fead 163f 8dc1 f53e
000003b0: 5bb4 413f 2c91 0d3f 81cf 8b3e 440a 003f
000003c0: e75e d33e 4170 253f 0c6d 1f3f ac54 393f
000003d0: dd40 ba3e 8807 e73e 5265 0c3f 8ad4 103f
000003e0: 648d 063f d6d0 8c3e 883e 2d3f 4112 ca3e
000003f0: 6771 f93e f7c5 193f 71a0 fc3e 4fe2 283f
0.43528724 0.65014416 0.558012 0.49520788 0.4690686 0.32305473 0.6256441 0.7800214
0.36585328 0.43479198 0.70030665 0.5574271 0.33077496 0.6347848 0.40354255 0.7650504
0.39363942 0.69187945 0.606643 0.7236545 0.7517373 0.55014974 0.5691556 0.44052202
0.4485131 0.70463836 0.61085194 0.53785944 0.7303056 0.5024794 0.44757774 0.6835375
0.7769475 0.32027858 0.6705569 0.44408664 0.72770983 0.50809634 0.5265407 0.36363363
0.66980684 0.7200479 0.40919936 0.7004012 0.6910906 0.3462782 0.6746699 0.4267386
0.38666347 0.5843511 0.5728239 0.41953185 0.5641195 0.57798463 0.3339748 0.59874165
0.6514768 0.4188021 0.4477615 0.6528196 0.36226028 0.4704534 0.32295805 0.31800988
0.37988508 0.5715749 0.31589434 0.38391232 0.5717821 0.613625 0.77936774 0.51513356
0.7821197 0.3101296 0.47852078 0.34147134 0.64508563 0.69991106 0.5753567 0.3886205
0.4923241 0.50853074 0.7299461 0.35031945 0.27046853 0.42512053 0.7236081 0.3294087
0.70351607 0.45698598 0.59254706 0.61724365 0.40306798 0.8038509 0.70559424 0.4896238
0.46886525 0.34414217 0.49649575 0.6391501 0.34333718 0.76583976 0.5085356 0.6702581
0.47828636 0.6111455 0.5299095 0.7682618 0.64555734 0.28544995 0.31474927 0.6230959
0.76562244 0.4524988 0.36672962 0.3947161 0.6108567 0.5633278 0.47822288 0.4279519
0.7263571 0.7553781 0.49647608 0.4984711 0.7042105 0.6368796 0.58030635 0.742434
0.43282622 0.8007576 0.5989399 0.70608795 0.6097557 0.6304376 0.57661563 0.66380364
0.7879113 0.76082116 0.4836313 0.62544835 0.32337007 0.5540293 0.7636423 0.58033705
0.686593 0.71301013 0.8075183 0.7140404 0.71995777 0.35706732 0.3784466 0.40795368
0.3287858 0.56042385 0.3795961 0.30718923 0.34550148 0.7551967 0.6013345 0.57919514
0.4570234 0.63599145 0.49462247 0.33430538 0.7637365 0.586197 0.67315686 0.38732696
0.7879831 0.44228774 0.76516575 0.53003865 0.5444609 0.43937737 0.48779178 0.70186377
0.5012816 0.65499514 0.6717154 0.5552317 0.7209707 0.46030515 0.48687908 0.46294394
0.68683314 0.7195609 0.6874382 0.48583654 0.44422942 0.38591844 0.2899577 0.73803806
0.62077194 0.73618174 0.72836286 0.33609435 0.63473916 0.31939343 0.49953878 0.63050425
0.39625233 0.63967794 0.69627374 0.43258697 0.767105 0.49690497 0.61592656 0.35330436
0.3429378 0.5623862 0.74486166 0.693467 0.52406347 0.72687227 0.55746853 0.62284696
0.48691493 0.5858168 0.655405 0.6987702 0.6303144 0.5440605 0.5214775 0.55780405
0.4991618 0.5107423 0.4649652 0.49822426 0.26819727 0.6142199 0.68997484 0.6680188
0.6782485 0.6273338 0.5885924 0.4799923 0.75665826 0.5529964 0.2730675 0.50015664
0.41283342 0.6462441 0.6227577 0.72394824 0.36377612 0.45122933 0.548421 0.5657431
0.52559495 0.2750308 0.6767354 0.39467052 0.48719332 0.60067695 0.49341157 0.6597032

ltc_model.rnn_cell.sensory_w f4 [4, 64]
00000000: ebc8 2a3f 44be d4bb cdd9 813f fce4 423f
00000010: ebd0 9f3e ea29 7f3f 474d 763e 22ec 133d
00000020: bf2d f93d 2161 2c3f cb01 8b3e 9146 9e3d
00000030: f78a d03e a271 cb3d 7494 5c3d a595 223f
00000040: 0486 323e e154 733f 7a9e 3d3e 225e 7e3e
00000050: 7824 083e d1c2 d03e 66f6 163f 599b 463f
00000060: 79d4 303f c444 5d3f 0775 543e 0da5 743f
00000070: 895d 8f3e 2820 093d 5908 853e bdf0 913e
00000080: 5798 613f 396a e93e 4ca9 133f a881 693e
00000090: 4088 083f 96de 303f 3a5e 9a3d 912c 5f3f
000000a0: e1ee fb3c 6d8a 6e3f 8a8c 903e ba5c c53c
000000b0: e756 153f 03fb 443f df5f 663f 39df 1e3e
000000c0: 81a4 2d3f 1f5c ff3e cb05 3b3c 81c2 b53c
000000d0: ae61 6b3f 59e5 923e 6ad0 273f 7014 3f3f
000000e0: 14ed 143f e859 7b3f 6e44 1c3e 8dd7 083e
000000f0: 8dd3 8b3e 9648 e73e de3a 2a3f a70f 5b3d
00000100: c6c2 ba3e 87ef af3e f9b9 113c e62c 193e
00000110: d827 8d3e 019e 223e ac74 293f 1423 793f
00000120: 8b7b f43e f75d 7c3f 64ea d33e cf20 5e3f
00000130: 1919 273f 33cf 583f 0665 4f3f db2f a03e
00000140: 959c 153f 80e1 633f 0707 353f 9c3f 443f
00000150: 7b87 f13d 8999 6bbb d936 413f 1f64 743e
00000160: 9a16 3f3f e88f 9e3e 2b45 413f 7c5e 8f3e
00000170: 657b b53e 8f6f 1b3e b54d 403f 15a7 ee3e
00000180: 3d72 023f bfef df3e ab51 ca3e a2d8 003f
00000190: 2345 7a3f d27f 3d3f edc6 103f d247 613f
000001a0: 7c1a 593f 652f 0c3f 979f 3a3d c050 ef3e
000001b0: f703 733f c8cf 273f 1877 fd3d a8d5 f73e
000001c0: a712 b93d 0f11 0e3e ca34 5d3f b036 1e3f
000001d0: 1f56 163f 4398 e43e e383 2e3f b7c8 0c3c
000001e0: 9316 083f 99ce 003f 228f 7e3f 7cda db3e
000001f0: e239 1f3f b2bd 0d3f 3334 383f aeb0 a43e
00000200: f0b9 383e b532 083f 7616 f63e 4246 c03e
00000210: 4c91 db3e dcb0 ab3e 8c22 5e3f 6878 143f
00000220: 1247 0a3e c741 ff3d 45b6 4a3e c758 4a3f
00000230: 287b 8e3e a4de f93e 6b10 593e 77c2 733f
00000240: b60a 3d3f 28a3 d93c b1bf 3f3f e544 853e
00000250: efb5 0b3f c792 083f 1586 db3e f56c e93e
00000260: eab2 423f 0cb6 793e f2d6 613e dcc4 ae3e
00000270: faab 853e 4ff1 4b3e 0012 493f f7c6 443f
00000280: fdc0 693e abda 423f 4558 203f 66e8 d63e
00000290: 4408 9d3e 6e02 eb3e 3ca4 783f ad9a 5e3f
000002a0: 8998 693f ce8f 713e 8f09 713f 0b7d 763f
000002b0: b7d6 8a3e 8af3 093f 90b3 f93d aab5 0a3f
000002c0: f808 723f 8527 b83b e547 8f3e 1a1b bc3e
000002d0: 919c 193f 2089 4c3f d79d 343f 3a14 6e3f
000002e0: c3c1 203d eb22 203f a169 1a3f 6de2 093f
000002f0: cc02 093e 1a50 623f 45e1 9d3e bd55 a43e
00000300: 59d8 463e c842 f33e 1c2b 14bd 9a90 b13e
00000310: cf78 303f 7887 bc3e 7ac8 3e3f 3ac4 6e3f
00000320: 4cf1 e13e 1669 303f ef0b 5c3f 29a7 223f
00000330: 8ad2 093f 2f54 1d3f ebe9 af3e e9f1 273f
00000340: 4ea1 b53e be81 0f3e 9301 823e 98d7 f53e
00000350: fd6c a63e d852 423f 26c3 573f 856e 633e
00000360: ccb1 313f 2a60 273f ac39 5b3e 460f 473f
00000370: 8b16 1c3f f4da 363f 5003 c73d 2e2f 863e
00000380: d176 143e dd22 343f 9c5b 833f c699 be3e
00000390: 04cb 7cbc f10a 1e3f 1381 513f f512 e93e
000003a0: d790 4c3e 88d4 193f af7e c63e 236f 063e
000003b0: 132b 483f 1d52 9b3e 5962 643e fa1a 703f
000003c0: 5bbf 583f 811c 013f 128d fb3e 85a5 853f
000003d0: 7a5b c73e 4c1b 703f 0a57 243e a30e 9f3e
000003e0: a62c 123f 1cc2 863e a2a6 113e b451 443e
000003f0: 9d67 9b3e 6452 d63d c98d bc3e 3c14 413f
0.66712826 -0.006492408 1.0144593 0.7613065 0.3121408 0.9967333 0.24052916 0.036113866
0.121669285 0.67335707 0.27149805 0.07728303 0.40731022 0.09933783 0.053852513 0.6350959
0.17433935 0.9505139 0.18517485 0.24840596 0.13295162 0.40773633 0.58969724 0.7758079
0.6907421 0.86433053 0.20747767 0.9556435 0.2800105 0.033477932 0.2598293 0.2850398
0.8812308 0.45588854 0.576802 0.22803366 0.533329 0.6908964 0.075375035 0.8717738
0.030753555 0.9317997 0.28232223 0.024092067 0.5833573 0.76945513 0.8999004 0.1551484
0.6782914 0.4987497 0.011414955 0.022187473 0.9194592 0.28690603 0.6555239 0.7464056
0.5817425 0.9818406 0.15260479 0.13363476 0.27309838 0.45172566 0.66496074 0.053481724
0.36476725 0.34362432 0.008894437 0.14958534 0.2756946 0.15880586 0.6619365 0.9731915
0.47750506 0.9858088 0.41389763 0.8676881 0.6527267 0.8469116 0.81013525 0.3128651
0.5844205 0.8901596 0.7071385 0.7665956 0.11793419 -0.0035949668 0.75474316 0.23866318
0.7464386 0.30969167 0.75496167 0.28001773 0.35445705 0.15179275 0.7511857 0.46611848
0.50955564 0.437376 0.39515433 0.50330555 0.97761744 0.74023163 0.56553537 0.88000214
0.84806037 0.5475982 0.045562353 0.46741295 0.94927925 0.65551424 0.12376231 0.48405194
0.09036761 0.13873695 0.86408675 0.61802197 0.5872516 0.44647416 0.68169993 0.008592776
0.53159446 0.50315243 0.99437153 0.42940128 0.621977 0.5536758 0.7195465 0.32166046
0.1803968 0.5320237 0.4806401 0.37553602 0.4288429 0.3353337 0.86771464 0.57996225
0.13503674 0.12463718 0.19796093 0.79041713 0.27828336 0.48802674 0.21197669 0.95218605
0.7384447 0.026567057 0.7490187 0.26029125 0.54574484 0.53348964 0.42875734 0.4559094
0.7605425 0.24385852 0.22054651 0.34134567 0.2610777 0.1991627 0.7854309 0.76866096
0.22827525 0.7611491 0.6263469 0.4197418 0.3067037 0.4590029 0.971256 0.86954767
0.91248375 0.23590013 0.9415521 0.9628455 0.2711694 0.53887236 0.12192452 0.5418345
0.94544935 0.0056199455 0.2798454 0.36739427 0.60004526 0.79896736 0.70553344 0.92999613
0.039247286 0.6255328 0.60317427 0.53861123 0.13379973 0.88403475 0.3083593 0.32096663
0.19418468 0.47511888 -0.036173925 0.34680635 0.6893434 0.36822104 0.7452465 0.9326817
0.44129407 0.6891035 0.8595571 0.63536316 0.5383688 0.6145658 0.34358153 0.656035
0.35474628 0.14014336 0.25391826 0.48016047 0.32505026 0.7590766 0.8428215 0.22210129
0.6941192 0.6538111 0.21408719 0.7775768 0.609719 0.71427846 0.09717429 0.2620787
0.1449845 0.703657 1.0262332 0.37226695 -0.015429262 0.61735445 0.81837577 0.45522276
0.19977127 0.6008992 0.38768527 0.13128333 0.78190726 0.30336085 0.22303142 0.9379116
0.84666985 0.5043412 0.49131066 1.0441138 0.3893698 0.9379165 0.16048828 0.31065854
0.5709938 0.2631997 0.14223722 0.19171792 0.30352488 0.104649335 0.36826923 0.754215
