LTC_A2C/training_results/CfC_a2c_result_414_2024324_learningrate_5e-05_numneurons_48_encoutact_tanh_mode_neuromodulated_neuromod_network_dims_3_192_96_48_randomization_params_[(0.775, 5.75), (1.0, 2.0), (0.8, 2.25)]/checkpoint_CfC_A2C_3.pt (torch, 155636 bytes, 16 tensors)

policy_net.cfc_model.rnn_cell.w_tau f4 [1, 48]
00000000: 0592 98be 4dd7 e1bd e262 45be 5470 333e
00000010: 1562 05be 9270 d53d 9059 663e 1dcc 9e3d
00000020: c83d 823d ca0e ccbd 17ec 923e f3de 963d
00000030: a82b 9f3e ce3f a2be fecf cf3d 74a0 23be
00000040: 4674 c73d b3fa 833e ebff 8d3e f9d9 a4be
00000050: a243 ef3d d3e2 983e 6df6 8cbe 99e8 9fbe
00000060: 8370 c9bd 66d8 303e 5ebe f9bc 234b acbe
00000070: a25d 2abe 9d1e 9e3e 8e44 a5be 2624 8bbd
00000080: 7d80 193e ad96 a13d 0ef0 37be 8039 183e
00000090: ce44 98be 3a88 25b9 d882 aa3e 08a0 e13d
000000a0: ff85 82be eb2a 18be f079 8bbe fd40 a9be
000000b0: 4516 d3bc a0e5 26be 22e7 973e b511 57be
-0.29798904 -0.110273935 -0.19276002 0.17523319 -0.13025697 0.10421862 0.22495103 0.07753775
0.0635944 -0.09963758 0.28695747 0.07366743 0.31087995 -0.31689304 0.10147093 -0.15979177
0.09738974 0.25777206 0.27734312 -0.3219755 0.11682822 0.29860553 -0.27531758 -0.31232145
-0.09835913 0.1727005 -0.030486282 -0.33651075 -0.1663728 0.3088273 -0.32278866 -0.06794004
0.1499042 0.07890067 -0.17962667 0.14865685 -0.29739994 -0.00015786375 0.3330295 0.11016852
-0.25492856 -0.14860122 -0.27241468 -0.33057395 -0.025767455 -0.16298532 0.29668528 -0.21002848

policy_net.cfc_model.rnn_cell.A f4 [1, 48]
00000000: afa9 1a3e 02b8 dabd 9ad0 78bd 2025 1cbe
00000010: c21a e23d b474 14bd 65d8 1e3e faeb 97be
00000020: d468 37be 78ab 70be dc42 843c c549 2fbd
00000030: 44a9 d43d 1475 80bd 28c6 b5be f7ec 683e
00000040: 6164 9b3e e464 813c a05e 83bd 24ef 4cbe
00000050: b72e 5abe 1d5b 593e 9e58 a83e 5e24 4dbe
00000060: 12a2 4fbe 6f70 9d3e 8ccb 06be 6c99 85bc
00000070: e7ce 4cbe f633 b1bd ecde 5ebe 96f9 003e
00000080: 1893 e83d 254b 5b3e 7cd7 acbe a28a 9dbd
00000090: 39a2 8c3e f791 8b3d a693 b23e fff1 e5bd
000000a0: 928c 033e da43 7bbd f12b 903e 08dd d8bc
000000b0: 3c98 05bd 83ea 873e e626 96be e5f7 dabd
0.15103792 -0.10679628 -0.060745813 -0.15248537 0.1104026 -0.03624411 0.15512235 -0.29672223
-0.17911083 -0.2350291 0.016145162 -0.04279496 0.10383847 -0.06272331 -0.35502744 0.22746645
0.3035002 0.015795179 -0.06414533 -0.200131 -0.21306883 0.21226163 0.3288011 -0.20033404
-0.20276669 0.30749843 -0.13163584 -0.016308509 -0.20000802 -0.08652489 -0.21764725 0.1259521
0.11356181 0.21415384 -0.33758152 -0.07692458 0.27467516 0.0681495 0.34878272 -0.11227798
0.12846592 -0.061344005 0.28158525 -0.026472583 -0.032615885 0.26546106 -0.29326552 -0.106918134

policy_net.cfc_model.rnn_cell.tau_system f4 [1, 48]
00000000: beb6 1140 8b37 8540 8bfa 9c40 225e 3b40
00000010: 4480 b740 603a f43f 3cfa 5e40 3130 2041
00000020: 15cc 1b41 29a7 eb40 c1b5 bc3f 25c2 0241
00000030: 874c 1040 7923 3a40 75d2 1b41 bce0 9240
00000040: 70b0 ba3f 5f98 9f3f b986 0640 68c8 4440
00000050: 70de a940 9ff7 5540 3635 3d40 0193 923f
00000060: b41f 0d40 014b ca3f d42a 4e41 7ae8 2140
00000070: 3fa6 a040 ae08 3840 7490 2440 012a 3841
00000080: bbd5 2e40 d9b0 1940 c4e4 a740 e6d3 b240
00000090: 4e09 4840 278e 8c41 b408 1c40 7f3f ae3f
000000a0: b9d6 3e40 9f42 ab40 8331 5740 a8ef 3540
000000b0: f126 0540 328a ac40 86c9 4840 4119 8740
2.2767787 4.16303 4.905584 2.9276204 5.7344074 1.9080315 3.484023 10.0117655
9.737325 7.3641553 1.4742967 8.172399 2.2546709 2.908415 9.738881 4.5899334
1.4585094 1.2468375 2.1019728 3.0747318 5.308403 3.3432386 2.9563727 1.1451112
2.20506 1.5804139 12.885456 2.5298142 5.0202937 2.8755298 2.5713167 11.510255
2.731795 2.401419 5.2466755 5.5883665 3.125568 17.56941 2.4380312 1.3613127
2.9818556 5.3518825 3.362397 2.8427525 2.0805018 5.3918695 3.1373 4.2218328

policy_net.cfc_model.rnn_cell.backbone.0.weight f4 [128, 52]
00000000: 4419 e2bd 5f3f febd 7d57 583d 5922 ab3c
00000010: 005b 0ebe ab26 1d3e a3d9 c13d 5d67 a13d
00000020: 5dca 21be 43b1 0bbd 5526 62bd 664f 1b3e
00000030: e51b 31be 4a78 bebd 833e 91bd 02b9 c23d
00000040: 4df2 5c3d 656d 19be 3861 253e 6adb 03be
00000050: a58a 88bc 686c f43d ebe7 bbbd f4c7 d33d
00000060: 4527 a93d aade bdbd 9bf7 98bc e5e5 04be
00000070: 1f43 773d 5cf0 ccbb 7d6d 20be 0004 07be
00000080: d8c5 df3d 5684 acbd 30eb e7bd 5a47 9b3c
00000090: 18a1 99bd e108 233e 5a70 2fbe 7a11 0abd
000000a0: 1892 9cbd 85e4 453b 2d69 efbd cc1c 213d
000000b0: e623 61bd 3e6d 173e c970 033e 3e62 c9bd
000000c0: 905b 983c 87bd b23d 76d1 98bd e5c9 d33d
000000d0: 9c27 09bd 920a 373e 1c97 17be a137 053e
000000e0: dfe9 babd 657a a8bd 1275 1bbe 37ec 27be
000000f0: f3e3 9a3d 19e4 493c 38ef af3d 763b 9e3d
00000100: 3e06 b73d 4821 2ebe 0d73 3a3d bd2b 113e
00000110: 5dd1 e13d 59e4 20be 5ceb 2c3e 9ae5 243e
00000120: ffef d7bd e14d 1b3e 9b59 203e 4d88 32be
00000130: 9614 2fbe 8d84 70bd f194 dabd 463c 403d
00000140: cd62 313e 4f36 eb3d e851 37bd b489 15bd
00000150: 7ea0 0fbe 2c13 12be a977 2bbe 5d24 bcbc
00000160: 7cf5 c63d 7a8d 01be 18e9 303e 3ea8 9cbd
00000170: 9347 033e 70b2 07bc 3b91 823d 6045 97bd
00000180: fce2 223d a5ed b43d ed79 fabd 2cf3 2e3e
00000190: 90a7 9d3d 3a22 a0bd cd5c 443c e08e 1b3e
000001a0: 8e23 e43d 9d17 a33d e426 c8bd 7922 fb3d
000001b0: 50a2 123e 3730 10bd 4d16 953d 684d e5bd
000001c0: fb28 eebc c739 203e d5b7 bc3d 7f64 84bd
000001d0: 9858 cb3d e02c c7bc 05f6 383d fbb1 323c
000001e0: 125e 03bd 6502 203e 5a7f cb3d 48bb ecbc
000001f0: 10e2 233e 6f15 01be ce20 a13a 805c 093e
00000200: c732 103e 9812 22be c6da a2bd 0d35 3a3e
00000210: 1512 67bd b50e fc3d 98c3 bc3b 7f8d 02be
00000220: f6a5 f23c 25ad adbd a411 d8bd 17a0 54bd
00000230: 2f71 743c 11e2 c4bd 70f5 823d c289 1bbe
00000240: a811 b73c 6afa de3d 3f87 6dbd 8aeb f13d
00000250: c0a9 8b3d 1cdd 0d3d 270a 1fbd 1cc9 fdbd
00000260: 0f4e 183e 9f23 e3bd 33e2 0a3e 1038 d23c
00000270: 9243 823d 35ce 34be b2ab c13d d9cc bb3d
00000280: 3630 173d b5f3 b33c 09a2 34be b548 24bd
00000290: c0f1 66bd 458a 153e 726c d93d 1614 27be
000002a0: 69af 1dbe 3a2b ec3c 78fc ab3d 6ef8 6abc
000002b0: ea4f d03c 7566 613d 6fc6 48bd ba23 323e
000002c0: d5c8 1e3d 3c7d b7bd 5af6 c5bd 2ecd 98bd
000002d0: 9621 f33b 1caf 2cbd a3c8 7e3d f2bd bebd
000002e0: 3516 a5bb 813a 93bc f2cb 18be e273 283c
000002f0: ea4d f63d 5273 1e3e 9107 b33b f832 bbbd
00000300: 483c b5bd ba69 debd 6b6d 283e 1ae9 a5bd
00000310: 2979 5a3d 22d4 1a3d 2e32 97bd 11f2 05bc
00000320: d76e 3a3e 0c38 fabd b96f 0d3e 717c ddbc
00000330: 11d3 bebd 74f8 c73c 9ac9 263b babc 1e3e
00000340: e586 1ebe e654 803d 4dac 93bd 1d61 a9bd
00000350: b03d 163c f472 00bc ce62 e53d 61af 00bd
00000360: bd46 ddbd 7bc7 3dbe 8bfe 26be 4d35 54bb
00000370: f48c 133e 9504 c83c 8d52 a33d f546 fd3d
00000380: a965 b6bd 90b8 1e3e 4cb5 8f3d 8dc9 253d
00000390: e3e6 1f3e 117a 60bd 08cb 7dbd edae 15be
000003a0: e7e9 0bbe e39a 09be 2502 e2bd 3d01 093e
000003b0: 3d1f 26be f0b3 a2bd 30f2 2e3e 7385 1a3d
000003c0: 48b5 d3bc 415d 1e3d 55b4 b23d e437 293e
000003d0: fe8f 00be 6529 be3c 1e53 143e 7af3 8c3d
000003e0: a329 ee3d 1a57 23bd bb8a 783d f7c0 7fbc
000003f0: 192c e83d e240 61bd 2862 d93c b2a9 293d
-0.11039975 -0.12414431 0.05281781 0.020890402 -0.13901901 0.15346782 0.09465339 0.07881043
-0.15799852 -0.034104597 -0.055212338 0.15167007 -0.17295797 -0.09300287 -0.07092001 0.09507944
0.053942014 -0.14983137 0.16150367 -0.12876669 -0.016667673 0.11934739 -0.09175094 0.103408724
0.08259443 -0.092709854 -0.018672755 -0.12978323 0.060366746 -0.006254239 -0.15666766 -0.1318512
0.109264076 -0.084236786 -0.11324155 0.018954922 -0.07501429 0.15921356 -0.17132702 -0.033708073
-0.07645053 0.0030196023 -0.116899826 0.039334103 -0.054965876 0.14787766 0.12835993 -0.09833191
0.018598348 0.08727556 -0.074618265 0.10341243 -0.03348504 0.17875126 -0.14803737 0.13009502
-0.091266386 -0.0822647 -0.15181378 -0.16398703 0.07563009 0.012322449 0.08590549 0.07726185
0.089367375 -0.17004883 0.045519877 0.14176841 0.11026261 -0.15712108 0.16886657 0.16103211
-0.105438225 0.15166427 0.15659182 -0.17434807 -0.17097697 -0.05872016 -0.106729396 0.04693248
0.17322846 0.11484968 -0.044755846 -0.036508277 -0.14026067 -0.14265126 -0.16744865 -0.022966558
0.09714791 -0.12651625 0.17276418 -0.07649277 0.12820272 -0.008282289 0.06375357 -0.07386279
0.03976725 0.088343896 -0.12230287 0.1708495 0.07697976 -0.07819028 0.011985016 0.15191221
0.11139594 0.07963488 -0.09773043 0.122624345 0.1431973 -0.03520223 0.07279644 -0.11196405
-0.029072275 0.1564704 0.09214751 -0.064644806 0.09929007 -0.02431339 0.045156498 0.010906692
-0.032072134 0.15625913 0.099364 -0.028897896 0.16004205 -0.12605833 0.0012293102 0.13414192
0.1408187 -0.15827405 -0.07951884 0.181843 -0.05641373 0.12307493 0.0057606213 -0.12749289
0.029620152 -0.0848029 -0.1055024 -0.051910486 0.014919563 -0.09613431 0.0639447 -0.15189269
0.022347286 0.108876064 -0.05799031 0.11812504 0.068194866 0.034634694 -0.03882804 -0.12391874
0.14873527 -0.110907786 0.1356285 0.025661498 0.06360544 -0.17656787 0.094565764 0.09169931
0.036911212 0.021966795 -0.17639937 -0.0401084 -0.056382895 0.14603527 0.106163874 -0.16316256
-0.15398945 0.028829206 0.08397764 -0.014341457 0.025428731 0.05502935 -0.049017366 0.17396441
0.038765747 -0.089594334 -0.096661285 -0.0746101 0.0074197752 -0.042159185 0.06220306 -0.09313573
-0.0050380477 -0.017972233 -0.14921549 0.010281535 0.1202658 0.15473679 0.0054635485 -0.09140581
-0.08849388 -0.108600095 0.1644799 -0.08101101 0.053338204 0.037799962 -0.07382618 -0.008175389
0.18206345 -0.12217721 0.1381215 -0.027036877 -0.093176015 0.024410464 0.0025449754 0.15501681
-0.15481146 0.06266193 -0.07210598 -0.08270476 0.009169981 -0.007839907 0.11200486 -0.031417254
-0.10804508 -0.18533127 -0.16308038 -0.0032380403 0.14409238 0.024416247 0.0797473 0.123670496
-0.08906109 0.15500093 0.070170015 0.040475417 0.1561542 -0.05480391 -0.061961204 -0.1461751
-0.13663445 -0.13437991 -0.11035565 0.13379379 -0.16222854 -0.079444766 0.17084575 0.037724923
-0.025843278 0.038663153 0.08725802 0.16525227 -0.12554929 0.023213098 0.14484832 0.06882377
0.11629035 -0.03987799 0.06067918 -0.015609971 0.11336536 -0.054993518 0.026536062 0.0414216

policy_net.cfc_model.rnn_cell.backbone.0.bias f4 [128]
00000000: e8ad c53d 6ce0 b5bd a0a7 10be c91a 7a3d
00000010: 9b4c 71bd c4ef 9cbd c636 4a3d 1b08 cabd
00000020: 5522 34bb f1ca 9cbd 12f5 84bd 769d 65bb
00000030: 4a16 543d 3d9f d73b 424e 20bd 1aff d93d
00000040: 5629 9cbd 0cdd 0d3e 3ec2 673d 83b1 d73d
00000050: b96b e13c d6c6 46bd 5441 a1bd 24e9 f43c
00000060: fe2d 9c3d b55d 84bd 4115 08be 5d1b 07bc
00000070: b0f4 abbd 6de2 bc3d 95bf 873b ba8b 053d
00000080: b517 6c3b 41a8 0cbd ebd6 053d 0a4c 963c
00000090: 3b3d a23d 5139 a33d 63c0 bfbd f120 ff3d
000000a0: e198 c5bc 9842 103d 37a8 513c 5f39 71bd
000000b0: ece3 f93d 3783 d63d f127 ffbc 758b 03bd
000000c0: e6c8 38bc 7dbd 0fbe c18d 6dbd 9be5 c2bd
000000d0: 00b4 dd3d ebf1 70bd 3b5d fe3c 1df4 0c3e
000000e0: 0561 5fbb cd97 b2bc b895 ec3c 1cbc 83bd
000000f0: 0f83 0b3e c8eb 1ebd 7eeb 54bd e5bc 1f3d
00000100: 85d8 f43d fca7 c6bc e14d 4ebd 6df7 00be
00000110: 3f92 8c3c 1277 003d 4a05 003c 83e9 8f3d
00000120: 9fe1 7dbd b35f d73b 185d b63d 1575 a93d
00000130: ca86 ea3d 94d4 b3bd 6a8c 883c 3845 babd
00000140: 2c13 e03d cf79 7f3d 0a5b 5abd 1402 f1bd
00000150: 5b7b eebd 1d65 003e 9ef1 abbd 26aa 003e
00000160: 3501 193d 510a eb3d fac7 953d cc22 683b
00000170: 0946 abbb cd63 9ebd f147 86bc 750f bb3d
00000180: 0df4 1fbd 39c4 ccbc 04c6 dcbd e1d0 7c3d
00000190: 2987 f4bd cdf6 383d af3a 043d f424 d63d
000001a0: cbbe fe3d fd6a d63d 4ebc 16bd f372 223d
000001b0: 2d5c 663d ef9c 8ebd 8b83 06bd c37f b3bc
000001c0: c26e d3bd b46a d1bd 5410 1b3d ec1b e93d
000001d0: bd3d 04be 375a b5bc 2be8 8dbd ad69 6cbd
000001e0: bee4 703d 0972 0b3d 8776 b6bd 9037 5e3d
000001f0: 8aca 8c3d fa2f 76bd 2e1c 93bd 1616 e8bd
0.096523106 -0.08880696 -0.14126444 0.0610607 -0.058910947 -0.07662919 0.049368642 -0.09864827
-0.0027486284 -0.076558955 -0.06492056 -0.003503648 0.05177907 0.006580262 -0.039137132 0.1064436
-0.07625072 0.13853854 0.05658173 0.105319045 0.027517186 -0.04852947 -0.078737885 0.029896326
0.0762596 -0.06463186 -0.13289358 -0.00824627 -0.0839628 0.09222875 0.0041427114 0.032603957
0.0036024873 -0.034340147 0.032675665 0.018346805 0.07921835 0.079699166 -0.09362867 0.12457455
-0.02412075 0.03521976 0.012796453 -0.058892604 0.12201676 0.10474246 -0.031146975 -0.03211542
-0.011278367 -0.14037128 -0.057996515 -0.0951645 0.10825348 -0.05882446 0.031050315 0.13764997
-0.0034084928 -0.0218009 0.028879985 -0.064323634 0.13624214 -0.038799077 -0.051982395 0.038998503
0.1195536 -0.024250023 -0.05036724 -0.12594385 0.01715958 0.031363554 0.007813761 0.07026961
-0.061982747 0.0065726875 0.08904475 0.08274285 0.1145149 -0.087807804 0.016668517 -0.09095234
0.10941157 0.062372025 -0.053309478 -0.117679745 -0.11644622 0.12538572 -0.08395694 0.12564906
0.037354667 0.11476577 0.07313533 0.0035421131 -0.0052268547 -0.07733879 -0.016391726 0.091338076
-0.039051104 -0.02499591 -0.10779956 0.06172264 -0.11939842 0.045157243 0.032282528 0.10456267
0.124387346 0.10469625 -0.036800675 0.039660405 0.05624025 -0.069635265 -0.032840293 -0.021911507
-0.1032386 -0.1022543 0.03785737 0.11382279 -0.12914176 -0.022137744 -0.06929048 -0.057717968
0.058811896 0.0340443 -0.08909326 0.054252207 0.06874569 -0.060104348 -0.07183109 -0.113323376

policy_net.cfc_model.rnn_cell.ff1.weight f4 [48, 128]
00000000: 2251 e43d edf6 a23d b073 a03c 797d d23d
00000010: 83f1 ef3c 7d22 353e a29a 733c d4cd 2cbe
00000020: 45bd 313d de4e 303e bfac d23c 4345 a4bd
00000030: eeb5 fe3d ea55 0bbd 8c3e f83d 80cc ee3c
00000040: 515c 203e 7fbb 22be b728 133e f265 67bd
00000050: e7f4 263e bb9d 05be 307a 46bc a612 69bb
00000060: 32b6 70bc 5ff6 19bd 7399 a53d 7a38 093e
00000070: b28e 21be cf28 143d f1f2 81bd c3a4 0a3e
00000080: 736a 273d c2a0 02be 4e07 b5bd 57cc 7fbd
00000090: 4ca1 333e e255 1c3e d812 333e 4836 3c3e
000000a0: aa4f cf3d 02d1 b9bd 06de 403e 568b 293a
000000b0: 7fbf 26be 7a2e 4dbd 88ba e5bc 9a98 a03d
000000c0: f39f 0a3e 2776 d43d b1bb b7bd 3814 babc
000000d0: c635 febd c53a 773d 1c8e 073e 1e4a f03c
000000e0: 0a3d 093e 43a6 0b3e 9495 80bd 574f 9b3d
000000f0: a6be 7b3c 1783 fbbd b7ff 84bd 5332 febd
00000100: 577e c0bd f42f acbd 4fab ca3d 9311 e1bd
00000110: d2d6 3c3e ee3d 043e cee7 153d 3769 293e
00000120: 1b56 30bd c6e4 4dbd 0c6f 0c3e 46da cc3d
00000130: 77ef 333e 6ac6 a53d 80c8 17be d450 72bd
00000140: 1a9b 9fbd 3e28 28bd cbc3 0c3e bca9 23be
00000150: 7529 2f3c 7ee4 bbbd 7c81 26be 586c 3f3e
00000160: a9bf c0bd dff8 333c 25d6 1d3e 1406 833d
00000170: 9bdd a83b 0b39 213e a926 b93d da7c d6bc
00000180: 6398 453c e3ca e83d 8b4e 763c 7f27 ebbd
00000190: 0ef7 b2bd 024d 0dbd 09b4 15be 5c31 433d
000001a0: dc3e 0fbe 5f49 8a3d 2ef0 ee3d 60d5 443e
000001b0: ee13 1e3d b7d5 ef3d ce3c 98bd 0638 943c
000001c0: 3ba6 873d 655f 253e 222f 213d 1a94 76bc
000001d0: 4b69 47bd 5c15 2bbe 0d36 353e ff91 df3c
000001e0: 9b66 463c fac6 183e 25ed bd3d 0f0c c63d
000001f0: 8e92 a43d a21c f1bd 3a3b 173e 78dd 92bd
00000200: 27d6 20be f22e 01be 9d99 013e 689c 003e
00000210: 9283 23bd b79c 083e b269 22be fb4e 873d
00000220: c642 233e 3313 eebd a722 313e 65c0 1dbd
00000230: a9e2 c03d 999f ebbd 17e5 00be 6483 d8bd
00000240: 6f22 3dbc ca21 443d 5d61 27be 3eb4 e6bd
00000250: 514b 3b3e 0a32 d23d 3907 10be 042d 59bd
00000260: 6b7c 2cbc 7431 84bd cbc5 aabd 8fc6 eebd
00000270: 9d1b 383e 4e1a 9cbc 0fdf 1fbd fe14 1ebe
00000280: ce0a 2cbc 6851 093e 80af d53d fd87 283e
00000290: 2d03 0e3c b3ca 3c3e 076c 28be 8350 99bd
000002a0: fdc3 dfbd 76d1 ce3d a97a 043d 1fa8 f3bd
000002b0: 15c4 8cbc 1866 17bd 8f21 1d3e b112 4fbd
000002c0: 5214 ce3d 4db0 cabd c502 debd 2be3 96bd
000002d0: 1cdb 413d 9f60 09bc f0b9 a03d 1953 073d
000002e0: ed99 03be 6ae1 c0bd a6a0 973c b839 8a3d
000002f0: dd1a 02be 12e8 7ebd 94c5 d1bc 0f81 f2bd
00000300: 3dba 263e ed84 00bb f2ef e7bc bd95 b73d
00000310: c97b 04be 2843 8a3d a7b7 1ebe 6fc0 bc3d
00000320: 0cc7 a1bd 9fb0 e73d f99f 71bd 43a4 c7bd
00000330: 2c93 a2bd c550 003e 2b47 3c3d 2aaa 37bd
00000340: a873 ef3d f8ba 80bd 8ed3 88bd 68af 163e
00000350: 5c20 e23d 2b69 08be c8a0 253e e79e 54ba
00000360: 485b 0dbe 2377 8a3c 6d89 d53d cc65 04be
00000370: 82cc 3bbe d1f0 0b3e 38ef 0fbe 3ca7 b33d
00000380: 1746 f43d dac5 27bd b3ce 6e3d 827d 403e
00000390: d806 16be 5077 923d 9e97 073e ef7a d3bd
000003a0: 8c25 10be 3666 09bd 1c7f 3fbe 46c9 06bd
000003b0: 1cbb 413e 2b0a bfbd 4663 6abc 22aa f8bd
000003c0: f5dd 1bbe b21f 883d 9382 fabb 4c12 fd3d
000003d0: e6d5 d9bd 2833 1cbd bac0 babb 6e00 03be
000003e0: 8137 113e e49d 58bd 13a8 3d3e 5ad4 c8bd
000003f0: 0ca1 79bd 2ea3 263e e1b8 553c 54ff 1c3d
0.11148287 0.079572536 0.019586414 0.10277838 0.029289966 0.17688937 0.01486841 -0.16875392
0.043393392 0.17217585 0.025717137 -0.08021023 0.12437044 -0.03401748 0.12121305 0.029150248
0.15660216 -0.15891837 0.14371 -0.056493707 0.1630436 -0.1304845 -0.012114093 -0.0035564094
-0.014691876 -0.037588473 0.08085909 0.1340045 -0.1577709 0.03617173 -0.063451655 0.13539414
0.040873002 -0.12756637 -0.08839284 -0.062450733 0.17541999 0.15267137 0.17487657 0.18380082
0.101226166 -0.09073068 0.18834695 0.0006467601 -0.16283987 -0.05009315 -0.028043047 0.078416064
0.13537578 0.10374098 -0.08971346 -0.02271472 -0.124126 0.06035878 0.13237804 0.029332217
0.13402191 0.13637643 -0.0627853 0.07583492 0.015365278 -0.12280863 -0.06494086 -0.12411942
-0.093990974 -0.08407584 0.09895956 -0.1098968 0.18441322 0.1291425 0.03659802 0.16544043
-0.043050867 -0.050267003 0.13714236 0.1000257 0.17571817 0.08094485 -0.14822578 -0.059159115
-0.07793255 -0.041054003 0.13746564 -0.15982717 0.0106910365 -0.09174441 -0.16260332 0.18693674
-0.09411556 0.010984628 0.15413721 0.06397644 0.0051533706 0.15744416 0.09040577 -0.02618258
0.012060258 0.113668226 0.015033375 -0.11482143 -0.08738528 -0.03449727 -0.14619459 0.047654495
-0.13988823 0.06752276 0.116669044 0.19222021 0.038593225 0.11710685 -0.074334726 0.01809312
0.06623503 0.16149671 0.03935159 -0.015049959 -0.0486844 -0.16707367 0.176964 0.027291296
0.012109424 0.14919654 0.09273747 0.09670269 0.080357656 -0.117730394 0.14768687 -0.07171148
-0.15706693 -0.12615564 0.12656255 0.12559664 -0.039920397 0.13341032 -0.15860632 0.06606861
0.15943441 -0.11624756 0.17298375 -0.03851356 0.09418232 -0.1150505 -0.12587391 -0.10571936
-0.011543854 0.047883786 -0.16345735 -0.11264847 0.1829045 0.102634504 -0.14065255 -0.053021446
-0.01052771 -0.06454745 -0.08338507 -0.11658966 0.17979284 -0.019055512 -0.039031085 -0.15437695
-0.010500623 0.1340996 0.104338646 0.16458125 0.008667749 0.18436699 -0.16447459 -0.074860595
-0.10926054 0.10098545 0.03234354 -0.11897301 -0.017183343 -0.0369626 0.15344833 -0.050554935
0.100624695 -0.09896908 -0.10840372 -0.073675476 0.0473281 -0.008384853 0.07847965 0.033038232
-0.12851687 -0.09417994 0.01850922 0.0674929 -0.1270556 -0.06223304 -0.025606908 -0.11841022
0.16281982 -0.001961048 -0.028312657 0.08964107 -0.12937845 0.0675109 -0.15499745 0.09216391
-0.07899293 0.11312985 -0.058990452 -0.09748127 -0.07938227 0.12530811 0.04596631 -0.044840015
0.116919816 -0.062856615 -0.06680976 0.1471535 0.11041328 -0.13321368 0.16174614 -0.00081108365
-0.13804352 0.016902512 0.104266025 -0.12929457 -0.18339732 0.13666083 -0.14056098 0.08772132
0.11927431 -0.04096017 0.058302592 0.18797877 -0.14651048 0.07151663 0.13241431 -0.10326182
-0.14076823 -0.03354474 -0.18700832 -0.032906793 0.18919033 -0.09328111 -0.014305895 -0.12141825
-0.15221389 0.066466704 -0.00764496 0.123570055 -0.10636501 -0.038134724 -0.0056992443 -0.12793133
0.1418133 -0.05288495 0.18521146 -0.09806128 -0.060944602 0.16273186 0.013044567 0.038329437

policy_net.cfc_model.rnn_cell.ff1.bias f4 [48]
00000000: 5b15 903d 88a3 1cbc 2af7 bb3b 1a17 aebb
00000010: 9195 91bd 2594 2dbd 46e1 023d 5217 843d
00000020: 744d 4b3d 661b 20bd 108d a63d 1348 883d
00000030: c3cb 53bd f7d0 a53c 4c92 a7bd 5353 c4bd
00000040: a17e 4ebd 30de 003c cec3 0bbc 0bcd 923d
00000050: 03dc 8c3d cb4f bbbd 1c71 2e3d 2790 403d
00000060: 5ad4 6e3d a6a3 29bc c4b4 62bd 4ffd 9bbd
00000070: 73e0 233c d6f9 943d 7239 9cbd 5b27 793c
00000080: 2e92 8ebd f9d8 ad3d 9f44 15bd 98d1 233d
00000090: 827a 6ebc 8a3e 353d c8c6 33bd c731 54bc
000000a0: e330 bc3c 51f0 88bd a25f 9d3d 70b5 d1bc
000000b0: 7f6e 95bc 4f9e e3bc 690f 903b f4e5 6bbd
0.07035323 -0.009560473 0.0057362514 -0.0053128125 -0.07108606 -0.04237761 0.03195312 0.064497605
0.049634412 -0.03908863 0.08132374 0.06654372 -0.051707994 0.020241244 -0.08182201 -0.09586205
-0.05041373 0.007865474 -0.00853057 0.07168015 0.068779014 -0.09146079 0.04258834 0.047012474
0.058307983 -0.010353958 -0.055348173 -0.07616674 0.010002243 0.07274215 -0.07628144 0.015207137
-0.06961475 0.0848865 -0.036442395 0.039994806 -0.014555575 0.044249095 -0.043890744 -0.012951321
0.02297253 -0.06686462 0.07684256 -0.025599211 -0.018241165 -0.027785448 0.0043963683 -0.057592347

policy_net.h2o.weight f4 [2, 48]
00000000: 1b00 bb3d a4a8 d2bd cba4 0abe 1ff8 573d
00000010: 6953 e63d e00b 9abd 8aad 753d bafd 81bd
00000020: 568f cbbd ca41 dcbd 47d8 8d3b b095 f53b
00000030: 0dad dc3d 820f a8bd 04fe 063e 4078 44bd
00000040: b9a1 b93d 6b2d 0fbe ed2b c33d 1710 a73d
00000050: eda8 71bd 4374 7bbd f197 e3bd d8c1 023d
00000060: d1c5 863d 004f dd3c da46 2c3d e43f 99bd
00000070: 1295 3abc 5fd2 aabd ab2d 46bd 3ca3 e03d
00000080: 3483 84bd 3418 cf3d d131 be3d 35c7 a7bd
00000090: 156d 043c 4a93 f93d 397a 5cbb 7600 81ba
000000a0: d08c 023c 4561 c9bd 89ba 0b3d 64bc 0dbd
000000b0: 1b9f b8bd 2731 883d f659 773d 4acb 8e3d
000000c0: f2c4 d6ba 6ee4 b63d 5f1e f33d 7b2c 643d
000000d0: f765 d03b 47ac cebd 01b5 adbd b5be 643d
000000e0: 95ad f43c d5dd 1cbd 7c65 e5bc a437 c23d
000000f0: 3aff ef3d af9c ca3d fff1 ed3d 85f7 10bc
00000100: 0983 eebb 4aec f3bd ad09 0f3d 3ff1 053e
00000110: 6857 79bd 374a 783d 1ff3 2e3d d6cc 4cbb
00000120: 19b2 c93d ffd8 95bd 4b69 c43d 3105 d0bc
00000130: b1a6 253d d3a4 b1bc adc8 353c 7734 0c3e
00000140: a3cd 11bd 2082 a73d 893b 853d 5b14 403c
00000150: f9f9 8e3d 76ba 07be 148b 153d 809b eebd
00000160: 5e46 f8bd 707e 67bd 9214 d13d 95c5 6a3c
00000170: e097 afbb 539b 6cbc 86af 82bb 6db8 bdbd
0.091308795 -0.10286072 -0.13539426 0.05272686 0.11246378 -0.07521796 0.059979953 -0.063472226
-0.099394485 -0.10754736 0.004328761 0.007494651 0.10775194 -0.08206083 0.13182837 -0.04796624
0.09064049 -0.1398217 0.095298626 0.08157366 -0.05899899 -0.061390173 -0.11112965 0.031923145
0.06580699 0.02701521 0.042059757 -0.07482889 -0.01138808 -0.08340906 -0.048383396 0.109686345
-0.064703375 0.10112038 0.092868455 -0.081922926 0.008082648 0.12186296 -0.0033642186 -0.0009842056
0.007968143 -0.09833006 0.03411344 -0.03460349 -0.09014722 0.0665 0.060388528 0.06972368
-0.0016385599 0.08930288 0.11871027 0.055706482 0.0063598114 -0.10091453 -0.084817894 0.055845935
0.029867927 -0.038297493 -0.028002493 0.09483269 0.117186025 0.09893166 0.11618423 -0.008848076
-0.007278804 -0.11910303 0.034921337 0.1308031 -0.060874373 0.06061765 0.042712327 -0.0031250021
0.098484226 -0.07316779 0.095903955 -0.0253931 0.040442172 -0.02168504 0.011095208 0.13691889
-0.0355965 0.08179116 0.06505496 0.011723603 0.06981272 -0.13254723 0.03650959 -0.11650753
-0.121227965 -0.056517065 0.102090016 0.014329334 -0.005358681 -0.014441329 -0.003988209 -0.09263692

policy_net.h2o.bias f4 [2]
00000000: a97c 2f3b d92a 1cbc
0.0026777184 -0.0095317

policy_net.h2v.weight f4 [1, 48]
00000000: dd7f ad3d 274a 7cbc 7794 b8bd d954 2cbd
00000010: 80bc f63d 4be5 dcbb 5edc 8bbd 7d8b 003e
00000020: 59b5 aabd 26e5 b4bd c541 e1bd b8b6 21bd
00000030: c847 0d3e 3b08 05bc 7eb7 92bd ad8e 4abd
00000040: 49d3 0f3c 43bd c83c 993a ab3d 54b7 b43d
00000050: 10cf 8dbd 5eec a13d 33c5 af3c 0575 0ebe
00000060: 3bd7 86bc a3a6 193d 72db 303c 5d97 e4bd
00000070: ee88 93bd c4dc a6bd 13a0 063d 233d 56bd
00000080: 7869 c4bd 547e 2abd ad79 043e 5a3a 84bd
00000090: 3761 033d 3761 923d 0258 f83c 2b53 9cbd
000000a0: 795d f93c a081 c1bc 238b c5bd f40e 0bbe
000000b0: b8fc 7dbd 52c6 e5bd caee 4d3c 2623 693d
0.084716536 -0.015398539 -0.090126924 -0.042073105 0.12047672 -0.006741201 -0.06829141 0.1255321
-0.083353706 -0.08832769 -0.10998873 -0.039480895 0.13796914 -0.008119638 -0.071639046 -0.049452472
0.008778402 0.02450431 0.08360786 0.088240296 -0.0692426 0.079064116 0.021456337 -0.13911827
-0.016460052 0.037512433 0.010794507 -0.11161683 -0.07203852 -0.081475765 0.032867502 -0.0523044
-0.09590429 -0.041624382 0.1293704 -0.06456442 0.032075133 0.071474485 0.030315403 -0.076330505
0.030440079 -0.02362138 -0.09645679 -0.13579923 -0.06200859 -0.11219467 0.012569139 0.056918286

neuromod_net.0.weight f4 [192, 3]
00000000: ac9c cc3e 0441 583e e7eb e33e 2e7d 01be
00000010: be38 0ebf cbae e93e 3ed2 1bbe aabf 053e
00000020: de7a 623d a480 c23e 18ea 133f 9c88 373c
00000030: 7927 523e 4fd1 9d3c 9577 04bf 7639 06bf
00000040: 19b9 e0be aab2 0e3f c31d 053f 7749 003f
00000050: 1566 d4be d00a 32be 4f51 583d f01e 10be
00000060: bb2d 4cbc 1867 ab3e 320c 373e e6fd c13e
00000070: 46b8 a73e c98e 96be 4549 22bc eb0e c7bd
00000080: c500 56be c137 a4bc bd22 1f3e 5c37 d7be
00000090: 9308 0d3d e9cc e5bd 0dd9 ebbe 9cb5 1e3e
000000a0: 3023 653c 44f0 f83e 8976 06bf 9652 00bf
000000b0: 27f1 fdbe 3ba0 01bf 1c4c 6b3d 7e8c 8e3e
000000c0: e2ac a63e 8ad4 fdbe a034 973e 2994 66be
000000d0: ad0e 393d 1e67 94be b9dc 073f 59b3 f33d
000000e0: 47f3 04bf 3faf f53e 5fe6 aa3e 0d67 c9bd
000000f0: b409 8cbd a03c ffbd 0d57 be3d af8c ddbe
00000100: ed57 c3bd 6abf 0b3f 16e9 d0bd 865b 633e
00000110: dac2 9d3e 6425 6abe 7680 9c3e 286f 1ebe
00000120: f43d c33e 8a55 993e d70b be3d 9198 82be
00000130: 7755 febe 7ff6 10bf 87d8 9cbd 46b5 55be
00000140: eb87 b63d 5549 bb3e f9fc cf3e 4dd8 11bf
00000150: a3c6 063f adf7 f5be 488e 04bf 725d 31bd
00000160: 9f5e 333e 3a9f 903e d3aa 053f d99b 563e
00000170: 544e ebbe 19a7 23bc aa73 f2be 512f d33e
00000180: 17e2 b53d 20d2 c3be 0084 0a3c 01c8 c83e
00000190: eecd fdbe c852 d3be 5612 6a3e 2751 383d
000001a0: f630 3a3e dd7a df3e d03d 7cbe fd14 803c
000001b0: cff1 e4be 1799 c7be 86cf c13e 925e 8f3e
000001c0: 897f 8d3e 3e23 8f3e 9cd5 80be 8001 1e3e
000001d0: 73bf d1bd 1651 57be da6f 92bd 7692 87be
000001e0: 9dd6 6dbe a4ff 4abe 418b ba3e 6ee9 09bf
000001f0: 9ff4 153c f38a cd3e 21c9 773e f207 0a3f
00000200: 1475 813c 3654 6dbe 0e8e 88be c0a8 f0bd
00000210: 7845 92be 823d 2a3e f563 d8be 2bbf debd
00000220: a2e7 db3e b278 9abe bcfe fbbd 58a3 b0bc
00000230: a4d3 16bd 1528 bdbe 3a9b 37be 5fe6 f93e
00000240: ad83 9b3e f69b fbbe 44cb 873e 153e d83e
00000250: a73d 113f 2ec8 96be c0e1 dd3e e9c5 27be
00000260: 3367 e0be 946b 803e fe6f 883e ca74 003e
00000270: a6a7 39bd 2587 dfbd d0d8 aabe 77e8 a8be
00000280: 34d4 dfbe dbbe a0be a971 bf3d bcd1 87bd
00000290: cdf7 f1bc 821a 9cbe 1b38 523e e0ca 3cbe
000002a0: 9eb0 26be e1c1 08bf be73 93bd ab0e 4d3d
000002b0: 3c45 963e fc93 fbbd 4515 62be 6071 1e3d
000002c0: d79e abbd 8328 093f d1c8 063f 026d 713d
000002d0: 1ebd e8bd 40aa a0bd 9c7b 2ebd 3ad8 f8be
000002e0: 15d3 4fbe fb7e f1be d554 6c3e 63a5 a83d
000002f0: 4ad7 d83e 42c4 a53d 8b6b 28be 4762 b13d
00000300: c7e9 983e 1ca8 a23e 881d 943e ae36 9a3d
00000310: cc2c 32be b48e 02bf d585 bd3e 35c5 92be
00000320: 27e5 09bf d691 2a3e eaca 8d3c 8ceb cbbe
00000330: fe6f dd3e 6016 d6be af01 56bd 7126 a8be
00000340: 3c8f febe e66e 073f 8881 bcbd 871b 0b3f
00000350: 6622 f2bc e696 d03e ab5b d93e bbbe 163e
00000360: 9db3 6c3e 0cb0 fc3e 3d66 113e 77d6 e13e
00000370: 69bf f9bd b9b4 03bf b2f6 e43e f7cf fabe
00000380: 41f4 103f 7c32 2cbd 7fc9 e2be f9ac 5c3e
00000390: 3db6 b63e b907 c2bd 0c54 f83d 8795 9a3d
000003a0: 76ff f3bb e4e3 fe3e a9a5 f63e 627c aabe
000003b0: 0bf3 b6be b54a 9aba bf37 81bc e996 a5be
000003c0: b696 b03e b594 07bf a8b0 03bc 2ed3 9bbe
000003d0: b145 c1be 6aee 7cbe 4e51 173e d287 4abc
000003e0: 1f7b 023f a0d3 07bf d136 f5be 542c 4dbe
000003f0: c303 613e 09be 023e af30 b7be fa3e 28bd
0.3996328 0.21118551 0.44515917 -0.12645409 -0.5555533 0.4564117 -0.1521692 0.13061395
0.055292957 0.3798877 0.57779074 0.011202004 0.2052287 0.019264845 -0.5174497 -0.5243143
-0.43891218 0.5574137 0.5199854 0.501121 -0.41484132 -0.17386937 0.052811917 -0.14074302
-0.012462075 0.33477092 0.17875746 0.37889022 0.32757777 -0.2940581 -0.009905164 -0.09719642
-0.20898731 -0.020046117 0.15540595 -0.42034423 0.034432005 -0.11220724 -0.46064034 0.15498966
0.01398544 0.48620808 -0.5252462 -0.50126016 -0.49598047 -0.5063512 0.05744563 0.27841562
0.32553774 -0.49576217 0.29532337 -0.22517456 0.04518001 -0.28984922 0.5307117 0.11899442
-0.5193371 0.47985265 0.33378884 -0.098341085 -0.06837788 -0.12462735 0.09293947 -0.43271396
-0.09538255 0.5458895 -0.102007076 0.22202882 0.30812722 -0.22865826 0.30566758 -0.1547209
0.38133204 0.29948074 0.09279602 -0.25507024 -0.4967458 -0.56626123 -0.07658487 -0.20869932
0.08912643 0.36579385 0.4062269 -0.56970674 0.52646846 -0.48040524 -0.51779604 -0.043302007
0.17516564 0.2824648 0.5221378 0.20957889 -0.45958197 -0.00998857 -0.4735387 0.41247037
0.08881014 -0.3824625 0.008454323 0.3921509 -0.49571174 -0.41274095 0.22858557 0.044999268
0.1818274 0.43648425 -0.24632955 0.015635008 -0.44715735 -0.38983986 0.3785364 0.2800184
0.27636364 0.27956575 -0.2516297 0.1543026 -0.10241594 -0.21027026 -0.0715024 -0.26478928
-0.232264 -0.19824082 0.36434367 -0.5387181 0.0091525605 0.40145072 0.24197818 0.53918374
0.015802898 -0.23176655 -0.2667088 -0.117509365 -0.28568625 0.16625026 -0.4226376 -0.10876306
0.4295016 -0.30170208 -0.12304446 -0.021562263 -0.03682293 -0.36944643 -0.17930308 0.48808572
0.30373898 -0.49142426 0.26522267 0.42234865 0.567347 -0.294496 0.43336296 -0.1638409
-0.43828735 0.25082076 0.26647943 0.12544551 -0.045325898 -0.10914449 -0.3336854 -0.32989857
-0.43716586 -0.3139561 0.09347851 -0.066318005 -0.029537106 -0.30488974 0.20529215 -0.18436766
-0.16278312 -0.53420836 -0.071998104 0.050062817 0.29349697 -0.12284085 -0.22078426 0.03868234
-0.08379906 0.5357744 0.5265017 0.05894185 -0.11364196 -0.078449726 -0.04259835 -0.48602468
-0.20295365 -0.4716719 0.23079236 0.0823467 0.42351753 0.08094074 -0.16447274 0.08661323
0.29865858 0.31768882 0.2892878 0.075299606 -0.17399901 -0.50999 0.37016168 -0.28666082
-0.53865284 0.16657194 0.017308671 -0.39828146 0.43249506 -0.41813946 -0.0522477 -0.32841828
-0.49718654 0.5290359 -0.092043936 0.5433888 -0.029557418 0.40740126 0.4245275 0.14721195
0.23115392 0.49353063 0.14199157 0.44108936 -0.12194712 -0.51447636 0.44719464 -0.4898679
0.566227 -0.042040333 -0.44294354 0.21550359 0.35685912 -0.09474129 0.12125406 0.07548051
-0.007446225 0.49783242 0.48173264 -0.33298022 -0.35732302 -0.0011771532 -0.015773652 -0.32341698
0.34489983 -0.52961284 -0.008037724 -0.30434555 -0.37748483 -0.24700323 0.14777109 -0.012361484
0.5096912 -0.5305729 -0.47893384 -0.20036441 0.21974091 0.12767805 -0.3577933 -0.041075684

neuromod_net.0.bias f4 [192]
00000000: 07e0 6e3d 8cce 5cbe e43a a63e 3961 bb3d
00000010: 2863 fdbe 9010 a0be fadf 39be af39 fbbe
00000020: 26ef a43e 69d3 04bf 2942 843e 3ea2 0fbc
00000030: 684d 043f 997a 493b bb15 cdbe a7a9 533e
00000040: ca61 123f 7f53 6e3c adbf 9bbe dbb0 7a3e
00000050: db5d bcbd 2ef9 0bbf d963 be3e eeaf abbe
00000060: 8f69 8dbe f40a 063f 639c 37be cbb8 00bf
00000070: 1431 f6bd 82b3 ebbe 302b eebe 36cf b4be
00000080: a471 ccbe cf62 d5be 1d7e 023f 3054 053d
00000090: 3bcd 54be 1417 36be 0e01 053f 9911 103f
000000a0: 4ff8 6bbe 9034 04bf 9219 c4be b39a eebd
000000b0: aff1 923d 2219 e73e 84dc 903d f8f9 cebe
000000c0: 8d77 643d adf9 9c3e e3b7 55bd 7252 e7bd
000000d0: aff8 f4be cc1b 033f a680 353e a68e 4abe
000000e0: 3e8d 0d3e 27cf aa3c a091 e5be 8772 bbbe
000000f0: 4b89 83be 8656 fc3e 9023 5ebe 8f1e f4be
00000100: c6b3 9d3e 8948 8e3e 59cf b2ba 21d5 103e
00000110: 5c26 d93e 5051 613e ffd7 ce3e e1cc 943d
00000120: 88d8 6e3e 3dfb f9be 1ea4 8ebe 2a3a 1dbe
00000130: 37ad ce3e a954 e73e 3554 193e 85e9 0b3f
00000140: e8ec db3e eddf 9d3e 7097 f03e bcc4 113f
00000150: 1086 033f e1fe b93e 4771 0a3f c775 00bf
00000160: ef62 083f a201 d43d 9372 053f 4a2c 973e
00000170: 009c d8bd 8ae0 babe 1f00 173c d7e7 c1be
00000180: 1bfb 013f 5bd0 02be 2a6d c83e c684 c5be
00000190: 37ba e2bd a09f 96be aa24 e23e 53fa f73e
000001a0: caa5 28bc 7cba c53e f64c bebe ab52 01be
000001b0: 3350 133e 0fa1 873e f5dd 06bf 08c0 d7be
000001c0: 3be8 cb3e c260 65be 32be 0d3f 7642 0ebf
000001d0: f7ec fb3e bdf3 a73e bf5a b63e 19f2 0f3f
000001e0: 4e65 03be c979 10bc 878b c5be c771 07bf
000001f0: 8851 3bbe d46c 98be 640d 203e f157 973e
00000200: 6342 44be e8a7 cd3e 45c5 d43e 211f 2dbd
00000210: aee4 083e c569 94be 9ed9 1ebe dcc8 ff3e
00000220: 538e edbd bbbd 803e c0c9 473e 7ad9 bb3e
00000230: dc19 593d 9b24 c23e facd cfbe d619 61bc
00000240: b9e4 863e 01b4 8d3e 08b6 a4bd c3d6 de3d
00000250: d00e 0f3f c7b5 0fbd b106 b83e e8d6 05bf
00000260: f28a b9bd ba78 95be 8ede 9d3d d212 233d
00000270: 982b 24bd 6165 17be fe97 fe3e 07f6 353e
00000280: c341 96be f58f 86be 53cd f73e 55a3 f53e
00000290: aa98 df3e 9488 0f3e 3dbf c53e 95ed da3e
000002a0: 174f 8f3e 8321 0b3f 4c13 07bf ed11 6ebd
000002b0: 1945 6cbe d2da 413e 5756 d8bd e2db c63e
000002c0: 20c5 103e 320f 5cbd 180c f43d 4948 223e
000002d0: 5c87 ab3d e410 0e3f 1cb1 13bf cff0 b63e
000002e0: ecde 16bc f068 21be 6845 5bbe 963b e4be
000002f0: fa4a 79be c452 56be a2bd ee3e e9db cebe
0.058319118 -0.21563166 0.32466805 0.09149403 -0.49489713 -0.31262636 -0.18151847 -0.49067447
0.32213706 -0.51885086 0.25831726 -0.008766709 0.5168061 0.003074324 -0.40055642 0.20670186
0.57180464 0.014546274 -0.30419675 0.24481528 -0.09197589 -0.54677093 0.37185553 -0.3353266
-0.27619597 0.52360463 -0.1793075 -0.5028197 -0.1202108 -0.4603539 -0.46517324 -0.3531434
-0.3993045 -0.41676947 0.50973684 0.03255099 -0.20781414 -0.17782241 0.51954734 0.5627685
-0.23043941 -0.51642704 -0.3830076 -0.116506 0.07175004 0.45136362 0.0707331 -0.40425086
0.055778075 0.30659238 -0.05217732 -0.11295022 -0.4784598 0.5121429 0.17724857 -0.19780979
0.13823411 0.020850731 -0.44837666 -0.36610815 -0.25690684 0.49284762 -0.21693254 -0.47679564
0.3080122 0.27789715 -0.0013642117 0.14143802 0.42412078 0.22003675 0.40399167 0.0726564
0.23324788 -0.48824492 -0.27859586 -0.15354219 0.40366527 0.45181778 0.14973529 0.546532
0.42954183 0.30834904 0.46990538 0.5694082 0.5137644 0.3632727 0.540791 -0.50179714
0.5327596 0.10351874 0.5212795 0.29525977 -0.1057663 -0.36499435 0.009216337 -0.37872192
0.5077378 -0.12774794 0.39145786 -0.3857786 -0.11070674 -0.2941866 0.44168597 0.4843317
-0.010293433 0.3861884 -0.37168092 -0.12629192 0.14386062 0.26490065 -0.5268243 -0.42138696
0.39825615 -0.22400191 0.5536834 -0.5557016 0.49204227 0.32803145 0.3561611 0.56228787
-0.12831613 -0.008818098 -0.38583013 -0.52907985 -0.1829282 -0.2977053 0.15630108 0.2955928
-0.1916595 0.40167165 0.41556755 -0.042266015 0.13368484 -0.28986946 -0.15512702 0.4995793
-0.11599412 0.25144753 0.19510555 0.3668936 0.053003177 0.37918553 -0.40586835 -0.01373907
0.26346377 0.27676395 -0.08042532 0.10880806 0.5588198 -0.035085466 0.35942605 -0.52281046
-0.09059705 -0.2919367 0.077084646 0.03981287 -0.040080637 -0.14784767 0.49725336 0.17769633
-0.29347047 -0.26281705 0.48398837 0.47976175 0.4367116 0.14016944 0.38622466 0.42759386
0.27990028 0.5434801 -0.5276382 -0.058122564 -0.23073234 0.1893113 -0.10563343 0.38839632
0.14137697 -0.05372543 0.11916369 0.15847887 0.08375427 0.55494523 -0.5769212 0.35730597
-0.009208422 -0.15762687 -0.21413195 -0.4457671 -0.24345008 -0.2093001 0.46629053 -0.40402153

neuromod_net.2.weight f4 [96, 192]
00000000: e59c f43c 2388 6fbd 9379 1cbc 8a8b b3bc
00000010: f512 6abc 8440 88bc 3b6c 903d 89bd 243d
00000020: 11a6 913c 5bee 8c3c 2aa5 d03b d6ac bbbc
00000030: f19b 423d 64b7 72bd a567 743d 0e03 8fbd
00000040: 4772 68bd 700d 703d 690a 03bd b578 863d
00000050: ac6a 163c b8ae ec3b c7df cdbc cc2b 273c
00000060: f8d5 3cbd 9fca 52bd 90f6 fa3b 24c7 16b9
00000070: ab00 8bbd 0408 813d a7e5 833c d798 3bbd
00000080: ff32 a43b 6891 533d e392 3b3d 5a1b 7fbc
00000090: f7cb 3f3c b396 57bd db6b 7dbd 240f 29bd
000000a0: 6152 0f3b cb37 c1bc 53a9 76bd 4544 693c
000000b0: 270d f53c 246c 90bd 2869 113d 54cb 5e3c
000000c0: 6785 823d e047 c9bc 75c7 47bd f01b 23bd
000000d0: 2fc9 14bd a545 073d 621b 85bd 8bd4 083d
000000e0: d5d8 e13c 3c3c b5ba 1906 333b 67f9 f93c
000000f0: eb51 143d 3526 713d 0ea3 4abd e989 95bb
00000100: 3558 3dbd 9b0f ad3b 2577 463d e20b ac3c
00000110: 6905 2a3d 9a82 cdbb 82aa 4fbd b2c6 6c3d
00000120: 6f41 483d 373d 273d 6951 41bd 3637 103a
00000130: 4337 593d f7f7 b7bc 4ed9 04bd 614f 36bc
00000140: 81d3 7cbd e51d 13bd 6d67 8d3c 4436 863d
00000150: 233e 943c eb9f 87bb d609 b9bb 2103 703d
00000160: 8b21 e8bc c693 2f3d af56 8ebd 54f6 36bb
00000170: 490b 5cbd e63d 8abd c0d6 87bb cec2 07bd
00000180: 2b56 23bd 6dfc 90bb 240f 483c 0cdc 2fbd
00000190: c654 433d 6d97 853d 9d6e 823b 6451 6e3d
000001a0: 58e4 2cbd 0cbd 47bd 1a8f 723d 3a21 f53b
000001b0: 01a1 e7bc bdee 873d a56b 4f3d d8f7 d4bc
000001c0: 3d69 85bc 8d01 883d 9634 163d 0ee6 913c
000001d0: 8e2c 16ba 7887 5fbc 90a6 073d 1926 babc
000001e0: 4d86 143d 24de cc3c 6394 03bd 2e37 793d
000001f0: ae12 873d 0e4f 75bd 7bad e5bc ae6a e63c
00000200: c3dc 2cbc a08c 5c3c 19ee 993c 4e31 8fbd
00000210: 0eb2 6abc 7010 b23c 6ddc 81bd e993 8abd
00000220: fae6 d2bb fcbc 7e3d 287c 8f3d f1b5 4bbd
00000230: 07e7 5a3d a9e1 5bbc 6c53 023d c473 cdbc
00000240: de29 18bb 0a7e ac3c 2eac 85bc 5632 67bc
00000250: 52e4 d43b b30d 7a3b 5dc3 4cbd 1387 86bd
00000260: e4b8 0dbd ae64 923c 14eb 563d a52b 45bd
00000270: e428 1abd 7da1 ccbc e5f4 293d 43ef 8f3c
00000280: 6435 84bd 1b27 89bd aa6d b3bc c648 a23c
00000290: 57ff dd3b f52c ccbc cad2 623d 05f0 813d
000002a0: 1e1f 2d3d cf7a 2ebd e32d 17bc 5537 693d
000002b0: e94b a63a dc91 69bd a6ac 4f3d aa7f 01bb
000002c0: 3c1b 5a3c c367 583c f760 20bd d81e 453d
000002d0: d710 813c f85d 36bd 8ea9 8abd 1ff0 e23c
000002e0: b766 f53c 3d50 89bc cfca adbc 861f 0e3c
000002f0: 3d1f 06bd 355e 8dbd c21f 25bd 48be 64bd
00000300: c8d4 903a 2e63 453d e6b0 1bbd fa28 7c3d
00000310: 8a95 3b3b 6f74 9a3c 828e 82bd f136 8f3c
00000320: 362f d73b 6895 923c a82d 123d 1590 99ba
00000330: 5610 413c b31d e43c 24af b7bb 88b7 93bc
00000340: f229 b0bb 9a4b 1bbd 7590 933d 0cbe 003d
00000350: d934 d6bc e6cb dfbc e299 c43b 03df 69bc
00000360: 1b42 babc 17c7 07bd ccd6 583d 8dc5 743c
00000370: 6e0a 593c 8014 b63c 34a8 793c ba5c 60bd
00000380: 3b0d 3f3d 4b26 023d 8c6d 8ebb 43c2 17bd
00000390: d0ef 893d 9f71 4a3c ca32 043d 3ce7 78bc
000003a0: 5e7d 2dbd fedc bc39 d1ee cabb 48a7 29bd
000003b0: c116 8d3d efc6 473b 15df 7b3d f9b5 d6bc
000003c0: 7ef6 433d 5f9c 6cbd c0d4 533c aeb0 06bd
000003d0: 9dec 96bc 0ea4 02bd 1349 c6bb 8ec3 96bc
000003e0: 209e b3bc 38f2 5d3d 4339 803d 30c1 753d
000003f0: 7190 17bd 45df fd3c e153 7ebd c07a 6dbd
0.02985997 -0.05847944 -0.00955047 -0.021917123 -0.014286746 -0.016632326 0.07051893 0.040219817
0.017779382 0.0172035 0.0063673453 -0.022909563 0.047512 -0.059256926 0.059669156 -0.069830045
-0.05674961 0.058606565 -0.03199235 0.06565992 0.009180706 0.0072229765 -0.02513112 0.010203313
-0.046102494 -0.051462766 0.007658787 -0.000143793 -0.06787237 0.06300357 0.016100718 -0.045800056
0.005010962 0.051652342 0.04579438 -0.015570486 0.011706344 -0.052633952 -0.061870437 -0.041274205
0.002186917 -0.023586174 -0.060220074 0.014237468 0.029913498 -0.07051876 0.035500675 0.013598282
0.06373101 -0.024570405 -0.0487742 -0.039821565 -0.036324676 0.033025403 -0.064993635 0.03340582
0.027569214 -0.0013827155 0.0027316867 0.030514432 0.036210936 0.058874328 -0.049471907 -0.0045635593
-0.0462267 0.0052814013 0.04845347 0.02100176 0.041509066 -0.0062716724 -0.05069972 0.057806678
0.048890527 0.040829863 -0.04719678 0.0005501391 0.053031217 -0.022457106 -0.0324338 -0.011127324
-0.061725143 -0.03591718 0.017261231 0.06553319 0.018096035 -0.0041389368 -0.0056469245 0.058596734
-0.028336307 0.042865537 -0.06950127 -0.002791782 -0.0537217 -0.067500874 -0.0041454732 -0.033144765
-0.039877098 -0.0044246227 0.012210641 -0.042934462 0.047688268 0.06523023 0.0039804713 0.05818309
-0.042209953 -0.048764274 0.059218504 0.0074807676 -0.028275015 0.066373326 0.050639767 -0.025997087
-0.016285533 0.06640921 0.036671244 0.017809894 -0.0005728685 -0.013643138 0.03311783 -0.022723245
0.03626089 0.025008269 -0.032123934 0.06084364 0.0659536 -0.059889846 -0.028036823 0.02812704
-0.010550681 0.013461262 0.018790292 -0.06991826 -0.014324678 0.021736354 -0.06340871 -0.06766493
-0.006436226 0.06219195 0.07006103 -0.04973406 0.05344298 -0.013420501 0.03181784 -0.025079615
-0.0023218314 0.021056194 -0.016317453 -0.014111122 0.0064969445 0.0038155138 -0.049991 -0.06568732
-0.034600154 0.017870273 0.05247028 -0.048137326 -0.037636653 -0.024979347 0.041493315 0.017570144
-0.06455496 -0.06696912 -0.021902878 0.019810092 0.0067748236 -0.024923781 0.055376805 0.06344608
0.042266004 -0.04259759 -0.009227249 0.056937534 0.0012687418 -0.057023868 0.05070176 -0.0019759932
0.013312157 0.0132083325 -0.039154973 0.048125118 0.0157551 -0.04452321 -0.06770621 0.02770239
0.029956205 -0.016761893 -0.02121487 0.008674508 -0.032744635 -0.06902734 -0.04031349 -0.05584553
0.0011049742 0.04819029 -0.0380105 0.061562516 0.0028623068 0.018854348 -0.063748375 0.017482253
0.0065669073 0.017893508 0.035688072 -0.0011715913 0.01178368 0.027846193 -0.005605595 -0.01803185
-0.005376094 -0.037913896 0.07205287 0.031431243 -0.026148247 -0.027318906 0.0059997896 -0.014274362
-0.0227366 -0.03314885 0.05293922 0.014939678 0.013247116 0.022226572 0.015237857 -0.05477593
0.046643477 0.0317748 -0.004346555 -0.037050497 0.06735194 0.012356191 0.032275 -0.015191849
-0.042355888 0.00036022806 -0.00619302 -0.041419297 0.068891056 0.0030483564 0.061492044 -0.026209818
0.047842495 -0.057766315 0.0129291415 -0.03288334 -0.018423373 -0.031894736 -0.0060511916 -0.018403795
-0.021925986 0.054186076 0.06260922 0.05999869 -0.037002984 0.030990252 -0.062091712 -0.05797839

neuromod_net.2.bias f4 [96]
00000000: 9eea 7d3d a896 4abc 9bbe 7c3d 2ecd 2bbd
00000010: c9a8 80bd f71b 89bd 6e64 303d 5f87 a73a
00000020: c112 c83b db78 e4bb 1dea 2f3c 4c93 583d
00000030: 3915 883c 8cd5 323d 4383 fbbc 7b54 123d
00000040: 2799 61bd 38b1 6cbd fb40 1cbd 4c44 8cbd
00000050: e97e 923d c131 90bd b69d e0bb 6350 913d
00000060: 989f e7bc 6e6c 38bd d9cd 24bd 9723 3d3c
00000070: ddcb 793d 1c0c 2b3d 46f9 893c 9d43 dd3c
00000080: a722 023d 46c6 053d 7b96 2e3d 0c74 c33c
00000090: d4f9 8cbd cfef 053d 634d 7bbc 70a8 ee3a
000000a0: c826 153d ea06 2c3d d21a 14bd 442d 88bd
000000b0: 7055 8e3c 7851 a1bc 9a10 b73b aaa2 83bd
000000c0: 5257 8fbc 1a83 7b3d 0ad1 48bd 74e8 7dbd
000000d0: fa80 a4bc 79af 6cbd eaaf adbc 4931 45bd
000000e0: 1ca2 ac3c 211d 373d 55b8 28bd f567 84bd
000000f0: 4f8f f2bb b98c 523c 88f1 f43c 1860 f9bc
00000100: 7af8 babb 6f3f 88b9 3b50 9bbc 8d62 92bd
00000110: a7e1 d0bc 0b99 86bd 2c45 4dbd eae8 9a3c
00000120: 8e41 f2bc b93d 173d 35bc cd3c 38ea 84bd
00000130: d6a6 48bd 6a4f 24bc 4d94 1dbd a5b9 9c3c
00000140: a283 1b3d 7ec3 053d 7e49 2abd 581f 00bd
00000150: 008d 753d e983 063d 954a d1bb 7cff 39bd
00000160: 9ecd 43bd 2557 27bd 4059 6d3c d24d 353c
00000170: bc47 5d3d 821e 19bd fc90 c73a b354 4b3c
0.061991327 -0.012365021 0.061705213 -0.04194372 -0.06282193 -0.06694787 0.043064527 0.0012781433
0.0061057513 -0.006972415 0.010736969 0.05287485 0.016611682 0.043660685 -0.030702239 0.035725098
-0.055077698 -0.057786196 -0.038147908 -0.06848964 0.071531124 -0.0704074 -0.006854738 0.07095411
-0.028274342 -0.04502528 -0.040235374 0.01154413 0.060985435 0.041759595 0.016842496 0.02700978
0.03177133 0.03265979 0.042623978 0.023859046 -0.068835884 0.032699402 -0.015338275 0.0018208157
0.036413938 0.04199878 -0.03615839 -0.06649259 0.017374724 -0.019692168 0.005586696 -0.0642751
-0.017497692 0.061404325 -0.04902748 -0.061989263 -0.020081032 -0.05778453 -0.021202046 -0.048142705
0.021073394 0.044705514 -0.041191418 -0.06465141 -0.0074023376 0.012850934 0.029900327 -0.030441329
-0.0057058902 -0.00025987203 -0.018959155 -0.07147703 -0.025498224 -0.065721594 -0.050114796 0.01890989
-0.029572275 0.036924098 0.025114158 -0.06489986 -0.048987232 -0.010028699 -0.03847151 0.019131491
0.03796733 0.03265714 -0.041573994 -0.03127989 0.05994892 0.032840643 -0.0063870647 -0.045409665
-0.047803514 -0.040854592 0.014486611 0.011065917 0.05402349 -0.03738261 0.0015225704 0.012410331

neuromod_net.4.weight f4 [48, 96]
00000000: 49cf d23d 690c 403b c7d7 3bbb 21f1 6d3b
00000010: 8297 5e3d 9302 47bd e95e 2d39 36ac e93c
00000020: a9da 023d 9c0e adbd 3acf b6bc 2826 513b
00000030: 4bf3 833c bc97 913d b937 b1bd a0b9 cabb
00000040: 1810 8d3d 3ad3 9abd 7789 3cbd 13ad 3fbd
00000050: a627 2abd 9cfa a9bd 76d6 52bd 5ad2 b4bd
00000060: 3a35 9d3c 8cf6 343d 854a 19bd a12b e4b8
00000070: cec9 3dbd dc0a f2bc e646 30bd 0edb d53c
00000080: 1dfd a43d 328f 13bd 8b48 67bd b4ea 5c3c
00000090: 6b8a 1cbd 45ea 49bd 5864 a6bd 9816 abbd
000000a0: be86 73bd 7aac fa3b 194b c9bd 81c3 a8bd
000000b0: 18dd 043d 2e8b 1a3c 9ee5 8dbd 09d6 513d
000000c0: 551a 1fbd 8283 e83c a2b1 713d b217 19bc
000000d0: e4c1 933d 9c76 d13d c9fa b13d aef6 583b
000000e0: 444b 16bd df26 e8bc 8aab abbd 6bd3 c2bb
000000f0: 12ef b03d dbaf 03bd 18b0 a2bd f08d 903d
00000100: b257 4abc bff6 333d a6c5 a13d b70d 9fbd
00000110: 4cc9 1fbd ebdc 51bd db41 afbd eeb9 3bbd
00000120: 4790 413b 713c 28bd 8169 bd3d b525 a83d
00000130: 98cc 93bb 197c 9bbd e748 efbc d421 0f3d
00000140: 353c fabc ce94 ac3c 7c02 f5bc 1521 0e3d
00000150: 8d85 99bd 223a ec3c cdd1 0cbc 01d0 cebd
00000160: c93f e4bc 4c63 40bd 4a01 fd3c fab2 acbd
00000170: 5d2e 4cbc 5815 68bd ce3d 533d c183 c3bd
00000180: cc70 11bd 9ae1 a6bd 0a9f 03bd 9320 cbbc
00000190: ff65 363c 7793 ba3d 46d9 dfbc da7c 06bd
000001a0: 3360 c4bc dbe8 5dbd 53d9 423d b23d c53d
000001b0: 49da 3a3d 936f a8bc 1826 bc3b 9e9e 82bd
000001c0: 2fd6 153d d20a a7bc ad25 8d3d c631 c53d
000001d0: d56e 0c3d adba a4bd 14fa c63d 7998 9ebc
000001e0: 2404 55bd 0f4d 413d 3695 0d3d 4665 713c
000001f0: 7359 9dbd 65f3 fa3b f27c ac3d 0c32 373d
00000200: 1b76 e43c c70e 0bbd e1f3 393d 3009 b1bd
00000210: e500 b0bd 8056 93bd 091f a1bd 2402 f4bc
00000220: 0ca4 2d3d b8a7 bbbd c29c 5c3d f9a8 91bd
00000230: 49c4 983d 6e10 cfbd 7d30 983d e1e0 ef3c
00000240: eea6 a4bc 491f b63d 9ef5 543d af33 7abc
00000250: 3c18 a3bc 7c99 523c c257 0abc 72a9 a63d
00000260: cf34 1ebd 586a 193d f91b 8dbd 3852 fb3c
00000270: eb03 95bb 6815 953c a69a 453d f064 98bd
00000280: 056a 01bd eb77 d1bc 45dc 9d3d 00ef b63d
00000290: 3d47 a5bd 8908 26bd 5562 8c3d fc3b a4bd
000002a0: 9286 9fbd 2de2 413d 3ba0 8ebd b6f9 b0bb
000002b0: 688f 863d 74b9 b33d dcd1 a13d 151b 9c3d
000002c0: 832b 963d 214b 7fbd 5caa b9bd d772 b23d
000002d0: 59be b6bd b6ab 4c3c b137 873c 7f04 c33d
000002e0: b647 8dbd fab5 34bd 0986 ccbd 0d07 c23d
000002f0: 72c6 b93c e567 80bc 0eae 9b3d 601f ff3b
00000300: bd40 b5bd d0c3 9ebd 6f35 9fbd 506c 9abd
00000310: 77d8 233d c334 503d e576 913d ddf2 85bd
00000320: 0cf6 c6bc a83f de3c 6206 7cbc 4596 ac3c
00000330: b6d2 373d 4c7e 8ebd df7e bbbd 4d49 a3bd
00000340: 1fe2 9fbd 0fc2 be3d 5125 153d 3130 263d
00000350: 95d0 373d 3bed 883b ef2b 903a 1b92 ac3d
00000360: d53a fb3c 7bed 4b3c 5c71 9cbd e85a 993d
00000370: 2e39 a63d c8d2 b43d 10d1 95bd 9338 70bd
00000380: d99b d9bc a60f 9e3d 053b 11bd 8b15 383d
00000390: 6a78 8d3d f0c8 aebc 097e 87bd c7f9 67bd
000003a0: aa07 b7bd c58f 603d 1f72 24bd 3c10 c2bd
000003b0: cbf0 d13c fa5c ad3c 897c 443d 0fc1 523c
000003c0: e3a2 7d3d b2a1 a4bd bbbb c3bd 2ce5 b43d
000003d0: 6ec1 af3d fb8d 4bbd d8dd 3cbd d227 be3d
000003e0: a8f9 543d e4b3 d5bc a075 c63d 3a02 983d
000003f0: 2651 efbc 7d49 9b3d a0ce fb3c 2c57 163d
0.10293443 0.0029304272 -0.002866255 0.0036307054 0.054343708 -0.04858644 0.00016533922 0.0285245
0.03194681 -0.08450052 -0.02231561 0.0031913612 0.016107222 0.07109019 -0.086532064 -0.006186679
0.06887835 -0.075598195 -0.046029534 -0.046795916 -0.041541718 -0.08299753 -0.051474057 -0.08829184
0.01919042 0.044180438 -0.037424583 -0.00010880014 -0.046335034 -0.029546194 -0.043036364 0.02610543
0.0805609 -0.036025234 -0.056465667 0.013483692 -0.038217943 -0.049295682 -0.08124608 -0.08353919
-0.059454672 0.0076499553 -0.09828777 -0.082404144 0.032437414 0.009432597 -0.06928562 0.05122951
-0.03884347 0.02838302 0.059007294 -0.009344028 0.07214716 0.10227701 0.086904116 0.0033106017
-0.036692873 -0.028338848 -0.08382328 -0.005945613 0.08639349 -0.03215013 -0.079437435 0.070583224
-0.01235001 0.043936487 0.078990266 -0.07766288 -0.03901033 -0.051236074 -0.08557483 -0.045831613
0.002953546 -0.041073266 0.09248639 0.08210317 -0.0045104735 -0.07592029 -0.029209567 0.03494437
-0.030546287 0.02106705 -0.029908411 0.03469952 -0.07496176 0.028836314 -0.008594942 -0.10098267
-0.027862446 -0.046969697 0.030884404 -0.084325746 -0.012462226 -0.05666098 0.051572613 -0.095466144
-0.035507962 -0.08148499 -0.032134093 -0.024795806 0.011132716 0.09110158 -0.027325284 -0.03283391
-0.023971653 -0.054177146 0.047570538 0.09630908 0.04561833 -0.020561015 0.005741846 -0.0637791
0.036581215 -0.020390902 0.06891952 0.09628634 0.034285385 -0.08043418 0.09715667 -0.019359814
-0.052005902 0.04719263 0.034566127 0.014733618 -0.07683077 0.0076584094 0.08422269 0.044725463
0.027888348 -0.03394964 0.045398597 -0.086443305 -0.085939206 -0.07194233 -0.078672476 -0.029786177
0.042392775 -0.09162849 0.053860433 -0.07112307 0.074593134 -0.101105556 0.074311234 0.029282035
-0.02009913 0.08892686 0.05199205 -0.015271111 -0.019909017 0.012853976 -0.008443775 0.08137788
-0.03862458 0.037454933 -0.06890101 0.030678853 -0.004547586 0.018198684 0.048243187 -0.07441127
-0.03159525 -0.025569877 0.07708029 0.089323044 -0.08070228 -0.040535484 0.06854693 -0.080192536
-0.07789339 0.04733484 -0.06964155 -0.0054008616 0.06570321 0.08775607 0.079013556 0.07622353
0.07332518 -0.062327508 -0.090656966 0.0871331 -0.08923025 0.012492111 0.016506048 0.09522342
-0.068984434 -0.04411886 -0.09986503 0.09474001 0.022677634 -0.01567454 0.07601558 0.0077857226
-0.088502385 -0.07752192 -0.077738635 -0.0754019 0.04000136 0.050831567 0.071027555 -0.06540463
-0.024287246 0.027129963 -0.015382381 0.021067748 0.044878684 -0.06957683 -0.09155058 -0.079729654
-0.07806801 0.093143575 0.03641254 0.040573303 0.044876654 0.0041786707 0.0010999421 0.08426305
0.030667702 0.0124467565 -0.07638809 0.07488042 0.08116375 0.08829266 -0.07315266 -0.058647703
-0.026563572 0.077178285 -0.035456676 0.04494242 0.06907733 -0.021336049 -0.06615836 -0.05663469
-0.08937009 0.05482461 -0.040147897 -0.09475753 0.025627514 0.021162499 0.04797033 0.012863412
0.06192292 -0.080386534 -0.09557291 0.088327736 0.08581816 -0.04969595 -0.046110004 0.09284939
0.051995903 -0.026086755 0.09690404 0.074223 -0.0292135 0.07582376 0.030738175 0.036704227
