LTC_A2C/training_results/CfC_a2c_result_414_2024324_learningrate_5e-05_numneurons_48_encoutact_tanh_mode_neuromodulated_neuromod_network_dims_3_192_96_48_randomization_params_[(0.775, 5.75), (1.0, 2.0), (0.8, 2.25)]/checkpoint_CfC_A2C_2.pt (torch, 155636 bytes, 16 tensors)

policy_net.cfc_model.rnn_cell.w_tau f4 [1, 48]
0	0x3e75cc22	0.24003652
1	0xbe4bf3b8	-0.1991719
2	0x3cc80c92	0.024420056
3	0xbe367223	-0.17816977
4	0x3e0ee27f	0.13953589
5	0xbd801258	-0.06253499
6	0x3d5a9576	0.053365193
7	0x3e165dd5	0.14684232
8	0xbe99fcff	-0.30075833
9	0xbe2c358e	-0.16817304
10	0x3cb5a881	0.022175075
11	0x3dfd498d	0.12367544
12	0x3e009a2d	0.12558813
13	0x3eabd636	0.33561867
14	0x3e96f0c2	0.2948056
15	0xba86237c	-0.0010233964
16	0xbe9cf6bc	-0.30656993
17	0x3eaae8d4	0.3338076
18	0x3e7f129e	0.24909446
19	0x3e04223a	0.12903681
20	0xbe140f7c	-0.14459032
21	0x3e7dd5ca	0.24788585
22	0x3ea53ea3	0.3227435
23	0x3deba169	0.11505396
24	0xbdddec50	-0.10836089
25	0xbdfa78d8	-0.1223008
26	0x3e6ea943	0.23306756
27	0x3e81b8b3	0.25336227
28	0x3ea81baa	0.32833606
29	0x3e1c0f7b	0.1524028
30	0x3eaa8fc6	0.33312815
31	0xbe2967ef	-0.16543554
32	0x3e8924c5	0.26785865
33	0x3e67160a	0.22567001
34	0x3df4223e	0.11920594
35	0xbdfe3173	-0.124117754
36	0xbe6cbaa5	-0.23118074
37	0xbd30aa67	-0.04313126
38	0xbe767912	-0.24069622
39	0x3dc6214c	0.096743196
40	0x3e171e5e	0.14757678
41	0xbd8d833b	-0.06909796
42	0xbe1a7727	-0.15084516
43	0xbe846472	-0.25857884
44	0x3eb0d518	0.34537578
45	0xbe928949	-0.28620365
46	0x3e574d3d	0.21025558
47	0xbd123263	-0.035692584

policy_net.cfc_model.rnn_cell.A f4 [1, 48]
0	0x3dcf92ea	0.101354435
1	0xbe700e04	-0.23442847
2	0xbe9c4f99	-0.30529478
3	0x3e0cac7e	0.13737676
4	0x3de3e3ce	0.11127435
5	0xbdbb9770	-0.09159744
6	0xbe169662	-0.14705804
7	0x3de9f5dc	0.11423847
8	0xbeaed979	-0.34150293
9	0xbe8d3d0f	-0.27585647
10	0xbe78d897	-0.24301372
11	0x3eadea9a	0.3396805
12	0xbe6b5972	-0.2298334
13	0x3d5a50c2	0.053299673
14	0x3e78c4ff	0.24293898
15	0xbdbb9ace	-0.09160386
16	0xbd06fb47	-0.03295448
17	0x3e102cc8	0.14079583
18	0x3e8b5e78	0.2722051
19	0x3dca34f6	0.09873383
20	0x3b763302	0.0037567024
21	0xbe9618b2	-0.29315716
22	0xbe82bf06	-0.25536364
23	0xbe87c908	-0.26520562
24	0xbd584a45	-0.052805204
25	0x3e5f38f0	0.21799064
26	0x3dd8cf3a	0.105864
27	0xbca18164	-0.019715019
28	0x3e409c7e	0.18809697
29	0x3ded3314	0.11582008
30	0x3e94e950	0.29084253
31	0x3e8e66cc	0.27812803
32	0xbd51cefd	-0.05122279
33	0xbea370ee	-0.31922096
34	0xbe9da11c	-0.3078698
35	0x3c7376ce	0.014859868
36	0xbd01d6a4	-0.031698838
37	0x3deafcd3	0.11474004
38	0x3df5ef76	0.12008564
39	0x3e97b594	0.2963072
40	0x3e403833	0.18771438
41	0xbcaf673b	-0.021411529
42	0xbd8300b6	-0.0639662
43	0x3c8e76e4	0.017390676
44	0xbea572b6	-0.3231408
45	0xbe1799bc	-0.14804739
46	0x3e1f481a	0.15554848
47	0x3d154af2	0.036448427

policy_net.cfc_model.rnn_cell.tau_system f4 [1, 48]
0	0x40630946	3.547441
1	0x40380beb	2.8757274
2	0x4129ea51	10.619706
3	0x3fcf4c61	1.6195184
4	0x40a89df2	5.2692804
5	0x408d982c	4.4248257
6	0x41209d5c	10.038418
7	0x3ff80cb6	1.9378879
8	0x3ffafc9b	1.9608339
9	0x3fc19018	1.5122099
10	0x40023b43	2.034867
11	0x3fdb9062	1.7153437
12	0x40672aa3	3.6119773
13	0x3fd6bc54	1.6776223
14	0x4031d24d	2.7784607
15	0x41baad54	23.334633
16	0x3fd5cf75	1.6703936
17	0x403be896	2.936071
18	0x40028652	2.0394483
19	0x3fe82b1b	1.8138155
20	0x40240baa	2.563212
21	0x3fc151c0	1.5103073
22	0x403bd9f7	2.9351785
23	0x3fb7d4ad	1.4361778
24	0x40a3d45f	5.119674
25	0x4049df63	3.1542594
26	0x40340bda	2.8132234
27	0x407316da	3.7982697
28	0x3fb65b8a	1.4246686
29	0x3feb84e0	1.8399925
30	0x40217c4e	2.523212
31	0x3fe33c68	1.775281
32	0x4049cea9	3.1532385
33	0x3fabe46b	1.3429083
34	0x41044f10	8.269302
35	0x3ff755ae	1.9323022
36	0x40120fb7	2.2822092
37	0x3fc5d5ad	1.5455834
38	0x3fc33a24	1.5252118
39	0x401d6b39	2.4596694
40	0x3f9a2a6f	1.20442
41	0x40795fe0	3.8964767
42	0x3f914793	1.1349968
43	0x403dfd36	2.9685798
44	0x4017dca2	2.3728414
45	0x3f9f6eff	1.2455748
46	0x4075521f	3.8331373
47	0x40437588	3.0540485

policy_net.cfc_model.rnn_cell.backbone.0.weight f4 [128, 52]
0	0xbe18ce50	-0.14922452
1	0x3dc4c4f7	0.096078806
2	0x3e2db05a	0.16961804
3	0xbe0b1b26	-0.13584575
4	0xbdf51bbb	-0.1196818
5	0x3da2962c	0.07938799
6	0xbe07bff0	-0.13256812
7	0xbd37ae9b	-0.04484425
8	0xbda85acf	-0.08220445
9	0x3d4c9e04	0.049955383
10	0xbce8e9ca	-0.028431792
11	0x3e2e268d	0.17006893
12	0xbe0c2623	-0.13686423
13	0x3e09f944	0.13473994
14	0xbced73b5	-0.028985837
15	0x3e2ef394	0.17085105
16	0xbdadf075	-0.08493129
17	0xbdda10ec	-0.10647759
18	0xbdbf51f2	-0.09341802
19	0x3d26a5a9	0.04068533
20	0xbd14b085	-0.036301155
21	0xbd5c3b97	-0.053767767
22	0xbb20e2e8	-0.002454931
23	0x3dc00327	0.09375601
24	0xbd971f84	-0.07379058
25	0xbc5dd804	-0.013540272
26	0xbd85659d	-0.06513522
27	0xbe2528e1	-0.16128875
28	0x3dd750f3	0.10513487
29	0xbd882254	-0.066471726
30	0xbe15c27f	-0.14624976
31	0x3db8d573	0.09025087
32	0xbe01fee0	-0.12694883
33	0xbe19dac7	-0.15024863
34	0x3df984d8	0.12183541
35	0xbc9930c5	-0.018700013
36	0xbcd3ca92	-0.025853429
37	0x3d8b8c30	0.06813848
38	0xbdb119fc	-0.08647534
39	0x3e1f7a65	0.15574034
40	0xbd55ee12	-0.052228995
41	0x3d38687b	0.045021515
42	0xbdf9b6e7	-0.12193089
43	0xbdbc815e	-0.09204362
44	0xbd6110a9	-0.05494753
45	0xbd5d9ab1	-0.054102603
46	0x3e165cb1	0.14683796
47	0x3d0aa2ee	0.033846788
48	0x3cf02df4	0.029318787
49	0xbd2e0f1d	-0.042494882
50	0xbe193eaa	-0.1496531
51	0xbcaf0e41	-0.021369101
52	0xbd5ec0cc	-0.054383084
53	0xbd60e7f5	-0.05490871
54	0x3e0974c6	0.13423452
55	0xbe36fbd3	-0.17869501
56	0x3d6a9a7d	0.057276238
57	0xbde3e32c	-0.11127314
58	0x3e0301c9	0.1279365
59	0x3c5c57e5	0.01344869
60	0xbaa65c49	-0.0012692298
61	0xbe06966a	-0.13143316
62	0x3e00ee75	0.12590964
63	0x3e07a318	0.13245809
64	0x3e3a1658	0.18172586
65	0xbde6ebb6	-0.11275427
66	0xbdf39c48	-0.11895043
67	0x3e36f008	0.17865002
68	0x3e37357a	0.17891493
69	0xbe2a955e	-0.16658542
70	0x3e22438b	0.15846078
71	0x3d846ccd	0.064660646
72	0xbe1f0aee	-0.15531513
73	0x3ddb1a69	0.10698397
74	0xbd7d8ca0	-0.06190169
75	0xbd3ad13e	-0.045609705
76	0xbe319834	-0.17343217
77	0xbc93fb99	-0.018064307
78	0x3e125434	0.14289933
79	0x3d62d6d6	0.055380665
80	0x3b3706b5	0.0027927582
81	0xbce2d3e3	-0.027688926
82	0x3da15565	0.07877616
83	0xbd8a5d37	-0.067560606
84	0x3d1aaf99	0.03776512
85	0xbdf29c47	-0.11846214
86	0x3e06d272	0.13166216
87	0xbe038e01	-0.12847139
88	0x3e19e9b7	0.15030561
89	0x3cbd6ca5	0.023123095
90	0x3dc30e35	0.09524194
91	0x3dbfb415	0.0936052
92	0x3d455dc8	0.04818514
93	0x3aaf8daa	0.001339366
94	0x3dccad4e	0.09993993
95	0x3ca133b5	0.019677976
96	0x3deff6b1	0.117169745
97	0xbdafe7d5	-0.0858914
98	0xbd67668e	-0.05649429
99	0x3b9ce1bd	0.0047876523
100	0xbe25154f	-0.1612141
101	0x3df7d454	0.12101045
102	0x3e2bb194	0.1676696
103	0xbe311e1e	-0.17296645
104	0xbe0ab331	-0.13544919
105	0x3d0113b6	0.03151294
106	0xbe08af3c	-0.13348097
107	0x3da0f3cd	0.07859001
108	0xbe283a27	-0.16428433
109	0xbdda4f4f	-0.10659658
110	0xbd64d17f	-0.055863854
111	0xbd8f24be	-0.0698943
112	0x3e016a0e	0.12638113
113	0x3dd2c49b	0.10291406
114	0xbd753767	-0.05986729
115	0x3de8ba0d	0.11363611
116	0xbdde2571	-0.10846985
117	0xbe2d3367	-0.1691414
118	0x3d464f05	0.048415203
119	0xbe0f2b8f	-0.1398146
120	0xbd3540b9	-0.044251177
121	0xbdc86755	-0.09785334
122	0xbe2b45e4	-0.1672588
123	0xbd871d39	-0.06597371
124	0x3daca907	0.08430677
125	0xbde48a3a	-0.11159177
126	0xbe381339	-0.17976083
127	0xbe1c2442	-0.15248206
128	0xbe0ab4cb	-0.1354553
129	0x3d9ed6f6	0.07755844
130	0xbe29bcc4	-0.16575915
131	0x3d6bad67	0.057538416
132	0xbd8dd8e3	-0.069261335
133	0xbdb88020	-0.09008813
134	0xbe04e3aa	-0.12977472
135	0xbe096661	-0.1341796
136	0x3e31d4ec	0.1736638
137	0xbbd8570b	-0.006602173
138	0x3e37fac9	0.1796676
139	0xbe28a423	-0.16468863
140	0xbd4f4e44	-0.05061175
141	0xbd2eb83a	-0.04265616
142	0xbd0e99f1	-0.03481478
143	0x3e29d3f5	0.16584761
144	0xbe2d839d	-0.16944738
145	0x3dd4be03	0.10387804
146	0x3e29cb04	0.1658135
147	0x3dbac469	0.091194935
148	0xbbc9f5a3	-0.0061633154
149	0xbe08e1d5	-0.13367398
150	0xbd11de78	-0.035612553
151	0x3df48622	0.11939646
152	0xbd11d521	-0.035603646
153	0xbe353aff	-0.17698286
154	0x3dccb88f	0.09996139
155	0x3e1d48b7	0.1535977
156	0xbd6e877d	-0.05823468
157	0xbdecb20b	-0.115573965
158	0xbdb74126	-0.08947973
159	0x3dd1d01a	0.1024477
160	0xbe26a8eb	-0.16275375
161	0xbe2063ff	-0.15663145
162	0x3d82a26b	0.06378635
163	0x3e360273	0.17774372
164	0xbe03ae3e	-0.12859437
165	0x3dcf5764	0.1012409
166	0xbd44822d	-0.047975708
167	0x3e03405b	0.12817518
168	0x3d90719e	0.07052921
169	0x3d0fa34c	0.03506784
170	0x3d1674b2	0.036732383
171	0xbafa6b30	-0.0019105431
172	0x3d52a149	0.051423345
173	0x3dc3744d	0.09543667
174	0xbc9d7091	-0.019218715
175	0xbe3a36f8	-0.18185031
176	0xbd366285	-0.04452755
177	0xbd8c8a11	-0.068622716
178	0x3e236e7f	0.1596012
179	0x3d1676f3	0.036734533
180	0x3dfd0b28	0.123556435
181	0x3dce48c5	0.100724734
182	0x3e24d7de	0.16097972
183	0xbd9f40f5	-0.077760614
184	0xbe05e3eb	-0.13075225
185	0xbcf560cb	-0.029953381
186	0x3cecf86e	0.028927054
187	0xbd998b38	-0.07497257
188	0xbcac7cda	-0.021055628
189	0x3dacd1e9	0.08438475
190	0x3d82bbf4	0.063835055
191	0x3cd51e98	0.026015565
192	0xbc72a30b	-0.01480938
193	0x3e391d4e	0.18077585
194	0xbe1931d2	-0.14960411
195	0xbd97e167	-0.07416039
196	0xbdfa92ef	-0.122350566
197	0x3cd05f71	0.025436135
198	0xbd8ca270	-0.0686692
199	0x3dd6f44c	0.10495815
200	0xbde7af81	-0.113127716
201	0xbc4d2edc	-0.012523379
202	0x3d88c546	0.06678252
203	0x3e2a704b	0.16644399
204	0x3deb6642	0.114941135
205	0xbd024ac7	-0.031809594
206	0xbd248527	-0.040166046
207	0xbbe54cc5	-0.006997677
208	0x3e2713d2	0.16316155
209	0x3d21fc83	0.039547455
210	0x3cd7f8d7	0.026363773
211	0x3e14d628	0.14534819
212	0xbddabe5a	-0.10680838
213	0x3dd4c614	0.10389343
214	0xbd56569e	-0.0523287
215	0xbdd5db4b	-0.104422174
216	0xbd9fa4e1	-0.0779512
217	0xbd460eeb	-0.04835407
218	0x3e12db99	0.14341582
219	0x3d0d3023	0.034469735
220	0xbd78e3c2	-0.06076408
221	0x3df7ccef	0.12099635
222	0xba9be344	-0.0011893292
223	0x3dc4ea22	0.0961497
224	0xbd754dc2	-0.05988861
225	0xbd904946	-0.07045226
226	0x3d95e661	0.07319332
227	0x3ca5f750	0.02025953
228	0x3e22ff0d	0.15917607
229	0xbe39830e	-0.181164
230	0x3d835fee	0.064147815
231	0xbd91803c	-0.07104537
232	0x3d6f7d49	0.05846909
233	0x3e134556	0.14381918
234	0xbc08775a	-0.008329237
235	0xbe38f7b3	-0.1806324
236	0xbde1fca1	-0.11034513
237	0xbd48b086	-0.04899647
238	0x3dbf4bd3	0.09340634
239	0xbc00335f	-0.007824748
240	0xbd87edf3	-0.06637182
241	0xbc92bfc2	-0.017913703
242	0xbca418ac	-0.020031296
243	0x3e06cb24	0.1316343
244	0xbd8b97c6	-0.06816058
245	0x3c49aaa5	0.012308751
246	0x3dc0bb6e	0.094107494
247	0xbc3e9e24	-0.011634383
248	0xbd2d8fa4	-0.042373314
249	0xbda00476	-0.07813351
250	0x3e105ace	0.14097139
251	0x3e2f7982	0.17136195
252	0x3e28425a	0.16431561
253	0xbdfaa089	-0.12237651
254	0x3d352d2c	0.044232532
255	0x3c4e9586	0.012608891

policy_net.cfc_model.rnn_cell.backbone.0.bias f4 [128]
0	0xbd1ce750	-0.038306534
1	0xbc18dabc	-0.009329494
2	0x3db0bede	0.08630155
3	0xbd8fc5b3	-0.0702013
4	0xbd81fab8	-0.06346649
5	0x3dbb7916	0.09153955
6	0x3d2117d6	0.039329372
7	0xb9dfd764	-0.00042694353
8	0xbc7872e7	-0.015164114
9	0xbda8ad91	-0.0823623
10	0x3da0e9a5	0.07857064
11	0xbdb49193	-0.088168286
12	0xbcce0cbf	-0.025152562
13	0x3cc6630b	0.02421715
14	0x3d15d1d1	0.03657705
15	0x3dfc0f61	0.12307621
16	0x3de6cfc8	0.112701
17	0x3dda005b	0.10644599
18	0x3d4daccf	0.05021363
19	0xbd1b9f1d	-0.03799354
20	0x3d65d93e	0.05611538
21	0x3d8dc04c	0.06921443
22	0xbc3c8b0a	-0.011507759
23	0x3cf0faa7	0.029416395
24	0xbd277b62	-0.04088915
25	0xbe0dc9f7	-0.13846575
26	0x3db92fa7	0.09042292
27	0x3d1d7026	0.03843703
28	0xbda2a9dd	-0.07942555
29	0xbdc929bd	-0.09822414
30	0x3d3786af	0.04480618
31	0xbd67086a	-0.05640451
32	0xbda21b0a	-0.079153135
33	0xbc94e27b	-0.0181744
34	0x3cf8d335	0.030374149
35	0x3e0071bf	0.1254339
36	0x3e0518f7	0.12997805
37	0xbd5c18dc	-0.053734645
38	0xbe04f1eb	-0.1298291
39	0xbdc014cd	-0.093789674
40	0xbbbb7a4c	-0.005721366
41	0xbd5d12c3	-0.05397297
42	0xbd24faed	-0.040278364
43	0x3d7ba3b6	0.061435424
44	0xbde2ca69	-0.11073763
45	0xbc217a97	-0.009855888
46	0xbbb27085	-0.0054455423
47	0x3dd263ed	0.102729656
48	0x3cf2f60f	0.029658346
49	0x3b93df13	0.0045126765
50	0xbdb0cb47	-0.08632522
51	0x3d2de65e	0.042456023
52	0xbb757e9d	-0.00374595
53	0x3db68ce3	0.08913591
54	0xbaf1dbf1	-0.0018452388
55	0xbd068679	-0.032843087
56	0x3dc94a01	0.09828568
57	0xbc0cd3e0	-0.008595437
58	0xbd9d09c8	-0.07667881
59	0x3d52caf9	0.0514631
60	0x3df8e173	0.12152376
61	0xbd77082c	-0.060310528
62	0xbcb7f3c7	-0.02245511
63	0x3dc00f2a	0.09377892
64	0x3d6017d8	0.05471024
65	0xbe0aa628	-0.13539946
66	0x3defc38e	0.11707221
67	0xbccdb4dc	-0.025110655
68	0x3dc47673	0.09592905
69	0xbd46d58a	-0.04854349
70	0xbd48c42b	-0.049015205
71	0x3dc4fbdc	0.09618351
72	0xbde42bc8	-0.11141163
73	0x3d9f387e	0.07774447
74	0xbd5f4eb0	-0.0545184
75	0x3c8c36d6	0.017115992
76	0x3e0832a3	0.13300566
77	0xbdcfb11a	-0.10141201
78	0x3b85c2b1	0.004082047
79	0xbd9c022f	-0.07617604
80	0xbe07bc42	-0.13255408
81	0x3e0565f3	0.13027172
82	0x3db8a1cb	0.090152346
83	0x3e0ab5c0	0.13545895
84	0xbddbe74f	-0.10737478
85	0x3db5009d	0.088380076
86	0xbd372f6f	-0.04472297
87	0xbd9bd4f1	-0.07608975
88	0xbda4a7eb	-0.0803984
89	0xbd345343	-0.044024717
90	0xbd4b01be	-0.04956221
91	0x3db1259c	0.086497515
92	0x3e00551b	0.12532465
93	0x3d606c5c	0.05479084
94	0xbc92066f	-0.017825333
95	0xbdd88310	-0.10571873
96	0x3c28eebe	0.010310827
97	0x3d87750c	0.06614122
98	0xbd1bd65a	-0.03804622
99	0x3def42b4	0.116826445
100	0xbde3e0e6	-0.1112688
101	0x3d87504a	0.06607111
102	0xbd816acd	-0.06319199
103	0xbdf31007	-0.11868291
104	0xbdc6de5a	-0.09710379
105	0xbdfd4319	-0.123663135
106	0xbd794869	-0.06086007
107	0x3e0e7f72	0.13915804
108	0xbdfc2a8b	-0.12312802
109	0x3ba5e631	0.0050628413
110	0x3ddc0b2c	0.10744318
111	0xbe066f2b	-0.13128345
112	0xbd638886	-0.05555012
113	0x3dc0053a	0.09375997
114	0x3d4e37e0	0.050346255
115	0x3b6c2caa	0.0036037364
116	0xbca37dc4	-0.01995743
117	0xbd643e33	-0.05572338
118	0xbe0da574	-0.13832647
119	0xbd39734b	-0.045275968
120	0xbba4ea7c	-0.0050328355
121	0xbe0d21f2	-0.1378248
122	0x3d4eda0c	0.050500914
123	0xbda8433d	-0.0821595
124	0xbdd5df0e	-0.10442935
125	0xbe08b505	-0.13350303
126	0x3c02eac1	0.00799054
127	0xbd96e26a	-0.07367404

policy_net.cfc_model.rnn_cell.ff1.weight f4 [48, 128]
0	0xbc96248c	-0.018327974
1	0xbd87b1f8	-0.06625742
2	0x3d2391de	0.03993403
3	0x3dbdf286	0.09274773
4	0xbd460851	-0.048347775
5	0xbd80cb7d	-0.06288812
6	0xbe2b7098	-0.1674217
7	0xbe15cab5	-0.14628108
8	0x3dd217e5	0.10258464
9	0xbde29331	-0.11063231
10	0x3d645759	0.055747364
11	0x3e1833c5	0.14863499
12	0x3cbadafa	0.022809494
13	0x3d03b983	0.03215934
14	0xbe24cc93	-0.16093664
15	0x3d53edb4	0.051740363
16	0x3e041b5d	0.12901063
17	0xbcd44748	-0.025912896
18	0x3b9d57c1	0.004801721
19	0x3c6d2a80	0.014475465
20	0x3df4cadf	0.11952757
21	0xbdbbbf16	-0.09167306
22	0xbdc0aba3	-0.09407737
23	0x3e1b7612	0.15181759
24	0x3c251dd9	0.010077917
25	0x3df581a7	0.1198762
26	0x3d8b8c1c	0.06813833
27	0xbe277d5e	-0.16356418
28	0x3c87c133	0.016571617
29	0xbcf894a3	-0.030344313
30	0x3e034976	0.12820992
31	0xbde49522	-0.11161257
32	0x3de27d36	0.11059038
33	0x3d11ac91	0.035564963
34	0xbe393116	-0.18085131
35	0xbd5174a2	-0.05113662
36	0xbdce0fb1	-0.10061587
37	0x3cd0137f	0.025399921
38	0x3d807ef3	0.06274214
39	0x3dff5b7b	0.124686204
40	0x3ce4c47e	0.027925726
41	0xbdba3f4c	-0.09094104
42	0x3deab5b8	0.11460441
43	0xbe15bcf9	-0.14622869
44	0x3d566d23	0.052350175
45	0x3e283960	0.16428137
46	0xbe33442a	-0.17506471
47	0x3d90e61b	0.07075139
48	0x3d4b44e6	0.049626254
49	0x3e040abb	0.12894718
50	0x3bd2ffd9	0.006439191
51	0x3bd436b1	0.0064762463
52	0xbe234b16	-0.15946612
53	0x3e13bf50	0.14428449
54	0x3d2d664a	0.04233388
55	0x3dfca864	0.123368055
56	0xbd33aa60	-0.043863654
57	0x3e27f9a3	0.16403823
58	0xbdbbfb4d	-0.09178791
59	0x3e182870	0.14859176
60	0xbe167e16	-0.14696535
61	0x3de35a01	0.11101151
62	0x3e30b9ea	0.1725842
63	0xbd6ccd23	-0.05781282
64	0x3d7e9588	0.062154323
65	0xbdbf5f15	-0.09344307
66	0x3d972a95	0.07381169
67	0x3d665c0e	0.056240134
68	0x3e2a90f7	0.16656862
69	0x3dbb8ff9	0.0915832
70	0xbc2be55a	-0.010491693
71	0xbe07a80b	-0.13247697
72	0x3ce2aa13	0.027668988
73	0x3d9e1db8	0.07720512
74	0xbdd6ccf7	-0.10488313
75	0x3e1f970e	0.15584967
76	0x3dcfa5a9	0.10139019
77	0xbe125ff8	-0.14294422
78	0x3e0e5233	0.13898544
79	0x3da9973d	0.082807995
80	0xbda28a06	-0.07936482
81	0x3e0356fa	0.12826148
82	0xbe1bd2ed	-0.1521718
83	0xbde49596	-0.11161344
84	0xbe1ef87c	-0.15524477
85	0xbd026d4d	-0.03184252
86	0x3e2d561b	0.16927378
87	0x3c83fafb	0.016110888
88	0x3d4c04b7	0.049809184
89	0xbd98c5fb	-0.07459637
90	0x3dcf7e46	0.101315066
91	0xbe1e9e80	-0.1549015
92	0x3de5ff84	0.11230376
93	0x3cd92721	0.026507916
94	0x3da797cf	0.08183252
95	0x3d97326b	0.07382663
96	0x3e29817a	0.16553298
97	0xbcc2dbc0	-0.023786426
98	0x3d46237e	0.04837369
99	0xbd171eb9	-0.036894534
100	0xbe19a38c	-0.15003794
101	0x3e18c313	0.14918165
102	0xbe1942da	-0.14966908
103	0xbe326e15	-0.17424805
104	0xbd536e61	-0.051618937
105	0xbdba414c	-0.09094486
106	0xbe04039f	-0.12892006
107	0x3d8a6be1	0.067588575
108	0x3e396698	0.18105543
109	0x3dd94419	0.10608692
110	0x3cf9a684	0.030474909
111	0xbe33dab2	-0.17563894
112	0x3cff0cf8	0.031134114
113	0xbe22f5b2	-0.15914038
114	0xbc9b6da5	-0.018973181
115	0x3e3ebd94	0.18627006
116	0x3d14d058	0.036331505
117	0x3c030e28	0.007998981
118	0x3d2e7f49	0.042601857
119	0x3d4435bf	0.04790282
120	0x3e178409	0.14796461
121	0xbd91b638	-0.071148336
122	0xbde743e3	-0.11292245
123	0x3df90d62	0.12160756
124	0x3e1026a0	0.14077234
125	0xbd49d302	-0.0492735
126	0x3d8b21c0	0.06793547
127	0xbe107aa9	-0.14109291
128	0x3a2e4f08	0.000664935
129	0x3d00eab0	0.031473815
130	0xbd2d722b	-0.042345207
131	0xbdafef17	-0.08590525
132	0x3e13cd6d	0.14433832
133	0xbdb29cbc	-0.08721301
134	0xbdfbea01	-0.12300492
135	0xbe135f5d	-0.14391847
136	0x3dd14de7	0.10219937
137	0xbe328fc4	-0.17437655
138	0xbd160901	-0.03662968
139	0xbcf0d60f	-0.029398946
140	0x3dd85fbf	0.10565137
141	0x3dae123a	0.0849957
142	0x3d3774c9	0.04478911
143	0xbddb5c4e	-0.10710965
144	0xbe251898	-0.16122663
145	0xbd25202e	-0.040313892
146	0xbdb0fece	-0.0864235
147	0xbdb6e775	-0.08930866
148	0x3d90a08e	0.070618734
149	0xbba4faab	-0.0050347648
150	0xbd1afcc6	-0.03783872
151	0x3e00d34d	0.12580605
152	0x3e255a9a	0.16147843
153	0x3e1ada18	0.15122259
154	0x3df64c5f	0.120262854
155	0x3e10dbee	0.14146397
156	0xbd8acac4	-0.06776956
157	0xbd9a0dcd	-0.075221635
158	0xbd0bc3b3	-0.03412218
159	0x3e0195d7	0.12654816
160	0x3e1f1699	0.15535964
161	0x3da876da	0.08225794
162	0xbdf6822c	-0.12036547
163	0xbe3e3ce8	-0.18577921
164	0xbc84c3d1	-0.016206654
165	0x3e27e625	0.16396387
166	0xbd863999	-0.06553955
167	0xbc700f15	-0.014652033
168	0x3dce4185	0.100710906
169	0x3d411518	0.047139257
170	0x3d363169	0.044480715
171	0x3e32eeaf	0.17473863
172	0xbe3b1333	-0.18269043
173	0xbe1a0f5f	-0.15044926
174	0x3e12e90d	0.14346714
175	0x3dcf8d1a	0.10134335
176	0x3d4de824	0.050270215
177	0xbdc0ac01	-0.09407807
178	0xbdf7d0f4	-0.121004015
179	0x3cff74ec	0.031183682
180	0xbe05859d	-0.1303925
181	0xbdfc568d	-0.12321196
182	0xbd437b73	-0.047725152
183	0xbda070b9	-0.07834
184	0x3d8950ff	0.06704902
185	0xbdf1e62e	-0.118114814
186	0xbe0a8046	-0.13525495
187	0x3df95d69	0.1217602
188	0xbe040d1c	-0.12895626
189	0x3bd6a1cb	0.006550049
190	0xbcb85374	-0.022500731
191	0x3e3462ff	0.17615889
192	0x3dcdbaa7	0.10045367
193	0xbddc016c	-0.10742459
194	0x3d5d2369	0.053988848
195	0x3d26377f	0.04058027
196	0x3d298893	0.041390013
197	0xbde65080	-0.11245823
198	0xbdc79a5d	-0.09746239
199	0xbe098766	-0.13430557
200	0x3e1c3cb5	0.15257533
201	0x3d846182	0.06463911
202	0xbe07cf31	-0.13262631
203	0x3e3133b7	0.17304884
204	0xbd554f55	-0.05207761
205	0x3e2438ff	0.16037367
206	0x3e17a1c0	0.14807796
207	0x3dd2ed2e	0.10299145
208	0x3e1e4f87	0.15460025
209	0x3daf9ffd	0.08575437
210	0x3dd9035f	0.10596346
211	0x3d4e45b6	0.05035945
212	0xbde8e01c	-0.113708705
213	0x3e36cfbd	0.17852683
214	0xbe2c198f	-0.16806625
215	0xbdfb0cf1	-0.12258328
216	0x3e08c770	0.1335733
217	0x3dda7e98	0.10668677
218	0xbdc40104	-0.09570506
219	0x3e1fffa6	0.15624866
220	0x3de61b34	0.11235657
221	0xbde0c967	-0.109759144
222	0xbdd61652	-0.10453476
223	0xbc0e5054	-0.008686144
224	0x3acd81bd	0.0015678924
225	0xbdc6405d	-0.09680245
226	0x3d6dbfc5	0.058044214
227	0xbd4354a5	-0.047688145
228	0x3dee729b	0.11642953
229	0xbc9bc1a1	-0.019013228
230	0x3e0bad05	0.1364022
231	0x3b1cc684	0.0023922035
232	0x3d2527d8	0.0403212
233	0xbe1184fc	-0.14210886
234	0xbb68782b	-0.0035472016
235	0x3e13037b	0.14356796
236	0x3e009f8e	0.12560865
237	0x3de06b04	0.109579116
238	0x3e398db2	0.18120459
239	0xbe1b3250	-0.15155911
240	0xbdd174ff	-0.10227393
241	0x3cf5880d	0.0299721
242	0xbdbe44ae	-0.09290443
243	0x3dcc1064	0.09964064
244	0xbdc0c56f	-0.094126575
245	0x3dce1234	0.10062066
246	0x3e0e2169	0.13879932
247	0xbd67bcfe	-0.05657672
248	0x3b1b09a2	0.0023656865
249	0x3e104e84	0.14092451
250	0x3def6630	0.116894126
251	0xbe040154	-0.12891132
252	0xbd97937b	-0.074011765
253	0x3dc05d2b	0.093927704
254	0xbe23d313	-0.15998487
255	0x3bbb0c7b	0.005708275

policy_net.cfc_model.rnn_cell.ff1.bias f4 [48]
0	0x3da672fa	0.08127399
1	0xbd1b88d9	-0.037972305
2	0x3d82538b	0.06363591
3	0xbda6c866	-0.08143692
4	0x3cc18706	0.023623955
5	0x3d14abb7	0.036296573
6	0xbd918a01	-0.071064
7	0x3d39b2c2	0.045336492
8	0x3d0b42ea	0.03399936
9	0xbcce17be	-0.025157806
10	0xbd6bcccb	-0.057568353
11	0xbd019295	-0.031633932
12	0xbdb437ce	-0.087997064
13	0x3c9083ef	0.017641036
14	0x3d713417	0.058887567
15	0x3d1d7c43	0.038448583
16	0xbd39ac51	-0.04533035
17	0x3d9689c0	0.073504925
18	0x3d38ec6c	0.045147344
19	0xbca2c539	-0.019869434
20	0xbc7b7ac5	-0.015349095
21	0xbd6bf8b6	-0.057610236
22	0x3d863a81	0.065541275
23	0xbd89f04a	-0.067352846
24	0xbd902206	-0.070377395
25	0x3d2b29ad	0.041787792
26	0xbd5a6e5a	-0.053327896
27	0x3d8b0e2e	0.06789814
28	0xbce3a00d	-0.02778628
29	0xbd4882a5	-0.048952717
30	0x3cc7fc13	0.02441219
31	0x3d778097	0.060425367
32	0x3d99033e	0.074713215
33	0x3cbd9268	0.023141101
34	0x3ac31dfc	0.0014886255
35	0x3cd902d4	0.026490606
36	0xbd835d60	-0.06414294
37	0xbda0fcaa	-0.07860692
38	0x3cf0e871	0.029407712
39	0x3d7ba9ec	0.061441347
40	0x3c8abc8c	0.01693561
41	0x3d9a4f43	0.07534649
42	0x3d9ae82d	0.07563815
43	0xbdac9a62	-0.08427884
44	0x3d8a09fd	0.06740186
45	0xbda522ba	-0.08063264
46	0x3d856ef5	0.06515304
47	0x3bf9b4d5	0.007620434

policy_net.h2o.weight f4 [2, 48]
0	0x3dd70d79	0.105006166
1	0xbdcf24ca	-0.10114439
2	0x3cd1406f	0.02554342
3	0xbd5dce8d	-0.05415206
4	0x3bdd42e8	0.0067523606
5	0x3ced1ffd	0.028945917
6	0x3dada737	0.08479159
7	0xbd0f1b49	-0.03493813
8	0xbafc3cf1	-0.0019244236
9	0xbe012dd0	-0.12615132
10	0xbccd793c	-0.025082223
11	0x3d17660d	0.036962558
12	0x3dffcda2	0.12490393
13	0x3d623adf	0.055231925
14	0xbd0825fb	-0.033239346
15	0x3d9887c7	0.074477725
16	0x3e046a53	0.12931184
17	0xbd8aad8a	-0.06771381
18	0x3e0a5048	0.13507187
19	0x3e0c314a	0.13690677
20	0xbc83a9b2	-0.016072128
21	0x3db22896	0.086991474
22	0xbe07074e	-0.1318638
23	0x3d24c4d3	0.04022677
24	0x3e01db1b	0.12681238
25	0xbd5949f6	-0.05304905
26	0x3bffe39d	0.007809116
27	0xbcc975ec	-0.024592362
28	0xbbf3f167	-0.007444549
29	0xbd9d40f1	-0.07678402
30	0xbdc10083	-0.09423926
31	0x3cb09c0d	0.021558786
32	0x3dae896e	0.085223064
33	0xbdca06a9	-0.098645516
34	0xbdce2cad	-0.10067115
35	0x3d0ce293	0.034395766
36	0xbb2c09e9	-0.0026251024
37	0x3c08a24c	0.008339476
38	0xbd3d66ed	-0.046240736
39	0xbddcdd63	-0.10784414
40	0xbe0d9380	-0.13825798
41	0x3de76c3c	0.11299941
42	0x3de43198	0.11142272
43	0x3dec3ff2	0.11535634
44	0xbd231613	-0.039815973
45	0xbdf3a0e4	-0.11895922
46	0x3d1707f4	0.03687282
47	0x3d6dd747	0.058066633
48	0xbdeecaa9	-0.11659748
49	0xbcd5fc4e	-0.026121285
50	0x3dc0ef71	0.0942067
51	0x3ddd1479	0.107949205
52	0xbda72d08	-0.08162886
53	0x3de69668	0.112591565
54	0x3da2f3b1	0.07956637
55	0x3dfafd8a	0.1225539
56	0x3c94d026	0.01816566
57	0x3b7c1d07	0.003846945
58	0x3d9bfa3b	0.07616087
59	0x3d0d311e	0.03447067
60	0x3d71bb24	0.05901636
61	0x3dec7449	0.11545617
62	0xbe0ed0d2	-0.13946846
63	0xbdd51714	-0.104047924
64	0xbde38e19	-0.11111087
65	0xbdef3c06	-0.116813704
66	0xbcd200ef	-0.02563521
67	0x3d6d273c	0.057898745
68	0xbddbdc6e	-0.10735403
69	0x3dcbd859	0.099533744
70	0x3e06fc96	0.13182291
71	0x3d31983f	0.043358084
72	0x3c7aa23f	0.015297472
73	0x3dd175d0	0.10227549
74	0x3d5ca44b	0.05386762
75	0x3d9fd054	0.07803407
76	0xbd853215	-0.06503693
77	0xbdc484a5	-0.095956124
78	0x3e0aa0ad	0.13537855
79	0x3de0cbaa	0.10976346
80	0xbde26bea	-0.11055739
81	0x3daef4ba	0.08542772
82	0x3c97a014	0.018508948
83	0xbe015a83	-0.12632184
84	0x3cdbaf1e	0.0268169
85	0xbe01b4ae	-0.1266658
86	0xbdfce841	-0.123489864
87	0x3d273c99	0.040829275
88	0x3de47063	0.111542486
89	0xbe03849a	-0.12843552
90	0x3c7de9d1	0.015497641
91	0x3da4399d	0.08018801
92	0x3d109b4d	0.035304356
93	0xbe00fef2	-0.12597254
94	0xbc77a084	-0.0151139535
95	0xbe102c05	-0.14079292

policy_net.h2o.bias f4 [2]
0	0xbcdf810a	-0.02728321
1	0x3d9e444d	0.07727871

policy_net.h2v.weight f4 [1, 48]
0	0x3d4e4990	0.050363123
1	0xbc16a441	-0.009194435
2	0xbd9b4366	-0.075812146
3	0x3dddcfc5	0.108306445
4	0x3def7a3c	0.11693236
5	0xbdff566f	-0.12467658
6	0xbda566a2	-0.08076216
7	0x3dddf359	0.108374305
8	0xbe0062ce	-0.12537691
9	0x3a7c5691	0.00096259365
10	0xbbc4332a	-0.0059875445
11	0x3d875638	0.06608242
12	0x3af63554	0.0018784204
13	0x3c86fc82	0.016477827
14	0x3d0f2f52	0.034957238
15	0xbdc4b710	-0.09605229
16	0x3e034d78	0.1282252
17	0x3c8960d2	0.0167698
18	0x3ddcaad1	0.10774768
19	0xbe11a6b3	-0.14223747
20	0x3d7cfab7	0.061762538
21	0x3e13a8d9	0.14419879
22	0xbce75000	-0.02823639
23	0xbdb4f4e6	-0.08835773
24	0xbe0d4aa7	-0.13798009
25	0x3e12eadc	0.14347404
26	0xbd1687ee	-0.036750726
27	0xbe0ff929	-0.14059891
28	0x3d7bb78b	0.061454337
29	0x3c90bfbf	0.017669557
30	0xbdde40d2	-0.10852207
31	0xbc9cf6b6	-0.01916061
32	0x3c01c25a	0.007919872
33	0xbcff720c	-0.031182311
34	0xbe06a68c	-0.1314947
35	0xbd980e86	-0.07424645
36	0x3d3d3b91	0.046199385
37	0x3e112f45	0.14178188
38	0xbcb6d47d	-0.02231812
39	0xbe0b1f59	-0.13586177
40	0xbd3918a7	-0.045189526
41	0x3c739230	0.014866397
42	0x3dffc913	0.12489524
43	0x3dfbdc7e	0.12297915
44	0xbe030d87	-0.12798129
45	0x3dbaa0e6	0.0911272
46	0x3dfef7fb	0.12449642
47	0xbd2b4048	-0.04180935

neuromod_net.0.weight f4 [192, 3]
0	0x3d13c537	0.03607675
1	0x3ea3e116	0.32007664
2	0xbe8e09fe	-0.27741998
3	0x3dc9bcf9	0.09850497
4	0xbd1142c6	-0.03546407
5	0x3e3347a7	0.17507802
6	0xbef69961	-0.48163894
7	0x3f00b1bf	0.5027122
8	0x3e9ed634	0.310228
9	0x3e5ddf1e	0.21667144
10	0xbeb1602d	-0.3464369
11	0x3e913369	0.28359535
12	0xbe93a465	-0.2883636
13	0x3ec36e8f	0.38170287
14	0x3f0b11ff	0.54324335
15	0x3ec063a3	0.37576017
16	0x3eff9320	0.49916935
17	0x3f066e64	0.5251219
18	0xbed01f38	-0.40648818
19	0xbe82b4c3	-0.25528535
20	0x3e9691fa	0.29408246
21	0xbf032064	-0.512213
22	0xbe2d549c	-0.16926807
23	0x3e455b78	0.19273174
24	0x3e82f6c5	0.25578895
25	0xbda1ba12	-0.07896818
26	0xbedf1292	-0.43568856
27	0x3e3b9505	0.18318565
28	0x3eac9815	0.3370978
29	0xbea3235a	-0.3186291
30	0x3e2e1a0f	0.17002128
31	0x3ef5dbc5	0.48019233
32	0xbeeb2a38	-0.45930648
33	0xbea6cff7	-0.3258054
34	0xbe84451d	-0.2583398
35	0x3ed8893a	0.42292196
36	0x3ea2886a	0.317447
37	0x3e1b47b6	0.15164074
38	0xbeb850e7	-0.35999224
39	0xbddcb0e3	-0.10775926
40	0x3e1887eb	0.14895599
41	0xbf0ec788	-0.5577321
42	0xbeb6ab0c	-0.35677373
43	0xbe77066c	-0.24123544
44	0x3db67bac	0.08910307
45	0xbda576c4	-0.08079293
46	0x3e6839c3	0.22678284
47	0x3eaa37d2	0.33245713
48	0xbeacf9b5	-0.3378426
49	0x3e504be6	0.20341453
50	0x3e0fd87c	0.14047426
51	0x3eb2692d	0.34845868
52	0xbe382525	-0.1798292
53	0x3ea60849	0.32428196
54	0x3e2d67ae	0.16934082
55	0x3ed4bd69	0.41550758
56	0xbe2e370f	-0.1701319
57	0xbeaf6275	-0.34254804
58	0xbd7ae0fb	-0.061249714
59	0xbe581552	-0.21101883
60	0xbc047ac4	-0.00808591
61	0xbe6cb51a	-0.2311596
62	0xbef794f8	-0.48355842
63	0xbe8cf939	-0.27533892
64	0x3e323a29	0.17404999
65	0x3c16830f	0.00918652
66	0x3dd388dc	0.10328838
67	0x3f0ed951	0.5580035
68	0x3da22d51	0.079188
69	0x3ed54d58	0.4166057
70	0x3c0baa7d	0.008524534
71	0xbf0a4939	-0.5401798
72	0xbec03371	-0.37539247
73	0x3dc4eb8c	0.096152395
74	0x3ecdf114	0.4022299
75	0x3c96d9b4	0.018414356
76	0xbecaf641	-0.39641002
77	0x3e8705a7	0.263715
78	0xbee5eed6	-0.4490878
79	0xbe9349f4	-0.2876736
80	0xbdb35c17	-0.08757799
81	0x3d023c06	0.031795524
82	0x3df1eefa	0.11813159
83	0x3d345d4d	0.04403429
84	0x3f0ee36f	0.55815786
85	0xbee3977a	-0.44451505
86	0x3db7be0e	0.08971797
87	0xbed84a04	-0.4224397
88	0x3ea09a5d	0.3136777
89	0xbec385d9	-0.38188055
90	0x3ead49c2	0.33845335
91	0xbdf2f35c	-0.11862823
92	0x3dac4937	0.08412402
93	0xbe63ab0c	-0.22233218
94	0xbe9556c9	-0.29167774
95	0x3ee82917	0.4534385
96	0xbe8ed142	-0.27894026
97	0xbe1d316b	-0.15350883
98	0x3ef4e6e6	0.47832412
99	0xbdd93b6c	-0.10607037
100	0xbf069d92	-0.52584183
101	0x3ea3b6be	0.3197536
102	0x3e7af38c	0.24506968
103	0xbe261193	-0.16217642
104	0x3f0fb6aa	0.561381
105	0xbc6f2184	-0.014595393
106	0xbe2fefbd	-0.17181297
107	0x3d03eafb	0.032206517
108	0x3f0065a4	0.5015509
109	0xbee9faaa	-0.45699054
110	0x3f035e39	0.5131565
111	0x3e59af74	0.21258336
112	0xbd56e779	-0.052466843
113	0x3e953350	0.2914071
114	0x3e248cb2	0.16069296
115	0xbba734ba	-0.005102721
116	0xbe9e30a2	-0.3089648
117	0x3eb59314	0.35463774
118	0x3ebbe0c5	0.36694923
119	0xbea4159c	-0.32047737
120	0xbef5f8fe	-0.48041528
121	0x3f07ef19	0.5309921
122	0x3eb6f2d5	0.3573214
123	0xbefabeb8	-0.48973632
124	0x3ee89242	0.45424086
125	0xbec6eb41	-0.3885136
126	0x3e156fcb	0.14593427
127	0xbe11f451	-0.14253356
128	0x3f0c4901	0.54798895
129	0xbe552099	-0.20813216
130	0xbe93dad3	-0.28877887
131	0xbe3d45fe	-0.18483731
132	0xbea1682f	-0.31524798
133	0x3efa8b71	0.4893451
134	0xbe2d43f5	-0.16920455
135	0xbeb263b6	-0.34841698
136	0xbebae58c	-0.36503255
137	0x3ef85cc9	0.4850829
138	0x3ec87642	0.39152724
139	0x3eb76291	0.35817388
140	0xbd9cac95	-0.07650105
141	0x3de8120f	0.113315694
142	0x3d684666	0.056707762
143	0xbf0f569c	-0.5599153
144	0x3d9ea061	0.077454336
145	0xbf0ddc6b	-0.55414456
146	0xbeb75720	-0.3580866
147	0xbee43732	-0.4457336
148	0xbebb3e3f	-0.36570928
149	0xbf13c5ab	-0.5772349
150	0x3e8419c4	0.25800908
151	0x3ecd6a4a	0.40120155
152	0x3ea0da55	0.31416574
153	0x3e7ee274	0.24891073
154	0x3e50ccc6	0.20390615
155	0xbe9bb1ff	-0.30409238
156	0xbe9b34d6	-0.30313748
157	0x3f02d2b8	0.5110278
158	0x3f10c33c	0.56547904
159	0x3c3d6951	0.011560754
160	0x3ee19959	0.44062307
161	0xbdd0eb04	-0.10201076
162	0xbecd4c9c	-0.4009751
163	0xbc7f698a	-0.015589127
164	0xbe5458b2	-0.2073696
165	0x3dfa58c4	0.12223962
166	0xbefef2a4	-0.49794495
167	0x3ec3a83a	0.38214284
168	0xbed53e4b	-0.41649088
169	0x3eba326f	0.36366603
170	0xbdda8dc3	-0.1067157
171	0xbca592b0	-0.020211548
172	0xbef6aa23	-0.4817668
173	0x3e973199	0.29530028
174	0x3dca70bd	0.09884784
175	0x3f00c42b	0.5029933
176	0x3cde7edc	0.0271601
177	0xbe5f90db	-0.21832602
178	0xbd0705d2	-0.032964535
179	0xbeeafd90	-0.45896578
180	0xbcf9b170	-0.030480117
181	0xbec11e70	-0.37718534
182	0xbbdad866	-0.0066786287
183	0x3e7ed9c1	0.24887754
184	0xbf13aaad	-0.57682306
185	0xbebd59a1	-0.36982444
186	0x3d36b629	0.044607315
187	0xbe98d973	-0.298534
188	0x3e64bb2a	0.22337022
189	0x3ec0b91e	0.37641233
190	0x3e5bc6ca	0.21462551
191	0x3ec1a8bc	0.37824047
192	0x3ef4af5e	0.47790045
193	0x3d2a185c	0.041527137
194	0x3e13a4c0	0.14418316
195	0x3efc93e2	0.49331576
196	0x3eeda7a3	0.4641696
197	0x3cfcf414	0.030878104
198	0xbed97e9b	-0.42479405
199	0xbd9298d8	-0.07158059
200	0x3eba5cc6	0.36398906
201	0x3ea6d3fc	0.32583606
202	0x3eff312b	0.498422
203	0xbe717093	-0.235781
204	0xbe92b016	-0.28649968
205	0xbe2cf256	-0.16889319
206	0xbe8bb989	-0.2728999
207	0xbe578b44	-0.2104922
208	0xbefe5e3d	-0.49681273
209	0xbe8e59fd	-0.2780303
210	0xbe5e4244	-0.21704966
211	0xbe1f3294	-0.15546638
212	0xbf0adf96	-0.54247415
213	0x3cb5b2d9	0.022180008
214	0xbd22b4db	-0.03972326
215	0x3e1f5461	0.15559532
216	0x3f0a4bef	0.54022115
217	0x3d5fcb79	0.054637406
218	0xbe5c784b	-0.21530263
219	0x3e9dffad	0.30859128
220	0xbe97bf3b	-0.29638085
221	0xbefbf4b0	-0.4921012
222	0x3dc22b32	0.09480895
223	0xbf1084d4	-0.5645268
224	0xbc60e5e3	-0.013726684
225	0x3cf34642	0.029696587
226	0xbed0212e	-0.40650314
227	0x3d377963	0.044793498
228	0xbe13a38a	-0.14417854
229	0xbedf189f	-0.43573472
230	0x3eb502d1	0.3535371
231	0xbebf9a89	-0.37422588
232	0xbf0578f1	-0.52137667
233	0xbea4d6ec	-0.32195222
234	0xbdd6be38	-0.104855
235	0xbe3a7ed7	-0.18212448
236	0x3ec5b041	0.38611034
237	0x3efb4ad2	0.4908052
238	0x3f134b1c	0.5753648
239	0xbf1085ae	-0.5645398
240	0xbe7a06d3	-0.24416666
241	0xbedc00c7	-0.42969343
242	0xbc5ee5d1	-0.013604597
243	0xbe13b324	-0.14423805
244	0xbec116a1	-0.37712577
245	0xbe708ecd	-0.23491974
246	0xbf003c8b	-0.5009238
247	0x3ee1c906	0.4409868
248	0xbeb10b08	-0.3457873
249	0xbf112f85	-0.56713134
250	0x3f0f847c	0.5606153
251	0x3e5545e1	0.20827438
252	0x3e3c30c7	0.18377982
253	0xbc360260	-0.011108965
254	0xbef3bb89	-0.47604015
255	0xbc790214	-0.015198249

neuromod_net.0.bias f4 [192]
0	0xbe832ce8	-0.25620198
1	0x3db5adb1	0.0887102
2	0xbd62f4e7	-0.05540934
3	0x3f02e0b7	0.5112414
4	0xbf04d91c	-0.5189378
5	0x3eb97794	0.36224043
6	0xbe85f189	-0.2616084
7	0x3ed0eb48	0.40804505
8	0x3ee79ad4	0.45235312
9	0xbf01a016	-0.50634897
10	0xbebc80ac	-0.3681692
11	0xbf0c5b54	-0.54826856
12	0x3f0f78a2	0.56043446
13	0x3d762e00	0.060102463
14	0xbea65a7d	-0.32490912
15	0x3d3afecc	0.04565315
16	0x3e035067	0.1282364
17	0x3ee69de5	0.4504234
18	0x3ee001cc	0.4375137
19	0xbed8a99c	-0.42316902
20	0x3dc01bed	0.093803264
21	0xbe6cfa4d	-0.23142357
22	0xbeff2780	-0.49834824
23	0xbe67824b	-0.22608297
24	0x3eb51b0c	0.35372198
25	0xbe5c3d20	-0.21507692
26	0xbef0b336	-0.47011727
27	0xbe22d3db	-0.15901129
28	0xbea055cb	-0.31315455
29	0x3ea0afb7	0.3138406
30	0x3ee15414	0.4400946
31	0xbe7e59d4	-0.24838954
32	0x3e90a349	0.28249577
33	0xbe9788e0	-0.29596615
34	0xbce519dc	-0.027966432
35	0x3ed0ce22	0.40782267
36	0x3d5a2383	0.053256523
37	0xbdb18766	-0.08668403
38	0xbe776bf4	-0.24162275
39	0x3d3d9ac1	0.046290163
40	0x3cb1de95	0.02171258
41	0x3f02df7a	0.5112225
42	0xbe8a702b	-0.27038702
43	0x3e14a856	0.1451734
44	0xbec18a3d	-0.3780078
45	0xbeaa1fa9	-0.3322728
46	0xbe76b9bb	-0.24094288
47	0x3e31e740	0.17373371
48	0x3ea078a1	0.31342033
49	0xbf085e76	-0.53269136
50	0xbd602899	-0.054726217
51	0x3f0b5ce2	0.544386
52	0x3dd61093	0.1045238
53	0x3e5a7acb	0.21335904
54	0xbdfddd7a	-0.12395759
55	0x3ee87ff8	0.45410132
56	0x3ef8b238	0.4857347
57	0x3d075ba3	0.033046376
58	0x3ed70a78	0.42000175
59	0xbe398b80	-0.18119621
60	0x3eb9303d	0.36169615
61	0x3e954d91	0.2916074
62	0x3ef0b0a3	0.47009763
63	0xbece9dd7	-0.40354797
64	0xbe873306	-0.26406115
65	0xbf0a62e2	-0.54057133
66	0x3de21370	0.11038864
67	0xbdd8f396	-0.10593335
68	0xbebfcfbe	-0.37463182
69	0xbf0d53d1	-0.5520602
70	0x3e234d92	0.1594756
71	0x3eb9a3ec	0.36257875
72	0x3efc1eaf	0.4924216
73	0xbe8debe4	-0.27719033
74	0x3edc0e2d	0.42979565
75	0xbd8da0cf	-0.069154374
76	0xbd5a969b	-0.053366285
77	0xbe382e2b	-0.17986362
78	0x3d0b5d68	0.034024626
79	0x3e8b747b	0.27237305
80	0x3e83a6c1	0.2571316
81	0xbebeccb7	-0.3726556
82	0xbec5ec5a	-0.38656884
83	0x3ce26174	0.02763436
84	0xbe4ead67	-0.20183335
85	0xbdbdf396	-0.09274976
86	0xbeb1bc97	-0.34714195
87	0xbf12a017	-0.5727553
88	0xbe37612f	-0.17908166
89	0x3efd9d32	0.49533993
90	0xbe822ac2	-0.25423247
91	0xbda1a4d9	-0.0789277
92	0xbdc4ad7e	-0.096034035
93	0xbef0465d	-0.46928683
94	0x3e695704	0.227871
95	0x3ecdd881	0.40204242
96	0x3f12f548	0.5740552
97	0xbe811359	-0.25210074
98	0x3e939d96	0.28831166
99	0x3e1eda92	0.15513065
100	0xbea09b7e	-0.3136863
101	0x3eed8d20	0.46396732
102	0x3f0c13a6	0.5471748
103	0xbde4fcb7	-0.11181014
104	0x3e5c32b6	0.2150372
105	0x3dfa05fe	0.12208174
106	0xbea38f08	-0.31945062
107	0xbf099107	-0.5373692
108	0x3f03baef	0.51457113
109	0xbedbd6f5	-0.42937437
110	0x3eed9ead	0.46410123
111	0x3efc05a2	0.49223047
112	0x3ec55a0d	0.38545266
113	0x3e2785de	0.1635966
114	0x3e75ce53	0.24004488
115	0x3def1138	0.11673206
116	0x3ebce448	0.36892915
117	0xbef6c276	-0.48195237
118	0xbee4f4d2	-0.44718033
119	0xbdc360d6	-0.09539954
120	0xbe87df9a	-0.26537782
121	0x3ed8b8ec	0.42328584
122	0xbddfabed	-0.10921464
123	0xbdbcba41	-0.092152126
124	0x3e0e7816	0.13912997
125	0x3eb20be2	0.3477469
126	0x3ee86734	0.45391238
127	0x3ed870e3	0.42273626
128	0x3f0bd3b1	0.5461989
129	0x3ee67162	0.4500838
130	0xbe71315e	-0.23553988
131	0xbf0553b0	-0.5208082
132	0x3f113834	0.56726384
133	0x38d94365	0.000103599195
134	0x3ec1edea	0.37876827
135	0x3d50168b	0.05080275
136	0x3ec310ef	0.38098857
137	0xbf115356	-0.56767786
138	0xbed2c9a0	-0.41169453
139	0xbeb2d590	-0.3492856
140	0x3ed52ec3	0.4163724
141	0x3cb40354	0.021974243
142	0x3f0709d8	0.52749395
143	0xbeee04f5	-0.46488157
144	0xbd946225	-0.07245282
145	0x3d3b46b6	0.045721732
146	0xbe21786c	-0.15768594
147	0xbf06c593	-0.52645224
148	0x3e03d6b6	0.12874874
149	0xbe4951b7	-0.19660078
150	0xbe31b209	-0.17353071
151	0xbdc2fa24	-0.09520367
152	0xbeb84472	-0.3598972
153	0x3e2308d2	0.15921333
154	0xbe8f4ee7	-0.27989885
155	0x3d964b41	0.07338572
156	0xbeed631e	-0.46364683
157	0xbf0de30a	-0.5542456
158	0xbed90192	-0.4238401
159	0xbee0aaa3	-0.43880185
160	0xbe826e0d	-0.25474587
161	0xbeed083f	-0.46295354
162	0xbc80e7b1	-0.01573548
163	0x3e9acfdb	0.30236706
164	0xbf0b67f9	-0.54455525
165	0x3e5d0de7	0.21587335
166	0x3e9b8917	0.3037803
167	0xbeee1d71	-0.46506837
168	0x3e050da0	0.12993479
169	0x3b85fbac	0.0040888395
170	0x3f0ce089	0.55030113
171	0x3c55ff89	0.013061413
172	0x3e9ce3df	0.30642602
173	0xbd025db8	-0.03182766
174	0x3f0fc396	0.56157815
175	0xbf0bf0ff	-0.54664606
176	0x3ed407a8	0.4141209
177	0xbf055f39	-0.52098423
178	0x3eaa513a	0.33265096
179	0x3e4d1d34	0.20030671
180	0xbdcb9af5	-0.09941665
181	0x3e0c9625	0.1372915
182	0xbf092707	-0.53575176
183	0x3efc28c3	0.4924985
184	0x3ee31746	0.44353694
185	0xbe103164	-0.14081341
186	0xbe609912	-0.21933392
187	0x3efc928a	0.4933055
188	0x3e7361d8	0.23767793
189	0x3f04a33a	0.51811564
190	0x3e91b2fc	0.28456867
191	0x3c22c8d3	0.009935576

neuromod_net.2.weight f4 [96, 192]
0	0xbac1b32b	-0.0014778128
1	0xbce53f65	-0.02798433
2	0xbc30c516	-0.010789176
3	0xbc775a3d	-0.015097198
4	0x3cb4a57f	0.022051571
5	0xbd59c7e7	-0.053169157
6	0xbceda2a5	-0.029008219
7	0x3ca8d6df	0.020610271
8	0xbd01f4bb	-0.031727534
9	0x3cac2a00	0.02101612
10	0x3d67bc5d	0.05657612
11	0xbd953d4c	-0.07287082
12	0x3bb27f9f	0.0054473425
13	0xbd7d0a9b	-0.061777692
14	0xbd00fbd5	-0.031490166
15	0xbc881e4d	-0.016616011
16	0x3d42bb87	0.04754212
17	0xbcfacfb0	-0.030616611
18	0xbd04eb15	-0.032450754
19	0x3d6850a8	0.056717545
20	0x3bfebe71	0.007774167
21	0xbd6f9c52	-0.058498688
22	0x3cd401ac	0.025879703
23	0x3c3f0de4	0.011661027
24	0xbd921272	-0.071324244
25	0xbd932540	-0.07184839
26	0x3d5a2e9d	0.05326711
27	0x3d8da1a2	0.06915595
28	0x3cbfd059	0.023414778
29	0xbd1b9720	-0.03798592
30	0x3d62d575	0.05537935
31	0x3c4036fc	0.011731859
32	0xbd2dc54e	-0.042424493
33	0xbc91f816	-0.017818492
34	0xbcf91fb0	-0.030410618
35	0x3d6c6862	0.057716735
36	0xbcb8e965	-0.022572229
37	0x3d13d438	0.03609106
38	0x3c8bc144	0.01705993
39	0xba3105f6	-0.00067529024
40	0xbc16152e	-0.009160323
41	0xbd2f9dea	-0.042875208
42	0xbd8ec961	-0.06972004
43	0xbcf58caf	-0.02997431
44	0xbd3c236c	-0.04593222
45	0xbc080a17	-0.008303187
46	0x3d0b8e9b	0.034071546
47	0xbd3c2973	-0.045937967
48	0xbc5f671b	-0.013635422
49	0xbcbe3463	-0.02321834
50	0xbb80a0d8	-0.003925424
51	0xbc0f4f53	-0.00874694
52	0x3d3a882a	0.045540012
53	0x3d5ee5aa	0.054418243
54	0xbcb354e7	-0.02189107
55	0xbd4a956c	-0.049458906
56	0xbbc69a6a	-0.006060888
57	0x3d0c7413	0.034290385
58	0x3d1d6183	0.038423073
59	0xbd5664b3	-0.052342128
60	0x3b9bb473	0.004751736
61	0x3d2875c6	0.041127943
62	0xbbbffcd5	-0.0058589973
63	0xbcc1b568	-0.023646072
64	0x3c626b71	0.013819561
65	0x3c9b5b0f	0.018964319
66	0xbbe6b6f9	-0.007040855
67	0xbba81297	-0.005129169
68	0x3d802d5e	0.06258653
69	0xbd2545ce	-0.040349774
70	0x3c9ba55b	0.018999746
71	0xbd82c019	-0.06384296
72	0x3cc98dbf	0.024603723
73	0x3ca8ec0e	0.020620372
74	0xbac75e75	-0.0015210646
75	0x3d276deb	0.04087631
76	0xbca27e89	-0.019835727
77	0x3d7f368b	0.062307876
78	0xbc5a917c	-0.01334035
79	0xbd406d33	-0.04697914
80	0x3d84c280	0.064824104
81	0xbd1709e1	-0.036874656
82	0x3d10ecf5	0.03538223
83	0xbd81900d	-0.06326304
84	0x3ccd80dd	0.02508586
85	0x3d57fc26	0.052730702
86	0xbd785e48	-0.06063679
87	0x3c10ce16	0.008838197
88	0x3d34a768	0.044104964
89	0x3cc04a6a	0.023472983
90	0xbc9c30d6	-0.019066256
91	0xbb9fc661	-0.0048759435
92	0xbca805dd	-0.020510608
93	0x3d78eb7b	0.060771447
94	0xbcc60f1c	-0.024177127
95	0xbd2a209e	-0.041535012
96	0xbd229e55	-0.03970178
97	0xbc2f7a8e	-0.010710372
98	0x3c2c5443	0.010518136
99	0x3d260de1	0.04054058
100	0xbd67d679	-0.05660102
101	0x3d2633d1	0.04057676
102	0xbd4f3b0a	-0.050593413
103	0x3d11ebff	0.035625454
104	0xbd50f37f	-0.051013466
105	0xbc19381a	-0.009351755
106	0xbd5a8c49	-0.053356443
107	0xbc972fc5	-0.018455395
108	0xbd11de52	-0.03561241
109	0xbbf0edd0	-0.007352568
110	0xbb37d625	-0.0028051224
111	0x3d1af683	0.03783275
112	0x3bffa944	0.0078021605
113	0x3d899dde	0.06719564
114	0xbd78454c	-0.06061296
115	0x3d82e35c	0.063910216
116	0x3d3c1eed	0.04592793
117	0xbcd74d8f	-0.0262821
118	0xbcf54ad0	-0.0299429
119	0x3c69386c	0.014234643
120	0xbd60cab0	-0.054880798
121	0x3c6cfea5	0.014465009
122	0x3d19e969	0.037576113
123	0xbd34d264	-0.044145957
124	0x3d191710	0.03737551
125	0x3d4ada78	0.049524754
126	0xbd459253	-0.04823525
127	0xbca6297e	-0.020283457
128	0xbd5fb50d	-0.054616023
129	0x3cb251be	0.021767493
130	0x3cbe1bea	0.02320667
131	0x3ccde45d	0.025133306
132	0xbb8677fd	-0.004103659
133	0xbd1d4649	-0.038397107
134	0x3bfc07c7	0.007691357
135	0xbd05ecdd	-0.032696594
136	0xbb9e2fbb	-0.0048274673
137	0xbd20bf38	-0.03924486
138	0xbc90e44f	-0.017686991
139	0xbd908a51	-0.07057632
140	0x3bc8ae72	0.006124311
141	0xbd303953	-0.04302342
142	0xbd81609d	-0.06317256
143	0xbd93b28f	-0.07211792
144	0x3ba53cba	0.0050426396
145	0x3d8cfd59	0.0688426
146	0xbc0d092a	-0.008608142
147	0x3b9261c0	0.004467219
148	0xbcbcaf3f	-0.023032783
149	0xbd658ea9	-0.056044254
150	0x3d5d3511	0.054005686
151	0x3d8b173f	0.06791543
152	0xbc82be19	-0.015959786
153	0xbd18c9cd	-0.037301827
154	0x3d12096b	0.035653513
155	0xbd1c290e	-0.03812509
156	0x3cb38907	0.021915926
157	0xbc8c290a	-0.017109413
158	0x3cc57a4b	0.024106165
159	0xbd44521b	-0.047929864
160	0xbc754723	-0.014970574
161	0x3cf72f72	0.03017399
162	0x3d06c979	0.032906983
163	0x3d9544b9	0.072884984
164	0xbc132274	-0.008980382
165	0xbd074b12	-0.033030577
166	0x3cce630a	0.02519371
167	0x3cbbff79	0.022948967
168	0xbd6cd2c9	-0.057818208
169	0xbc413b5b	-0.011793937
170	0x3bc58f2c	0.0060290303
171	0xbd168b1a	-0.03675375
172	0x3c8bfc1d	0.01708799
173	0x3d420af3	0.047373723
174	0xbd8ff6a4	-0.07029465
175	0xbd8fbe1b	-0.070186816
176	0x3d6d563d	0.05794357
177	0x3d2785d2	0.040899105
178	0xbcc8f0aa	-0.02452882
179	0xbccc151f	-0.024912415
180	0x3d80636c	0.06268963
181	0x3bde2e45	0.006780418
182	0x3d7a593d	0.06112026
183	0xbd483241	-0.04887605
184	0xbd93163f	-0.071819775
185	0x3d80d78a	0.06291111
186	0x3cb14223	0.021637982
187	0xbc9787d1	-0.01849738
188	0x3d841b34	0.06450501
189	0x3d7c5e84	0.061613575
190	0xbcdfa297	-0.027299209
191	0xbc034565	-0.00801215
192	0xbcb0c994	-0.021580495
193	0x39dff6b9	0.00042717697
194	0xbc1c5cf3	-0.009543645
195	0x3d2ab4e7	0.04167643
196	0xbd7a43ae	-0.0610997
197	0xbcf0d6ef	-0.029399363
198	0xbd1cd73c	-0.0382912
199	0xbd5d8105	-0.05407812
200	0x3cf39596	0.029734414
201	0xbd840fb2	-0.06448306
202	0xbc910dc8	-0.017706767
203	0x3bf5e8a8	0.0075045414
204	0x3d12513c	0.035722002
205	0xbd207ef4	-0.039183572
206	0x3cd5071f	0.026004372
207	0x3d5262b7	0.051363673
208	0xbc40e31b	-0.011772896
209	0x3d57933a	0.05263064
210	0x3d48d6b7	0.049032893
211	0xbcab21f1	-0.020890208
212	0x3c574a6d	0.013140303
213	0x3d024d23	0.031811845
214	0x3d4d59b2	0.05013437
215	0xbd671558	-0.05641684
216	0xba82d1e0	-0.000998076
217	0x3d72d049	0.059280667
218	0x3c9ef450	0.019403607
219	0xbd8279d2	-0.06370892
220	0xbc0e45fd	-0.008683679
221	0x3d12de67	0.03585663
222	0x3bb3a868	0.005482722
223	0x3d49b44a	0.049244203
224	0xbce34120	-0.027741015
225	0x3d03d8e4	0.032189265
226	0x3d4022a9	0.046908055
227	0xbc1e9955	-0.009680112
228	0xbd432c8a	-0.047649898
229	0xbd1ab761	-0.03777254
230	0xbca677a8	-0.020320728
231	0xbc083f99	-0.008315944
232	0x3d77e303	0.06051923
233	0x3d4fb518	0.050709814
234	0xbd56b60f	-0.05241972
235	0xba0c6c11	-0.00053566793
236	0xbd5a9869	-0.053368006
237	0xba691039	-0.0008890662
238	0x390ec2af	0.000136147
239	0x3c3bbdd1	0.01145883
240	0x3d8b1a9f	0.06792187
241	0x3d3baed4	0.045821026
242	0xbd5e5d46	-0.05428817
243	0x3d41507f	0.047195908
244	0x3c82b57c	0.01595568
245	0xbbb26f17	-0.005445372
246	0x3d6618c1	0.05617595
247	0x3ce4c874	0.027927615
248	0x3d8fa73c	0.07014319
249	0xbd8f917e	-0.07010172
250	0x3cb1a597	0.021685405
251	0xbd069f8c	-0.032867
252	0x3d5d6a67	0.05405655
253	0x3d83c7c4	0.06434587
254	0xbd5d5fd8	-0.05404648
255	0xbc27e0f1	-0.010246501

neuromod_net.2.bias f4 [96]
0	0x3b8a8586	0.004227343
1	0xbc51e0e0	-0.012809962
2	0xbd87421f	-0.066044085
3	0x3d4a51be	0.04939436
4	0x3c9ce70f	0.019153146
5	0xbd5b2408	-0.05350116
6	0x3d424fe0	0.047439456
7	0x3d61e725	0.055152077
8	0xbc847ea5	-0.01617367
9	0x3cde6cd3	0.0271515
10	0xbd83af44	-0.06429914
11	0x3d3405b0	0.043950737
12	0x3ad44571	0.0016195012
13	0x3d808549	0.06275422
14	0x3be758f7	0.007060166
15	0xbc23da24	-0.010000739
16	0xbd47e42c	-0.048801586
17	0xbd857d54	-0.06518045
18	0x3cc35b22	0.023847166
19	0x3cfe568f	0.031047134
20	0xbc1db431	-0.0096254805
21	0xbd155a76	-0.036463223
22	0xbd7134b2	-0.058888145
23	0x3d62d03d	0.055374373
24	0xbcfa659f	-0.030566035
25	0xbcec2356	-0.028825443
26	0xbc713ef8	-0.014724486
27	0xbab36425	-0.0013686462
28	0xbcd73538	-0.026270494
29	0xbd13e113	-0.03610332
30	0xbcfb3b7f	-0.030668018
31	0xbce56cb2	-0.028005932
32	0xbd6f82f3	-0.058474492
33	0xbd867a60	-0.0656631
34	0xb8feeb13	-0.0001215545
35	0x3d15408d	0.036438514
36	0x3d4cb7d7	0.04998001
37	0x3d58ddad	0.05294578
38	0x3d559f67	0.05215397
39	0xbc84bce7	-0.016203357
40	0x3c5a6696	0.013330122
41	0x3d05fab6	0.0327098
42	0x3d920620	0.071300745
43	0x3c810cb8	0.015753135
44	0x3b507a13	0.0031811043
45	0xbd847f5f	-0.064696066
46	0xbd910cb8	-0.07082504
47	0x3cfa735a	0.030572582
48	0xbc6733d0	-0.014111474
49	0x3c1afc50	0.00945957
50	0xbd029ee0	-0.031889796
51	0x3c593cd7	0.013259134
52	0xba59713b	-0.0008294766
53	0xbce14db9	-0.027502881
54	0xbd5ef0dd	-0.054428924
55	0x3d112321	0.035433892
56	0xbd867be6	-0.065666005
57	0x3d4a480d	0.04938512
58	0x3c0a4037	0.008438162
59	0xbd46947b	-0.048481446
60	0x3d047362	0.0323366
61	0x3d5493a0	0.0518986
62	0x3d8d8c5a	0.069115356
63	0xbc6ea600	-0.014565945
64	0xbc785356	-0.015156588
65	0xbd2cf61e	-0.042226903
66	0x3cb36ce7	0.021902515
67	0x3cb02221	0.021500649
68	0xbd5745ef	-0.05255693
69	0xbcbb3576	-0.02285264
70	0x3d0b672f	0.03403395
71	0xbd6ddffe	-0.058074944
72	0xbc3ead42	-0.011637988
73	0x3cf9fad2	0.030515108
74	0xbd6c36a5	-0.0576693
75	0xbd8db48c	-0.06919202
76	0x3a333d86	0.0006837476
77	0xbbc96053	-0.006145516
78	0x3d6ada9d	0.057337392
79	0xbd3d7f10	-0.046263754
80	0x3d6b96fd	0.05751704
81	0x3c0278b5	0.007963349
82	0x3d1cb086	0.038254283
83	0x3d3d1fbf	0.046172854
84	0xbd111c45	-0.03542735
85	0xbd6d6545	-0.057957906
86	0x3c8067a4	0.01567442
87	0xbd08e978	-0.03342578
88	0x3cedea82	0.029042486
89	0x3d74400c	0.059631392
90	0x3c86f3b0	0.016473621
91	0x3cd2d2c5	0.025735268
92	0xbc1c4882	-0.009538772
93	0xbd3703d1	-0.044681374
94	0x3d1fb0db	0.038987022
95	0x3ce5e078	0.028061137
