LTC_A2C/adaptation_module/training_results/adaptation_module_StandardRNN_result_3_2024321_CfC_result_296_202437_numneuronsadaptmod_64_lradaptmod_0.001_wdadaptmod_0.0/best_adaptation_module_loss_CfC_A2C_4.pt (torch, 29492 bytes, 6 tensors)

rnn.weight_ih_l0 f4 [64, 5]
0	0x3d861368	0.0654667
1	0xbc2a9c65	-0.010413264
2	0x3dc732ee	0.09726511
3	0xbdfca3e5	-0.12335948
4	0x3d7d6164	0.061860457
5	0xbdc3959a	-0.095500186
6	0xbd95f348	-0.07321793
7	0x3d754700	0.059882164
8	0xbe42cad0	-0.1902268
9	0x3d066d8c	0.032819316
10	0x3bf43314	0.007452378
11	0x399e6ef0	0.00030218763
12	0xbe02c984	-0.12772185
13	0xbb219c4f	-0.0024659818
14	0x3d2cd477	0.04219481
15	0x3a80a464	0.0009814617
16	0x3deef542	0.11667873
17	0x3ca509b0	0.02014622
18	0xbd8602f5	-0.06543533
19	0x3dc3e072	0.09564294
20	0x3d273214	0.040819243
21	0xbd3da683	-0.046301376
22	0xbdd4541f	-0.10367607
23	0xbcfda774	-0.030963637
24	0x3da4345d	0.080178
25	0xbdab8089	-0.083741255
26	0x3c06845f	0.008210271
27	0x3ce9641e	0.028490122
28	0xbcc52b06	-0.024068367
29	0xbd591bbb	-0.05300496
30	0xbd85e0a7	-0.0653699
31	0xbd179b3a	-0.03701327
32	0xbdbedadb	-0.09319087
33	0xbcb680c4	-0.022278197
34	0x3db59115	0.08865563
35	0x3d8b3cd1	0.06798709
36	0x3ddcd4e9	0.10782797
37	0xbdba3fa4	-0.0909417
38	0x3c92c47d	0.017915959
39	0x3dec6a8f	0.11543762
40	0x3cf964fc	0.03044366
41	0xbccef2ca	-0.025262255
42	0xbdb7c3c0	-0.08972883
43	0x3d495be0	0.049159884
44	0x3df259f4	0.118335634
45	0x3d71edaa	0.059064545
46	0x3d8eb3d3	0.069678925
47	0x3d27a226	0.04092612
48	0x3dec367d	0.1153383
49	0xbb9dd5ee	-0.004816762
50	0x3dbdfcb2	0.092767134
51	0xbbd7e5dc	-0.0065886807
52	0xbc6a3d60	-0.0142968595
53	0xbe0316b5	-0.12801631
54	0x3d8a1122	0.06741549
55	0x3d238dce	0.039930157
56	0x3da60a0a	0.081073835
57	0xbdd3714e	-0.103243455
58	0xbd149c01	-0.03628159
59	0x3db96d4b	0.09054049
60	0xbdba79b1	-0.09105242
61	0xbdb6477b	-0.089003526
62	0xbd6af30a	-0.057360686
63	0xbdb1a2c0	-0.0867362
64	0xbdf22aff	-0.11824607
65	0x3df3c3d2	0.11902584
66	0x3c930d7b	0.017950764
67	0x3daa56b8	0.083173215
68	0x3e003712	0.12521008
69	0xbd465167	-0.048417475
70	0x3df2213f	0.118227474
71	0xbd3bb4b5	-0.045826633
72	0x3b87ef0a	0.0041483687
73	0x3d93a124	0.072084695
74	0x3e1aec1b	0.1512913
75	0x3df9d701	0.12199212
76	0x3da1987a	0.07890411
77	0x3e0ead89	0.13933386
78	0x3c890be9	0.016729312
79	0x3ccb1468	0.024790004
80	0xbd6a0e28	-0.057142407
81	0xbc8a25b3	-0.01686368
82	0xbd1e620d	-0.038667727
83	0x3d32c86c	0.04364817
84	0x3d89d4cd	0.06730042
85	0xbdc4977c	-0.09599206
86	0xbd86faf1	-0.06590832
87	0xbd806d9b	-0.062709056
88	0xbc81d92e	-0.01585063
89	0xbdb44109	-0.08801467
90	0xbd833e6d	-0.06408391
91	0xbcada94d	-0.021198893
92	0xbd4409f7	-0.047861066
93	0x3dd734db	0.10508128
94	0xbd8d265f	-0.06892084
95	0xbc0099d4	-0.0078491755
96	0xbcbc2c0a	-0.022970218
97	0x3c041788	0.008062251
98	0x3d46afb7	0.04850742
99	0x3ddb0d35	0.106958784
100	0xbc994b4e	-0.018712666
101	0xbd6d20d2	-0.057892628
102	0xbd7c091b	-0.06153212
103	0xbded0a6d	-0.11574254
104	0x3adb4253	0.001672814
105	0xbd9c16e6	-0.07621555
106	0xbddc2c1d	-0.107506014
107	0x3b0f9bd6	0.0021912954
108	0xbcb21aea	-0.02174135
109	0xbd543850	-0.051811516
110	0xbce5ed60	-0.02806729
111	0x3df55814	0.1197969
112	0xbdd4c24b	-0.10388621
113	0x3d052b6d	0.032512117
114	0x3d8acd79	0.06777472
115	0x3de6051b	0.112314425
116	0xbdb58073	-0.0886239
117	0x3bbf4804	0.0058374424
118	0x3e0bccf2	0.13652399
119	0x3d795931	0.060876075
120	0x3cb5a1c6	0.022171866
121	0xbd684e71	-0.056715433
122	0x3d7ffe98	0.06249866
123	0xbda8639f	-0.08222126
124	0xbdd21f2b	-0.10259851
125	0x3dbeb659	0.09312124
126	0x3c3f33c6	0.011670059
127	0xbcceed6d	-0.025259698
128	0xbd6091d9	-0.05482659
129	0xbd51227c	-0.051058277
130	0xbda913b2	-0.0825571
131	0xbd846eda	-0.06466456
132	0xbd2eacf3	-0.042645406
133	0xbbef27b3	-0.0072984337
134	0xbe0b46f5	-0.13601287
135	0x3dadea06	0.08491902
136	0x3cc9cbf1	0.02463338
137	0xbdd4e2a6	-0.10394792
138	0x3d55040f	0.052005824
139	0xbd4b4297	-0.049624052
140	0xbda03363	-0.07822301
141	0x3e05de96	0.13073191
142	0xbcdad9a9	-0.026715117
143	0x3c5c4f20	0.013446599
144	0x3d47b38e	0.04875522
145	0x3d04864f	0.03235465
146	0xbd62caac	-0.055369064
147	0xbcf38e77	-0.029731018
148	0x3c79dfa9	0.015251079
149	0xbd27ff0f	-0.041014727
150	0xbda00aa9	-0.07814533
151	0x3ce4efb6	0.027946334
152	0xbb4706a6	-0.0030368953
153	0x3d376327	0.044772293
154	0xbd3d4bd0	-0.04621488
155	0xbdf50498	-0.11963767
156	0xbd004a49	-0.031320844
157	0xbdc340fd	-0.0953388
158	0xbcc92465	-0.024553487
159	0x3db25323	0.08707263
160	0x3a80965d	0.0009810437
161	0x3d5229ee	0.05130952
162	0xbbdbe6c4	-0.006710859
163	0x3c7f19f6	0.015570154
164	0x3d9b25b2	0.07575549
165	0xbc372ccf	-0.011180117
166	0x3c8011e1	0.015633525
167	0xbd51af29	-0.051192436
168	0xbae72fef	-0.0017638187
169	0x3da8d250	0.08243239
170	0xbd836f6b	-0.06417736
171	0x3e0434e5	0.12910803
172	0x3d78c451	0.060734097
173	0x3c978afe	0.018498894
174	0xbdae40e8	-0.08508474
175	0xbddf2531	-0.108957656
176	0xbd958716	-0.07301156
177	0xbdf6e8b6	-0.12056105
178	0xbe00bf84	-0.12573057
179	0xbd91bc7f	-0.07116031
180	0xbddb2cfe	-0.10701941
181	0xbdcf0e14	-0.10110107
182	0xbd33b324	-0.043872014
183	0xbe0b04c5	-0.13576038
184	0xbd4429f3	-0.04789157
185	0x3d2a627e	0.041597836
186	0x3d210db3	0.039319705
187	0x3dd0a85d	0.10188363
188	0x3dc7398c	0.09727773
189	0xbd22a987	-0.039712455
190	0xbd4f0a12	-0.050546713
191	0xbc2838d8	-0.010267459
192	0x3dabad1c	0.08382627
193	0x3d34d356	0.04414686
194	0xbdbdfaa4	-0.092763215
195	0x3b037399	0.0020057915
196	0x3cbbdaef	0.022931544
197	0x3cff29ed	0.031147921
198	0x3bd9a44d	0.0066419006
199	0xbdc0e1ef	-0.094180934
200	0xbdcdaf67	-0.10043221
201	0x3c51308e	0.012767924
202	0xbdcd2ba3	-0.10018089
203	0xbd7b8877	-0.06140944
204	0xbc49b6f5	-0.012311687
205	0x3c002db3	0.007823396
206	0x3d81dde5	0.06341151
207	0x3da7e4e9	0.08197958
208	0x3d93fc69	0.07225878
209	0xbdee2834	-0.11628762
210	0x3e0a1038	0.1348275
211	0x3d529781	0.051414017
212	0xbdca9fde	-0.098937735
213	0x3d8c0faa	0.06838925
214	0xbd584665	-0.05280151
215	0x3dd8755e	0.10569261
216	0x3dbab2ee	0.091161594
217	0xbd83c699	-0.06434364
218	0xbd837a0a	-0.064197615
219	0x3cd5cfd3	0.026100075
220	0x3916b0fe	0.0001437105
221	0x3d42fc9d	0.047604192
222	0xbdbfbd1d	-0.09362242
223	0x3ded3652	0.115826264
224	0x3c8639d3	0.016384995
225	0x3c85b4ec	0.016321622
226	0xbd4be0de	-0.049774997
227	0x3d002016	0.0312806
228	0x3ce5c7cb	0.02804937
229	0x3e1c5828	0.15268004
230	0xbdc79a04	-0.09746173
231	0xbd7a5928	-0.061120182
232	0x3b06af5f	0.0020551307
233	0x3c5f34c8	0.013623424
234	0xbe12c8a7	-0.14334355
235	0xbd3636cf	-0.044485863
236	0xbdb6bb4d	-0.089224435
237	0x3db142ae	0.08655296
238	0xbd1c36b5	-0.03813811
239	0x3cfe7240	0.031060338
240	0x3de03eab	0.10949453
241	0x3d1da498	0.038487047
242	0x3d6c3dec	0.05767624
243	0x3d436fba	0.047713973
244	0x3d8a76ac	0.06760916
245	0x3d742da2	0.05961383
246	0xbd035738	-0.0320656
247	0x3c810ce2	0.015753213
248	0x3e0b41d9	0.13599338
249	0xbdaf6a59	-0.08565206
250	0xbdaaa311	-0.08331884
251	0xbdf8efb1	-0.121550925
252	0xbd8293e3	-0.063758634
253	0xbc97b238	-0.018517599
254	0x3c9aef92	0.018913064
255	0xbd77ec35	-0.060528

rnn.weight_hh_l0 f4 [64, 64]
0	0xbd05419d	-0.032533277
1	0xbb7b68f3	-0.0038362115
2	0xbddc60b1	-0.1076063
3	0x3dbb1edc	0.09136745
4	0xbdb01729	-0.085981674
5	0xbdbce818	-0.09223956
6	0x3e15bb4d	0.14622231
7	0xbd5faed3	-0.054610085
8	0xbdb5cdca	-0.08877142
9	0x3dc454ae	0.09586464
10	0x3e058083	0.13037305
11	0x3d9c9f40	0.07647562
12	0xbde260ad	-0.11053596
13	0xbdc988ad	-0.09840522
14	0xbdc03533	-0.09385147
15	0x3cdbc584	0.026827581
16	0x3d23017c	0.039796337
17	0xbc8fd9e3	-0.017559951
18	0x3d966bb0	0.073447585
19	0xbcdee324	-0.027207918
20	0x3ba07f96	0.004898022
21	0x3d8eb91b	0.069689
22	0x3c03fbb4	0.008055616
23	0xbda9fbcc	-0.082999796
24	0x3db90c60	0.090355635
25	0x3d8c6fb9	0.06857247
26	0x3db2842c	0.08716616
27	0x3df24e0d	0.11831293
28	0x3ce4f310	0.027947932
29	0x3db59c2f	0.0886768
30	0x3bf0ce4a	0.0073488103
31	0x3d611ad5	0.05495723
32	0xbc2be8ad	-0.010492486
33	0x3db73ab7	0.08946746
34	0xbc834cc2	-0.016027812
35	0xbd0d4d6b	-0.03449766
36	0x3d3135d7	0.043264236
37	0x3d8db6c9	0.06919629
38	0x3dbb394d	0.09141789
39	0xbd6603bb	-0.0561559
40	0xbcdb5db2	-0.026778076
41	0xbdc45f15	-0.09588448
42	0xbd11a60d	-0.03555875
43	0xbddaa080	-0.10675144
44	0x3e06a739	0.13149728
45	0xbd8469f2	-0.0646552
46	0xbd82ff15	-0.06396309
47	0x3c95f55d	0.018305475
48	0x3de537ba	0.111922696
49	0x3df42990	0.1192199
50	0x3db3cc32	0.087791815
51	0x3bc62455	0.0060468116
52	0xbdb3624e	-0.087589845
53	0xbdd7b67c	-0.10532853
54	0xbc710058	-0.014709555
55	0x3d46f946	0.04857757
56	0xbcd25634	-0.02567587
57	0x3d8da168	0.069155514
58	0x3c0e67ea	0.008691767
59	0x3d3d8d42	0.046277292
60	0xbdb47e08	-0.08813101
61	0x3d6fed82	0.058576114
62	0x3d5ffc8c	0.054684207
63	0xbd01e688	-0.031713992
64	0x3d215ff5	0.039398152
65	0xbdfd2d04	-0.12362102
66	0x3db2684a	0.08711298
67	0xbe01a637	-0.12661062
68	0x3d9cd7ba	0.07658334
69	0xbd305b11	-0.043055598
70	0xbdf2bbdd	-0.11852238
71	0xbca10063	-0.019653505
72	0x3dacfff9	0.084472604
73	0xbb1e5259	-0.002415797
74	0xbd8d9f28	-0.06915122
75	0xbdeb39d4	-0.11485639
76	0x3db33979	0.087511964
77	0xbdce3d0f	-0.1007024
78	0xbd3f432a	-0.046694912
79	0xbdfb083d	-0.12257431
80	0xbe163a28	-0.14670622
81	0x3dd0c699	0.101941295
82	0xbd86ea8c	-0.06587705
83	0x3c0efc80	0.008727193
84	0x3c0f8f8d	0.0087622525
85	0xbdbbb593	-0.09165492
86	0xbcde2a85	-0.027119884
87	0xbda3a42a	-0.07990296
88	0xbdb80d16	-0.08986871
89	0x3d7baf55	0.061446507
90	0xbda6038b	-0.081061445
91	0x3d71e13d	0.059052695
92	0xbd00c2e8	-0.031435877
93	0x3d291044	0.041275278
94	0xbd5e1675	-0.054220635
95	0x3ddabf30	0.10680997
96	0x3dad9096	0.08474843
97	0x3de48bc0	0.11159468
98	0x3dd8c989	0.10585315
99	0xbd668d80	-0.05628729
100	0x3d8db8b0	0.06919992
101	0xbd9561bb	-0.07294031
102	0xbe10f34e	-0.14155313
103	0x3db7fdac	0.08983931
104	0x3cc806da	0.02441733
105	0x3d8fc9ad	0.070208885
106	0x3da7c1e1	0.08191276
107	0xbc017fba	-0.007903988
108	0xbb81ef98	-0.0039653294
109	0xbc00a9f7	-0.007853023
110	0xbdf0ac4b	-0.11751612
111	0x3da657ee	0.0812224
112	0xbe49a876	-0.19693169
113	0x3d221a23	0.039575707
114	0x3ddd283e	0.10798691
115	0xbd92d9df	-0.07170462
116	0xbd9373bc	-0.07199809
117	0x3ddcbf54	0.107786804
118	0x3c4d4493	0.012528556
119	0xbe1af53e	-0.15132615
120	0x3c9dcc6c	0.019262515
121	0x3d98fb74	0.07469836
122	0xbd861722	-0.06547381
123	0x3da0a863	0.07844617
124	0x3e0bc7c9	0.1365043
125	0x3de5aee3	0.112149976
126	0x3da45adc	0.080251426
127	0xbd153c0f	-0.03643423
128	0x3d5b89f1	0.053598348
129	0xbd807769	-0.06272776
130	0x3ce983db	0.028505256
131	0xbd496da9	-0.049176846
132	0x3d9f1f0b	0.07769593
133	0xbce2d037	-0.027687175
134	0xbda5ad3a	-0.08089681
135	0xbd0a2406	-0.03372576
136	0x3bb56b2e	0.0055364585
137	0x3b8932c7	0.0041869613
138	0xbdd5026e	-0.10400854
139	0xbd3f3c09	-0.046688113
140	0xbdaed9a7	-0.08537608
141	0xbd87b292	-0.066258565
142	0xbd0e0920	-0.03467667
143	0x3dbe3e0b	0.092891775
144	0xbc49c917	-0.01231601
145	0x3cafe0b6	0.021469455
146	0xbd49a56e	-0.04923003
147	0xbd96eb7d	-0.073691346
148	0xbdfd2e4b	-0.12362345
149	0xbe016e9b	-0.12639849
150	0xbd8b222e	-0.06793629
151	0xbd329ca5	-0.04360642
152	0x3d3dac78	0.046307057
153	0x3d9f2a83	0.0777178
154	0xbda314d5	-0.07962958
155	0xbe071966	-0.13193282
156	0xbda66d3d	-0.08126304
157	0xbd8dc604	-0.06922534
158	0xbcff0f6a	-0.03113528
159	0x3d109eae	0.03530758
160	0x3d4c8ee4	0.04994096
161	0xbcb02fb1	-0.021507116
162	0xbddad5c5	-0.106853046
163	0xbd8298e8	-0.06376821
164	0x3df24e60	0.11831355
165	0xbdf9138f	-0.12161934
166	0x3cddd4ff	0.027079104
167	0xbda7e264	-0.081974775
168	0xbe4614b7	-0.1934384
169	0x3d404ed7	0.046950188
170	0xbd7d2391	-0.061801497
171	0xbe13f098	-0.14447248
172	0xbdcf4ecb	-0.101224504
173	0x3dbbe3f7	0.0917434
174	0xbd268b12	-0.04065997
175	0x3de7cea3	0.1131871
176	0x3e7c6e03	0.24651341
177	0xbd8a1bec	-0.06743607
178	0x3a6661bf	0.0008788369
179	0x3d974574	0.07386294
180	0xbd0654d9	-0.03279576
181	0x3c8dd52c	0.017313562
182	0x3dc521fa	0.09625621
183	0xbda445ad	-0.08021102
184	0x3d3b8b7a	0.045787312
185	0x3e19e257	0.15027748
186	0xbd9202d9	-0.071294494
187	0xbde45001	-0.11148072
188	0xbdb69742	-0.08915569
189	0xbd9d9994	-0.07695308
190	0xbab6d4fc	-0.0013948972
191	0x3d8c5b67	0.06853371
192	0x3d13c1c3	0.036073457
193	0x3b62cf86	0.0034608557
194	0x3dc76ab9	0.097371526
195	0xbd87d05b	-0.066315375
196	0xbd1e583e	-0.038658373
197	0xbcfed6eb	-0.03110834
198	0x3c93644a	0.017992157
199	0xbdba937c	-0.09110162
200	0xbdee4422	-0.11634089
201	0x39c1cc72	0.00036964152
202	0xbdcd204a	-0.10015924
203	0x3dff81da	0.12475939
204	0x3daa8aed	0.08327279
205	0xbd8e515c	-0.06949112
206	0xbd8b838a	-0.068121985
207	0x3ca1a004	0.019729622
208	0x3d0010aa	0.031265892
209	0x3ce2476c	0.027621947
210	0xbd5dc14c	-0.05413942
211	0x3d9e2de7	0.07723599
212	0xbc4e82a9	-0.012604394
213	0x3c1eebd0	0.009699777
214	0x3e272b84	0.16325194
215	0xbc912e3f	-0.017722247
216	0xbd56e808	-0.052467376
217	0xbcc51314	-0.024056949
218	0xbc366b35	-0.011133959
219	0x3db15d9e	0.08660434
220	0x3cd51471	0.026010724
221	0x3d4e807f	0.050415512
222	0x3a1e8840	0.00060475245
223	0x3ad7384d	0.0016419977
224	0x3e2fcc6c	0.17167825
225	0xbdea7360	-0.11447787
226	0xbe08a7d2	-0.13345268
227	0xbd011535	-0.031514365
228	0xbd88ea7a	-0.06685348
229	0xbdd61d9c	-0.10454866
230	0x3d9746a5	0.07386521
231	0xbd1228f2	-0.03568358
232	0x3d2f14ab	0.04274432
233	0x3cbfccfe	0.023413178
234	0xbd126ef7	-0.035750356
235	0x3d886035	0.06658975
236	0xbd8fd7e7	-0.07023602
237	0xbdd57126	-0.10421972
238	0x3cba60dc	0.022751264
239	0x3db8f909	0.09031875
240	0x3e0282a1	0.12745143
241	0xbd84b994	-0.06480709
242	0xbdba5bad	-0.09099517
243	0xbe30cc07	-0.1726533
244	0x3db17cff	0.08666419
245	0xbd87c638	-0.06629604
246	0xbbd7df47	-0.006587896
247	0x3cf939b8	0.03042303
248	0x3e00cf11	0.1257899
249	0x3d944525	0.07239751
250	0x3d61bfbe	0.0551145
251	0x3d48fcc5	0.049069185
252	0x3c82f4bf	0.015985845
253	0x3d94d60a	0.07267387
254	0xbde36ef0	-0.11105144
255	0x3e40947b	0.18806641

rnn.bias_ih_l0 f4 [64]
0	0x3cf96e4a	0.030448098
1	0x3cf1a3ce	0.029497053
2	0xbdcc35ed	-0.09971223
3	0xbd1f33b4	-0.038867667
4	0xbd5f35ec	-0.054494783
5	0xbde700e1	-0.112794645
6	0x3e225200	0.15851593
7	0xbc3bc766	-0.0114611145
8	0x3e154d5c	0.14580292
9	0x3b747717	0.0037302428
10	0x3cfccf8c	0.030860685
11	0xbe09bc97	-0.13450848
12	0xba15f40a	-0.00057202636
13	0xbc8afc78	-0.01696609
14	0x3da26d00	0.07930946
15	0xbd174d46	-0.036938928
16	0xbd5fcec8	-0.05464056
17	0xbe305292	-0.17218998
18	0xbdb77b48	-0.08959061
19	0xbbb16300	-0.005413413
20	0x3e0b9e46	0.13634595
21	0x3d609296	0.054827295
22	0xbd234bab	-0.039867084
23	0x3e143e71	0.14476945
24	0xbd7761c5	-0.060395975
25	0xbe18adcf	-0.14910053
26	0x3d3d293c	0.046181902
27	0x3e03d0cf	0.12872623
28	0xbc02804c	-0.007965159
29	0x3c2599b8	0.01010745
30	0xbe36fab9	-0.1786908
31	0x3e21dad8	0.15806139
32	0xbcee5dba	-0.029097427
33	0x3e0d19b4	0.13779336
34	0x3e2c72d7	0.16840683
35	0x3d2ecacc	0.04267387
36	0xbc1c48d7	-0.009538851
37	0x3d204c81	0.03913546
38	0xbdfaf552	-0.122538224
39	0xbda70764	-0.081557065
40	0x3dc8027e	0.097661
41	0xbdfaf1bf	-0.12253141
42	0x3db01c88	0.08599192
43	0x3dd01747	0.1016069
44	0x3dea5ea4	0.114438325
45	0x3d808317	0.062750034
46	0xbde4a419	-0.11164112
47	0xbde24490	-0.110482335
48	0xbe609124	-0.21930367
49	0xbd727a5e	-0.05919873
50	0xbd32be25	-0.043638367
51	0x3e192622	0.14955953
52	0x3d4f7f7d	0.05065869
53	0x3e0cdcf6	0.13756165
54	0x3d4baa07	0.049722698
55	0xbd89b60d	-0.067241766
56	0xbc4e468e	-0.012590064
57	0xbc2ee3de	-0.010674445
58	0x3e22516c	0.15851372
59	0xbb01a7e7	-0.0019783915
60	0xbc85fd75	-0.01635621
61	0x3d4761da	0.048677303
62	0x3e292fac	0.16522092
63	0xbe59435c	-0.21217102

rnn.bias_hh_l0 f4 [64]
0	0x3d9b7ecb	0.07592543
1	0x3e2a7848	0.16647446
2	0xbcd80053	-0.026367342
3	0xbe2a4e55	-0.16631444
4	0x3d767207	0.06016734
5	0x3cc79dae	0.02436718
6	0x3b3dec8e	0.002898011
7	0x3e28db1b	0.16489832
8	0x3d252233	0.040315818
9	0x3daa8c90	0.083275914
10	0x3d82ceb7	0.06387084
11	0xbe30a63b	-0.17250912
12	0xbdba8a43	-0.091084026
13	0x3dfec915	0.12440697
14	0x3de8cf9a	0.11367722
15	0xbc89f383	-0.016839748
16	0xbdda58c8	-0.10661465
17	0xbd89334d	-0.06699238
18	0x3dd8560a	0.10563286
19	0x3dd46c81	0.10372258
20	0x3e07a072	0.13244799
21	0xbcc0a1e6	-0.0235147
22	0x3ce2777c	0.027644865
23	0x3e1ef65f	0.1552367
24	0xbe20a061	-0.1568618
25	0xbe3a0c8e	-0.18168852
26	0xbe19e4a9	-0.15028633
27	0x3d19ac2f	0.037517723
28	0x3dde9377	0.108679704
29	0xbd435a36	-0.047693454
30	0xbcb55ed9	-0.022139953
31	0x3dc23c7d	0.094841935
32	0xbdf45179	-0.11929602
33	0x3d8bdd47	0.06829315
34	0x3d43c09b	0.047791105
35	0xbe117157	-0.14203392
36	0xbd8c3226	-0.068455026
37	0x3df94006	0.121704146
38	0xbdfd954e	-0.12381993
39	0xbd94cdc8	-0.07265812
40	0x3e16e32b	0.14735095
41	0xbdd28d2e	-0.10280834
42	0x3e15f692	0.1464484
43	0x3dde8f4d	0.10867176
44	0x3da39b98	0.079886615
45	0x3da5411d	0.0806906
46	0xbd611b2d	-0.054957557
47	0xbe087d21	-0.13328983
48	0xbde883be	-0.11353253
49	0x3d8422b6	0.06451933
50	0xbdee3a22	-0.11632182
51	0x3e31eaba	0.17374697
52	0xbe0a2c7e	-0.13493535
53	0xbc8cf127	-0.017204834
54	0xbb14f4c3	-0.0022728897
55	0xbe1891f1	-0.14899422
56	0xbe2e83a7	-0.17042409
57	0xbded001b	-0.11572286
58	0x3cf2862b	0.029604992
59	0x3d939741	0.07206584
60	0x3e26ea49	0.1630031
61	0xbb4cb4fe	-0.003123581
62	0x3cbc8997	0.023014827
63	0xbd0c5318	-0.034258932

linear.weight f4 [32, 64]
0	0x3d371484	0.0446973
1	0xbd85773d	-0.065168835
2	0xbdb784d4	-0.08960882
3	0xbd127e53	-0.035765003
4	0x3d0d7b29	0.034541283
5	0x3cba784c	0.02276244
6	0x3dcaea45	0.099079646
7	0x3dbf5dde	0.093440756
8	0x3cf643ec	0.030061685
9	0x3dae7d87	0.08520036
10	0xbd61659b	-0.05502854
11	0xbd81865e	-0.06324457
12	0xbda70edd	-0.08157132
13	0x3d1254a6	0.03572526
14	0x3d8366a2	0.0641606
15	0x3da55eb5	0.080747046
16	0xbdf30350	-0.11865866
17	0xbb49beb8	-0.0030783843
18	0x3d838b72	0.064230815
19	0xbd989203	-0.074497245
20	0x3bd2a9f6	0.0064289523
21	0xbcce9b4e	-0.02522054
22	0x3d0d5c90	0.034512103
23	0xbdb35845	-0.087570705
24	0xbcfc5a7d	-0.030804867
25	0xbe19d69b	-0.15023272
26	0xbc341a3b	-0.010992582
27	0xbca02209	-0.01954748
28	0xbd84a6c4	-0.064771205
29	0x3d8b2cd1	0.067956574
30	0xbdf82e95	-0.1211826
31	0x3c7d4bba	0.015459949
32	0x3c62abb5	0.013834883
33	0xbda5f15e	-0.08102678
34	0x3d0780d1	0.033081833
35	0xbe0abfd0	-0.13549733
36	0x3dbff46b	0.09372791
37	0x3d2c8189	0.04211572
38	0xbcf45be1	-0.029828968
39	0xbda9de96	-0.08294408
40	0xbbe52d3b	-0.0069939173
41	0x3dcbaf01	0.09945489
42	0x3d96205f	0.07330393
43	0x3cecdf52	0.028915081
44	0xbd72d86b	-0.059288424
45	0x3d13c47d	0.036076058
46	0xbd4b1ea6	-0.049589776
47	0xbd40eb52	-0.04709942
48	0xbe1e69d3	-0.15470056
49	0x3d8eb833	0.06968727
50	0x3d900a81	0.070332535
51	0xbda5c62c	-0.08094439
52	0xbda6bf58	-0.08141965
53	0xbd07f9d6	-0.033197246
54	0x3d0137d4	0.031547382
55	0x3d5f3563	0.054494273
56	0xbd7286b6	-0.0592105
57	0xbd988b53	-0.07448449
58	0x3d076708	0.033057243
59	0x3ca95a8b	0.020673057
60	0x3e0bbc31	0.13646008
61	0x3d231e06	0.039823554
62	0x3d2d2b93	0.042277884
63	0xbd5cc685	-0.05390026
64	0x3dc27252	0.09494461
65	0xbdb8b0e1	-0.09018112
66	0xbd42bd34	-0.04754372
67	0x3da359ce	0.07976113
68	0x3d7a83ce	0.061160855
69	0x3e0847ef	0.1330869
70	0xbde82a2f	-0.11336171
71	0xbd4fc9e0	-0.050729632
72	0x3d52bab6	0.051447593
73	0xbc091330	-0.008366391
74	0xbd94ac94	-0.07259479
75	0x3dd65482	0.10465337
76	0x3dd57f3a	0.10424657
77	0x3d7406c2	0.059576757
78	0xbdbb2c9c	-0.09139368
79	0x3dbd90fb	0.092561685
80	0x3d516c16	0.05112847
81	0xbd23552e	-0.039876156
82	0xbd7399cf	-0.059472855
83	0xbe1fb879	-0.15597714
84	0xbdfd2c53	-0.1236197
85	0x3be3ffd2	0.0069579864
86	0xbd9ddb7b	-0.07707878
87	0xbdb9b7c6	-0.09068255
88	0x3ccc9ed7	0.024978084
89	0x3d4487c5	0.047981042
90	0xbd869978	-0.065722406
91	0xbba6cd86	-0.0050904183
92	0xbd9963c1	-0.0748973
93	0x3c9aec55	0.01891152
94	0xbd0227f0	-0.03177637
95	0x3c925e88	0.017867342
96	0xbc14f9cf	-0.009092762
97	0x3ca497d8	0.020091936
98	0xbe153945	-0.14572628
99	0x3df6986d	0.12040792
100	0xbd2861e5	-0.041108985
101	0xbdd19135	-0.10232774
102	0x3c5ed6f6	0.013601055
103	0xbd126ac9	-0.03574637
104	0xbcade2e2	-0.02122635
105	0x3dea9dac	0.11455855
106	0x3d42413f	0.047425505
107	0xbe0f7a63	-0.1401153
108	0xbe180088	-0.14843953
109	0xbda2f32d	-0.07956538
110	0xbd1775f3	-0.03697772
111	0x3dbb7008	0.09152228
112	0x3d9f56d1	0.07780231
113	0x3b385c15	0.0028131057
114	0x3d4befef	0.049789365
115	0xbd84a352	-0.064764634
116	0x3abd41c5	0.0014439157
117	0x3ca796f4	0.020457722
118	0xbdfb5d1a	-0.12273617
119	0x3ddacd27	0.10683661
120	0x3d9cd36b	0.07657512
121	0x3d7b4014	0.061340407
122	0x3d76cfdd	0.060256828
123	0x3d82e136	0.06390612
124	0xbdd7b54b	-0.10532626
125	0x3c2d5e48	0.01058156
126	0xbe19ea8b	-0.15030877
127	0xbd76a728	-0.060218006
128	0xbdd67b69	-0.10472757
129	0x3d31a959	0.043374393
130	0xbdf16c03	-0.1178818
131	0x3d273abd	0.0408275
132	0xbcdf2e78	-0.027243838
133	0xbdf23bcf	-0.11827814
134	0xbcf05fcb	-0.029342553
135	0x3e0e0320	0.1386838
136	0x3d5e495e	0.054269187
137	0xbdb6cc42	-0.08925678
138	0x3d9d75fd	0.0768852
139	0xbbfff981	-0.0078117256
140	0xbd7a8243	-0.061159384
141	0xbd94c023	-0.0726321
142	0xbc96a476	-0.018388968
143	0x3deb4a98	0.11488837
144	0x3d017113	0.031601977
145	0xbc496252	-0.012291508
146	0xbdcdbeb0	-0.100461364
147	0x3d84f153	0.064913414
148	0x3e134651	0.14382292
149	0xbe12d2c9	-0.1433822
150	0x3d8cec58	0.068810165
151	0x3de70862	0.11280896
152	0x3da73cff	0.08165931
153	0xbd829269	-0.06375582
154	0xbd9dbdf2	-0.07702245
155	0xbd6dbb76	-0.058040105
156	0x3c9d5ca4	0.019209214
157	0x3c160ece	0.009158803
158	0xbdabdcee	-0.08391748
159	0x3d18745c	0.037220344
160	0xbe09a610	-0.13442254
161	0xbd52fdf4	-0.05151172
162	0xbd00e03f	-0.031463858
163	0x3d92a2b3	0.07159939
164	0xbda7dadf	-0.08196043
165	0x3b066986	0.0020509674
166	0xbcfbc838	-0.03073512
167	0x3c0602ad	0.008179349
168	0xbd5fd869	-0.054649744
169	0x3d548010	0.051879942
170	0x3df537ee	0.11973558
171	0x3d60d009	0.054885898
172	0x3df2b038	0.11850017
173	0x3d57c80c	0.052681014
174	0xbdc25714	-0.09489265
175	0x3d4549bd	0.048166025
176	0xbe4307b8	-0.19045913
177	0xbcbdd4f9	-0.023172842
178	0x3d892e9b	0.066983424
179	0x3e297ac1	0.16550733
180	0xbd647396	-0.055774294
181	0x3e076cc6	0.13225088
182	0xbddb3cd6	-0.10704963
183	0xbe31ac25	-0.17350824
184	0x3c2c46b1	0.010514901
185	0xbcec588c	-0.028850816
186	0xbd2324e3	-0.0398301
187	0x3d3e25a6	0.046422623
188	0x3d58b604	0.05290796
189	0x3d9f0416	0.07764451
190	0x3d4252cb	0.04744224
191	0xbd662af0	-0.056193292
192	0x3c2846a6	0.01027075
193	0xbda42e40	-0.08016634
194	0xbca57df0	-0.020201653
195	0xbd8227eb	-0.0635527
196	0x3dcf9311	0.101354726
197	0xbd40f9ab	-0.047113102
198	0xbc7ad938	-0.015310578
199	0x3c9eb0f9	0.019371497
200	0xbd8d5697	-0.06901281
201	0xbdc2b183	-0.09506514
202	0x3e15a6aa	0.14614359
203	0xbda9c14b	-0.08288821
204	0xbda8cee5	-0.08242587
205	0x3bb8725c	0.005628867
206	0xbd9fde47	-0.07806068
207	0x3dd54a42	0.10414554
208	0xbc181138	-0.009281449
209	0x3cbe09e6	0.02319808
210	0x3d9a42f5	0.07532302
211	0x3c160030	0.009155318
212	0x3e25b6ab	0.16182964
213	0xbd73ceab	-0.059523266
214	0xbdbb97a4	-0.091597825
215	0xbd054dbc	-0.032544836
216	0x3d822473	0.063546084
217	0xbe06381b	-0.1310734
218	0x3d394201	0.04522896
219	0x3dc70e5b	0.09719535
220	0x3d9802f4	0.07422438
221	0xbdc45136	-0.09585802
222	0xbd69bbcc	-0.057063863
223	0x3e04a9db	0.1295542
224	0xbe0f8ada	-0.14017811
225	0xbdbd038a	-0.09229191
226	0xbda81b91	-0.08208383
227	0xbd7dbf98	-0.061950296
228	0xbda6aafb	-0.08138081
229	0x3dcb501d	0.0992739
230	0x3d65659a	0.056005098
231	0x3d5107e6	0.051032923
232	0xbc62cd03	-0.013842824
233	0xbd48733c	-0.04893802
234	0x3d484e2a	0.048902668
235	0xbc24256b	-0.010018687
236	0xbd760316	-0.060061537
237	0x3ded879e	0.115981326
238	0xbde9f128	-0.1142295
239	0xbe1869dd	-0.14884134
240	0xbd756f91	-0.05992085
241	0x3dd59a23	0.1042979
242	0xbdd4276a	-0.1035908
243	0x3dbf1489	0.09330089
244	0x3c82bf91	0.015960487
245	0xbca1a4ba	-0.019731868
246	0xbd1571c2	-0.03648544
247	0xbd920929	-0.071306534
248	0x3d94bec3	0.072629474
249	0x3cbfb9f7	0.023404105
250	0x3cb5512e	0.022133436
251	0x3b5a7027	0.0033331008
252	0x3dbce4b6	0.09223311
253	0xbcca6f7f	-0.024711369
254	0x3daab643	0.08335545
255	0x3d39c030	0.0453493

linear.bias f4 [32]
0	0x3deb30bc	0.11483905
1	0x3d9eb826	0.07749967
2	0xbcabcb3b	-0.020970931
3	0xbd1cd323	-0.038287293
4	0xbd90c5e3	-0.07068994
5	0x3e20a941	0.15689565
6	0xbd8c0ea3	-0.06838729
7	0x3d944fed	0.07241807
8	0xbddee17e	-0.10882853
9	0x3ce586d0	0.028018385
10	0xbc208233	-0.009796667
11	0x3d82d86b	0.06388935
12	0x3d98496f	0.07435881
13	0x3da54927	0.08070593
14	0xbe1187f4	-0.14212018
15	0xbd93af6f	-0.07211196
16	0xbd917b8e	-0.07103644
17	0x3d856cd4	0.06514898
18	0xbdaef934	-0.085436255
19	0x3d437d09	0.047726665
20	0xbd5ba2aa	-0.053621925
21	0x3ca3197c	0.019909613
22	0xbd1094a3	-0.035298
23	0xbe0ce9b5	-0.13761027
24	0x3e073ed1	0.13207556
25	0xbb5a96a5	-0.0033353951
26	0xbd921d49	-0.07134492
27	0x3ced9dea	0.029005963
28	0xbb33a6e4	-0.0027412707
29	0xbde7878a	-0.11305149
30	0x3d6c689c	0.05771695
31	0x3d04f1d9	0.032457206
