LTC_A2C/adaptation_module/training_results/adaptation_module_StandardRNN_result_638_2024327_CfC_result_296_202437_numneuronsadaptmod_32_lradaptmod_0.0001_wdadaptmod_0.01/best_adaptation_module_loss_CfC_A2C_2.pt (torch, 12212 bytes, 6 tensors)

rnn.weight_ih_l0 f4 [32, 5]
0.11108785 -0.1324145 0.12784486 0.090017796 0.128748 -0.1285396 -0.11258102 0.06772991
-0.15258248 0.15439172 0.032210853 0.021861276 -0.13530335 0.035293 0.054053795 0.007549059
0.14865224 0.033843175 -0.13766044 0.124914214 0.056421433 -0.080231994 -0.14657526 0.07596521
0.15237828 -0.13460799 0.0012626295 0.046825152 -0.0639382 -0.04260833 -0.10964978 -0.0751649
-0.1394387 -0.01671082 0.12638365 0.07827646 0.15793057 -0.13368952 -0.010696612 0.19632038
0.019904017 -0.051124297 -0.1426722 0.061424047 0.11190745 0.12214476 0.1294171 0.018510433
0.108750075 -0.058164135 0.1436053 -0.01232798 -0.026675088 -0.0725765 0.080566466 0.070734516
0.11080777 -0.09573678 -0.07800553 0.1613065 -0.09263614 -0.09722647 -0.041238934 -0.05020059
-0.13808866 0.12611705 0.0064193825 0.06432471 0.113943346 -0.118874565 0.15080823 -0.06878236
-0.010801405 0.112910524 0.18064903 0.13295174 0.0785485 0.14417075 -0.044114176 -0.038453404
-0.057071898 -0.008968165 -0.016948676 0.07922783 0.14220345 -0.12569512 -0.096627556 -0.045036323
0.022094375 -0.051336855 -0.105801344 -0.031791467 -0.06772603 0.0014390118 -0.11911492 -0.03213331
-0.04790532 -0.009568833 0.11682847 0.12725015 -0.046840504 -0.15244047 -0.11043255 -0.1179959
-0.03142018 -0.06165653 -0.10546803 0.022356499 -0.0052978545 -0.006107006 -0.05536861 0.14729042
-0.14866255 0.017369369 0.10494088 0.11112772 -0.14477116 -0.013751132 0.12821177 0.024068782
0.0718031 -0.057909194 0.104383826 -0.04851211 -0.071640514 0.15050295 0.040528912 -0.0028703122
-0.10042679 -0.019267557 -0.11322145 -0.10467815 -0.0033015679 0.047922086 -0.11886553 0.16778515
0.12534687 -0.15344872 0.102233805 -0.12535225 -0.14108479 0.16267337 -0.06466095 -0.043749746
0.0030656934 0.08501745 -0.0012085855 -0.031253926 0.021569699 -0.10319829 -0.10638439 0.052943304
0.018325193 0.072000705 -0.03802374 -0.16944967 -0.046604 -0.15417166 -0.002365378 0.061197285
00000000: 0782 e33d ab97 07be c3e9 023e 405b b83d
00000010: 84d6 033e e39f 03be e190 e6bd fbb5 8a3d
00000020: 953e 1cbe dd18 1e3e 87ef 033d 6b16 b33c
00000030: f68c 0abe 658f 103d 8367 5d3d 195e f73b
00000040: 4b38 183e 249f 0a3d dcf6 0cbe 06d3 ff3d
00000050: 291a 673d ac50 a4bd d317 16be a693 9b3d
00000060: 0d09 1c3e add6 09be d17e a53a bbcb 3f3d
00000070: 08f2 82bd 1286 2ebd 1090 e0bd 0ef0 99bd
00000080: 05c9 0ebe 21e5 88bc b76a 013e 694f a03d
00000090: 8db8 213e e8e5 08be d840 2fbc 3608 493e
000000a0: c00d a33c b667 51bd a918 12be c897 7b3d
000000b0: bc2f e53d 0827 fa3d eb85 043e 31a3 973c
000000c0: 5cb8 de3d 843d 6ebd 450d 133e 4cfb 49bc
000000d0: b785 dabc fda2 94bd 0800 a53d 42dd 903d
000000e0: 2fef e23d a511 c4bd 5dc1 9fbd 882d 253e
000000f0: 04b8 bdbd ac1e c7bd 28ea 28bd 229f 4dbd
00000100: 1d67 0dbe d424 013e af59 d23b acbc 833d
00000110: 215b e93d 8274 f3bd 796d 1a3e c4dd 8cbd
00000120: 60f8 30bc a23d e73d 0ffc 383e 8024 083e
00000130: 09de a03d 7fa1 133e 11b1 34bd 5181 1dbd
00000140: 39c4 69bd 36ef 12bc f3d7 8abc 3342 a23d
00000150: c89d 113e 39b6 00be abe4 c5bd 0278 38bd
00000160: 43ff b43c 9846 52bd 60ae d8bd c537 02bd
00000170: f2b3 8abd 399d bc3a 86f2 f3bd 389e 03bd
00000180: 5e38 44bd 98c6 1cbc c443 ef3d dd4d 023e
00000190: d4db 3fbd 5b19 1cbe 762a e2bd d6a7 f1bd
000001a0: 72b2 00bd 8f8b 7cbd 9fff d7bd fa24 b73c
000001b0: a099 adbb 481d c8bb 32ca 62bd 4dd3 163e
000001c0: ff3a 18be 354a 8e3c 3eeb d63d ee96 e33d
000001d0: e43e 14be 6e4c 61bc f249 033e e52b c53c
000001e0: 810d 933d 3132 6dbd 30c7 d53d a2b4 46bd
000001f0: 43b8 92bd 721d 1a3e a501 263d d91b 3cbb
00000200: 90ac cdbd ffd6 9dbc a6e0 e7bd 7f61 d6bd
00000210: 1e5f 58bb f349 443d c56f f3bd dfcf 2b3e
00000220: ee5a 003e a921 1dbe f55f d13d 575c 00be
00000230: 8878 10be d993 263e f66c 84bd ef32 33bd
00000240: cde9 483b a11d ae3d 6669 9eba 1e04 00bd
00000250: f0b2 b03c a059 d3bd 0fe0 d9bd 14db 583d
00000260: b71e 963c 1b75 933d c8be 1bbd 3784 2dbe
00000270: d6e3 3ebd 2ddf 1dbe 7504 1bbb 01aa 7a3d

rnn.weight_hh_l0 f4 [32, 32]
0.04224286 0.12061315 0.053921666 0.09705717 0.14023794 0.043279417 0.004430804 -0.09667489
0.1363646 0.1692601 -0.1436729 0.15418674 0.063444175 -0.004373516 -0.18431234 -0.1565067
-0.16548753 -0.15282 -0.098519035 -0.071152195 -0.13149944 -0.17325711 -0.041215993 -0.12513253
-0.04094554 0.010914424 0.011336258 0.13171552 0.09467785 -0.07587471 -0.0837586 0.031142876
0.1766126 0.103077196 -0.07735873 0.0010490366 0.012752264 0.07735216 -0.09143792 -0.1746715
-0.0818455 0.027606757 -0.14229111 0.031868286 0.11929961 0.019009419 0.06968656 0.14479902
0.086809084 -0.17460945 0.18007429 0.02649407 -0.15556045 0.01831675 -0.1441307 0.18846892
0.11547069 -0.12958053 -0.15409681 0.03391177 -0.0449089 0.10022133 -0.19134778 0.16097757
0.044206683 0.02610268 -0.089303255 0.035090122 0.0990054 0.19020681 -0.13559419 -0.099309884
0.06539011 0.12382154 -0.17235935 -0.08574051 -0.12164355 0.18614477 -0.08556186 0.13006896
0.06869795 0.0035161672 0.05649787 0.09274709 -0.016549097 0.06634088 -0.047876965 0.029718691
0.033558022 -0.17208132 -0.109701335 -0.11810912 -0.04926594 0.014828817 0.044718884 -0.11361487
-0.120059565 0.13598844 0.0019152787 -0.06412082 -0.059257437 0.02792093 -0.12854914 -0.17557484
-0.08761416 0.14839023 0.02784426 -0.18637934 -0.069037095 0.15365109 0.1432938 0.055637784
0.07023747 0.015257415 0.12172937 -0.1535384 0.016205328 -0.17178251 -0.19369861 0.15950061
-0.00937905 0.047603715 -0.046762656 -0.12116821 0.12350713 -0.13485643 -0.12804554 0.078524575
-0.04556855 0.061132047 -0.14707765 0.08113445 -0.1291257 0.10848077 -0.036929853 -0.15612002
-0.022285473 -0.015297263 0.09399997 -0.09002734 0.019043244 -0.06450889 -0.010654941 0.16724388
0.056166265 0.03162529 -0.14623526 0.088756494 0.1534951 0.025653949 0.13082163 0.09344928
0.1469752 -0.034295753 -0.07797361 0.104971245 -0.0497488 0.0006455263 -0.03955523 -0.043543912
0.04523739 -0.009812976 -0.10216431 0.16470157 -0.16242011 -0.08138634 0.13491842 -0.107140265
-0.12761556 0.105882056 0.15792227 0.115388304 -0.10167372 -0.15883815 -0.16451956 0.00319219
0.025581261 -0.02557844 0.05280545 -0.08177246 -0.007424792 0.13448864 -0.06564726 -0.10816894
0.12712081 0.09470361 0.14507072 0.14439614 0.012858187 0.09940847 0.010190082 0.06658929
-0.019052867 0.07418659 -0.07536944 -0.04086602 0.1183165 0.047923427 0.16695131 -0.016802104
-0.06462151 -0.14576392 -0.05376294 -0.14563273 0.13959613 -0.15047838 -0.034961507 0.032186702
0.16006604 0.1161723 0.13529444 0.013785747 -0.0651896 -0.14689013 0.057167746 0.03407439
0.018040389 0.12228307 0.0041733664 -0.009805424 -0.15464851 0.014226279 0.0791562 -0.09023704
0.026873376 -0.18136115 0.11034507 -0.19084652 0.13839662 -0.07276131 -0.14789815 0.0024228499
0.07082356 -0.031015057 -0.094788566 -0.09813247 0.112602 -0.18509682 -0.06457381 -0.18764955
-0.14324814 0.16892718 -0.09830994 0.023359803 -0.018428447 -0.118289284 0.009063738 -0.17565125
-0.076632574 0.13977928 -0.090621814 0.044205915 -0.05037908 0.034746338 -0.007395218 0.078950614
00000000: d906 2d3d 0704 f73d f7dc 5c3d e9c5 c63d
00000010: 899a 0f3e c245 313d 4730 913b 7cfd c5bd
00000020: 29a3 0b3e 8552 2d3e fd1e 13be 21e3 1d3e
00000030: 05ef 813d b64f 8fbb 60bc 3cbe 4b43 20be
00000040: 9075 29be d97c 1cbe 59c4 c9bd 3eb8 91bd
00000050: caa7 06be 506a 31be 1ad2 28bd be22 00be
00000060: 83b6 27bd 6ad2 323c b6bb 393c 6fe0 063e
00000070: 76e6 c13d 3364 9bbd a189 abbd 581f ff3c
00000080: efd9 343e 231a d33d 416e 9ebd d47f 893a
00000090: dfee 503c cf6a 9e3d ce43 bbbd 16dd 32be
000000a0: 9d9e a7bd 9127 e23c c3b4 11be 5288 023d
000000b0: 5b53 f43d a4b9 9b3c d4b7 8e3d 3246 143e
000000c0: f6c8 b13d d2cc 32be 6565 383e 180a d93c
000000d0: 3d4b 1fbe 020d 963c 0097 13be fffd 403e
000000e0: e67b ec3d c2b0 04be 8ecb 1dbe 11e7 0a3d
000000f0: 65f2 37bd d740 cd3d acf0 43be 4ed7 243e
00000100: 1112 353d 4ad5 d53c a0e4 b6bd a9ba 0f3d
00000110: 58c3 ca3d 93c5 423e 34d9 0abe fb62 cbbd
00000120: 40eb 853d 2696 fd3d f87e 30be b898 afbd
00000130: 4120 f9bd bc9c 3e3e 0e3b afbd cc30 053e
00000140: 83b1 8c3d 7f6f 663b 4f6a 673d 30f2 bd3d
00000150: f991 87bc badd 873d a31a 44bd 9d74 f33c
00000160: 2374 093d 1636 30be 18ab e0bd 32e3 f1bd
00000170: 15cb 49bd 91f4 723c 262b 373d eaae e8bd
00000180: cae1 f5bd 8e40 0b3e 170a fb3a c751 83bd
00000190: edb7 72bd 6fba e43c 63a2 03be e4c9 33be
000001a0: 0d6f b3bd 9cf3 173e a519 e43c 3ada 3ebe
000001b0: 5263 8dbd b656 1d3e 9cbb 123e 72e4 633d
000001c0: aad8 8f3d 3dfa 793c 3f4d f93d 2c39 1dbe
000001d0: 09c1 843c c1e7 2fbe ee58 46be 2154 233e
000001e0: 96aa 19bc 1dfc 423d 338a 3fbd 0a27 f8bd
000001f0: 4ef1 fc3d ce17 0abe 5f1e 03be 7ed1 a03d
00000200: 16a6 3abd 9965 7a3d 869b 16be d229 a63d
00000210: 8739 04be 2a2b de3d c243 17bd eddd 1fbe
00000220: 0690 b6bc 5fa1 7abc 0e83 c03d 4160 b8bd
00000230: 9400 9c3c 3d1d 84bd 1092 2ebc fb41 2b3e
00000240: 990e 663d 8589 013d b2be 15be f7c5 b53d
00000250: d22d 1d3e 3b28 d23c 1bf6 053e 5662 bf3d
00000260: ab80 163e b479 0cbd a1b0 9fbd 2afb d63d
00000270: 66c5 4bbd 8938 293a aa04 22bd 1a5b 32bd
00000280: d74a 393d 9bc6 20bc 863b d1bd 87a7 283e
00000290: 7551 26be e2ad a6bd 0e28 0a3e 5b6c dbbd
000002a0: a7ad 02be b1d8 d83d 60b6 213e b450 ec3d
000002b0: 503a d0bd 78a6 22be d177 28be 1034 513b
000002c0: cb8f d13c e089 d1bc 874a 583d 5278 a7bd
000002d0: ab4b f3bb 64b7 093e 1272 86bd ad87 ddbd
000002e0: f52b 023e f7f3 c13d 6b8d 143e 95dc 133e
000002f0: 25ab 523c ab96 cb3d 4df4 263c f75f 883d
00000300: c214 9cbc 24ef 973d 4b5b 9abd 2163 27bd
00000310: ec4f f23d 5b4b 443d 49f5 2a3e 91a4 89bc
00000320: 4858 84bd 2343 15be 8736 5cbd bf20 15be
00000330: 4af2 0e3e 0117 1abe cc33 0fbd 34d6 033d
00000340: 5ae8 233e beeb ed3d a08a 0a3e 9ddd 613c
00000350: 2082 85bd 5e6a 16be ba28 6a3d 9691 0b3d
00000360: 70c9 933c 8c6f fa3d bcc0 883b eea6 20bc
00000370: 2e5c 1ebe 5715 693c a51c a23d 32ce b8bd
00000380: 8e25 dc3c bdb6 39be 99fc e13d 456d 43be
00000390: d8b7 0d3e e203 95bd 9d72 17be adc8 1e3b
000003a0: f10b 913d 4a13 febc 8220 c2bd adf9 c8bd
000003b0: e19b e63d 058a 3dbe 463f 84bd 3427 40be
000003c0: a4af 12be 3ffb 2c3e b956 c9bd 0f5d bf3c
000003d0: 41f7 96bc a741 f2bd 1380 143c ecdd 33be
000003e0: 8af1 9cbd 4d22 0f3e ee97 b9bd 4311 353d
000003f0: 4b5a 4ebd 2d52 0e3d 9653 f2bb dcb0 a13d

rnn.bias_ih_l0 f4 [32]
-0.06102495 0.06486985 -0.13819258 -0.09373308 -0.18157968 -0.06787353 -0.13456194 0.053827077
-0.081484206 -0.12961552 0.050158057 0.047706924 0.069890045 -0.13677797 0.051167227 -0.13130294
0.08257297 -0.12603228 -0.09536804 0.055686988 0.05625489 0.150531 0.16589637 0.14761958
-0.061474033 0.15653019 0.00525065 0.019311262 0.14312679 -0.17909764 0.14754887 -0.18733573
00000000: 4cf5 79bd 7cda 843d 5b82 0dbe 21f7 bfbd
00000010: 06f0 39be 4701 8bbd 9bca 09be c879 5c3d
00000020: 31e1 a6bd eeb9 04be 8972 4d3d 5668 433d
00000030: 8322 8f3d 860f 0cbe ba94 513d 4774 06be
00000040: 041c a93d 9b0e 01be 5250 c3bd 0a18 643d
00000050: 876b 663d cc24 1a3e bde0 293e 9629 173e
00000060: 32cc 7bbd 7349 203e a50d ac3b a732 9e3c
00000070: d48f 123e 5f65 37be 0d17 173e f0d4 3fbe

rnn.bias_hh_l0 f4 [32]
-0.15784408 -0.043880068 -0.1575245 -0.14006637 0.062238596 -0.12659435 0.18902123 0.067709245
0.044232465 0.1271758 0.12307113 0.047505323 -0.08168621 -0.1422188 0.113431 -0.043320946
-0.033490576 -0.06563123 -0.15601812 0.08476016 -0.15797544 -0.009871746 0.06352746 -0.08635702
0.1873806 0.051590186 0.075518765 -0.10205948 0.032051962 -0.048899997 -0.020540519 0.0237283
00000000: e1a1 21be 96bb 33bd 1a4e 21be 8f6d 0fbe
00000010: e6ed 7e3d f3a1 01be c88e 413e 25ab 8a3d
00000020: 1a2d 353d 5f3a 023e b70c fc3d f194 423d
00000030: 1a4b a7bd cea1 11be 834e e83d 4e71 31bd
00000040: 6a2d 09bd ab69 86bd 37c3 1fbe bc96 ad3d
00000050: 50c4 21be 1bbd 21bc af1a 823d f3db b0bd
00000060: b3e0 3f3e 3b50 533d 95a9 9a3d 9004 d1bd
00000070: eb48 033d 5d4b 48bd 9744 a8bc da61 c23c

linear.weight f4 [32, 32]
-0.03181496 -0.06425276 -0.101069234 -0.122552484 0.05885705 0.11150236 -0.12501888 -0.044320554
-0.10519144 0.0049956264 0.07836641 0.006458076 -0.10609118 0.12295901 -0.10138664 0.13307728
-0.07415226 0.046581786 -0.03309583 0.11191668 -0.029705284 -0.11164125 -0.0041770674 0.076869175
-0.13823722 -0.11602078 0.12301306 0.08434609 0.05622105 0.04867987 -0.02829825 0.103617355
-0.12632623 0.06459158 -0.0663157 -0.046136435 0.07225271 -0.15573835 0.106349416 0.034634624
0.14445375 0.034089766 0.009603337 0.15397707 -0.11423466 0.024290847 -0.07722897 0.123031825
0.1489016 -0.07636506 -0.13271031 0.13724943 -0.10359293 0.1455252 -0.028268702 0.12830855
-0.14114676 -0.054035626 -0.07341343 -0.12814048 -0.1508399 0.02951084 -0.10680217 -0.021101434
-0.034848142 0.07045175 -0.06959993 -0.06652965 -0.033919144 0.06280494 -0.056733873 0.059640918
-0.045583133 -0.10997207 -0.032923087 -0.063954465 0.018702967 0.02831149 0.062487263 0.0014011774
0.11421061 -0.04899573 0.09732803 -0.15214692 -0.10343874 -0.028305214 -0.08217973 -0.06625836
0.062495816 0.14501342 -0.03585613 -0.104672074 -0.088419795 -0.064020336 -0.02598139 0.023370618
-0.021343363 0.06483395 -0.009044216 -0.047844037 -0.1294749 -0.09995756 0.004778215 0.04224377
0.021082735 0.07373789 0.06551549 -0.11919396 0.10564135 -0.032005135 0.07927952 0.084663264
0.07212641 -0.02390854 0.12072241 -0.015227167 0.03711918 0.062673636 0.15521695 -0.06663895
-0.024078358 -0.016186276 -0.035334617 0.014329006 -0.13373062 0.027407337 -0.11146184 -0.055082083
0.08422978 0.032227397 0.0020027605 -0.16857827 0.12090926 0.003315208 0.03740204 0.12857765
-0.012423794 0.048752975 -0.112241484 0.03735469 -0.17203924 0.12630378 -0.15075985 -0.16886525
-0.053914305 0.00620293 -0.014763327 -0.029918702 0.06698235 0.01245311 -0.124786794 0.029456075
0.1610518 0.06691323 0.06413768 0.045540165 0.0661529 0.06073902 0.18721795 -0.049051672
-0.023850212 -0.13790433 -0.048111033 0.1321143 0.05984427 -0.07247703 0.04086916 0.014898418
-0.047974538 -0.1185077 0.095152915 0.07516903 -0.11559266 0.12067879 -0.13823536 0.09884485
-0.09671845 -0.13459519 0.12413891 -0.096693516 0.023557648 0.0464098 -0.013294779 0.035958882
0.12632565 -0.09886833 0.084417135 -0.0920406 -0.061850835 -0.016155543 0.12888671 0.03652389
0.032424506 -0.09132961 -0.08031898 -0.16843683 0.009409938 0.12432518 0.1007832 0.076343745
-0.06905219 -0.03209141 0.0015548546 -0.03726155 0.0073535647 -0.1338866 0.036766235 -0.072631426
0.13892895 0.082270786 0.04202685 -0.0018661589 -0.05757467 0.10598944 -0.13952045 -0.01932643
0.01447179 -0.085234866 -0.14770284 -0.13755234 -0.15729421 -0.113845624 0.021927835 0.022921413
0.09993818 0.035194468 -0.0019437991 -0.0731079 -0.013845353 0.10015951 0.14035922 0.08048155
0.0027308315 0.015145215 -0.081943974 0.0056813518 0.0022718096 -0.05839742 -0.0033484371 -0.1406592
-0.019222775 0.007094536 0.044729903 0.14804013 -0.07443296 -0.08204411 0.15744644 0.14469774
-0.04650115 -0.00714305 -0.12780783 -0.12736396 0.15875295 0.07182552 0.120664515 -0.018123541
00000000: 6750 02bd f396 83bd 63fd cebd ccfc fabd
00000010: 1714 713d 595b e43d f304 00be 7889 35bd
00000020: 9c6e d7bd 5ab2 a33b 927e a03d 459e d33b
00000030: 5546 d9bd efd1 fb3d cca3 cfbd 6945 083e
00000040: 24dd 97bd 8bcc 3e3d 7e8f 07bd 9334 e53d
00000050: 7f58 f3bc 2ba4 e4bd c8df 88bb 966d 9d3d
00000060: 0f8e 0dbe 4d9c edbd 45ee fb3d a5bd ac3d
00000070: 0b48 663d 8b64 473d bbd1 e7bc 5635 d43d
00000080: aa5b 01be 9748 843d 87d0 87bd 8ff9 3cbd
00000090: 3bf9 933d e079 1fbe b9cd d93d 09dd 0d3d
000000a0: afeb 133e b6a1 0b3d 5157 1d3c 2aac 1d3e
000000b0: ddf3 e9bd 99fd c63c 392a 9ebd 1cf8 fb3d
000000c0: a979 183e 4965 9cbd 36e5 07be 1d8b 0c3e
000000d0: 8828 d4bd 8f04 153e c493 e7bc 5163 033e
000000e0: c788 10be 7654 5dbd c859 96bd 4237 03be
000000f0: c675 1abe b8c0 f13c 19bb dabd eadc acbc
00000100: edbc 0ebd 0249 903d 688a 8ebd b240 88bd
00000110: cdee 0abd e09f 803d c761 68bd 094a 743d
00000120: 61b5 3abd 0939 e1bd 5cda 06bd 8ffa 82bd
00000130: f736 993c 7fed e73c a5f2 7f3d b6a7 b73a
00000140: 41e7 e93d bfaf 48bd eb53 c73d 67cc 1bbe
00000150: b1d7 d3bd 56e0 e7bc d94d a8bd 77b2 87bd
00000160: 9dfb 7f3d 667e 143e e1dd 12bd 505e d6bd
00000170: 7015 b5bd 181d 83bd edd6 d4bc bd73 bf3c
00000180: 47d8 aebc a9c7 843d 312e 14bc 1cf8 43bd
00000190: 1195 04be 8db6 ccbd 9392 9c3b ce07 2d3d
000001a0: b3b5 ac3c e403 973d fc2c 863d f71b f4bd
000001b0: 7e5a d83d d117 03bd 4d5d a23d ef63 ad3d
000001c0: 03b7 933d d8db c3bc 503d f73d 5e7b 79bc
000001d0: 480a 183d 095b 803d 31f1 1e3e 007a 88bd
000001e0: fa3f c5bc 1599 84bc 08bb 10bd 35c4 6a3c
000001f0: aef0 08be 5a85 e03c 1b46 e4bd c09d 61bd
00000200: aa80 ac3d e000 043d bf40 033b c89f 2cbe
00000210: 469f f73d f643 593b e232 193d dca9 033e
00000220: 2b8d 4bbc 33b1 473d ddde e5bd 3b01 193d
00000230: 0e2b 30be c755 013e ca60 1abe 03eb 2cbe
00000240: 3fd5 5cbd f341 cb3b e2e1 71bc 1118 f5bc
00000250: 0b2e 893d 2108 4c3c 3890 ffbd de4d f13c
00000260: c3ea 243e ce09 893d 9e5a 833d 5388 3a3d
00000270: 2c7b 873d 7bc9 783d 10b6 3f3e 68ea 48bd
00000280: 8561 c3bc cb36 0dbe 1310 45bd f948 073e
00000290: 441f 753d d66e 94bd 6c66 273d 7f18 743c
000002a0: f380 44bd 2ab4 f2bd 88df c23d 38f2 993d
000002b0: d8bb ecbd 7126 f73d 928d 0dbe 2b6f ca3d
000002c0: 5314 c6bd 52d3 09be 8a3c fe3d 4007 c6bd
000002d0: f8fb c03c 3418 3e3d 58d2 59bc 9f49 133d
000002e0: 835b 013e 7b7b cabd e4e2 ac3d c87f bcbd
000002f0: 4d57 7dbd a158 84bc e1fa 033e 139a 153d
00000300: 8fcf 043d 050b bbbd 477e a4bd b47a 2cbe
00000310: 242c 1a3c 339e fe3d 6c67 ce3d 1c5a 9c3d
00000320: 3c6b 8dbd 4872 03bd 43cc cb3a 919f 18bd
00000330: 2cf6 f03b 9219 09be 3198 163d c9bf 94bd
00000340: 6443 0e3e 967d a83d 5924 2c3d e799 f4ba
00000350: 6bd3 6bbd fe10 d93d 73de 0ebe 7652 9ebc
00000360: 161b 6d3c 9e8f aebd 6a3f 17be 85da 0cbe
00000370: bc11 21be e527 e9bd 01a2 b33c b0c5 bb3c
00000380: 63ac cc3d 1328 103d 13c7 feba 98b9 95bd
00000390: 9fd7 62bc 6e20 cd3d 54ba 0f3e 83d3 a43d
000003a0: c0f7 323b a323 783c 3ed2 a7bd a22a ba3b
000003b0: a4e2 143b 2232 6fbd 7471 5bbb f708 10be
000003c0: 1579 9dbc 4879 e83b b436 373d d597 173e
000003d0: 4f70 98bd be06 a8bd a439 213e a52b 143e
000003e0: fd77 3ebd 3f10 eabb 0ee0 02be b36b 02be
000003f0: 2290 223e 4219 933d f51e f73d d277 94bc

linear.bias f4 [32]
0.09204556 -0.12868285 -0.06820669 -0.122844405 -0.0728115 0.007876211 0.13895239 -0.024389144
-0.12058899 0.0123384 -0.114636876 0.037755888 -0.029240511 0.07412951 -0.054441478 -0.035835527
0.14903088 0.024227504 0.16153717 -0.051680904 -0.105559185 -0.14970008 0.1226235 -0.14099231
0.13006638 -0.10639093 -0.13512234 -0.045778114 0.1598343 0.16112404 -0.07998147 0.12944496
00000000: 6282 bc3d 70c5 03be f3af 8bbd d995 fbbd
00000010: 321e 95bd 390b 013c 8949 0e3e becb c7bc
00000020: 5cf7 f6bd 0027 4a3c bdc6 eabd eba5 1a3d
00000030: cc89 efbc 36d1 973d 07fe 5ebd 46c8 12bd
00000040: 8d9b 183e c278 c63c 006a 253e 5baf 53bd
00000050: 6a2f d8bd fa4a 19be 0822 fb3d 4a60 10be
00000060: 1f30 053e 7de3 d9bd 835d 0abe d581 3bbd
00000070: 9aab 233e b3fd 243e 53cd a3bd 388d 043e
