LTC_A2C/adaptation_module/training_results/adaptation_module_StandardRNN_result_770_2024328_CfC_result_296_202437_numneuronsadaptmod_32_lradaptmod_0.0005_wdadaptmod_0.01/best_adaptation_module_loss_CfC_A2C_0.pt (torch, 14324 bytes, 6 tensors)

rnn.weight_ih_l0 f4 [32, 5]
000000 b2 3c 75 3d 85 8d 9f bd bd 84 99 3d cb 1f 74 3d
       0.059872337 -0.077906646 0.07496021 0.059600633
000010 ad fb bc 3d 60 d7 9a bd 45 e4 a9 bd 88 49 ca 3c
       0.09227691 -0.07560611 -0.08295492 0.024693266
000020 84 90 ee bd cf b3 d2 3d 3f 55 80 3c 5c 0c 13 3d
       -0.11648658 0.10288202 0.015665649 0.03590046
000030 de 74 a6 bd d4 0d 80 3c 10 8b b5 3d 7c f6 52 3b
       -0.081277594 0.015631594 0.08864415 0.0032190373
000040 49 6a 05 3e 06 9f fb 3b 1f d0 dc bd 90 0c d3 3d
       0.13028826 0.007678869 -0.107818834 0.103051305
000050 e6 74 8f 3c 57 82 2f bd b6 ea b7 bd 79 21 3d 3d
       0.017511796 -0.04284891 -0.089803144 0.0461745
000060 61 fd 28 3e d9 c6 b5 bd da 6a 61 bc 36 ed 3f 3c
       0.16502906 -0.08875818 -0.013758386 0.01171427
000070 37 2f 0f bd 1b d8 92 bd ba 4b 8e bd e2 b5 5a bd
       -0.034957137 -0.07170125 -0.069480374 -0.053396113
000080 b3 b1 b3 bd 56 34 4b bc c5 fc 9d 3d c7 23 16 3d
       -0.08774128 -0.012402615 0.077142276 0.036655214
000090 72 21 01 3e c2 b2 ab bd d9 d7 d8 ba 64 7e 23 3e
       0.12610415 -0.08383705 -0.001654382 0.15966183
0000a0 fd 20 43 3c 20 4e 74 bc fb eb b3 bd 18 f1 13 3d
       0.0119097205 -0.014911205 -0.08785244 0.036118597
0000b0 24 22 03 3e 08 0a b7 3d 42 13 d1 3d 9c 2a cd 3a
       0.12805992 0.0893746 0.10208751 0.0015652957
0000c0 d3 4a 84 3d f8 d4 8a bd 9c 97 9f 3d 6f 8c 1f bb
       0.06459584 -0.06778902 0.07792589 -0.002434518
0000d0 4b 32 a0 ba 0f ac 01 bd 69 c0 c9 3d 31 3f 36 3d
       -0.001222202 -0.03165823 0.098511524 0.044493858
0000e0 6a 08 af 3d 3e 54 22 bd 66 53 60 bd 2d f2 05 3e
       0.08546527 -0.03963112 -0.054767035 0.13080664
0000f0 2c 38 32 bd a9 58 76 bd 2b b3 5f ba cb 28 38 bd
       -0.0435106 -0.060143147 -0.0008533473 -0.04496078
000100 07 51 ba bd c4 2d b7 3d 99 88 06 bc 74 9a 8e 3c
       -0.09097486 0.08944276 -0.008211278 0.017407633
000110 08 b6 4e 3d 85 a6 d8 bd 1c e8 85 3d ea b3 44 bd
       0.050466567 -0.10578636 0.06538412 -0.048023142
000120 fc d5 56 ba f4 96 a4 3d ab c8 04 3e 43 9f da 3d
       -0.00081953383 0.080366045 0.12967174 0.10674908
000130 71 58 8b 3d 52 b4 bf 3d 12 68 ed bc db 3d 35 bd
       0.06803978 0.09360565 -0.028980289 -0.044248443
000140 33 2c c0 bc 04 5c ab bc b5 f3 c4 39 5e 73 c3 3c
       -0.023458576 -0.0209179 0.0003756561 0.023858722
000150 1c 68 7a 3d 92 c7 93 bd 26 77 73 bd b9 c4 f7 bb
       0.061134443 -0.072157994 -0.0594398 -0.007561293
000160 8a 94 a7 3c e9 57 1c bd 0a ce 3e bd 6d 7f 08 bc
       0.020456571 -0.038169775 -0.046583213 -0.008331162
000170 f9 ec c9 bc cc a7 1d 3c fe 25 c7 bd d4 b1 51 bc
       -0.02464913 0.009622525 -0.09724043 -0.012798745
000180 4a 01 c1 bc 2b f6 62 b9 64 fb ab 3d 63 37 a9 3d
       -0.023560185 -0.00021644744 0.08397558 0.08262517
000190 05 b3 c2 bc 08 35 f7 bd de 65 71 bd 67 28 a6 bd
       -0.023767004 -0.12070662 -0.05893504 -0.08113175
0001a0 6a f7 cc 3c 4b 03 f8 bc 23 ae af bd ed 46 4a 3a
       0.02502032 -0.030275008 -0.08578136 0.0007716257
0001b0 67 30 18 bc 03 ba a6 bc 15 05 e3 bc 85 5a c8 3d
       -0.009288884 -0.02035237 -0.027712384 0.0978289
0001c0 63 4c c6 bd 82 ca 40 3c 57 85 a3 3d 33 56 85 3d
       -0.09682538 0.011767032 0.07984417 0.06510582
0001d0 59 9a bb bd 5e 23 56 39 fc 65 a5 3d 1f 6a aa 3c
       -0.09160299 0.00020421806 0.080760926 0.020802556
0001e0 60 4f 4c 3d be 09 43 bd f3 52 51 3d 18 d5 7a bd
       0.049880385 -0.047616713 0.051104497 -0.06123838
0001f0 7a a2 65 bd 7c 7b cb 3d 4b 0c 92 3c 13 d9 68 ba
       -0.056063153 0.09935662 0.017828127 -0.0008882444
000200 5b 51 92 bd 0a a8 90 38 d1 37 a0 bd 4e f9 8d bd
       -0.071444236 6.897755e-05 -0.07823146 -0.06932317
000210 6c ee 7e 39 ce 98 31 3c 41 96 12 be 0e 9b e3 3d
       0.00024312147 0.010839654 -0.1431513 0.11113559
000220 7f 64 aa 3d 80 be ba bd 34 e8 50 3d 02 5a ed bd
       0.08319949 -0.09118366 0.051002696 -0.11589433
000230 22 70 a8 bd 37 c7 fd 3d de 7f 4d bc e2 93 c4 bc
       -0.08224513 0.12391513 -0.012542693 -0.023996297
000240 a1 54 34 3d b6 fe 65 3d e6 b4 1f bc 97 d1 be b9
       0.04402602 0.056151114 -0.009747719 -0.0003639578
000250 3e 1e b6 3c 6b bc d2 bd 74 b8 a1 bd dc 81 58 3d
       0.022231217 -0.10289844 -0.0789651 0.05285822
000260 1e 49 08 bb 3a 54 f8 3c a8 f7 97 bc 03 be df bd
       -0.0020795534 0.0303136 -0.018550709 -0.10924914
000270 04 fa 57 bd 56 db c5 bd 77 52 e7 3b 32 47 2b 3d
       -0.052728668 -0.09660976 0.007059391 0.041815944

rnn.weight_hh_l0 f4 [32, 32]
000000 4c 97 38 3d 17 e5 a7 3d bf d2 28 3d 84 a7 bf 3d
       0.045066163 0.08197992 0.041216608 0.09358123
000010 84 3c bd 3d 74 67 7d 3d 88 76 c2 bc 36 a8 a9 bd
       0.09240058 0.06186624 -0.02373816 -0.08284037
000020 64 2f 38 3d c4 a8 bd 3d 57 1c f6 bd 29 d2 db 3d
       0.04496707 0.09260705 -0.12017124 0.10733444
000030 62 e5 ee 3b fa 94 a2 3c 9f a5 19 be f1 da df bd
       0.007290528 0.019846428 -0.15004586 -0.10930432
000040 c7 63 82 bd dc 21 bd bd a8 70 72 bd ca f9 f0 bc
       -0.06366687 -0.09234974 -0.05918947 -0.029415984
000050 1c 58 c5 bd 23 7f 95 bd 0d df 59 bd a0 62 91 bd
       -0.09635946 -0.0729964 -0.053191233 -0.07098889
000060 83 04 4a bd ec 54 aa bc 07 0f cd 3b 99 f7 d0 3d
       -0.04932071 -0.020792447 0.006257895 0.102034755
000070 f1 9c 06 3d c0 44 07 bd 62 79 91 bd 4e 9a 24 3d
       0.032864515 -0.03302455 -0.0710323 0.04018622
000080 12 30 d5 3d ab 08 69 3d b9 27 f9 bc 65 9c e1 3c
       0.10409559 0.056893032 -0.030414449 0.027540395
000090 b8 f3 95 bc a5 e7 63 3d 7b cd 4a bd 26 fc e4 bd
       -0.01830469 0.055640835 -0.049512368 -0.11180906
0000a0 8d 85 55 bd 77 18 0b 3d 86 c4 a7 bd 5b 58 f6 3c
       -0.052129317 0.03395888 -0.08191781 0.030071428
0000b0 a5 8d 30 3d 75 59 dd 3c df ce e3 3c 5e 28 a4 3d
       0.043103833 0.027020195 0.027808605 0.08015512
0000c0 be 6a 46 3d ee 7a bc bd ad 2d e1 3d c4 57 9f 3b
       0.04844164 -0.092031345 0.1099504 0.0048627574
0000d0 d6 ce e3 bd 90 15 35 3b 19 d8 ba bd d6 dd d2 3d
       -0.11123435 0.002763126 -0.091232486 0.10296218
0000e0 ff 11 91 3d 51 ca 81 bd da 01 4a bd 2c 51 37 3d
       0.070835106 -0.06337417 -0.049318172 0.044755146
0000f0 21 7f 1e bd b5 d2 27 3d bd 7b d9 bd 63 e6 a8 3d
       -0.03869546 0.04097243 -0.10619304 0.08247068
000100 92 1b 97 bc a9 66 df bc 0a f7 f1 bd 34 b1 93 bc
       -0.018445764 -0.027270632 -0.11814697 -0.018028833
000110 12 15 e8 3d b0 55 00 3e 74 c4 73 bd 10 05 0a bd
       0.11332144 0.12532687 -0.059513524 -0.033696234
000120 d4 52 f3 3c 48 cc 42 3d 5e db df bd e6 7c 2d bd
       0.029702581 0.0475581 -0.10930513 -0.04235544
000130 b0 32 b6 bd 42 d6 fd 3d e9 32 f4 bc b5 a7 7a 3d
       -0.088963866 0.12394382 -0.029809432 0.061195094
000140 39 8a f3 3c 0f a3 16 3c e8 8c 0d 3c 58 e0 c4 3d
       0.029728996 0.00919415 0.008639552 0.09613103
000150 13 3d 22 3c 49 1c 55 3d 70 11 7d 3b 53 5e 2e bc
       0.009902257 0.052028928 0.003861513 -0.010642606
000160 8a fc 90 3d 54 26 c4 bd a2 83 45 bd 9a a4 09 be
       0.07079418 -0.09577623 -0.048221238 -0.13441697
000170 6a b0 92 bc 48 3e 00 bd c9 ff a8 3d 7a df fd bd
       -0.017906386 -0.031309396 0.08251912 -0.123961404
000180 63 8b ba bd 57 b2 ff 3d 23 00 5b 3c 18 90 11 bd
       -0.09108617 0.124851875 0.013366732 -0.03553781
000190 12 1b a2 bd a4 0c 5f 3d 47 43 c6 bd d8 5e 48 be
       -0.079153195 0.054455414 -0.09680801 -0.1956743
0001a0 80 98 d2 bd e1 9f d1 3d 83 66 b5 3b 2a d4 15 be
       -0.10282993 0.102355726 0.005535902 -0.14631715
0001b0 4d 1c d3 bc af cb 28 3e 53 df ed 3d 33 64 8d 3d
       -0.02577033 0.16483949 0.11614861 0.06903877
0001c0 7f a6 27 3d 3f e8 48 3c 59 bc 04 3e 0b 57 9b bd
       0.040930267 0.012262403 0.12962474 -0.075849615
0001d0 ac 1b cf bc 13 0e a4 bd d8 4a 4e be ae a1 98 3d
       -0.02528175 -0.08010497 -0.20145738 0.07452713
0001e0 7c d8 ed bc 3d c4 a0 3c e4 ed 12 bb 1f ef b1 bd
       -0.029033892 0.019624824 -0.0022419626 -0.08688187
0001f0 c6 af a3 3d 05 7e ca bd 3e ee 0b be 06 9a c0 3d
       0.079925105 -0.098873176 -0.13665101 0.09404378
000200 91 a2 c7 bd 98 c8 40 bc bb 78 0f be 2c 43 79 3c
       -0.09747804 -0.011766575 -0.14010899 0.015213769
000210 f9 7f 6b bd d5 aa 2f 3d a5 c3 ac 3c ec 5e aa bd
       -0.05749509 0.042887527 0.021089384 -0.08318886
000220 76 74 03 3b 82 1b 4d bd 4c 41 02 3e 25 54 3f bd
       0.002005843 -0.05007506 0.12720221 -0.046711106
000230 e0 84 5c 3b eb 1d da bd 82 4b 2f 3d 7c 6d bb 3d
       0.0033648536 -0.10650238 0.04279662 0.09151742
000240 f5 cf f3 3b 1a 50 0e 3d c5 9b 22 be 82 e0 66 3d
       0.007440562 0.03474436 -0.15879734 0.05636645
000250 fb 04 e9 3d e5 1f 1f 3c b3 32 28 3e a0 22 bf 3c
       0.11377903 0.009712194 0.1642559 0.02333194
000260 f9 40 fe 3d 72 cc a1 3c 39 1a cd bc d9 80 0c 3d
       0.12414736 0.019750807 -0.025036918 0.034302566
000270 bc d8 0e 3b 28 57 47 bd 8c a8 d3 3c 31 87 b6 bd
       0.0021796664 -0.048667103 0.025837205 -0.089125045
000280 23 8b 9c 3d 58 85 71 3c db 48 88 bd 36 40 34 3e
       0.07643726 0.014741264 -0.06654521 0.1760262
000290 3c d7 23 be cc 1c 21 bd 5d 0f b7 3d e5 30 05 be
       -0.16000074 -0.039334103 0.08938477 -0.13006933
0002a0 f0 23 e9 bd 0f 43 c0 3d 1d fd ec 3d 86 64 ac 3d
       -0.11383808 0.093877904 0.11571715 0.08417611
0002b0 cd e3 38 bd 2c 6e f0 bd 40 07 35 be e6 70 2a 3d
       -0.045139123 -0.117397636 -0.17678547 0.041611575
0002c0 dd 4d 87 3b 0a 60 c4 bc a5 c4 a7 3d e8 5b 76 bd
       0.004129155 -0.023971576 0.08191804 -0.060146242
0002d0 0d 9c 40 bd 6b 7d bc 3d 35 71 c5 bd b4 89 8b bd
       -0.04702382 0.09203609 -0.09640733 -0.06813374
0002e0 70 49 ba 3d 1a c0 4f 3d dc ea d1 3d 0c 9c 20 3e
       0.09096038 0.05072031 0.10249874 0.15684527
0002f0 b1 da 34 bd 2a d9 d3 3d 2b 97 c1 bc d7 90 a9 3d
       -0.044153873 0.10344155 -0.023631653 0.08279579
000300 a7 17 30 bd 8d e5 06 3d 34 7c 21 bd 51 bb 4e bd
       -0.042991307 0.03293376 -0.03942509 -0.050471608
000310 06 94 8f 3d 72 38 52 3b 69 a3 c4 3d 87 70 2d 3c
       0.07010655 0.00320771 0.096014805 0.010585911
000320 2c 8d 8b 3c e2 45 a0 bd 14 fa 85 bc 2d fb e2 bd
       0.01703509 -0.07825829 -0.016354598 -0.11083064
000330 51 2f a6 3d d2 43 e5 bd 6f 6a d7 3a 1b 33 05 3b
       0.08114494 -0.11194576 0.0016434918 0.002032465
000340 8b b5 7f 3d 29 f2 94 3d 35 09 c0 3d b8 7f a4 3b
       0.062428992 0.07272751 0.09376756 0.005020108
000350 5f 4e 19 bb 1a 3d c8 bd 3c a9 90 3d 3b 80 1d 3c
       -0.002339266 -0.09777279 0.07063529 0.009613092
000360 11 fd 02 3d 25 c8 0d 3d d1 eb eb bb db 43 fb bc
       0.031979624 0.0346147 -0.0071997424 -0.030672004
000370 2a 92 b3 bd ca d1 af bc b4 e3 81 3d fa b4 9f bd
       -0.08768113 -0.02146234 0.06342259 -0.077981904
000380 01 71 04 bb 85 ff 04 be aa 63 9e 3d 70 81 2c be
       -0.0020208957 -0.12988098 0.07733853 -0.16846251
000390 a2 6f e8 3d 0d 1d ba bd 0a 40 d6 bd 4f f7 4d 3c
       0.11349417 -0.09087572 -0.10461433 0.01257117
0003a0 03 1d 7f 3d 36 59 34 bd e3 38 71 bd 42 ea 78 bd
       0.062283527 -0.04403039 -0.058892142 -0.06077028
0003b0 d0 83 68 3d de 4a 28 be 9f a3 16 bd 24 bb 1d be
       0.05676633 -0.1643481 -0.036777135 -0.1540342
0003c0 8a 8a cf bd 61 01 d1 3d ed 3f b2 bd 8d 20 a1 3c
       -0.10133846 0.10205341 -0.08703599 0.019668842
0003d0 49 fe e1 3c 12 2f ab bd a3 12 03 3d b3 51 b2 bd
       0.027587073 -0.08358587 0.032000195 -0.08706989
0003e0 7f 84 29 bd 7f 56 9b 3d 41 90 83 bd b2 9b 31 3c
       -0.041386124 0.07584857 -0.064239986 0.010840343
0003f0 70 8e c1 3a 87 8d e8 3a 71 2c af 3c d7 a9 21 3d
       0.0014767181 0.0017742374 0.021383496 0.039468613

rnn.bias_ih_l0 f4 [32]
000000 02 7b 9b bd 63 dc 37 3d 16 3b b1 bd 06 27 e3 bd
       -0.07591821 0.04488791 -0.08653848 -0.110914275
000010 fa 14 fb bd 93 50 d0 bd 47 09 c7 bd 22 63 97 3d
       -0.1225986 -0.10171618 -0.097185664 0.07391955
000020 45 dc b4 bc 81 22 10 be 0b 35 bb 3d b2 70 b5 3c
       -0.022077689 -0.14075662 0.091409765 0.022148464
000030 e1 59 81 3d f0 7f 11 be de 9c ba 3c 9d ea 0c be
       0.06315971 -0.1420896 0.022779878 -0.13761373
000040 54 57 83 3c da bf df bd e1 d7 bb bd df 0c 1a 3d
       0.016032852 -0.10925265 -0.09172035 0.03760993
000050 21 c9 e4 3d 53 fc ca 3d 42 d0 14 3e a6 9a 0c 3e
       0.11171175 0.09911408 0.14532569 0.13730869
000060 ca 39 44 bd 4b 85 26 3e ee 81 33 bd d7 b4 7e 3b
       -0.047906674 0.16261785 -0.043825082 0.0038865113
000070 e0 d4 2d 3e eb 66 3e be 71 47 24 3e 7c 2d 46 be
       0.16975737 -0.18593948 0.16042878 -0.19353288

rnn.bias_hh_l0 f4 [32]
000000 19 65 25 be 39 17 21 bd 49 91 d7 bd 25 d3 1f be
       -0.16151847 -0.039328787 -0.10525758 -0.15607889
000010 28 e9 e0 3d 53 7c 22 be 8e f9 41 3e b7 bd b1 3d
       0.10981971 -0.15867738 0.18942854 0.08678763
000020 a2 6f c2 3d 3c b5 c4 3d c1 7b 1d 3e 41 d7 b3 3c
       0.094939485 0.0960488 0.1537924 0.021953227
000030 d5 c6 85 bd 20 a4 16 be b4 0a a3 3d 19 35 56 bd
       -0.06532065 -0.14711046 0.07961026 -0.05229673
000040 2a a5 55 bd ea 7a 52 bd 17 57 16 be 61 9f 81 3d
       -0.052159466 -0.05138675 -0.1468166 0.06329227
000050 d5 96 b6 bd 07 6b 36 bd e8 d5 53 3d ce 53 82 bd
       -0.08915488 -0.044535663 0.05171767 -0.06363641
000060 6c 9f 44 3e ed ba 8c 3d ce f2 bb 3c f1 af e3 bd
       0.1920144 0.06871591 0.022942927 -0.111175425
000070 a8 16 a1 3d 38 bc 88 bd e4 44 af ba 7d de b0 3b
       0.078656495 -0.06676525 -0.0013371971 0.0053976164

linear.weight f4 [48, 32]
000000 5f e3 8b bb 85 a5 28 bd 5f ed 80 bd 9c 21 bd bd
       -0.004269048 -0.041173477 -0.06295275 -0.09234926
000010 e0 3e d7 3c 9d f0 ad 3d 4c b0 a8 bd a1 a1 13 bd
       0.026275098 0.08493159 -0.08236751 -0.036042813
000020 f8 1b 40 bd c8 4c 88 bb 92 b1 08 3d 28 05 62 bc
       -0.046901673 -0.0041595437 0.03337247 -0.013795175
000030 ad fc 28 bd 69 f2 d6 3d fd 73 b6 bd 79 fd a8 3d
       -0.041256595 0.10495455 -0.08908842 0.08251471
000040 a8 38 df bc 31 30 0b 3d f3 82 44 bb e7 7c 90 3d
       -0.027248695 0.033981506 -0.0029985278 0.07055073
000050 fe 10 ef ba e8 fa 5c bd 2c dd c5 bc 2e 74 14 3d
       -0.0018239317 -0.05395022 -0.024153315 0.03624361
000060 f8 fa b3 bd d0 46 86 bd 42 6d 91 3d 64 63 2e 3d
       -0.08788103 -0.06556475 0.071009174 0.042575255
000070 e0 82 4d 3d 5e 95 e9 3c 8c 24 dd bc 1f 44 66 3d
       0.05017364 0.028513607 -0.026994966 0.05621731
000080 af 01 4a bd b6 28 c5 3d 64 e5 8b bc f4 ca 4d 3c
       -0.04931801 0.096269056 -0.017077155 0.012560595
000090 06 34 21 3d f4 43 fd bd 9b 26 20 3d 31 6b 53 bb
       0.039356254 -0.12366477 0.039099317 -0.0032259936
0000a0 e4 55 cf 3d 24 e1 96 3d ec 6a 3e bd 8a 2a 0e 3e
       0.10123804 0.07367161 -0.046488687 0.13883415
0000b0 04 b3 8d bd 4e ca 9c 3d 17 7e 02 be 0c 72 28 3e
       -0.0691891 0.07655774 -0.12743412 0.16449755
0000c0 c7 88 bf 3d 79 42 a3 bd 7e 99 a1 bd 99 8a c0 3d
       0.0935226 -0.07971663 -0.078906044 0.094014354
0000d0 db 6f d0 bd a7 2c bb 3d 65 4f a6 bd 9d ab ac 3d
       -0.10177585 0.09139376 -0.08120612 0.0843117
0000e0 af 56 31 be 0b 70 4e bd e1 2e 82 bd 1d a6 a7 bd
       -0.17318223 -0.05039982 -0.06356598 -0.081859805
0000f0 fa cb 3a be 7e 9e a1 3d d6 30 19 be 2d 08 49 3d
       -0.18241873 0.07891558 -0.14960036 0.049080063
000100 66 14 f1 bb 64 19 1e 3d 53 52 46 bd 9e fd 2a bd
       -0.007357168 0.038598433 -0.048418354 -0.041745774
000110 25 96 0c bd ab bd 81 3d e4 c0 ba bc 56 9f c7 3c
       -0.034322876 0.063350044 -0.022797056 0.02436797
000120 5e 11 c6 bc 79 d2 8b bd 02 c5 21 bd 22 d8 95 bc
       -0.024178203 -0.06827254 -0.039494522 -0.018291537
000130 da 9f 9f ba 8d a6 17 3d e4 99 26 3d 35 1d 3f 3c
       -0.0012178377 0.03702407 0.040674105 0.011664678
000140 fa dc 93 3d ed d6 b3 bc 50 1e 86 3d 1c 37 a2 bd
       0.07219882 -0.02195307 0.065487504 -0.079206675
000150 a8 6a 7b bd f0 59 a6 bb 87 40 89 bd 9f 59 cf bc
       -0.061381012 -0.0050766394 -0.06701761 -0.02531129
000160 d9 f7 f1 3c 55 a1 b9 3d 92 67 2b bc 9f de 86 bd
       0.029537128 0.09063975 -0.010461705 -0.0658543
000170 dd f5 3a bd 12 82 02 bd f7 0a d7 bc 73 66 da 3c
       -0.04564463 -0.031862326 -0.026250346 0.02666018
000180 48 f2 95 bd 24 e5 a5 3c 5c dc 08 bd 7f 77 bf bd
       -0.07321602 0.020250864 -0.033413276 -0.09348964
000190 32 f5 b4 bd 72 40 23 be 39 78 2a 3d 6e f5 d8 3d
       -0.0883583 -0.15942553 0.04161856 0.10593687
0001a0 28 ee 4a 3d 90 2e e5 3c 8f ca e1 3d 7e c1 d4 bd
       0.04954353 0.027976304 0.11024963 -0.10388468
0001b0 c3 5b 8e 3d 22 05 90 bd 1f e0 f1 3d c1 3f 34 3d
       0.06951096 -0.07032229 0.11810326 0.044006113
0001c0 99 a8 15 3d f5 99 43 ba 51 51 b4 3d 3a 6f ba 3b
       0.03653774 -0.0007461601 0.088045724 0.005689529
0001d0 b4 fc 9b 3d 8b db 62 3d 93 bf 49 3e 5e 8f 3d bd
       0.07616559 0.055385154 0.19701986 -0.046279304
0001e0 46 23 a5 3c e6 26 d2 3c b7 22 9a bc 75 22 db bc
       0.020158421 0.025653314 -0.018815381 -0.026749829
0001f0 73 77 bc bd a1 d4 42 bc 79 2c 8d bd b9 f0 ec bd
       -0.09202471 -0.011891515 -0.06893248 -0.11569352
000200 7c 3f 4a 3d 03 e4 b2 bb eb be 1e bc a0 a6 3f be
       0.04937695 -0.00545931 -0.009689073 -0.18715906
000210 2b 23 14 3e 96 c0 07 bd e9 b5 44 3d 30 f7 29 3e
       0.1446654 -0.03314265 0.048025046 0.16598201
000220 87 4a 36 3d 03 e6 21 3c c1 cf a7 bd 94 d2 b2 3c
       0.04450467 0.009881499 -0.08193923 0.021828927
000230 ca 1c f8 bd b3 ce c5 3d 88 c8 f9 bd 99 72 43 be
       -0.12114866 0.09658565 -0.121964514 -0.19086684
000240 6c f9 05 bd 48 18 27 3c 88 53 0a bd f6 e7 6e bc
       -0.03270857 0.01019866 -0.033771068 -0.014581671
000250 9c b6 db 3d e8 e3 22 3c ad 82 c7 bd a6 31 43 3c
       0.10728189 0.009942032 -0.09741721 0.011913693
000260 32 94 31 3e e6 9e 84 3d 75 c9 1d 3d 83 10 0b 3c
       0.17341688 0.0647562 0.038522203 0.008487823
000270 22 ea eb 3d 7f b1 e1 3c c8 1c 54 3e f3 d4 95 bd
       0.11519267 0.027550457 0.20714104 -0.073160075
000280 a2 b1 cf 3c 9c 6b aa bd 8f e5 f1 bb 85 bc c3 3d
       0.025353257 -0.08321306 -0.007382102 0.095574416
000290 9e 08 29 3c 60 da 22 bd 49 a1 29 bb a6 d4 d4 bc
       0.010316996 -0.03975904 -0.0025883487 -0.025980305
0002a0 0e f1 8f bc 32 ea 85 bd 24 ed 34 3d af 1f 26 3d
       -0.017570999 -0.0653881 0.044171467 0.04055756
0002b0 e5 b5 57 bd 8b 34 e3 3d ec ff e6 bd 1c c7 6d 3d
       -0.052663703 0.11094006 -0.11279282 0.058051214
0002c0 c9 42 2b bd ab 42 c5 bd 2d f3 d8 3d 8a 08 f8 bc
       -0.04181174 -0.096318565 0.10593257 -0.03027751
0002d0 19 1a 52 bc f8 10 80 3b 9f ac 42 bd ed 58 4b 3c
       -0.012823605 0.003908273 -0.047527906 0.012411338
0002e0 54 be a4 3d 61 5e 48 bd 42 8c 0b 3d 20 4a 4b bd
       0.08044115 -0.04891813 0.034069307 -0.049631238
0002f0 db ce 76 bd 41 c6 aa 3c 36 9f ae 3d 86 57 45 3d
       -0.060255866 0.020846488 0.08526461 0.048179172
000300 c5 d0 ae 3c dc ea cf bc e3 ff f4 bb fe ef b5 bd
       0.021339783 -0.025380544 -0.007476793 -0.088836655
000310 1a e1 8f bc c1 e7 89 3d df a8 f0 3c 45 b1 b9 3c
       -0.017563391 0.06733657 0.029377399 0.022667537
000320 cb 0e e9 bb 82 23 2f 3c 5e a4 31 bc 67 10 4d bc
       -0.007112359 0.010689618 -0.010842411 -0.012516118
000330 d4 57 8c 3a 14 0c 51 bd 7d 10 41 bc 31 0a 59 bc
       0.0010707327 -0.05103691 -0.011783716 -0.013247059
000340 56 ac 45 3d 95 bd d1 3c 78 c4 a7 3c 38 23 95 bc
       0.048260055 0.025603095 0.020479426 -0.01820527
000350 9f e6 a9 bc f7 a1 f0 3c ba f9 cf bd 23 48 0a bc
       -0.020739852 0.029374106 -0.101550534 -0.00844005
000360 0b f0 4e bc 86 68 49 bd 92 b5 a2 bd 6e 04 64 bd
       -0.012630473 -0.049171947 -0.07944788 -0.055668287
000370 4a 0f cf bd c6 1c e9 bc e5 f4 f3 bb bc b7 45 3c
       -0.10110338 -0.028456103 -0.007444965 0.0120677315
000380 36 d7 94 3d 1e d5 11 3c c7 ff 7a bc e3 40 a6 bd
       0.07267611 0.008900909 -0.015319771 -0.08117845
000390 1f 69 1f 3c 81 8d 96 3d 50 12 ca 3d a7 ae b9 3d
       0.009729653 0.073512085 0.09866774 0.090665154
0003a0 3b 4c 19 3c 3d 1f 51 bb de 03 86 bd 0b bc 39 3c
       0.009356554 -0.0031909489 -0.06543706 0.011336337
0003b0 5b a4 1a 3c 50 df 96 bd c0 9c 65 3c b5 df c0 bd
       0.009438599 -0.07366812 0.014014423 -0.09417669
0003c0 79 f6 ae bb d1 6f 8a 3b 80 ef fb 3c 54 5f b7 3d
       -0.0053394404 0.0042247553 0.030753851 0.08953729
0003d0 96 52 0b bd 0f c7 4b bd bd 8e 20 3e 7d 61 d0 3d
       -0.034014307 -0.049750384 0.1567945 0.101748444
0003e0 cb e5 bc bc f8 6d 08 3c 1f 6c b7 bd f7 4b bb bd
       -0.023058793 0.008327 -0.08956169 -0.091453485
0003f0 97 78 04 3e 48 0d 44 3d 30 8c c9 3d 92 96 ba bc
       0.12936626 0.04786423 0.09841192 -0.022776876

linear.bias f4 [48]
000000 be 21 03 3d 54 26 b2 bc 3d 32 94 bd ac cb d1 3d
       0.0320146 -0.021746792 -0.07236145 0.102439255
000010 72 8f a3 3d 32 c8 84 3d 94 a6 13 bd 9c 03 0b be
       0.079863444 0.06483497 -0.036047533 -0.13575596
000020 2b 04 f5 bd 3d 39 0d be d2 67 a0 3d ea 80 af bd
       -0.119636856 -0.13791366 0.07832302 -0.0856951
000030 3d 47 35 bc 40 71 87 bd 93 90 db 3d 4b 73 03 3e
       -0.011064348 -0.066133976 0.10720935 0.1283695
000040 50 74 7f bd bc 4b 04 3e 49 01 8c 3d 43 be a2 bd
       -0.062366784 0.12919515 0.068361826 -0.07946446
000050 25 4d 3c 3c 10 e8 b1 3c 71 34 68 bd cd 9b 49 3d
       0.011493002 0.021717101 -0.056690637 0.04922085
000060 2b 2a 0f 3e 14 39 a4 bd 24 d5 2d 3b 6e a9 ec 3d
       0.1398093 -0.08018699 0.0026524747 0.11555754
000070 09 38 d4 3d 8e 01 04 be 64 46 b4 3d 39 4e 33 3d
       0.1036225 -0.12891218 0.088024884 0.04377577
000080 17 a2 e0 3b 8e bc 29 bc 25 4d 30 be f6 bc 8c bd
       0.00685526 -0.010359896 -0.17216928 -0.06871979
000090 ca fa 66 3d 15 57 c0 3d 3c 67 73 bc 12 42 07 3e
       0.056391515 0.093916096 -0.014856156 0.13208798
0000a0 23 53 fe 3c dd 4e fc bd c8 17 9f bd 3d 8a 24 be
       0.031045502 -0.123197295 -0.07768208 -0.16068359
0000b0 92 69 57 3d 46 88 b8 bc ca bb 04 3c 88 98 aa bd
       0.052590914 -0.022525918 0.008101413 -0.08329874
