LTC_A2C/adaptation_module/training_results/adaptation_module_StandardRNN_result_679_2024327_CfC_result_296_202437_numneuronsadaptmod_32_lradaptmod_0.0005_wdadaptmod_0.0001/best_adaptation_module_reward_CfC_A2C_0.pt (torch, 14344 bytes, 6 tensors)

rnn.weight_ih_l0 f4 [32, 5]
00000000: 112c 0d3e 62c0 dbbd 0456 133e 80ab 813d
00000010: 8c03 3c3e c184 0cbe 0853 f1bd c088 643d
00000020: a4ed 4dbe b8a8 053e bf63 513d e563 2d3d
00000030: 4996 05be 4f2f 743c 32ff c83d 25c3 8b3a
00000040: 7a9a 133e 9ea8 e23c 5e41 21be 3b5e e83d
00000050: 704f a43d 9ff8 68bd e631 08be 02c8 653d
00000060: 021e 553e 23ab fabd d417 ca3c ddc1 9b3d
00000070: 6a23 3ebd 46cf 7ebc 9634 b0bd 21b3 5bbd
00000080: b9b0 07be abfa febc 3936 103e 6589 9e3d
00000090: c109 2f3e baa9 f8bd ddf9 17bd d0a3 543e
000000a0: ff8f 9a3b 4ba1 88bd 25ab 30be 4af0 1a3d
000000b0: 6ff1 b93d 01b9 dd3d 171a ef3d da1f ba3b
000000c0: 9bbc bd3d 78ed afbd c4a1 f13d c107 d9bc
000000d0: df92 febc 5318 84bd ee23 003e b2fc b83d
000000e0: 443f 073e 2549 a7bd 1390 4dbd f011 543e
000000f0: 5316 bdbd c217 cfbd d7cf 66bd f673 bfbd
00000100: 4885 16be b5d8 eb3d cb91 b6bb 346f 5e3d
00000110: 4bb8 c83d b250 19be 65f0 fa3d 8c68 c2bd
00000120: 9fb2 21bd 664a 7b3d 5471 133e 292d 013e
00000130: a2ac 943d 7514 0b3e c14e 01bd 33d1 52bd
00000140: 5fb3 2abd c68d 173c b78f 04ba 2cae 6b3d
00000150: a86d 233e afd4 dfbd 9531 a8bd 2625 17bd
00000160: 7d9a 253d f9b0 44bd 0a87 b3bd bfcf afbc
00000170: 6a5f 8bbd 4175 e33c 2c69 20be b511 80bd
00000180: af64 98bd 4ec5 1cbd 1bdb c33d dadf b53d
00000190: 3a89 fabc 4d05 f1bd 3de0 54bd cc3e 12be
000001a0: 4ae5 89bd e235 43bd 18a8 bfbd fd48 833d
000001b0: f619 2a3c becc 703c fe44 4cbd 1dd4 1d3e
000001c0: 44b4 18be 6f8e ef3c 1fc0 d43d 7305 c83d
000001d0: c8e1 33be 0b12 51bd c24d d93d 92ae 16bc
000001e0: 67ef 9e3d 8e16 68bd 6bc8 0b3e 66da 18bd
000001f0: 7d12 7ebd d060 063e eed9 943c fa63 ddbc
00000200: 8357 debd c7af a2bd 6570 f1bd 0b07 efbd
00000210: dfde c1bc 353c 803d d890 0bbe 3bc0 3e3e
00000220: 1d42 143e 3450 0bbe b684 103e 62eb 81bd
00000230: 8420 edbd 57c0 2a3e 7149 1cbd 7e45 9abc
00000240: d70d 923d dd8f b33d e745 3ebc 1b39 41bd
00000250: 1df6 763d 3e08 a3bd ebb0 f2bd 49ee 0c3d
00000260: b9a5 e53b 5032 d33d 3397 d4bd 230f 40be
00000270: fa8d 80bd 77c4 3ebe b2ec 00bd 9ed6 3a3d
0.13786341 -0.107300535 0.14388281 0.06331539 0.18360728 -0.13722517 -0.11783415 0.055794477
-0.20110184 0.13052642 0.051120516 0.042331595 -0.1304561 0.014903857 0.098143 0.0010663016
0.14414397 0.027668294 -0.15747592 0.11346098 0.08022964 -0.05687773 -0.13300285 0.056098945
0.20812228 -0.12239673 0.024669565 0.07605336 -0.046420492 -0.0155523475 -0.0860378 -0.053637628
-0.13251008 -0.031125387 0.14083184 0.0774105 0.17093565 -0.12141748 -0.037103523 0.20765615
0.0047168727 -0.06671389 -0.17252786 0.037826814 0.09079253 0.10826302 0.11674898 0.0056800665
0.09264489 -0.085902154 0.117984325 -0.026492955 -0.031075893 -0.06449952 0.12513706 0.09032573
0.13207728 -0.08168248 -0.050186228 0.20709968 -0.09232774 -0.10111953 -0.056350555 -0.0934829
-0.1469928 0.11515943 -0.005571579 0.05430527 0.09800776 -0.14972189 0.12252883 -0.09492597
-0.039476987 0.06135025 0.143987 0.12614883 0.072594896 0.13582022 -0.031569246 -0.05146904
-0.041674968 0.00925011 -0.00050568156 0.05753915 0.159598 -0.10929238 -0.08212582 -0.036900662
0.040430535 -0.048020337 -0.08765991 -0.021461366 -0.06805308 0.027765872 -0.1566512 -0.06253377
-0.07441079 -0.038274102 0.095632754 0.08880587 -0.030583013 -0.11768589 -0.051971663 -0.14281768
-0.067331865 -0.04765881 -0.09358233 0.06410406 0.010382166 0.014697252 -0.049870484 0.15412946
-0.14912516 0.029242722 0.10388207 0.09766664 -0.17566597 -0.051042598 0.10610534 -0.009196894
0.07760506 -0.056662135 0.13650672 -0.037317656 -0.06202935 0.13122869 0.018170323 -0.027025212
-0.10856535 -0.07943683 -0.11789016 -0.11671265 -0.023665844 0.062614836 -0.13629472 0.18628018
0.14478345 -0.13604814 0.14113125 -0.06343724 -0.115784675 0.16674934 -0.038155977 -0.018831965
0.07131546 0.08767674 -0.011613346 -0.0471736 0.060293306 -0.079605564 -0.11850151 0.034406934
0.007008281 0.10312331 -0.103804015 -0.18755774 -0.0627708 -0.18629633 -0.03147573 0.04561483

rnn.weight_hh_l0 f4 [32, 32]
00000000: 3b80 543d dca1 223d 7d68 fc3b 5378 b63c
00000010: 5be2 593e 670b 3f3d dafb 713d fac5 8abc
00000020: 0e9d 4b3d 33fd b93d cc7a 9dbd 44ad 623e
00000030: 1ea6 313d de70 98bd 632b f3bd 805d 70be
00000040: 6b62 9cbd 3f7f 04be 4bde 27be 4f8e a8bd
00000050: be25 53be b453 babd a592 de3c b549 54be
00000060: 7eea 3f3d 5461 c5bc 215d b73d fd98 263e
00000070: f6f9 1c3e f234 95bd bf62 d2bd c5e4 53bd
00000080: 26d1 ea3d 25bb 0f3e 8b65 80bd 77b5 f73c
00000090: 249a b7bc 9205 353d 74c1 d7bd 2fde 56be
000000a0: 9c6b 4dbd 8fea 7e3d e77e 2ebe 31b8 c7ba
000000b0: 8936 bb3d bc99 433d 2762 3f3d f78a 393e
000000c0: 348e 673d e5c1 3fbe 8cfe 563e 9554 933d
000000d0: c2a6 e7bd 78c0 81bc 0707 2ebe dd82 5f3e
000000e0: 0812 a43d 83ea 73bd aaa9 3ebe 88b5 dabc
000000f0: 6678 cfbd ee87 623d 45bb fabd 81bd 3d3e
00000100: bc76 233d 27e0 38bd 0a3f 0cbe 0fcd d5bc
00000110: a7c4 213e 0b92 2a3e 8bbe c6bd 022b 14bd
00000120: eb88 50bc 18b0 623d bba2 f1bd acaa 01bd
00000130: 8c10 f9bd a025 033e 5d96 00bd dab5 7b3d
00000140: 0c6f 113e 04a3 303c f1dc 623b 80d3 d13d
00000150: 2c32 82bd 760c 093e 3c55 0d3c c2cb 28bd
00000160: 7031 db3d 8579 4cbe 6427 26bd db4d cdbd
00000170: 4cbe 56bc 1acd 2abc 7068 0f3d 2bf3 38be
00000180: 9743 38be 5389 2d3e 67ea 163c 4b3a 42bd
00000190: 30e6 abbd 6d8e 7e3c adc8 13be 8f8e 58be
000001a0: b228 94bd b971 323e 3be9 573c e7ad 5cbe
000001b0: de6b e8bd 3a20 323e 9fb5 083e 8524 ab3d
000001c0: 2595 523d 3c9e 193d 8e0a 103e 93c6 f1bd
000001d0: 1071 953d 7361 50be 7d0e 59be bf87 473e
000001e0: 9b59 05bd f368 dd3d c9d4 91bd ee04 46be
000001f0: 7c3c b63d e620 27be 8653 9fbd 9b88 cc3d
00000200: 1fa8 d0bc 234a 64bc 794b 45be f60e 6e3c
00000210: c3bb 7ebd 1426 e13d a000 873c 6549 b5bd
00000220: 8350 d4bd 1744 b5bd 5d59 203e 97f9 ebbc
00000230: b9cb 913c cde6 02be 5a3a 4a3d 8a72 c13d
00000240: d395 093e e6d1 463d d710 55be 2cfd 963d
00000250: 1289 dc3d 3441 d73d a96b 463e 6307 a73c
00000260: c227 693e 1d53 a0bd 81d9 80bb 2f6e 0d3e
00000270: c2d9 0d3c 7091 af3b 98b6 8bbd 6961 f5bd
00000280: 5395 7f3d e1e7 a7bd b1d8 02be 52e3 063e
00000290: 4023 09be cdcc c5bd 9ffd 2c3e 55d8 9cbd
000002a0: 030b 3ebe fd3a 7d3d 917c 463e 33da 1b3e
000002b0: d9a7 f5bd 487c 49be 67e7 0bbe 7d08 3ebd
000002c0: dfff b23d a733 1bbc ac7e cd3c 92da acbd
000002d0: 522a 2bbd 56f8 463e c395 0ebd 1394 2dbe
000002e0: 22c5 483e 0618 9b3d cb0d 4b3e 40ad 3c3e
000002f0: 2244 163d ac46 ba3d 4836 ffbb a04e b63c
00000300: da69 343d 9a41 2f3d 78f7 a5bd b0f5 83bd
00000310: 5965 163e 5427 933d 97e5 273e ec12 ad3b
00000320: 6dc6 bebd fda2 2dbe dcaa 0ebd 12af f5bd
00000330: f131 263e 823d 30be 42bb a6bc f330 89ba
00000340: 0fe4 3d3e 6ef5 de3d 262f ea3d 9ab3 0ebd
00000350: 3e8f 03be 6719 f5bd b8fe 9a3d 3fc6 e73b
00000360: a76a 473d 02af 683d b41f 073d ae2b 803d
00000370: 14b6 d6bd 13e7 6f3d 4133 2e3c 7271 e2bd
00000380: 17f9 a43d 2bc5 4fbe e00a c63d 0fcb 5cbe
00000390: 38ba 2a3e 21eb d2bc 03cd f2bd 5924 9c3c
000003a0: 7c18 2e3d d731 78bd f74e 90bd f356 91bd
000003b0: 4a05 1b3e 06cc 55be 44b7 35bd 8821 5ebe
000003c0: 04d6 ebbd a1d0 473e 00be f9bd 71d1 c3bc
000003d0: cac1 a8bd 4ca6 b3bd 5995 003d 307a 4dbe
000003e0: bb0d 3abd 6227 9a3d 5c8d 7bbd 1fe0 c83d
000003f0: 24c7 233b 4755 a03d 15f3 93bd 13f9 7f3d
0.051880103 0.039705142 0.0077028857 0.022274172 0.21277754 0.046641733 0.059078075 -0.016940106
0.049710326 0.09081497 -0.07689437 0.22136408 0.043371312 -0.07443403 -0.1187351 -0.23473167
-0.07635959 -0.12939166 -0.16393392 -0.08230268 -0.20619866 -0.09097996 0.027169535 -0.20731242
0.04685449 -0.024094261 0.0895331 0.16269298 0.15329728 -0.07285489 -0.102727406 -0.051731844
0.11465673 0.14036234 -0.06269368 0.030237896 -0.022412367 0.044194765 -0.10534945 -0.20983194
-0.050151452 0.06223541 -0.17040597 -0.0015237388 0.09141261 0.047754034 0.046724465 0.18119417
0.0565321 -0.18726309 0.2099554 0.07193867 -0.113111034 -0.015838847 -0.16994868 0.21827264
0.08011252 -0.05954982 -0.18619409 -0.026697889 -0.10130386 0.055305414 -0.1224275 0.18529321
0.039908156 -0.045135643 -0.13695922 -0.026098756 0.15797673 0.16657273 -0.09704312 -0.036173828
-0.012727956 0.055343717 -0.117986165 -0.031656906 -0.12161359 0.12807322 -0.031393398 0.061452724
0.14202517 0.010781053 0.0034616555 0.102454185 -0.06357226 0.1338366 0.0086262785 -0.041209944
0.10702789 -0.19968231 -0.04056491 -0.100246154 -0.013106894 -0.010424877 0.03501171 -0.18061511
-0.17994533 0.16946916 0.009211159 -0.047418874 -0.08393514 0.015536887 -0.1443202 -0.21148132
-0.072343245 0.17426194 0.013178165 -0.21550713 -0.11348699 0.17395106 0.13350533 0.08356575
0.051411767 0.03750442 0.14066526 -0.11805453 0.072969556 -0.20349674 -0.21196933 0.19485377
-0.032556158 0.10811033 -0.07120664 -0.19337818 0.08898255 -0.16321144 -0.07779603 0.09986993
-0.025470791 -0.013933691 -0.19267072 0.014529934 -0.062190782 0.10993591 0.01647979 -0.088518895
-0.10366919 -0.08850878 0.1565909 -0.028805537 0.017797338 -0.12783356 0.049372055 0.09445675
0.1343606 0.04854002 -0.20807205 0.073725075 0.107683316 0.105104834 0.19377007 0.020389264
0.22769073 -0.078283526 -0.0039321785 0.13811563 0.008657875 0.0053579137 -0.06821936 -0.1198147
0.062398266 -0.08198524 -0.12777974 0.13172653 -0.13392353 -0.09658203 0.16893624 -0.076584496
-0.18558888 0.061823834 0.19383456 0.15219955 -0.11994905 -0.19676316 -0.13662492 -0.046394814
0.0874021 -0.009472764 0.025084816 -0.084401265 -0.041788407 0.1943067 -0.034810793 -0.16951017
0.1960645 0.075729415 0.1982948 0.18425465 0.03668607 0.09095511 -0.0077884533 0.022254288
0.04404626 0.042787172 -0.081038415 -0.064433455 0.14687099 0.071852356 0.16396175 0.0052817967
-0.093151905 -0.16956706 -0.034830913 -0.11996283 0.16229989 -0.17210963 -0.020352963 -0.0010466859
0.18544029 0.10886656 0.11434774 -0.03483925 -0.12847611 -0.11967736 0.07568115 0.0070731933
0.048685696 0.056807525 0.03298922 0.06258331 -0.104839474 0.05856998 0.010632337 -0.11056794
0.080553226 -0.20290057 0.09670043 -0.21561836 0.166726 -0.025746884 -0.11855509 0.0190603
0.04250382 -0.060594406 -0.07046311 -0.07096662 0.15138736 -0.2087861 -0.04436423 -0.21692479
-0.115154296 0.1951318 -0.12194443 -0.02390358 -0.08240087 -0.08771953 0.03139243 -0.20066142
-0.04542325 0.07527043 -0.061414108 0.09808373 0.0024990523 0.07828765 -0.072240986 0.062493395

rnn.bias_ih_l0 f4 [32]
00000000: a6ce 9339 e0fd 213d 3db4 b3bd 2ad7 dfbd
00000010: 6ef6 febd 14c8 2bbd 2aac f0bd 1eff 9a3d
00000020: dede d2bd 9620 23be e43e c63d 2c7e ba3d
00000030: 10a1 743d 5294 2abe cfd3 823c 754d 14be
00000040: ea56 cf3d ec73 f7bd 6a1a 0dbe f469 763c
00000050: d0a6 753c f231 343e 5325 293e bc2d ea3d
00000060: ee4d 4ebd 41ea c13d b10a 7abc a868 a93d
00000070: 1d7e 5b3e c35d 2dbe ecbb 9c3d 480e 50be
0.0002819199 0.039548755 -0.08774612 -0.10929711 -0.124493465 -0.041938856 -0.11751588 0.07568191
-0.10296415 -0.159304 0.09679964 0.091060966 0.059723914 -0.16658142 0.015970139 -0.14482673
0.101239994 -0.12082657 -0.13779607 0.01503991 0.0149933845 0.17597178 0.16518144 0.114345044
-0.05036729 0.094685085 -0.015261338 0.08271915 0.21434827 -0.16930299 0.07653031 -0.20317948

rnn.bias_hh_l0 f4 [32]
00000000: bb6c c5bd 5e97 8dbd 1140 dbbd 1bbf 1fbe
00000010: a1d7 f43d 588d cfbd 51ce 523e ba59 b73d
00000020: b3e5 b83c 55b0 cb3d 5ad6 2d3e 1413 ba3d
00000030: f4fe bbbd 7031 30be 01e6 a03d b1ee 69bd
00000040: fc49 71bc 12ac 77bd 794f 4bbe 199b 353d
00000050: 5bfd 4bbe 4169 5d3c 070a 813d 174d fdbd
00000060: 8f44 4a3e d748 27bc 435b 603d 7618 1ebd
00000070: 8cd5 d33d ccb9 1bbd 00f2 b9bd a034 f63b
-0.09639879 -0.069136366 -0.10705579 -0.15600245 0.119551904 -0.10134381 0.20586516 0.08952661
0.022570467 0.09945742 0.169763 0.0908567 -0.09179488 -0.17206359 0.0785637 -0.0571124
-0.014727112 -0.060466833 -0.19854535 0.044337366 -0.19920866 0.013513864 0.06300741 -0.12368219
0.19752716 -0.0102102375 0.054774534 -0.038597547 0.10343465 -0.038018987 -0.09079361 0.0075135976

linear.weight f4 [48, 32]
00000000: edd0 933c 1047 04bd f80c b5bd 9fcf ecbd
00000010: dfec 743d 74a8 cd3d 40cc bcbd 22a2 3fbd
00000020: e1b5 6ebd 835d 533a 1723 843d caa2 573a
00000030: fa78 09be b172 f83d 2b44 c8bd f7a5 dc3d
00000040: 900c 91bd f6d0 fb3c 076a a9bc a9e8 0e3e
00000050: b004 77bd 8f73 adbd 4a9c 9dbc dbaf bf3d
00000060: 1486 08be 670b 0bbe b3ea c83d e068 7d3d
00000070: c52f 823d 11ed da3c 704b 33bd e489 063e
00000080: 6fed fabd c07b 843d e6db 86bd b87d 4abd
00000090: 7875 ad3d 9762 13be fa3d f93d 3790 303d
000000a0: 8942 fa3d f02c 553c b9cc 2bbc 4854 393e
000000b0: 4b45 a4bd df2a fa3c d5ef cbbd 48c2 cd3d
000000c0: ed95 293e d024 8dbd 48e3 f8bd e420 c83d
000000d0: 3979 ddbd 2bfa 123e 39aa 0abd 3b46 d53d
000000e0: 1d76 efbd e173 e7bd b720 4fbd e037 f3bd
000000f0: 866d 04be daf9 b43d 316b 05be a2ba e7bb
00000100: 02f1 03bd 19b2 583d d315 d0bd 41d2 c3bd
00000110: 66b1 afbc 2829 753d 3e57 42bd 9af1 c93d
00000120: d2c0 21bd 34cf d3bd 57cd 81bc 7b2c 7bbd
00000130: cdd1 03bc aacb 233c 2acd c53d 152f 8f3b
00000140: cdfe f73d b636 2dbd 7f64 b73d 46c7 12be
00000150: 0050 02be 7d94 8dbb 0e88 89bd 8446 74bd
00000160: e455 613d 9c6e 323e abbf 22bd 6bda c7bd
00000170: 85e8 cebd 9416 aabd fde6 babb 1ea3 743b
00000180: 6b08 a8b9 f1c8 a53d 3831 003c 513f 41bd
00000190: a52c 11be e842 c0bd b5d1 f33c a0e2 583d
000001a0: cb65 ee3b b3ea 543d c838 873d 67a3 0fbe
000001b0: ff31 d03d d664 c3bc ebb5 9a3d 3930 a93d
000001c0: 29db cc3d ba9b 23bc 9b2a 0f3e d2cd 20bd
000001d0: b0fd 823d 63dd b93d 2aa6 233e abe4 b2bd
000001e0: 7a7b fabc 21dd fabc 0705 16bd b13a 813c
000001f0: 3903 1abe bc81 263d ac7a 0cbe c7ca 8bbd
00000200: 83c0 973d 342a 8b3d 2bba 033c 681e 1dbe
00000210: 4d6b de3d 4864 c0ba 0f01 743a a8cc f63d
00000220: f29c 643c 5106 793d 774e fabd 9023 e93c
00000230: f355 15be b5b0 0a3e ef62 22be 2e16 1ebe
00000240: 28cf 96bd bbbc f1bc 5151 86bb a666 a4bc
00000250: ca03 ab3d e6b8 b9bb fc44 0abe 0497 443d
00000260: 3158 013e e1d1 533d d543 3d3d 66ef b93c
00000270: fa2f 973d 1769 5d3d 0478 3f3e 6e8b a6bc
00000280: 7ad6 053c 05f1 e2bd 8c8c 3ebd b03f f63d
00000290: d47c 983d d1dd 8abd b01d 973d 9cf2 a43c
000002a0: a526 aebc f20f 05be 0485 bb3d d4a1 ac3d
000002b0: c1c0 92bd ac09 ea3d 9584 02be 87a8 a23d
000002c0: 890e a6bd 1cb1 cdbd 9d08 ef3d 38ac a6bd
000002d0: 712c ea3c 4d3f 3b3d 273c 37bc 9b52 e73c
000002e0: b7d3 de3d 362d ebbd 4ef9 ab3d 889d d9bd
000002f0: a781 51bd 27df 9ebc eaed e13d 4282 303d
00000300: 0bb9 0d3d 62a3 a7bd 166c 86bd 805e 14be
00000310: cb14 89bc a1db ef3d 4183 333d 7bcf 683d
00000320: 1b01 b2bc 2afd d03c 4fc1 47bc aae8 49bd
00000330: 8c75 2e3c 8d9b eabd a227 853c 218a 84bc
00000340: 41fa c13d a1f9 403d c592 603d f6da 9bbc
00000350: 1395 98bd 795d 7d3d 4298 1fbe a40c 133c
00000360: 5684 34bc b818 87bd 1ffe 39be fc9b c0bd
00000370: e2d6 25be a0a4 88bd 1ac7 983c e2ca 243d
00000380: 0f35 be3d 4818 c33c 6415 33bc 156e c8bd
00000390: 9572 9bbc 0483 c93d 4dd4 ff3d 7d77 e73d
000003a0: 3207 873c 2041 213d fdd5 b9bd bf23 863c
000003b0: 8d44 f33c 0a2d a4bd 8ce6 7638 0d82 d3bd
000003c0: c4e7 51bd 1ac4 51bb c995 403d 04e0 0c3e
000003d0: bd3f d7bd 5908 d8bd 9474 393e 192f 153e
000003e0: 412b 37bd 36c1 283c 9e01 1cbe 4d95 dcbd
000003f0: 7ba0 383e d7cd ef3d 56a0 023e 54c1 a5bc
0.01804396 -0.032294333 -0.08840364 -0.11563038 0.05979621 0.100418955 -0.09218645 -0.04678548
-0.058278922 0.00080629456 0.06452005 0.00082258566 -0.13425055 0.12131251 -0.09778627 0.10773843
-0.07082474 0.030739289 -0.02068044 0.1395594 -0.060307205 -0.08469307 -0.019239563 0.09359714
-0.13332397 -0.13578568 0.0981039 0.061867595 0.063567676 0.02672437 -0.043773115 0.13138539
-0.12252318 0.06468916 -0.06584911 -0.0494363 0.08469671 -0.14393078 0.12170024 0.043106284
0.12219722 0.013011202 -0.010485821 0.18098557 -0.08021029 0.03053802 -0.09957854 0.10046822
0.16561098 -0.06891787 -0.121527255 0.097718984 -0.10814137 0.14353244 -0.033853743 0.10413786
-0.1169245 -0.11301399 -0.05056831 -0.11875892 -0.12932405 0.08836718 -0.13029172 -0.007071809
-0.032212265 0.052904222 -0.10160413 -0.09561587 -0.021446895 0.059853703 -0.047446482 0.09860535
-0.03949053 -0.10342255 -0.015844984 -0.061321717 -0.008045626 0.009997288 0.096582726 0.0043696263
0.12109146 -0.042288505 0.08954715 -0.1433383 -0.1272583 -0.0043206797 -0.067154035 -0.05963756
0.055013552 0.17425007 -0.03973357 -0.09758457 -0.10102943 -0.08305088 -0.0057038055 0.003732867
-0.0003204973 0.08094967 0.007824235 -0.047179524 -0.14177187 -0.09387761 0.029763082 0.0529505
0.0072753183 0.05198164 0.06602627 -0.14027177 0.10165786 -0.023851793 0.07554229 0.08261151
0.10002739 -0.009985859 0.13981096 -0.039258786 0.06396043 0.09075429 0.15981355 -0.08735021
-0.030576456 -0.03062302 -0.03662589 0.015775057 -0.15040292 0.040651068 -0.1371867 -0.06825786
0.074097656 0.06795159 0.008039991 -0.1534363 0.1086031 -0.0014678324 0.0009308019 0.12050754
0.013953434 0.06079704 -0.12221997 0.02845934 -0.14583568 0.13543971 -0.15858053 -0.15438148
-0.07363731 -0.029508939 -0.004099049 -0.020068478 0.08350332 -0.0056677936 -0.13502878 0.047995582
0.12631299 0.051713828 0.046207268 0.022697162 0.07382198 0.0540553 0.18698126 -0.020330157
0.008168811 -0.11081127 -0.046520755 0.12023866 0.07445684 -0.06780589 0.07378709 0.020135216
-0.021258662 -0.12994364 0.0915623 0.08429304 -0.07165671 0.11427626 -0.12745889 0.079423
-0.08108241 -0.100435466 0.11671565 -0.08138317 0.028585644 0.045714665 -0.011183775 0.028237632
0.10880225 -0.11483233 0.083971605 -0.1062575 -0.051149037 -0.019393517 0.11031707 0.043092974
0.0346003 -0.0818546 -0.065635845 -0.14489174 -0.016733548 0.11711813 0.043826345 0.056838494
-0.021729043 0.025511343 -0.012192084 -0.04929415 0.010648143 -0.1145545 0.01625425 -0.016179146
0.0947156 0.047113065 0.05482747 -0.019025307 -0.07450309 0.06185672 -0.15585425 0.008975182
-0.0110178795 -0.065965116 -0.18163346 -0.09404752 -0.16195253 -0.06672025 0.018649627 0.040232547
0.09287464 0.02381529 -0.010930393 -0.097866215 -0.018975535 0.09839442 0.12491665 0.113020875
0.016482923 0.03936875 -0.09074018 0.016374467 0.029695773 -0.08016403 5.8865684e-05 -0.103275396
-0.05124642 -0.0032007755 0.047017846 0.1375733 -0.10510204 -0.10548467 0.18110877 0.14568748
-0.044718985 0.010299971 -0.15234992 -0.10770664 0.18029968 0.11709183 0.12756476 -0.020233788

linear.bias f4 [48]
00000000: c60e 633d 528d a33c 0708 2cbd deda 623d
00000010: cd43 5a3d 4960 e23d ec0a 5dbd 479b 1ebe
00000020: d6f9 d0bd 6b00 1bbe acaa 893d 8559 d6bd
00000030: 3f60 993c 21dd 1cbd bb59 e63d ee7b 3b3e
00000040: 9e60 94bd b36a 213e 61b6 a53d 20ef a1bd
00000050: e834 0abc 3130 ccbc 72e1 80bd b36f 8b3d
00000060: ddc2 183e 1ce0 2abd 816f 283d 6b33 083e
00000070: 1f0b ed3d 7596 14be c867 d03d 596b ea3c
00000080: 0ed8 27bd f1d4 073b edf8 fdbd 804c 8abd
00000090: 0a30 d33b 491b 033e 5c9c deba a04e ad3d
000000a0: 228c 313b 7737 1dbe 23e7 cabd a20e 0abe
000000b0: bc90 1b3d bdd9 603c 81e4 47bd 89bf 09be
0.05543401 0.019964848 -0.041999843 0.05538451 0.053287316 0.11053521 -0.053965494 -0.15488921
-0.102039024 -0.15136878 0.06722006 -0.10466293 0.018722652 -0.038296822 0.112475835 0.18308994
-0.07244991 0.15763359 0.08091427 -0.079069376 -0.008435465 -0.024925323 -0.06293 0.06808414
0.14918084 -0.041717634 0.041121963 0.13300864 0.11574387 -0.1451052 0.10176045 0.02861564
-0.04097753 0.0020726288 -0.124009944 -0.067528725 0.0064449357 0.12803377 -0.0016983855 0.08462262
0.0027091582 -0.1535319 -0.09907367 -0.13482144 0.037979826 0.013723788 -0.048801903 -0.13451971
