LTC_A2C/adaptation_module/training_results/adaptation_module_StandardRNN_result_629_2024327_CfC_result_296_202437_numneuronsadaptmod_48_lradaptmod_1e-05_wdadaptmod_0.01/best_adaptation_module_loss_CfC_A2C_6.pt (torch, 19828 bytes, 6 tensors)

rnn.weight_ih_l0 f4 [48, 5]
00000000: 725e c33d 2aec dcbd a5c6 f03d 2505 bd3d
00000010: a67d f83d 6cc3 e2bd 7289 c6bd 6189 8c3d
00000020: 36e8 09be 6e05 123e 7031 fb3c 5c35 983c
00000030: 7eab fcbd dc28 3c3d d1fa 7d3d b61a bb3c
00000040: 1f1a 0e3e c24d 313d beff 02be f83f f83d
00000050: 8b7c 483d 2bfc 8cbd 66b4 07be 6d64 a83d
00000060: d065 0c3e 7b11 f2bd ae39 023c 07dd 533d
00000070: 1179 8bbd 5a1d 01bd 0e81 c5bd dcdf 8bbd
00000080: 3caf 06be fc14 5fbb e225 af3d 57e5 8f3d
00000090: 5ee8 0a3e ebbe 01be 42ff 90bc 30f7 0f3e
000000a0: 681b c23c eb78 26bd d90c 05be 616f 893d
000000b0: 6089 e03d 9116 ed3d a596 f73d 8fff e63c
000000c0: a190 d23d f491 14bd 2bf1 ef3d 8f50 4bbc
000000d0: 2d58 f3bc 6ad1 92bd e943 9d3d 8343 6f3d
000000e0: af26 bc3d b2c9 bcbd 9d12 9dbd aed0 0b3e
000000f0: 23f3 a3bd 0877 a8bd 1bf0 1dbd 6ee4 3ebd
00000100: c8e8 c8bd b900 ef3d 4e4a 843c 9aa5 863d
00000110: 7f23 db3d 5b6d bfbd c9c7 e13d dcf5 93bd
00000120: 47c2 bbbc e294 df3d b054 083e 1dcf 013e
00000130: eb21 aa3d a950 093e 16c5 54bd e588 15bc
00000140: 4634 4abd 56cb 2ebc 5248 8fbc 83cf 9d3d
00000150: e20e cb3d 12bf d4bd 3a1c a3bd 1595 35bd
00000160: 4095 9d3c f9bc 65bd 73ba b7bd e377 d7bc
00000170: 1622 90bd 996a 803b 37b3 dabd cd8b 13bd
00000180: 70e4 59bd dbd6 a2bc e323 e83d eff4 c13d
00000190: bf07 3fbd 9c91 07be 8a51 d3bd bca8 e2bd
000001a0: 055d 61bc b026 83bd 7475 cebd e153 033d
000001b0: 9422 193c adc5 b0bc e18e 56bd fcd2 fb3d
000001c0: 7253 0ebe 3bba 5dbb 001a 893d 04a7 d03d
000001d0: d485 00be e4a9 b8bc c767 f63d 6b21 c33c
000001e0: 9202 333d 327e 82bd 9b08 cd3d 3e90 5dbd
000001f0: 1e0f 9fbd 5320 063e fedb 1c3d 5277 75ba
00000200: 3ce3 cdbd b29d 02bd b7f5 e2bd 8ac4 c6bd
00000210: a1d7 a8bc 9b19 e43c 3716 f2bd 6996 0f3e
00000220: 4749 d93d 0d7d 09be d7a6 b83d 7c81 b1bd
00000230: 3701 f1bd 2768 0a3e ed95 6dbd 49df 43bd
00000240: 5ddb 923c 2bf5 a63d e1ed 343c fa1f 1fbd
00000250: 1fc0 483c 0747 99bd 8be5 d6bd f32e 1a3d
00000260: 572c 7a3c 70c2 923d 0f62 5bbd 0806 12be
00000270: 7973 12bd fef3 0ebe 0037 39bc 9886 903d
00000280: 65c8 5b3c a6bb a93d 0509 dd3c 9845 7d3d
00000290: 911a 053e e571 af3c ba46 c43c 38a3 6fbd
000002a0: 6a34 b83d a8d9 f73d f730 cdbd 0c85 0f3e
000002b0: 4718 323d b485 a4bc 9a35 07be 29a5 13be
000002c0: a315 e8bd 0625 f7bd f600 c5bd d1eb 2bbd
000002d0: a23f f5bd 5cff f6bd 231b 83bc fe94 f8bd
000002e0: 6ad1 54bc 66eb c93c efe2 e03c 7f62 b93d
000002f0: 953a a13d 22ae a5bd 3ede 46bd 0103 553b
00000300: 3558 f93d 0f57 8f3d 2e4d a5bd 8d39 8bbc
00000310: 1c3a d53c b216 4d3d 4f70 5bbd 06a5 01be
00000320: 776d b4bd 6ea4 a03b 169a c9bd b94e 243d
00000330: 0eb1 b93d 54c3 c6ba d933 9b3d 5bf2 ce3d
00000340: b69a bc3d b7b3 0cbe b0e5 053e 9714 1c3d
00000350: 2276 12be fd00 133d 0fad cbbd 42bf 083e
00000360: 0545 ea3d 00da c2bd faf8 dabd 6e7f 253c
00000370: 275e 1cbd 1264 7d3d 46a0 09be 4909 db3d
00000380: c607 553c 56dd 353b e6ac bcbd 2ff9 113c
00000390: 26b5 c83d 5cee 0f3e e654 bfbd fd8e 77bd
000003a0: 8b62 f63c 9618 a63d cdfc f7bd 066d 5cbd
000003b0: d8b9 eabd 62c1 073e 7d84 49bd 16ab b13d
0.095394984 -0.10787232 0.117566384 0.09229497 0.121333405 -0.1107243 -0.09694184 0.068621404
-0.13467488 0.14259884 0.030663222 0.018580131 -0.12337397 0.045937404 0.062006775 0.022839885
0.13877152 0.043287046 -0.1279287 0.12121576 0.0489469 -0.06884035 -0.1325241 0.0822228
0.13710713 -0.118197404 0.007948322 0.05172446 -0.06810201 -0.031522132 -0.09643756 -0.06829807
-0.13152784 -0.0034039607 0.085521474 0.07026165 0.13565204 -0.12670486 -0.017699841 0.14059138
0.023694709 -0.04064266 -0.12993182 0.06710697 0.10963702 0.1157657 0.1208928 0.028198032
0.10281492 -0.036272004 0.11715921 -0.012409343 -0.029705131 -0.07168849 0.076789685 0.058413994
0.09187066 -0.09218158 -0.07669566 0.13653824 -0.08005359 -0.082258284 -0.03855906 -0.046604566
-0.098100245 0.1167006 0.016148712 0.06574555 0.1070013 -0.0934703 0.11024434 -0.07224628
-0.022919787 0.10917069 0.13313556 0.12676664 0.083072506 0.13409676 -0.05194577 -0.0091268765
-0.049366258 -0.010668596 -0.01749054 0.07705595 0.09914948 -0.10388006 -0.07964368 -0.04433163
0.019236207 -0.05608842 -0.08971109 -0.026302284 -0.070377514 0.0039189574 -0.10678714 -0.036021996
-0.05319637 -0.019877842 0.1133497 0.094705455 -0.046638247 -0.1323914 -0.10318287 -0.1106734
-0.013755088 -0.064038634 -0.10080996 0.032062415 0.009346623 -0.021578634 -0.052382354 0.122961015
-0.1389902 -0.0033832926 0.06694412 0.10188106 -0.12551051 -0.022541948 0.12031513 0.023819646
0.043703623 -0.06371726 0.10011407 -0.05409264 -0.07766555 0.13098268 0.03829574 -0.00093637884
-0.10053107 -0.03188867 -0.11082023 -0.097054556 -0.020610632 0.02784424 -0.118206434 0.1402222
0.1060968 -0.1342661 0.09016197 -0.08667275 -0.1176781 0.13516293 -0.05800431 -0.047820363
0.017926866 0.08152231 0.011043043 -0.038848855 0.0122528365 -0.074842505 -0.104930006 0.03764243
0.0152693605 0.07165992 -0.053560313 -0.14260113 -0.035754655 -0.13960263 -0.011304617 0.07056922
0.013414477 0.08287744 0.02698184 0.061833948 0.12998416 0.021416614 0.023959506 -0.058505267
0.08994372 0.121020615 -0.10019105 0.14015597 0.043480184 -0.020083286 -0.13204041 -0.14418472
-0.11332252 -0.120676085 -0.09619324 -0.04197294 -0.119750276 -0.12060425 -0.01600415 -0.12137793
-0.012989381 0.02464838 0.02745196 0.0905199 0.07872502 -0.08089854 -0.04855179 0.0032503011
0.12175027 0.06999027 -0.080713615 -0.016995216 0.026028685 0.050070472 -0.053573903 -0.12660608
-0.08809941 0.004902414 -0.09843843 0.04011414 0.090669736 -0.0015164413 0.075782485 0.101048194
0.09209196 -0.13740431 0.130759 0.038105574 -0.14302877 0.035889614 -0.09945118 0.13354209
0.11438946 -0.095142365 -0.1069202 0.010101182 -0.03817573 0.061863013 -0.13440046 0.106951304
0.013002342 0.0027750335 -0.09212665 0.008909508 0.09800176 0.1405577 -0.09342365 -0.0604391
0.030076286 0.08110158 -0.12108765 -0.05381491 -0.11461228 0.13257363 -0.049198616 0.0867521

rnn.weight_hh_l0 f4 [48, 48]
00000000: 5e03 a13d 8cda 593c fa1e e73c d52c c03d
00000010: 2ddf 95bc 2172 9b3d cfda 9cbc 89eb 103b
00000020: 3256 4a3d ad49 05be 119f 8cbd b0cf ebbd
00000030: 4807 34bd 93be 13bc 703d 6c3d 8774 ecbd
00000040: db44 f7bd b00d cd3d 4155 8dbc d48f 95bd
00000050: df2e 08bd cc47 fa3b 6b0d d8bd cf15 0ebe
00000060: 14ff c1bd 662a ea3d 5b3b 2b3d 8710 13be
00000070: 1c5d 9fbd c453 e03d feb2 0d3e 1da2 ea3c
00000080: 7741 a43d 7b43 c33c cfee ab3d c240 e7bd
00000090: e974 c63c aff9 02be 1f4f 11be d25f f83d
000000a0: 1bad 653c c73f 773d 5cb9 9dbc 530e f4bd
000000b0: 5b5d e03d d278 06be 8bcc c1bd 3145 3e3d
000000c0: 0848 5bbd 351e 1f3d a02b 08be dd9c 5d3d
000000d0: d72d c3bd e4f7 a33d 6064 83bc 6578 efbd
000000e0: f74f 0dbd b9e1 c5bc 4ba3 b73d 842c 83bd
000000f0: acd6 523c 6eb5 84bd 4edb a13b 9ca2 013e
00000100: 0524 7e3d 731b fe3c 4fbb 06be 330f ad3d
00000110: 0738 0e3e ab8c 163d 50c5 f53d adb8 813d
00000120: f6a9 0a3e 169d 97bc e978 50bd 169c 993d
00000130: 3a6d 1ebd c8f9 5fbc ebbd 93bc fab9 57bd
00000140: 142d db3c bc19 ecbc bec0 bfbd 668e 073e
00000150: 00b3 0cbe 0f70 9cbd 9942 073e 3c4a b6bd
00000160: 574f febd 3f52 ab3d 83c6 0f3e 3eac d33d
00000170: 9367 ccbd 4b02 10be 8276 04be aa86 98bb
00000180: af10 0e3d 365e 4abb 63dc 1f3d f2ab 83bd
00000190: 1757 cc39 419b 043e 2675 40bd 8414 ddbd
000001a0: 50a7 003e 2380 c53d 71d9 083e 4167 f53d
000001b0: 15df d73a ca6b 9e3d f34a ad3c fd15 3d3d
000001c0: e4e7 ec3b 810b a43d ef98 2dbd 4963 63bc
000001d0: a58b a23d ac2b 5e3d 53bc eb3d 0751 11bd
000001e0: 31d3 f2bc 5822 cbbd 4043 80bd 2ff6 09be
000001f0: 37ae 013e 5a3d d5bd a948 47bd 8d7a 373d
00000200: e513 db3d 8db0 b53d 6afd 023e 48bb debb
00000210: 5764 78bd a728 11be 1120 de3c c246 4a3d
00000220: f5c7 f8bb c9e9 aa3d 130f 8abc 0b53 353c
00000230: 4792 02be 296f 053d 2311 2f3d d7af 4bbd
00000240: 01b9 383d 7722 0cbe 4d30 e13d 7073 09be
00000250: f810 c03d 7c65 2ebd 85d8 10be 0faf a5bc
00000260: 837f a43d 4fc6 b2bb 964e c7bd 10d5 c6bd
00000270: 9d73 e13d bc90 05be 772c 97bd f593 07be
00000280: f438 0ebe 336b 093e fe1d 79bd 557e fcb8
00000290: 02d0 e1bc ea93 f2bd b77e 59bc 3695 f5bd
000002a0: ad8e acbd 3d75 d93d 3735 c1bd 82df 623d
000002b0: 1cac 2dbd e11a 4c3d 5b0a e4bc 1977 b43d
000002c0: f128 013e 8ea9 013e d68a df3d 9456 5cbd
000002d0: 7d27 b33d 0f46 cebd 0878 0abe aff3 003e
000002e0: cb4f a9bc f0e5 dd3d a59f a03d e4db f3bc
000002f0: 0c65 afbc 3c1c c9bc 8b9f 01be 262a e23d
00000300: b161 a8bd c4ac 5e3d f626 0b3e 2b91 efbd
00000310: fcaf aebd a964 f13d 5f0b 40bc 2821 04be
00000320: c2f7 3d3d b398 d03d ba73 c4bd 29c3 d53d
00000330: 1c4a 0f3e 9bb0 0b3e 4614 ac3d 73df 1d3c
00000340: 3398 673d 2b48 47bd 9db2 b43c 86df 91bd
00000350: dc5b d33d 2451 48bd 8c58 a3bd b906 a9bc
00000360: 566f 073d 93fd a03c b504 aabd 2385 b3bd
00000370: 6287 edbd bb62 79bd 5a62 5fbc 8d59 db3d
00000380: bdbb 93bd 349f 1fbb d7bf 94bd 09ac 8bbd
00000390: 045c a2bd c2fe 11be 5f2f b9bd 03dc 9abc
000003a0: 66da e73c b7f6 653d b844 d7bd 46d5 0fbe
000003b0: d97b a3bd aa49 9fbd 56c1 9cbd d0b8 9d3d
000003c0: b85e 073d ca27 36bb 073c d2bd 17d8 bcbd
000003d0: b749 fc3d 4333 f8bd a6d6 46bb b315 02be
000003e0: 9fcf 12be 7651 8d3c 23e4 48bd 47e9 0bbe
000003f0: 547d c2bd d62d 033e 0b31 89bd f2a1 dd3d
0.0786197 0.013296735 0.028213013 0.09383551 -0.018294895 0.07590128 -0.019147305 0.0022113046
0.04939861 -0.13016386 -0.06866277 -0.115142226 -0.043952256 -0.009017604 0.05767578 -0.11545663
-0.1207368 0.10012376 -0.017252566 -0.07302824 -0.033247825 0.0076379534 -0.10549434 -0.13875507
-0.094724804 0.11433868 0.041804653 -0.14361773 -0.07781431 0.10953477 0.13837811 0.028641755
0.08020299 0.023835888 0.083951585 -0.112916484 0.024225669 -0.12790559 -0.14190339 0.12127651
0.014018322 0.060363557 -0.019253425 -0.11916795 0.10955306 -0.13132027 -0.094628416 0.046452705
-0.05353549 0.038847167 -0.13297892 0.054104675 -0.09530228 0.08006266 -0.016039073 -0.11692885
-0.03450009 -0.024155485 0.089666925 -0.06404975 0.012868565 -0.064799175 0.0049394732 0.12659687
0.06204607 0.031018948 -0.1315739 0.08450165 0.1388856 0.036755245 0.12000525 0.06334052
0.13541397 -0.018507522 -0.05089656 0.07500474 -0.038678385 -0.013670392 -0.018034896 -0.052667595
0.026754893 -0.028820865 -0.093629345 0.13237914 -0.13740158 -0.07638561 0.13208999 -0.08900878
-0.124174766 0.083652966 0.1404057 0.10335587 -0.09980693 -0.14063375 -0.12935832 -0.004654725
0.03468388 -0.0030878908 0.039028537 -0.0642928 0.000389748 0.1294985 -0.04698672 -0.10794929
0.12563825 0.09643581 0.13364197 0.11982585 0.0016469682 0.07735403 0.021153903 0.046163548
0.007229792 0.08010007 -0.042382177 -0.013878652 0.07936791 0.054240867 0.11510529 -0.035477664
-0.02964172 -0.0991866 -0.06262827 -0.13472818 0.12664114 -0.104120925 -0.04865328 0.044794608
0.10697154 0.08871565 0.12791982 -0.006797228 -0.060642567 -0.14175664 0.0271149 0.049383886
-0.007592196 0.08345372 -0.016852891 0.011067162 -0.12751113 0.032576714 0.042740952 -0.04972824
0.04509831 -0.13685022 0.10995541 -0.13422942 0.093782365 -0.04257725 -0.14145096 -0.020225076
0.080321334 -0.005455769 -0.09731786 -0.09708607 0.110083796 -0.13043493 -0.07381528 -0.13240035
-0.13888913 0.134198 -0.06081962 -0.000120398276 -0.027565006 -0.118446186 -0.01327484 -0.1199135
-0.08425651 0.106180646 -0.09433978 0.055388935 -0.042400464 0.04983032 -0.02783697 0.088117786
0.12613274 0.12662336 0.10915153 -0.053793505 0.08747766 -0.10071956 -0.13522351 0.12592958
-0.020667931 0.10834873 0.0784295 -0.029767938 -0.021410488 -0.024549596 -0.12658517 0.110431954
-0.08221758 0.05436398 0.13589081 -0.116976105 -0.0852966 0.117867775 -0.011721461 -0.12903273
0.04637886 0.10185375 -0.095923856 0.104376145 0.13993114 0.13641588 0.08402304 0.009635794
0.056541633 -0.04865281 0.022057826 -0.07122712 0.10320255 -0.048905507 -0.07975873 -0.020633088
0.033065163 0.019652164 -0.08301679 -0.08765628 -0.11598088 -0.060885172 -0.013634289 0.1071044
-0.072135426 -0.0024356367 -0.07263153 -0.068199225 -0.07927707 -0.14257339 -0.090422384 -0.018903738
0.028302383 0.05614349 -0.10511154 -0.14046201 -0.079826064 -0.07777722 -0.076540634 0.07701266
0.033049315 -0.0027794712 -0.102653556 -0.09220903 0.123187475 -0.121191524 -0.0030340343 -0.1270359
-0.14337014 0.017250758 -0.049045693 -0.13663207 -0.09496561 0.12810454 -0.06698807 0.10821904

rnn.bias_ih_l0 f4 [48]
00000000: 8061 13be 813d ba3d 44a3 e23c 3b4e 9d3d
00000010: 471b debd 3069 803d 166f e4bc da40 abbd
00000020: d65e 85bd 9e93 bfbd 591a 053d ca4c 9c3d
00000030: c459 5ebc e11f 3abc bcf7 3c3b f53f 013e
00000040: 11b6 843d 5c18 b23d f2e8 d53d 4ac6 ddbd
00000050: 4605 0e3e 96e7 3c3d 3a50 9dbd a05d e9bd
00000060: 9ef7 7cba 4114 afbd 83d9 be3d 0961 0e3e
00000070: ddb6 54bd 77d4 da3d 8bcc 97bd 4d6b 99bd
00000080: 62a8 d5bd c687 0c3e d7bb 0b3e 16c9 523b
00000090: a438 c3bc 6849 0e3e 8432 8ebd d822 d2bd
000000a0: 4081 923d 6a55 c93d 0800 cfbd 60b1 df3d
000000b0: 659e 89bd 57ba fcbd ef9b 1a3d 38a8 40bd
-0.14392662 0.09093762 0.027665742 0.07680937 -0.108450465 0.06270063 -0.027885001 -0.08361979
-0.06512229 -0.093543276 0.03249583 0.07631834 -0.0135712065 -0.01136014 0.0028834185 0.12622054
0.06480039 0.086960524 0.104448214 -0.10828836 0.13869199 0.046119295 -0.076813176 -0.11394811
-0.0009649935 -0.08548785 0.09318831 0.13904203 -0.051932205 0.10685056 -0.0741206 -0.07491169
-0.10432507 0.13723668 0.13645874 0.0032163314 -0.02383072 0.1389519 -0.06943229 -0.10260552
0.07153559 0.098307446 -0.10107428 0.109225035 -0.067196645 -0.12340229 0.037746366 -0.047035426

rnn.bias_hh_l0 f4 [48]
00000000: 6e07 223d 96f1 10be e15c 2bbd 445d 213d
00000010: eca5 0fbe 9836 1b3d 8010 d4bc fe8b 5fbd
00000020: 4e16 0b3e c098 023e 7e90 99bb 93f0 b4bd
00000030: 14cd de3c cdd6 e2bb 9456 113e b87a a3bd
00000040: 226f bf3d f543 e4bd 02ab bdbd 6399 80bc
00000050: 8829 633d dc82 12be b775 1f3d 8b84 7e3d
00000060: 8c71 48bd 3b75 0fbe 8db5 ff3b 8151 8b3d
00000070: a346 0abe e7c4 033d a848 5ebd db4a 3b3b
00000080: d9b5 81bd 4fd4 803d ac27 14bd 6b6f f9bd
00000090: a589 563c 0299 bebc a8d5 bcbd 879c 00bd
000000a0: 128d 983d ffc2 57bd 0acb 693d be0d 77bd
000000b0: 9f6f 083e 2d6a ef3d a58e 893d 3883 c2bd
0.039557867 -0.14154658 -0.041836623 0.039395586 -0.14028138 0.03789386 -0.025886774 -0.054576866
0.13582727 0.12753582 -0.0046864143 -0.088349484 0.027197398 -0.006922579 0.14193183 -0.07982391
0.09347369 -0.11145774 -0.09261133 -0.01569814 0.05545953 -0.14307731 0.03893062 0.06213812
-0.04893641 -0.14009564 0.007803625 0.06802655 -0.13503508 0.032170203 -0.05426851 0.0028578553
-0.06333513 0.06290495 -0.036170647 -0.121794544 0.01309434 -0.02326632 -0.09220439 -0.031399276
0.07448782 -0.052676197 0.0570784 -0.06031584 0.1332383 0.11690173 0.067166604 -0.09497684

linear.weight f4 [32, 48]
00000000: 3d9c d13d c647 9e3d 73d4 153d a57b 7c3d
00000010: e4ca 093e c1ea be3d b48a 883d 811a 6dbd
00000020: f86f 09be 49e4 393d db98 c23d 70c8 ad3d
00000030: 8969 0ebc 27b4 de3d 5963 203d 66d7 10bd
00000040: d742 01be c997 81bd ae61 5dbd 1eb7 ea3d
00000050: bc7e 093e e8b8 78bd 6e5e 8fbd 5443 833d
00000060: c2c9 edbc 12f5 0ebc 390c 78bd 4203 0f3c
00000070: 0407 e8bd 3963 0d3e d5ff 553d 21f7 e4bd
00000080: 26ef a63d 199a 6ebd 17a1 a23d 6755 cdbd
00000090: dd62 133e 96be f93d 7321 4dbd af26 c13d
000000a0: c874 833b c4e1 ef3d 6d1a 04be f9d4 b83d
000000b0: 15c6 7e3c e25f 0c3e 9535 9fbd ede8 243b
000000c0: 584c b1bc 4918 9a3d acc0 463d 749f 5dbc
000000d0: de10 8b3d 7200 2dbd d8c6 6c3c a116 403c
000000e0: 26b9 193c cfe7 773c 4a75 6dbd 5542 7bbd
000000f0: 8d6a 9fbd 6549 693d a776 52bc 625b 063e
00000100: fd0f a93d eea9 90bc c8a1 4abd 8c34 10be
00000110: 5390 b4bd 100b 7a3d 79d0 8e3d d5ea 89bd
00000120: c0c9 dabd bde4 f83d 4030 04bd 3973 75bd
00000130: bae2 6e3c 3fcc b1bd a7df 11be 5221 c23d
00000140: c9a4 cbba 4fcb cabd 088a 113e 10df 193c
00000150: 7da5 95bc 2e7e 5d3d 5ba7 07bd 84cd 54bd
00000160: bdd1 c4bc 27fb 313d a9c1 9f3d 2402 503c
00000170: 97e5 8fbd 4aa6 94bd 72da 513d 3de1 37bd
00000180: 5c1b 333d 43e7 e03d ca18 893b a748 b33d
00000190: 2369 153d 057b 0c3e b040 f53d 9d00 5ebd
000001a0: a464 ce3d cdef 2dbc 895a 9c3d e7a8 383c
000001b0: 60da 803c 64ca e83d d788 4d3c 673d 16bd
000001c0: 91a2 08be 2591 893d f145 ebbd 2dcd 68bd
000001d0: 8ef4 fb3c e6ce 063e 8abe 94bd bb16 503d
000001e0: 7ecb 0f3e 2bb1 b7bd 2b05 e93d 970b 923d
000001f0: dfaf 183d 6f40 5c3d 830e 7abd b4c9 82bc
00000200: f702 583d cd88 3e3d 0503 ed3d c413 f4bd
00000210: 8eb8 bdbd 0a88 123e e1db a4bd 8608 a0bd
00000220: 8029 723d 6148 453d a32f 74bd 5a32 973d
00000230: a387 a63d 20a1 a73c f435 7b3d aae2 1a3d
00000240: a5a9 1e3d 8c94 2a3c b4df 2dbd 1ec1 603d
00000250: a3b4 0c3d 6c6a af3d e705 48bd 3430 0fbe
00000260: 782d c0bd 888d 11be 8734 b93d 445a ccbd
00000270: 36f0 503c c151 5ebd 6113 df3d b474 053e
00000280: 2a4b e9bc 9866 0b3e 3734 ab3d 3587 24bd
00000290: 12a5 83bc 7bd1 32bc 7525 97bd d800 953d
000002a0: df7a 103e fb72 4fbd 06a7 cb3c a1a0 fd3d
000002b0: 9634 e93d b85b 11be 9f3e cf3d 5afc 1e3c
000002c0: 4f49 8cbc a0d6 703c 8b3e f1bd 8582 a0bd
000002d0: d7f2 b93c d84e ed3d 170e 09bd 7bc5 bc3d
000002e0: 2b0d 47ba 9c24 0cbe 85c2 c8bd f3c1 fbbd
000002f0: 6aa6 823c 8c93 e03b 215a 35bc 13be ecbd
00000300: ae59 963c af58 843c a60f 7a3d b340 84bc
00000310: bac0 c0bd 9609 0dbd d4e3 ec3b b95d 84bc
00000320: b3e5 86bc eac5 e8bd 7bf1 df3c 461a b33d
00000330: 6061 d43d e104 143d 329e 1d3d 237b 803d
00000340: 8022 ef3d 9fb0 363d 5066 0dbe c7a8 1d3d
00000350: adce fe3d d144 0a3e dc8b 943d 9ba3 063d
00000360: 09ff 0fbe 6215 4dbc 46e7 463b 6b1e b5bd
00000370: aa9b ed3d 4b07 efbd 8a2a 8a3b f099 e3bc
00000380: 186c ba3d 23ce 2cba 047f 6bbd d44a bdbc
00000390: 1733 493d f311 04be 434e 84bd c02e dfbc
000003a0: acf4 7bbc ba81 943d 5d04 aa3d 6496 bb3c
000003b0: df96 abbd e394 013d d50b d9bb f3c0 c93d
000003c0: 4c5f 4b3d aa98 a5bd 8fe7 ddbb 0842 fa3c
000003d0: 7475 c73d de5e dfbc 1883 073e 481d dc3d
000003e0: 447b 66bc eec9 aa3c f3af 233d ea3a 2bbc
000003f0: 774a dc3c bc12 c2bd 7884 8b3d 9aaf 01be
0.10234878 0.077285334 0.03657956 0.061641354 0.13456303 0.093221195 0.066670805 -0.057886604
-0.13421619 0.045383725 0.09501811 0.08485496 -0.008692154 0.10874205 0.039157245 -0.03536167
-0.12623154 -0.06327779 -0.054048233 0.11460708 0.13427252 -0.060723215 -0.07000433 0.06409326
-0.02902687 -0.0087254215 -0.06055853 0.008728804 -0.11329463 0.13807382 0.052245934 -0.111799486
0.08151083 -0.058252428 0.07940882 -0.10026055 0.14393182 0.121945545 -0.050080728 0.094312064
0.004011724 0.11712983 -0.12900706 0.09024996 0.015550156 0.13708451 -0.07773892 0.0025163249
-0.021642849 0.07524163 0.04852359 -0.013526786 0.067903265 -0.042236753 0.014451705 0.011724145
0.009382522 0.015130951 -0.057973184 -0.061342556 -0.07783995 0.05695476 -0.012845672 0.13120797
0.08255003 -0.017659154 -0.049470693 -0.14082545 -0.0881659 0.061045706 0.06973357 -0.06734244
-0.10683012 0.12153003 -0.032272577 -0.059924338 0.014580423 -0.08681535 -0.14245473 0.094790116
-0.0015536781 -0.09902059 0.14212811 0.009391561 -0.018267388 0.054075412 -0.033118587 -0.051953807
-0.024025792 0.04345241 0.078006096 0.012695823 -0.07026213 -0.072582796 0.051233716 -0.04489254
0.043727264 0.1098161 0.0041838633 0.08754092 0.03647722 0.13718803 0.11975229 -0.054199804
0.100777894 -0.010616255 0.07634456 0.011270738 0.01572913 0.11366728 0.012544832 -0.03667965
-0.13343264 0.06717137 -0.1148795 -0.056836296 0.030756261 0.13164863 -0.07262905 0.050802927
0.1404247 -0.08969339 0.11377939 0.07131117 0.0372771 0.053772386 -0.061048996 -0.01596532
0.052737202 0.046517182 0.115728416 -0.119178325 -0.09263717 0.14309707 -0.08049751 -0.07814126
0.05912161 0.04816473 -0.059615742 0.07382651 0.081313394 0.020462573 0.06133075 0.03781382
0.038736004 0.010411393 -0.042449668 0.05487167 0.034351956 0.0856522 -0.048833754 -0.13983232
-0.093836725 -0.14214146 0.09043222 -0.09978154 0.012752583 -0.054277185 0.10892368 0.130328
-0.028478224 0.13613355 0.083595686 -0.040168006 -0.016069923 -0.010914202 -0.07380191 0.072755516
0.14109372 -0.050646763 0.024859916 0.12384153 0.11386983 -0.14195144 0.10119366 0.00970372
-0.0171248 0.014699608 -0.11779507 -0.078373946 0.022698803 0.11587304 -0.033460703 0.09217354
-0.000759321 -0.1368584 -0.09802727 -0.12292852 0.015948493 0.0068535265 -0.011068852 -0.11559691
0.01835331 0.016155569 0.06105008 -0.016144132 -0.0941176 -0.03443297 0.0072293077 -0.016157972
-0.016466951 -0.11365874 0.027336827 0.08745246 0.10370135 0.036137465 0.038480945 0.062734865
0.11676502 0.044602033 -0.1380856 0.038491037 0.12441764 0.13502814 0.072532386 0.03287087
-0.14062132 -0.012517305 0.0030350252 -0.088436924 0.11601956 -0.11671313 0.004216497 -0.027783364
0.091026485 -0.0006591996 -0.05749418 -0.02310697 0.04912099 -0.12897472 -0.0646024 -0.027243972
-0.015378159 0.07251306 0.083016135 0.02289886 -0.08378386 0.03163613 -0.006623725 0.09851255
0.04965143 -0.08085759 -0.0067719887 0.030549064 0.09739199 -0.027266916 0.13233602 0.107477725
-0.014067475 0.02084824 0.03996272 -0.010451058 0.026890976 -0.094762295 0.06812376 -0.12664643

linear.bias f4 [32]
00000000: 43f3 85bb 9408 50bc e5d8 dabd f4b2 5c3d
00000010: dc7e 753d c178 9ebd b4c7 913c 5b17 cbbd
00000020: 1e8e c9bd 6789 e5bc 475c f63c c6e7 cdbd
00000030: 3a7a e23b a9fe 0bbe 9720 96bc 5a28 7dbd
00000040: 4d2c ddbc 59be 043e cacc 0f3e 0719 0f3e
00000050: dbca fa3d 290f dfba 749e d3bc 37f3 bebd
00000060: 9ef4 0bbe 902a fabd 690e 3a3d fd31 a33d
00000070: 217f d13d eb17 103e 05cc 9d3d 4dfb 483d
-0.004087837 -0.012697358 -0.106859006 0.0538816 0.059935436 -0.07737876 0.017795421 -0.09916564
-0.0984156 -0.02801962 0.030073298 -0.10053973 0.006911543 -0.13671364 -0.018326087 -0.06180606
-0.026998663 0.12963237 0.14042965 0.13974391 0.12245723 -0.0017018068 -0.025832392 -0.09323733
-0.13667533 -0.122151494 0.0454239 0.07968519 0.10229326 0.14071624 0.07704929 0.049067784
