LTC_A2C/training_results/CfC_a2c_result_400_2024323_learningrate_0.0001_numneurons_64_encoutact_identity_neuromod_network_dims_3_192_96_64_randomization_params_[(0.775, 5.75), (1.0, 2.0), (0.8, 2.25)]/checkpoint_CfC_A2C_1.pt (torch, 74488 bytes, 10 tensors)

cfc_model.rnn_cell.w_tau f4 [1, 64]
000000 0f f8 85 3e 6b f1 1c be 8d ec 76 3e a7 db 3e 3e
       0.26165816 -0.15326469 0.24113674 0.18638478
000010 d9 e8 f4 bd 91 88 01 be 4b 2f 8b 3e 26 77 78 3e
       -0.11958475 -0.12649752 0.2718452 0.24264202
000020 18 67 1e be 26 6f 23 bd 99 d7 66 be cc 29 62 b9
       -0.15469015 -0.03990092 -0.22543181 -0.0002156861
000030 2a a8 08 bb e2 90 23 3e ff f0 51 be ce c5 db ba
       -0.0020852187 0.15973237 -0.20502089 -0.0016767324
000040 fc a2 f9 3c 27 97 52 3a ae cc 78 be f6 29 8d be
       0.030473225 0.0008033388 -0.24296829 -0.27571076
000050 b9 29 0d 3d fa 80 56 be 95 39 94 3e 60 d8 d1 3d
       0.034463618 -0.20947638 0.28950182 0.102463484
000060 dd 25 10 3e 3b c6 10 be 04 a9 24 3e 8c b3 ec 3d
       0.14076944 -0.14138119 0.160801 0.11557683
000070 3a 8c 6b be d7 67 07 3e d1 61 67 bd 04 30 2f 3e
       -0.23002711 0.13223206 -0.05648977 0.1710816
000080 d8 f2 ae bd 65 79 64 3e 49 80 dc 3d 0d d6 54 3e
       -0.085424125 0.22311933 0.10766656 0.20784779
000090 b0 15 1f 3e 72 db 83 3e 60 25 5b bb 55 02 75 be
       0.15535617 0.2575336 -0.0033439025 -0.23926671
0000a0 09 a1 a3 ba bf 7c 9a 3d 4d 46 b4 3d 7a e4 49 be
       -0.0012483905 0.07543325 0.08802471 -0.19716063
0000b0 3f 70 4f be 35 87 5d 3d 59 c1 3e ba 62 7d d3 3a
       -0.20257662 0.05408402 -0.0007276736 0.001613539
0000c0 1c c1 fd 3a 87 25 8b bd 7b be b0 ba a3 06 4d be
       0.0019359919 -0.06794267 -0.0013484502 -0.20022063
0000d0 02 46 35 be fb cd 3a be b7 76 a1 bb e5 2b 8d 3e
       -0.17702487 -0.18242638 -0.004927482 0.2757255
0000e0 0f a6 e5 3b 59 68 39 3e 88 5f 9f bd b1 60 56 be
       0.007008321 0.18106212 -0.07781893 -0.20935322
0000f0 53 c2 a8 3d 60 92 d8 ba e3 47 8a be 70 3c 21 be
       0.082401894 -0.0016523115 -0.2700797 -0.15745711

cfc_model.rnn_cell.A f4 [1, 64]
000000 cc 8c 83 bc 8a f1 51 be 64 76 e9 3d b3 01 a3 be
       -0.016058348 -0.20502296 0.11399534 -0.31837234
000010 bc d5 bb 3d fa 2e 7e bd bd b8 26 be 54 6e 5e be
       0.09171626 -0.06205652 -0.1628141 -0.21721774
000020 df 30 45 3e 92 09 d5 bc f9 4f ad be 08 f6 0a be
       0.19256924 -0.02600554 -0.33850077 -0.13570416
000030 2f 97 9a 3d 7b 6e 4e be f8 2c 25 3e 80 e9 7f be
       0.07548367 -0.20159332 0.16130435 -0.24991417
000040 66 c8 47 be d0 7e af 3e 2e 74 80 3e c6 7d 82 3e
       -0.1951004 0.34276438 0.25088638 0.25486583
000050 63 8e 9e 3e 48 fd 86 be 84 85 10 be 3a 3f 7f 3e
       0.30968007 -0.26365113 -0.14113432 0.24926463
000060 aa 16 9c 3e e3 e8 a5 3e 88 04 ac be 14 a2 6f 3e
       0.3048604 0.3240424 -0.33597207 0.23401672
000070 89 e8 1a bd 8f 89 1a be 66 fc c3 bd cc da 48 be
       -0.03781942 -0.15091537 -0.095696256 -0.19614714
000080 ab b0 1b 3e 6a 47 7b be fa 9f ce 3d 07 a4 65 be
       0.15204112 -0.24538961 0.10089107 -0.22425853
000090 2d ed 3f be 9b 05 e6 3d a4 b6 7f 3d fe af 14 3e
       -0.18742819 0.11231538 0.06243004 0.1452026
0000a0 1b c0 b5 be 86 a2 80 3e bb 2e ae 3e 04 f1 9d 3e
       -0.35498127 0.25123996 0.34020028 0.30847943
0000b0 a5 3f a6 be b7 58 4e bd 90 37 46 3e f2 6a d0 3c
       -0.32470432 -0.050377574 0.19357133 0.02544162
0000c0 44 88 3a be ea cf 4a 3e 21 df 58 3e ce f1 a0 3d
       -0.18216044 0.19805875 0.21178867 0.078586206
0000d0 8f 0b 67 3e 4e e9 9c be cc ad 77 3e aa 75 00 be
       0.22563003 -0.30646747 0.24187392 -0.12544885
0000e0 e8 31 38 be 53 1b 72 3e be 30 9b 3e 37 c1 7c be
       -0.17987788 0.23643236 0.30310625 -0.2468308
0000f0 5b a6 96 3e c0 44 b3 3d 1d e7 9c be 38 e7 27 3e
       0.29423794 0.087533474 -0.30645075 0.16396797

cfc_model.rnn_cell.tau_system f4 [1, 64]
000000 36 06 f2 3f 0a d9 17 40 ef 11 1a 40 2e 55 63 40
       1.8908145 2.372622 2.4073446 3.552074
000010 e5 0f 65 40 8f 45 54 40 c1 23 06 40 0e 3c 2e 40
       3.5790951 3.3167455 2.0959322 2.7224154
000020 c1 7f 06 40 1e 0a 45 41 eb 6e d4 3f 54 e1 04 41
       2.1015475 12.31497 1.659635 8.305012
000030 c2 a3 eb 3f 0e 91 d9 3f 3d b9 28 40 c7 84 54 42
       1.840935 1.6997392 2.636306 53.129665
000040 16 98 af 41 bc 7c d7 40 6a e2 16 40 13 e1 d5 3f
       21.94926 6.7339764 2.3575692 1.6709312
000050 f2 c9 f9 3f 4a 72 04 40 8e 64 35 40 02 a2 12 40
       1.9514754 2.0694757 2.8342624 2.2911382
000060 8e 26 b0 40 ee de 2c 40 70 2b 76 40 e6 55 cb 40
       5.5047064 2.7011065 3.8464012 6.3542356
000070 5a 97 26 40 48 6a ef 3f 0d f5 2d 41 0e ef 03 40
       2.6029878 1.870431 10.872327 2.0614657
000080 c1 6e 9e 3f 7c cc 34 40 59 93 77 40 4b 91 f9 3f
       1.237755 2.8249807 3.8683684 1.9497465
000090 55 c9 ae 40 51 fb 0a 40 c9 41 58 40 53 63 c2 3f
       5.4620767 2.1715891 3.3790152 1.5186561
0000a0 57 84 73 40 bb 0c a1 40 69 df c6 40 4e 9a 44 40
       3.8049524 5.032804 6.2147717 3.071918
0000b0 24 c3 d7 3f d8 66 5d 40 5d d7 87 41 68 e6 4e 40
       1.6856427 3.459402 16.980158 3.232813
0000c0 51 8b 7d 41 79 c8 c4 40 ef 2f 45 40 55 45 04 40
       15.846513 6.1494718 3.0810506 2.0667317
0000d0 33 ae 4f 40 09 bc 76 40 0c 5a 61 40 c0 a7 25 40
       3.2450073 3.8552268 3.521121 2.5883636
0000e0 6b f0 9b 40 18 55 d2 3f f1 36 4a 40 b8 3b 07 40
       4.873098 1.6432219 3.1596034 2.11302
0000f0 4d 30 39 41 04 92 c7 40 9a 79 9e 3f e1 82 fc 3f
       11.574292 6.236574 1.238086 1.9727441

cfc_model.rnn_cell.backbone.0.weight f4 [128, 68]
000000 d7 f5 c4 3d a1 de 07 be c8 55 8a bd 82 92 be bd
       0.09617203 -0.1326852 -0.06754643 -0.09305288
000010 ab a3 0a 3d 9c 22 49 bc 24 1d 34 3d 55 11 3c 3e
       0.033847492 -0.012276318 0.043973103 0.18365987
000020 ec 89 7a bd 79 2f e5 bd 0f 4b 9e 3d f6 a9 94 3d
       -0.06116669 -0.11190695 0.0772916 0.0725898
000030 97 19 88 bd ad bd c4 bd cc 34 e8 bd 6c e3 31 3e
       -0.06645506 -0.0960649 -0.11338195 0.17371911
000040 f4 d3 8e bb bd e3 da 3c 13 50 ad bd f0 66 59 3e
       -0.004358763 0.026719922 -0.084625386 0.21230674
000050 47 0b e4 3c 63 11 80 bc 08 0b 10 3e 3b 92 26 be
       0.027837409 -0.01563329 0.14066708 -0.1626672
000060 df 26 4c 3d dc 69 05 be 2c 2b 4a bc e5 eb c1 3d
       0.049841758 -0.13028663 -0.012339395 0.094688214
000070 ff 6d 2c 3e 1f 57 93 3d 31 b7 97 3d ba 52 e7 3d
       0.16838835 0.071943514 0.07407988 0.11295076
000080 af 2e be 3d d6 5c 80 3d 62 32 37 be 25 3d f1 bd
       0.09286248 0.06267707 -0.17890313 -0.117792405
000090 3a 94 ce bd 7b cf df 3d 5e 69 57 bd 39 da 10 be
       -0.10086866 0.10928246 -0.05259072 -0.14145745
0000a0 3d 99 80 bc 0f 51 a3 bd d9 a6 4a 3d 8e f5 d9 3c
       -0.01569807 -0.07974445 0.049475525 0.026606347
0000b0 4f a1 e7 bd af e5 84 be 54 18 6f 3d 7b 0f 11 3e
       -0.11310064 -0.25956485 0.05837281 0.14166062
0000c0 1f 3c e2 bd 5b 7b ac bc 27 95 08 be 88 9d 23 bc
       -0.110466234 -0.021054914 -0.13338147 -0.009986289
0000d0 da 31 41 3d f1 2e 82 bd 7a f9 b4 3d a0 9f 55 3d
       0.047166683 -0.063566096 0.088366464 0.052154183
0000e0 43 07 13 3c 01 29 66 bd 37 3b 28 3d bc 5b fa 3d
       0.008973899 -0.056191448 0.041072097 0.12224528
0000f0 12 3a e5 3d 91 c0 8f 3c 4e 7e 2f be 25 25 fd 3c
       0.11192717 0.017547878 -0.17138025 0.030901501
000100 68 e1 b6 3d ec 4f 3f bd 39 9a cd bd 99 42 58 be
       0.089297116 -0.04670708 -0.10039181 -0.21119155
000110 67 eb c5 bd 27 eb 56 be 00 66 65 3e 6d 23 50 3e
       -0.0966404 -0.20988141 0.22402191 0.20326014
000120 15 a9 38 3c 33 32 95 bd 96 89 ee 3a c0 52 21 bd
       0.011270781 -0.07284965 0.0018198963 -0.039385557
000130 96 98 fd 3c b1 47 c3 bd 7d 22 c4 bc e2 ac 96 3d
       0.030956548 -0.095351584 -0.023942227 0.073571935
000140 95 df 02 be e7 bf 02 3d cf 7f c3 3d d4 45 5e bd
       -0.12780602 0.031921294 0.09545862 -0.054265812
000150 2b e0 d6 3d 0d ea 79 bd e0 43 14 3d f0 74 0c bd
       0.104919754 -0.061014224 0.036197543 -0.034291208
000160 4d e6 82 3d 3b 18 24 3e 7c f4 01 be 6c a6 c3 39
       0.06391583 0.16024868 -0.1269092 0.00037317292
000170 7c b7 2e 3e 39 f7 d1 3d 20 50 25 be 20 8c ff bd
       0.17062181 0.10252232 -0.16143847 -0.124778986
000180 02 80 6f 3e da 49 38 3e 23 65 30 be f7 3d 8d 3c
       0.23388675 0.17996922 -0.1722608 0.017241461
000190 c2 6d b2 3d d7 c3 3a be 50 79 0f be 60 e3 79 3b
       0.08712341 -0.1823877 -0.14011121 0.003812991
0001a0 7a 5d bc 3d ed 1b 2a 3d 98 0f 8e 3d 11 07 14 be
       0.09197517 0.04153054 0.06936568 -0.1445582
0001b0 05 d0 86 3d 46 63 26 3e 00 0f ee bd 06 5e d1 3d
       0.06582645 0.16248807 -0.11623955 0.10223012
0001c0 aa e8 09 be f2 a9 3a be 9c 3e 08 be 90 8b 64 3e
       -0.1346766 -0.18228891 -0.13305134 0.22318864
0001d0 e4 6b ed bd 68 67 aa bd b5 9e 40 3d fb dc 18 3d
       -0.11592844 -0.083205044 0.047026355 0.03732012
0001e0 61 c4 21 be 48 c0 1c 3e c0 1d 09 3d f0 15 3e be
       -0.15797569 0.15307724 0.033475637 -0.18563056
0001f0 16 85 37 3e 1a 15 c4 3d e6 ae d1 3d 5c f4 59 be
       0.17921862 0.09574337 0.10238437 -0.21284622
000200 3b 4f e3 3d 20 99 33 3e b6 12 8a 3c 97 16 b3 3d
       0.110990964 0.17538881 0.016854625 0.08744543
000210 0f 0f 09 3e ab 87 9b 3d c3 a8 4f bc 2b 2b 26 3e
       0.1338465 0.07594236 -0.012674513 0.16227405
000220 c7 f1 c1 3d e0 9e d4 bd b8 dc 8d be b7 c5 b5 3d
       0.094699435 -0.103818655 -0.27707458 0.08875602
000230 c1 88 b7 bd 06 ba 44 3e 22 07 5d be f3 e8 1f 3e
       -0.089616306 0.19211587 -0.21584752 0.15616207
000240 13 4f 28 3e f8 f0 77 bd 42 48 ed 3d 1e 29 0a be
       0.16436414 -0.06053254 0.11586048 -0.13492247
000250 37 53 aa bd cb 58 57 3e 67 de 8f 3d 15 ff 24 3e
       -0.08316653 0.21029966 0.07024842 0.16112931
000260 c4 6e cd bd 86 1c 91 bd f5 d9 bb bd 66 90 36 3e
       -0.100308925 -0.070855185 -0.091724314 0.17828521
000270 09 84 00 be 71 21 7b bd 85 9f d8 bd 1f 2c 2b bd
       -0.12550367 -0.06131119 -0.10577301 -0.041790124
000280 f0 5b 53 bd 3e 78 9d 3d 2b 11 21 bd 93 35 4a bd
       -0.05160135 0.0768895 -0.039323013 -0.0493675
000290 ce fd d9 3d 69 1b fe bd 22 43 91 3d b1 d7 97 3d
       0.106441125 -0.12407572 0.07092883 0.07414187
0002a0 b9 1d 3b 3e 1e ef 85 3d 4b 6a bf 3d 69 fe 23 3e
       0.18273057 0.065397486 0.09346446 0.16015019
0002b0 d9 bd f1 3d 2a 8a 73 3d 34 45 f0 bd ea 59 44 3e
       0.11803789 0.059457935 -0.117319494 0.19174924
0002c0 9a f9 74 3d a5 82 f2 bc 53 67 2d bd 11 64 37 bd
       0.05980835 -0.029603312 -0.042334866 -0.044773165
0002d0 39 db 78 3d ec 03 73 bd 4b 27 43 3c ce d3 21 be
       0.060755942 -0.059329912 0.011911224 -0.15803453
0002e0 99 ef 50 3e c9 b7 d2 bd 56 c8 45 be 03 bf f7 bb
       0.20403899 -0.102889605 -0.19314703 -0.007560612
0002f0 8f 31 fa 3d 02 8a b1 3c 59 65 6f bd 95 d0 9a 3d
       0.12216484 0.021672253 -0.058446262 0.07559315
000300 e9 d9 e2 bd 85 18 27 be 6f 52 eb bd 91 14 82 bd
       -0.11076719 -0.16317947 -0.11490332 -0.06351579
000310 c7 c1 cd 3d 43 fc 31 be 68 e5 50 be cd dc 11 bd
       0.10046726 -0.17381386 -0.20400012 -0.035610963
000320 cb b4 19 bd b2 c0 10 be 91 a0 79 3d c4 42 4a be
       -0.037525933 -0.14136007 0.060944144 -0.19752032
000330 bd 37 1f be c4 f7 c1 bd a8 b2 3e 3d 5f d5 59 3e
       -0.15548606 -0.09471086 0.0465571 0.21272801
000340 ee 81 0b 3d ae f9 51 bc e2 ca ce bd 1e 02 cd bc
       0.034059457 -0.012815876 -0.100972906 -0.025025424
000350 ae ad 53 bb f1 dc 15 bd 1b 76 1d 3d b5 90 ff bd
       -0.0032299566 -0.03658766 0.038442712 -0.124787726
000360 fc ec 6d bd e9 94 9a 3c 88 69 9b 3d 59 30 55 be
       -0.058087334 0.018869834 0.07588488 -0.20819224
000370 0f 46 d7 3c 64 5f 3a be c6 f0 00 3e a5 cf d8 bd
       0.026278524 -0.18200451 0.12591848 -0.1058648
000380 f9 31 cc bd 6a cf 06 be e6 a3 5d 3c 52 f3 14 3e
       -0.09970469 -0.1316506 0.013527846 0.14545944
000390 37 3a 5f bd 1a ef 03 3d ce 8f 39 be 47 fc 2b 3e
       -0.054498877 0.032210447 -0.18121263 0.16795455
0003a0 d3 ae 25 bd ab ac 38 3e 58 0e 17 be f0 bf ed 3d
       -0.04044993 0.18034618 -0.14751565 0.11608875
0003b0 26 b0 c7 3d ae 55 dc 3d d0 bb 02 3e 71 8a 29 bd
       0.097503945 0.107585296 0.12766957 -0.041391794
0003c0 51 f9 05 be 0b 47 42 3d 38 9a 05 3e e2 8f ed 3c
       -0.13083388 0.047431033 0.13047111 0.028999273
0003d0 52 a6 df 3d cb 4c f7 3d 6e 9e c5 bd 0b 01 32 3e
       0.10920395 0.12075194 -0.09649359 0.1738321
0003e0 04 66 4d be 60 42 15 bb 71 b5 c5 bd e8 0e 08 be
       -0.20058447 -0.0022775158 -0.09653748 -0.13286936
0003f0 8a c6 db 3d ac 5e f9 3d 01 cc 2a 3e 00 3a df bd
       0.10731228 0.1217626 0.16679384 -0.108997345

cfc_model.rnn_cell.backbone.0.bias f4 [128]
000000 19 8c 01 3e 80 82 16 bd 41 0f da 3d b6 fb 59 3d
       0.126511 -0.03674555 0.10647441 0.053218566
000010 a0 5f 40 3d c7 e9 86 bd 82 bd e1 bd 8f cc fa 3d
       0.046966195 -0.06587558 -0.11022474 0.12246048
000020 9a 7b 2e bc 98 59 27 3d a5 b6 c9 3c a5 e5 ac 3d
       -0.010649586 0.040856928 0.024623225 0.08442239
000030 b8 32 be 3b 9b 40 26 bd e0 69 b3 3d 05 a1 df bd
       0.005804386 -0.040588956 0.087604284 -0.10919384
000040 3d 93 2f bd 2c 12 23 3d 6c 81 15 be aa 81 da bd
       -0.042865027 0.039812252 -0.14600152 -0.10669263
000050 43 7a 7e bd 39 5e b7 bd 1c ff 8e bd d5 e5 20 bd
       -0.062128317 -0.089535184 -0.06982252 -0.039281685
000060 21 ad 8a 3d 35 50 af 3d c4 02 65 bd db f4 d0 bd
       0.06771303 0.0856022 -0.05591084 -0.102029525
000070 20 06 d9 bd 17 f8 65 3d f6 e3 23 bd b3 f4 ea 3d
       -0.105968714 0.0561448 -0.040012322 0.11472454
000080 cb 97 1a be d0 e2 a3 bc 42 69 39 bd e1 a6 dc 3c
       -0.15096967 -0.020005614 -0.045266397 0.026935043
000090 9b 45 9a bd e4 6f ab 3d bb fc b7 3d d3 f7 90 3d
       -0.075328074 0.08370951 0.089837514 0.07078519
0000a0 dd 58 12 3d df 5e 9b bd f2 f2 aa bd 35 64 2c 3d
       0.035729278 -0.075864546 -0.083471194 0.042087752
0000b0 76 99 5b bd 30 4b ba 3d ba 55 8c bd 96 17 bb bc
       -0.05361315 0.09096372 -0.068522885 -0.022838395
0000c0 92 d5 46 3d d8 c1 b0 3d 06 7a 00 3d 72 4e 89 3d
       0.04854352 0.08630723 0.03136637 0.067044154
0000d0 78 c0 eb 3d a7 4b ab bd 00 5b 85 3c 4a 1b ec bd
       0.1151132 -0.08364039 0.016278744 -0.115286425
0000e0 e0 2c de bc 44 cd a8 bd 0c 89 9a 3d 44 15 82 bd
       -0.027121007 -0.08242276 0.07545671 -0.06351712
0000f0 ad ca 14 be 44 1a 90 bd b9 e8 98 3d 94 d2 23 be
       -0.1453044 -0.0703626 0.07466263 -0.15998298
000100 e8 8a b0 bd a3 fc 07 be 31 1c d2 3c ad 28 a3 3c
       -0.08620244 -0.13279967 0.025648208 0.019916857
000110 c8 e0 4e 3c b5 6f 4c bd a1 a7 28 bb 51 d8 8e bd
       0.012626834 -0.04991122 -0.002573468 -0.06974853
000120 01 e5 d6 3d e2 fb ce 3a 3f 6e 1e 3e d0 01 b7 3c
       0.10492898 0.001579162 0.15471743 0.022339731
000130 e2 4f 01 3e 98 9d 48 3d ef ec 8a bd 32 dd e2 3d
       0.12628129 0.048978418 -0.06783473 0.11077346
000140 b6 c9 d5 3d 95 07 07 be 4d 8f f1 3a e7 09 b0 bd
       0.10438864 -0.13186486 0.0018429548 -0.08595639
000150 fe 81 0b 3d ce d0 6f 3d 93 cc a8 3d 10 f8 c0 bc
       0.034059517 0.05854874 0.082421444 -0.023555785
000160 ac ac 14 be 2d ee 79 3d 2e e8 6a 3d 5a 13 80 3d
       -0.14518994 0.061018158 0.05735033 0.06253691
000170 2b aa 0a 3c f4 75 33 bd b3 12 08 3e b4 99 99 bd
       0.008463423 -0.04381366 0.13288383 -0.0750002
000180 09 cb 62 3d ce a9 83 3d d4 9a 00 3d 38 f1 3d bd
       0.05536941 0.06428872 0.031397656 -0.046372622
000190 66 d8 e4 bd 8f 2a 9f bd aa c0 f7 bc f0 fc a0 bd
       -0.11174087 -0.07771789 -0.030243237 -0.07860744
0001a0 2f 25 74 3d 6d 1b 23 bd a3 0c a5 bd 6a 09 f0 3d
       0.059605774 -0.039821077 -0.08059051 0.117205456
0001b0 c2 77 6d 3b 05 d0 31 bd d1 31 3d bd 34 3b e5 bd
       0.0036234711 -0.043411274 -0.046190087 -0.11192933
0001c0 34 27 98 3c 32 fb a4 bd 55 51 0d 3d 9e 0c dd bc
       0.018573381 -0.08055724 0.034501392 -0.026983555
0001d0 0f 87 1f 3d dd fc 3c 3c cc 8a 58 3c 94 fd 41 bd
       0.03894716 0.011534897 0.0132166855 -0.04736097
0001e0 d4 97 e7 bc 53 2c 9d bc 87 e7 dc 3c 7e 0b 89 3c
       -0.02827064 -0.019186174 0.02696587 0.016729113
0001f0 00 4b 8c 3d 3b 53 0a be 1f 26 32 bd 83 d7 8d 3d
       0.068502426 -0.13508312 -0.043493386 0.06925871

cfc_model.rnn_cell.ff1.weight f4 [64, 128]
000000 72 63 4e be 64 9a a9 3d ed 75 ea 3d 2d 2b df 3b
       -0.20155123 0.08281401 0.11448274 0.006810567
000010 a4 1e 18 bd cf ee 8d 3d 74 d5 b0 3c b0 1e 32 be
       -0.037138596 0.06930315 0.021586157 -0.17394519
000020 2f 0b dc 3d 0a a6 2b be ce d7 9b bd 3e b3 07 be
       0.107443206 -0.16762558 -0.07609521 -0.13251969
000030 45 00 ef 3d d4 41 2d be 5c 01 30 3e 6a 9b 8f 3d
       0.11669973 -0.16919643 0.17188019 0.07012065
000040 2a d1 05 3e 3c 48 78 bc 41 aa 32 3e fe 5a 28 3d
       0.13068071 -0.015153941 0.17447759 0.041102402
000050 0c 8d 60 bd 4d 49 16 3d 10 86 40 bd 6d 36 26 3d
       -0.054822013 0.036691 -0.047002852 0.04057925
000060 8e 60 5d 3a 2a 52 13 3e 64 f2 2a be 54 3f 10 3e
       0.0008444869 0.14386812 -0.16694027 0.14086658
000070 6a 47 24 3d 04 9a a5 bd 02 37 19 3e 2c 64 e5 3d
       0.04010717 -0.08086017 0.1496239 0.11200747
000080 58 ff 82 bd 3e 7e 46 bd 97 00 db 3d 8d b4 23 be
       -0.06396359 -0.048460238 0.10693472 -0.15986843
000090 ba a7 e6 3c 2a e1 f9 3d bb 0d 7c bd 79 7b 3a 3e
       0.02815615 0.1220115 -0.061536532 0.18211164
0000a0 89 de d1 3b fe 6c b6 bd 4b eb aa 3d 41 70 13 be
       0.006404702 -0.08907507 0.0834566 -0.1439829
0000b0 03 14 0d 3e ec b5 70 bd 3d b6 1a bd c1 df 15 be
       0.13777165 -0.058767244 -0.037771452 -0.14636137
0000c0 72 70 ba bc 2d a7 d3 bd 43 ce 04 be 84 16 3e bd
       -0.022758696 -0.103346206 -0.12969308 -0.04640819
0000d0 54 7d a4 3d 53 1a 32 3e e0 6e 1f 3d 82 88 44 bd
       0.08031717 0.17392854 0.038924098 -0.047981746
0000e0 79 d1 2a be bb ad 01 be a1 13 4f 3d 12 2c ba bc
       -0.1668147 -0.12663929 0.05055583 -0.022726092
0000f0 a4 cb 63 bd 9d 6a 94 3d e0 33 e8 bd b5 68 9e 3d
       -0.05561413 0.07246897 -0.11338019 0.07734815
000100 32 cc 2a be f2 ca 90 3d ed d6 d2 bd 41 21 33 bd
       -0.16679457 0.07069959 -0.102949 -0.043732885
000110 7d cf 14 be 09 70 d5 3d 1b c4 01 3c 8c c7 dc bd
       -0.14532275 0.1042176 0.00792029 -0.10780248
000120 f8 4b d4 3d 51 ac 3b be 6a d7 bf 3d 06 73 04 3e
       0.103660524 -0.18327452 0.09367259 0.12934503
000130 0f ab 0a bb 87 f1 54 3e e7 a3 c5 bd 00 64 90 3d
       -0.0021159088 0.2079526 -0.096504025 0.070503235
000140 55 80 10 3e d2 dc 3c 3e 4f 0d 4c 3d 1c 24 ed bd
       0.14111455 0.18443611 0.04981738 -0.11579153
000150 ce 15 30 bd 31 2e 31 be 99 bf 82 3d 38 20 51 3d
       -0.042989545 -0.17302777 0.063842006 0.051056117
000160 80 ae 3d 3d c7 9b fe bd ea 9b 72 3d 52 63 01 be
       0.046308994 -0.12432056 0.059230722 -0.12635544
000170 e9 e5 1e be 7e 64 ed 3d f0 de 2f 3d 4c dc 08 3d
       -0.15517391 0.11591433 0.04293722 0.033413216
000180 8e e3 01 3e 80 4e 96 3d 1d 82 63 bd e6 55 85 bd
       0.12684461 0.073391914 -0.055544008 -0.065105245
000190 76 63 4d 3d 05 4d fc 3d f9 ef 33 bd 0f 88 05 3e
       0.05014368 0.12319378 -0.043930028 0.13040183
0001a0 0f e8 6b bd 44 2a fe 3b ce a2 8a bd 56 0b 31 3d
       -0.057594355 0.0077565033 -0.06769334 0.0432237
0001b0 8e fb 35 3e 60 0e b3 bd d1 e2 b5 bb 2b a4 8a bd
       0.17771742 -0.08742976 -0.0055507203 -0.06769594
0001c0 b0 f4 56 be a4 67 2b bd ef 9f a7 bd d8 14 11 be
       -0.20991778 -0.041846886 -0.08184802 -0.14168108
0001d0 ce 4d 4d be db c1 d2 3d 11 f0 3f bd 15 3e 9f 3c
       -0.20049211 0.10290881 -0.046859805 0.019438783
0001e0 38 9f e3 3d 73 cd 1a 3e ab 7d e5 3d ba fe 0a 3e
       0.11114353 0.15117435 0.1120561 0.13573733
0001f0 3b 8f 03 3d 7b 69 d1 3d a0 43 f3 bd 9a e7 a0 3d
       0.032119017 0.10225197 -0.11878133 0.078566745
000200 69 61 e6 3d f1 3b 17 be b1 cf e3 3d d0 23 11 be
       0.11249048 -0.1476896 0.11123598 -0.14173818
000210 5e 91 41 bd 27 5f 2a 3e 4d 6d 55 be 4c d0 96 3d
       -0.047257774 0.1663786 -0.20842476 0.07363948
000220 b2 ff da bd 37 e5 41 3c ea 48 86 bd 29 fb c9 bd
       -0.10693301 0.011834434 -0.06556876 -0.09862358
000230 60 d3 22 3e 3a 17 a2 bc 95 0b 67 3e 59 a6 1b be
       0.15900946 -0.019786466 0.22563012 -0.15200175
000240 f7 9b 6e bd bc d5 cc 3b 4d 58 cc bd 0f a1 f9 bd
       -0.05825421 0.006251065 -0.099777795 -0.121889226
000250 6d a7 e4 3d ed a5 82 bc df ba 50 3e 63 7f 53 3e
       0.111647464 -0.01594826 0.20383786 0.20654063
000260 a3 72 4f 3d d1 52 e7 3d b1 5e fe bb ae c0 0d 3e
       0.050646435 0.11295093 -0.007762753 0.13843033
000270 8b c4 06 be 69 86 90 bd d9 0c 8d bc 8c 17 91 bd
       -0.13160913 -0.07056887 -0.01721804 -0.07084569
000280 80 e1 3d be 55 fa 92 3c 2a 6e c9 3c 53 7e dd 3c
       -0.18543053 0.017941633 0.024588663 0.027037775
000290 25 3b 86 3c 40 70 13 be d6 41 e9 bd 43 f0 1b bd
       0.016385624 -0.14398289 -0.1138951 -0.03807093
0002a0 0a 27 30 3c 34 de 3d be e3 00 5a be a9 42 00 be
       0.010751495 -0.18541795 -0.21289401 -0.12525429
0002b0 18 6c 05 3e b8 b8 87 3e fc da 47 be 2b 53 0b bd
       0.13029516 0.26508117 -0.1951713 -0.034014862
0002c0 55 9f 5a 3e a5 38 30 3d 90 19 eb bd 56 06 8c bc
       0.21349843 0.04302277 -0.11479485 -0.017092865
0002d0 c7 94 f4 3d fd b6 aa 3d e0 3e 2b 3e 6b 9d 0f be
       0.119424395 0.083356835 0.16723204 -0.14024894
0002e0 11 fe a7 bd 40 01 a5 3d fb 43 85 3d fe 0b 18 3e
       -0.08202756 0.08056879 0.06507107 0.14848325
0002f0 6c 60 3a 3d a6 a8 11 3e f2 05 df bd 8b 30 40 be
       0.04550211 0.1422449 -0.10889806 -0.18768518
000300 66 58 72 3d 63 61 bd bd 20 a3 a7 bd 86 e5 16 bd
       0.059166335 -0.09247091 -0.081854105 -0.036839984
000310 f6 fe 65 bd 5f 69 fc 3c 82 2d b9 bd 43 5e 3c be
       -0.056151353 0.030811964 -0.09041883 -0.18395333
000320 5a e3 0f 3b 98 24 00 3a 54 de 38 3e a2 ea 35 be
       0.002195558 0.00048882654 0.18053561 -0.17765287
000330 0d e1 29 3e 2c c0 49 bd c4 13 a4 bd 2b 69 17 3e
       0.16589756 -0.049255535 -0.080115825 0.14786212
000340 13 60 11 3e df 99 97 3d 87 31 a8 3a f5 e4 46 3e
       0.14196806 0.074023955 0.0012832143 0.19423278
000350 95 17 7f 3d 05 a2 f6 bd 06 94 9a 3d 01 3e 1b 3e
       0.06227835 -0.120426215 0.075477645 0.15160371
000360 7d ca 18 be a9 f8 f4 3c b3 7c 25 3d ee 2f 03 be
       -0.14920993 0.029903727 0.040402126 -0.12811252
000370 58 3c 03 3c a8 c1 d9 bd 71 26 49 bc 33 77 c9 bd
       0.008009993 -0.1063264 -0.012277232 -0.098371886
000380 40 92 44 3d 50 87 43 be 79 a6 a7 bc 29 47 06 3e
       0.047991037 -0.19094586 -0.020465123 0.13113083
000390 b5 a3 43 bd 89 00 9f bd 2e 75 de bd bc 78 10 3d
       -0.047763545 -0.07763774 -0.10862194 0.03527139
0003a0 12 69 00 be 70 16 23 bc 30 8f 46 be fc 6c 2f 3e
       -0.12540081 -0.00995408 -0.19390559 0.17131418
0003b0 d5 65 c0 bd 7b 49 9d bb cb 08 44 3e 6b a4 27 bc
       -0.09394423 -0.0048000193 0.19143979 -0.010232071
0003c0 ae 0e 95 3d 18 8b 4c 3b 29 75 df 3d c6 92 ba bd
       0.072781906 0.0031210836 0.109110184 -0.09110026
0003d0 02 14 0f 3e 4e e5 a9 3d 57 6a 12 3e a2 d6 49 be
       0.13972476 0.082956895 0.14298378 -0.19710782
0003e0 41 86 de 3d ba 63 5d bd 16 b2 05 3e 64 dc cc bd
       0.10865451 -0.054050185 0.13056216 -0.10002974
0003f0 a5 cd 34 3d b4 74 fe 3d d4 6b 40 3d 40 a1 82 3e
       0.04414143 0.12424603 0.046977833 0.2551365

cfc_model.rnn_cell.ff1.bias f4 [64]
000000 48 18 1f bd 4d d0 17 3d 54 8e 35 3c 42 0f ac 3d
       -0.038841516 0.037063885 0.011081297 0.08401348
000010 83 48 48 bd 65 b8 fa bd f1 53 4d 3c 94 b7 ac 3d
       -0.048897278 -0.12242202 0.01253222 0.08433452
000020 87 39 a9 3d c2 b7 6d bc 68 f1 aa bd a6 7a 5f 3d
       0.082629256 -0.014509143 -0.08346826 0.054560326
000030 c4 87 93 bd a6 15 c0 bb 54 3e 56 3d c0 ae 1e 3d
       -0.072036296 -0.0058619557 0.052305534 0.038740873
000040 43 47 53 bd 01 15 48 3d a4 ae 3a bc da 89 b3 bd
       -0.051581632 0.048848156 -0.011394177 -0.087665275
000050 15 64 82 3d 04 16 04 bb fb 9e 49 3c 51 6e 06 bd
       0.063667454 -0.0020154724 0.01230597 -0.03282005
000060 b1 e3 c9 bd 47 8b 73 bb c3 a6 4f bd 63 be 56 bd
       -0.09857882 -0.0037161873 -0.050696146 -0.05242766
000070 08 36 28 3d a8 63 a7 bd f1 f1 ab bd 19 fd 91 3c
       0.041067153 -0.08173305 -0.08395756 0.017820882
000080 60 73 de bd 64 9c 4d bd 0c 25 df bd 31 e0 15 bd
       -0.1086185 -0.050197974 -0.10895738 -0.03659076
000090 cf fa d0 bc b7 a6 da bd 92 75 84 3d 2b 57 a7 bd
       -0.02551022 -0.106763296 0.06467737 -0.08170923
0000a0 6f 7c de 3c ad 19 88 bc ca 9b 3b bd 16 f3 78 3d
       0.027158944 -0.016613806 -0.04580287 0.0607787
0000b0 3d 3e b1 3d 43 d4 9a 3d 5a df 7f bd ae 57 01 bd
       0.08654449 0.07560017 -0.062468864 -0.03157776
0000c0 27 68 3b bd 7f 36 51 bd 21 9a 0e bd d6 73 ff bd
       -0.045753624 -0.051077362 -0.034814958 -0.12473266
0000d0 e1 48 1b bd a9 50 2e 3d 32 9f db 3c be e3 55 3c
       -0.0379113 0.042557392 0.026809309 0.013054786
0000e0 1b fc 0f bd bd 5f f1 bc 9d 40 a0 bc d9 c6 08 bd
       -0.035152536 -0.029464597 -0.01956206 -0.03339276
0000f0 cd a9 e8 3d 7f 05 94 bd ab 14 7f 3d 90 47 89 bd
       0.11360512 -0.07227611 0.06227557 -0.067031026

h2o.weight f4 [2, 64]
000000 99 47 30 bd 05 99 09 3e 36 2c a3 bd 6c fc 02 3e
       -0.04303703 0.13437279 -0.07967417 0.12791604
000010 e0 6f b1 3d 94 07 3c be 2b c8 32 be 99 cf 0a 3d
       0.086639166 -0.18362266 -0.1745917 0.033889387
000020 59 5d 8a bd 5d 75 d5 3d e3 cb 23 be f8 60 a4 3d
       -0.06756086 0.10422776 -0.15995745 0.08026308
000030 03 53 f2 bd ae 03 68 3d 71 b1 c0 3c 66 54 84 3b
       -0.118322395 0.056644134 0.02352211 0.0040383814
000040 94 d9 a2 bd 2c e9 be 3d 36 41 05 3e 10 cd 48 3d
       -0.07951656 0.09321818 0.13013157 0.049023688
000050 db de 77 bd 68 09 e9 bd 4c 2c 2c bc 83 3f 8f bc
       -0.060515266 -0.11378747 -0.010508608 -0.01748634
000060 f9 a7 08 3e 60 ea 60 3d f3 be b0 3d fd 05 0e be
       0.13345326 0.054911017 0.08630171 -0.13869472
000070 74 b5 6b 3d 01 8d 3a bd 90 7f 41 bd 9a 5f 4f 3d
       0.057546094 -0.045544628 -0.047240794 0.050628282
000080 8a 96 48 3e ac fb d5 3d 62 b7 a2 3d 1c 52 20 be
       0.19588676 0.10448393 0.07945134 -0.15656322
000090 3f 06 a8 3d 4f e9 0f 3e e9 4d b7 bd e3 69 ca bb
       0.08204316 0.14053844 -0.08950407 -0.0061771735
0000a0 41 94 0a bd 07 d7 ab 3d b8 3c 02 bd 98 2c ef 3d
       -0.033832792 0.083906226 -0.031796187 0.116784275
0000b0 63 e7 ac 3d 17 a7 c7 3d 5f 0b 73 bd bb 0f 9a bd
       0.08442571 0.09748667 -0.059337016 -0.075225316
0000c0 48 73 83 bd 6e 8c 46 bd 32 03 e7 3c 5a 08 02 3e
       -0.064184725 -0.048473768 0.028199766 0.12698498
0000d0 77 c7 df 3d cd 27 58 be 55 3d c7 3b e7 7e 47 be
       0.10926717 -0.21108933 0.0060803094 -0.19482003
0000e0 5e 41 14 3d cb d8 04 be 56 b7 97 3d ab 7b 3f 3d
       0.03619515 -0.12973325 0.074080154 0.0467488
0000f0 ee 52 07 be 17 31 2b 3d 88 ef 07 be 75 9b a7 3c
       -0.13215229 0.041794863 -0.13274968 0.02045987
000100 64 6b 36 3d 76 43 a0 bd 96 90 dc bd 76 21 18 be
       0.04453601 -0.07825367 -0.10769765 -0.14856514
000110 16 5f 04 be 9b 9a 5a 3e fa 6e f1 3d bb b0 07 bd
       -0.12926897 0.2134804 0.11788745 -0.033127528
000120 3e bc 86 bd 68 66 39 3d fa 92 a9 3d ce e6 a3 bc
       -0.06578873 0.045263678 0.08279987 -0.020007517
000130 e5 97 c8 bd 36 77 6b 3c 66 ba 7d 3d 16 d5 25 bd
       -0.097945966 0.014371684 0.06194534 -0.040486418
000140 1a 8e 63 3d c8 fc 18 be 5f 1f 00 be 20 11 55 be
       0.05555544 -0.14940178 -0.12511967 -0.20807314
000150 6b 0f 37 bd ff 76 f3 3c f7 27 92 3d 25 27 17 bc
       -0.044692438 0.029719828 0.07136529 -0.009225641
000160 76 bc 31 bc 8f a0 1d be 54 f3 43 bd 0b 99 9a bd
       -0.010848155 -0.1539328 -0.047839478 -0.07548722
000170 c3 1e b2 3c 25 28 2b bd 4a 33 c3 3d a9 f3 01 3e
       0.021743184 -0.04178633 0.09531267 0.12690605
000180 eb ba 0d bc 01 6a a3 3d e0 50 af bd d1 b9 3e 3e
       -0.008650522 0.07979203 -0.085603476 0.18625571
000190 92 4a 37 3d dd 26 44 3c 3e e0 f3 bc 99 bb 2d be
       0.04474885 0.011972156 -0.029770013 -0.16966094
0001a0 ff ef f6 3d 12 c2 d3 3d 6e 0a 7f 3d f0 38 e5 bd
       0.12057494 0.1033975 0.062265806 -0.111925006
0001b0 37 a2 93 3d da 38 ff bd c4 9b b7 bd dd 71 60 3d
       0.072086744 -0.124620155 -0.08965257 0.05479609
0001c0 f9 ed d4 bd 6c 0e c6 3d c8 88 26 be 42 12 17 bd
       -0.10396952 0.096707195 -0.16263115 -0.036882646
0001d0 36 f8 f9 bd cf 5f 3d 3e 5b 64 c4 bd 78 05 6e 3e
       -0.122055456 0.1849358 -0.09589454 0.23244274
0001e0 51 35 8f 3c 40 65 2f 3c f3 f6 e5 3d 4c 87 9f 3d
       0.017481478 0.010705292 0.112287425 0.07789478
0001f0 dc 39 b4 3d f6 1b f5 3d 7c e0 a2 bd 84 6c c5 3d
       0.08800098 0.11968224 -0.07952973 0.09639838

h2o.bias f4 [2]
000000 c6 18 0e 3e 2c 8c 8c b9
       0.13876638 -0.00026807317

h2v.weight f4 [1, 64]
000000 14 2d 48 3d e4 fd 5f 3d 00 dc 56 3a a0 22 f4 bd
       0.048871115 0.05468549 0.00081962347 -0.11920667
000010 d2 e3 f5 3d ac 3c 9f bd f4 01 f0 3d 8a 70 da 3d
       0.12006344 -0.07775244 0.117191225 0.106659964
000020 74 04 61 bd 98 13 fd 3c e2 64 fe bd c8 df 3c 3d
       -0.054935887 0.030893132 -0.124215856 0.046111852
000030 04 bc 38 3d 00 56 b0 39 d4 c0 78 bd 20 d5 31 bc
       0.04510118 0.0003363341 -0.06073077 -0.010854036
000040 60 5b cb 3c 14 08 a1 bd 10 dd 0a 3d d4 96 cd 3d
       0.024823844 -0.07862869 0.033902228 0.10038534
000050 c0 43 58 3b 48 c9 05 3d e6 3e db 3d 90 53 5e bd
       0.0032999367 0.03266266 0.10705356 -0.05427891
000060 cc 4f 8c bd c0 8e 96 3d ba 01 f1 bd 4c 64 8f 3d
       -0.068511575 0.07351446 -0.117679074 0.07001552
000070 a2 0c a1 bd d8 9b 13 3d 1c 12 19 3d 64 75 03 3d
       -0.07863738 0.036037296 0.037370786 0.032094374
000080 94 e7 7c bd a0 b9 fb 3b 04 5e 63 bd 60 ec ee 3b
       -0.061744288 0.0076820403 -0.055509582 0.0072913617
000090 f8 6d 5e 3d 8c 58 e7 3d f0 b2 ad bc 14 25 15 3d
       0.054304093 0.11296186 -0.021203488 0.036412314
0000a0 68 36 88 3d 30 46 ac 3c 68 db b5 3c b8 44 dc bc
       0.06651002 0.021029562 0.022199348 -0.026888236
0000b0 08 ed 6a 3d 20 54 05 bc ea 95 e3 bd ca d1 8b 3d
       0.057354957 -0.008137733 -0.11112578 0.068271235
0000c0 e0 6d b8 3b 9c e9 1e 3d d8 07 a0 3c 7e ff f7 3d
       0.0056283325 0.038797006 0.01953499 0.12109278
0000d0 b0 f4 85 bd 18 9c 95 bd fa 77 c9 3d 18 6f e9 3c
       -0.06540811 -0.07305163 0.09837337 0.028495356
0000e0 08 90 a4 3c 48 15 1b bd b0 24 6d bd e0 ce 39 3d
       0.02008821 -0.037862092 -0.057896316 0.045363307
0000f0 90 57 ce bd 2e 45 92 3d d8 7f 06 bd 08 10 ca 3d
       -0.10075295 0.07142101 -0.032836765 0.09866339
