LTC_A2C/adaptation_module/training_results/adaptation_module_StandardRNN_result_9_2024321_CfC_result_296_202437_numneuronsadaptmod_64_lradaptmod_0.0001_wdadaptmod_0.0/best_adaptation_module_loss_CfC_A2C_8.pt (torch, 29492 bytes, 6 tensors)

rnn.weight_ih_l0 f4 [64, 5]
00000000: fa6b 933d 956e a6bd f462 c33d 6e8d 703d
00000010: a524 b73d 8594 d3bd 5921 c2bd 04c5 5d3d
00000020: 3b67 dcbd a549 d13d 75af 5b3c 74f3 133c
00000030: a850 dfbd 5266 1b3d 4df4 0b3d 0bd4 5a3c
00000040: ecd3 de3d 780e 163d 2dcc c7bd 0dd5 ba3d
00000050: fdd2 693d 6a20 38bd b5af cbbd 4965 663d
00000060: d517 023e 1fe0 c2bd 9b94 923c 731c 653d
00000070: bfb3 79bd cd1b 43bd d65c 9fbd 1c81 4bbd
00000080: 2e6d f0bd 3f6a 6ebc af55 bb3d 76bc 5b3d
00000090: 4912 df3d 072a dcbd 7097 c0bb d587 d73d
000000a0: 4876 893c 2293 0cbd dd60 f6bd bb1b 4f3d
000000b0: 2a05 cf3d 38ef b03d dcd6 b63d 1ef2 5c3c
000000c0: 86b8 c73d 195d 38bc 760c db3d b63e 9d3a
000000d0: d040 11bd 66c8 95bd e63b af3d 103d 433d
000000e0: b88d 843d d96b a7bd 1b45 68bd ec21 ca3d
000000f0: 3bab 92bd 65ea a0bd e60f 11bd c9ca f2bc
00000100: 3877 d9bd c337 cb3d 259f be3b d376 8a3d
00000110: dcd9 ce3d 3f35 60bd 94d4 cf3d 132f 45bd
00000120: 3173 f6bc 3f54 a63d 6e9f 083e b81b bf3d
00000130: 76bb 443d 0a5e d23d 707a 05bd b19a f4b9
00000140: f609 59bd 89af a9bc f7c9 a9bc 486d 9c3d
00000150: 3d70 8c3d fa84 a0bd e3cc 5fbd 1225 febc
00000160: ef78 16bb 6b25 39bd 8750 89bd ab91 c1bc
00000170: 5581 57bd ea72 c03c d527 a4bd 52ff 91bc
00000180: 61a0 06bd 7b45 e9bc be6a b23d ee58 d13d
00000190: e5c2 d1bc f6b5 cabd 1942 aebd 3108 dbbd
000001a0: 3c3f 0e3c 025f 46bd d9b8 a2bd b3e4 1b3d
000001b0: 607d da3b d6de 25bd d0bf 11bd 2aa8 c53d
000001c0: a143 04be 933d b33c b2c3 983d edf9 c43d
000001d0: dd90 cebd d9bf a4bc a1e0 d83d 8181 0c3d
000001e0: 4011 1d3d f33c 30bd 9096 c53d 353f 77bd
000001f0: 54b4 a9bd 9b00 cb3d 1dde 933c 7967 e33a
00000200: dc73 99bd 7c04 44bd ad43 a7bd c1f0 8dbd
00000210: 271f 8cbc c46e 433c 0548 abbd 6dc8 c33d
00000220: 48d5 993d 9744 0fbe 0595 b43d 414c adbd
00000230: ed81 b9bd 841b d13d ca29 50bd 6852 c6bc
00000240: 699e 013d 6ad1 633d 59eb e939 ddf4 02bd
00000250: 2654 9b3c 8487 a8bd 6349 b5bd 458c 123d
00000260: 027a b83c 7254 7f3d 2e70 87bd 288b efbd
00000270: 18c6 05bd c953 f7bd 2a41 ffbb 98c6 a13d
00000280: 2a8f b73c 26fd 9c3d 57f2 4f3c e2e8 2a3d
00000290: ab03 073e f9ee c13b e539 1e3c 427c 83bd
000002a0: 341a 7d3d 66b2 c13d 8104 9fbd 4f1d df3d
000002b0: 0e86 003d 57fb 85ba 644d c0bd 7bd4 f7bd
000002c0: fc4e acbd 1484 bebd 459a bdbd 1f69 6bbd
000002d0: 696b d8bd acde bbbd 1ac8 93bc c39c f5bd
000002e0: e22b fabc 76c1 cd3c e812 af3c 12ad a53d
000002f0: 76f6 8e3d 19d6 5fbd b28e 2bbd 1fe9 7a3a
00000300: 6907 ef3d 8955 903d e003 b4bd 80bb 7cbc
00000310: df44 ec3b 29f5 563d b19c 0dbd 483b 02be
00000320: fcc6 8cbd bf26 063c 3a69 bcbd 2425 1a3d
00000330: f2f9 b73d 8531 ac3b b048 903d 9280 ce3d
00000340: e045 a33d d022 08be 0b1f f03d 60ae 163d
00000350: 1c14 f6bd 4a96 b83c 0640 89bd 9dfc f03d
00000360: ab5e ab3d 4652 b9bd 46b9 9bbd e4b2 ea3c
00000370: 4081 abba 31a8 5b3d 9059 b2bd 38d4 d83d
00000380: 2fa2 b53c 43fe 303c d9af 86bd 9dea 913b
00000390: 0d51 933d e31b 103e 13ac a9bd 1196 13bd
000003a0: 9f76 eb3c 12ea 713d aa5e fcbd 6d10 41bd
000003b0: 2a35 bbbd 030d ec3d c87e 68bd d86e 793d
000003c0: ed5a 803d 35de b53c cfcf bf3c 7d13 823d
000003d0: 6327 b9bc 0140 813d 14ea fcbc f105 10bb
000003e0: ca5f 633d 75ee d2bd 3e3b 86bd e580 d1bd
000003f0: 9b83 dcbc 8a0f 07bb eb3d ef3c 07a6 afbd
0.07198329 -0.081265606 0.09540358 0.058728628 0.08942536 -0.10331062 -0.09479017 0.054142967
-0.10761877 0.10219125 0.013408531 0.009030212 -0.10904056 0.037939377 0.03416853 0.013356219
0.10880265 0.036634892 -0.0975574 0.091226675 0.05708598 -0.044952787 -0.09945623 0.056248937
0.12704404 -0.09515404 0.017893126 0.055935334 -0.060962435 -0.047633935 -0.07781379 -0.049683675
-0.117395744 -0.014551698 0.09147202 0.053646527 0.108921595 -0.107502036 -0.0058774278 0.10523955
0.016780034 -0.034320004 -0.12030194 0.050563555 0.10108407 0.08639377 0.089277 0.01348546
0.09751992 -0.011252665 0.10695736 0.0011996839 -0.0354622 -0.073136136 0.085563466 0.047665656
0.06472343 -0.08174867 -0.05670653 0.09869751 -0.07161566 -0.07857207 -0.035415553 -0.029637711
-0.10618442 0.09922745 0.0058173114 0.06760945 0.10100147 -0.05473828 0.10147968 -0.048140597
-0.030084224 0.081215374 0.13342068 0.09331459 0.04803034 0.10271843 -0.03258747 -0.0004665456
-0.052988015 -0.020713584 -0.020726187 0.07638031 0.06857345 -0.07837863 -0.054638755 -0.031023536
-0.0022960266 -0.0452017 -0.067048125 -0.02362903 -0.052613575 0.023492295 -0.0801541 -0.017821942
-0.032867793 -0.028475514 0.08711766 0.1022204 -0.025605628 -0.098979875 -0.08508701 -0.10694922
0.008682068 -0.04843045 -0.07945413 0.0380599 0.006667778 -0.040495716 -0.035583317 0.096512154
-0.12916423 0.021879947 0.07459201 0.09617982 -0.10086224 -0.020111011 0.105897196 0.034303192
0.03834653 -0.043026876 0.09647858 -0.060363013 -0.08286348 0.09912225 0.018050248 0.0017349563
-0.074928015 -0.04785584 -0.08167205 -0.06930686 -0.017104698 0.011928264 -0.08363346 0.095597126
0.07511383 -0.13991009 0.08817486 -0.0846181 -0.090579845 0.10210326 -0.050821103 -0.024209216
0.031645212 0.055619635 0.0004461657 -0.0319718 0.018961024 -0.082289726 -0.08851888 0.035778303
0.022519115 0.062336393 -0.066131935 -0.11696464 -0.03265962 -0.120765276 -0.0077897506 0.07899207
0.022407133 0.07665472 0.012692056 0.041726 0.13184993 0.0059183803 0.009657358 -0.06420185
0.061792567 0.09457855 -0.07764531 0.10894262 0.031377845 -0.0010222 -0.09389761 -0.12101074
-0.084135026 -0.09302536 -0.0925794 -0.0574733 -0.10567362 -0.09173331 -0.018039752 -0.119927905
-0.030538503 0.025116663 0.02137132 0.08089651 0.069806024 -0.05464754 -0.04188413 0.0009571481
0.11671335 0.070475645 -0.087898016 -0.015425563 0.0072103585 0.052479897 -0.03457326 -0.12717927
-0.06873891 0.008187949 -0.09199758 0.037633076 0.0898322 0.0052549266 0.07045114 0.100831166
0.07972312 -0.1329453 0.11724671 0.03678739 -0.12015554 0.0225326 -0.067016646 0.11766932
0.08367666 -0.090488955 -0.076036975 0.028649755 -0.0013084784 0.053627197 -0.08708489 0.105873525
0.022172062 0.010802808 -0.06576509 0.004453017 0.071931936 0.14073138 -0.08284774 -0.036031786
0.028743086 0.059061117 -0.12322743 -0.047134805 -0.091409996 0.11525919 -0.056761533 0.060896724
0.06267343 0.022200683 0.02341452 0.06351373 -0.022601789 0.06311036 -0.030873336 -0.0021976198
0.055511273 -0.10299388 -0.06554268 -0.10229663 -0.026918223 -0.0020608627 0.02920433 -0.08576589

rnn.weight_hh_l0 f4 [64, 64]
00000000: 9e74 9f3c 2f68 a8bc a380 82bd 3978 073e
00000010: 9560 f5bd ce48 59bd 6b8f d23d 00b1 99bd
00000020: 729a f4bd 182e 843d 8239 d53d 4a95 d83d
00000030: cb9a 8fbd 0c27 12be fe2e 01be ab81 2a3c
00000040: 6c6a 4f3d f1e8 0b3c 3ad8 1d3d fc7e 92bd
00000050: 3cf7 9ebc a010 d33d abb7 19bd 8ffc dbbd
00000060: 8f4c fa3d c2ff c93d aed5 cb3d 9b44 ec3d
00000070: 113e 7cbc f1f0 a03d 475c 0f3d 58ea bb3c
00000080: 95ae 45bc 7965 773d 4f80 5dbd 8962 313b
00000090: dc8e aa3d e3df 013d 3a9c ee3d 486e 87bc
000000a0: 641a 1fbd 0286 91bd fa41 90bd 8ace 08be
000000b0: fc86 c33d 10af d6bd 33e1 e5bc 2c02 683d
000000c0: 8a39 de3d 4d2b ab3d a7c1 033e f150 afbc
000000d0: f35a 1cbd c98e dfbd fd5e 9a3b d429 713d
000000e0: c192 f43b b34d b03d 5a99 ebbc 9202 f53c
000000f0: 9ddf febd b7f3 573c 2532 ad3c 4fd2 78bd
00000100: b1b9 503d 2951 cfbd c27b f63d b21b c0bd
00000110: 967b 8c3d 8ffa 6bbc 9224 11be 5c50 f5bb
00000120: d403 493d 9320 d2bc 6e99 e4bd cf37 78bd
00000130: 1d04 f23d 5cd5 07be 0965 aebd 9c56 d7bd
00000140: 084e bdbd 2b3e 053e ab20 7ebd 92b6 bdbc
00000150: 690f 4bbd b856 cebd 1cc9 b9bc d247 00be
00000160: 082a 57bd 06eb e83d 94a7 dbbd 92df 993d
00000170: 9f33 73bd 77a8 803d e2e7 fb39 02e3 533d
00000180: 263a ac3d f2eb ce3d d44f 923d 2617 cbbc
00000190: 391c c93d 863b e0bd e94e bebd d24d 063e
000001a0: 3aab 1fbd 3b65 ef3d f347 3a3d d404 52bd
000001b0: eb28 38bd 14b1 34bd 3eb0 a6bd bc5b f33d
000001c0: fb50 39bd 7521 2d3d 7583 103e b1a6 ffbd
000001d0: 33b2 5cbd ea3e 003e 5b97 13bd 7550 b6bd
000001e0: 92d3 663d a315 e13d f9ba d5bd f59e f03d
000001f0: f73d cc3d dc32 cf3d 46ca 4a3d a463 82bc
00000200: 89b4 683d 03fa e5bc 4e5f 2c3d a317 1dbd
00000210: 3daf 953d 9948 a9bc cd3c b4bd 1e65 09bc
00000220: 467f 103c 30fe 1cbb 7b53 c5bd 289a 5cbd
00000230: dba2 a0bd 7a17 9abd 1532 03bd a6c7 d23d
00000240: 2e6d 22bd ee07 513c dd37 8ebd ba53 a6bd
00000250: 9e4a bebd e160 ffbd 84d6 afbd 723f 16bd
00000260: de3c 363d b6f7 8d3d a65d eabd a666 c9bd
00000270: 3c6f babd 9551 4cbd e9f8 34bd b8d3 353d
00000280: c770 833b b757 7bbc 67dc e3bd 021e 70bd
00000290: 2ead 033e 978f 01be 89e2 a03c 6b2f b5bd
000002a0: 9ffc 13be 5cb9 123d fe1a 83bd 289b 11be
000002b0: 0d77 e0bd d82f b73d 744a 13bd 01c2 ed3d
000002c0: f54e 123e 246d 9dbd ab32 c73b 8e39 a43d
000002d0: 113f 99bc e6d8 893d 3436 c43d 9ba9 c5bd
000002e0: 6f92 453d 57b2 113e 4f26 92bd 70b5 c8bd
000002f0: 1243 b3bd dff0 c6bd ebd5 b5bb 6262 10bc
00000300: ab30 9a3d 546c 2b3d 6120 e63d 4b47 8abd
00000310: 51f5 ffbb f6e4 c9bc 8ca6 d63c f22c 94bd
00000320: 2dfd debd 3a33 16bc 1ecd a0bd 81a1 9f3d
00000330: e109 c43d d850 a0bd 7e19 57bd 6d32 5fbb
00000340: 9ba4 16bd acd1 743c 4391 d8bd 0b3b 8a3d
00000350: dcfb 953d baae 223d 2c52 e03d 5d85 433b
00000360: d076 5fbd 442f 52bd acc5 01bd fbfa 093e
00000370: 3a34 8e3a f328 763d 5ce6 07bd 68c6 363d
00000380: 94b9 d03d adb5 ebbd 5a4c 0bbe 6851 c1bc
00000390: 54a9 52bd 9783 e2bd 25fb 5d3d e4f5 59bd
000003a0: 0b08 c33d a5eb 8bbb b009 06bd 445b 9b3d
000003b0: 5263 84bd a638 c7bd f91f 013d ae06 b33d
000003c0: 527a 40bd aa9e c3bd a664 afbd 8b9c 0abe
000003d0: 55dd db3d cd0f c5bb 370d be3c 3364 68bc
000003e0: 248a dc3d 2d98 7a3d 8be4 403d 6f6f 033d
000003f0: dbd3 d03c 00c7 623d 4695 e6bd abe9 b63d
0.019464787 -0.020557491 -0.06372192 0.13229455 -0.11981312 -0.053047948 0.10281261 -0.07504463
-0.119435206 0.06454104 0.10411359 0.1057535 -0.07011946 -0.14272708 -0.12615582 0.010406892
0.0506386 0.008539424 0.038536288 -0.071531266 -0.019405 0.10305905 -0.037528675 -0.10741531
0.12221634 0.09863235 0.099528655 0.11536523 -0.015395657 0.07858456 0.035000112 0.022938892
-0.012065549 0.060399506 -0.054077443 0.0027066788 0.083280295 0.031707656 0.116508916 -0.016532078
-0.038843527 -0.07105638 -0.07043834 -0.13360038 0.095472306 -0.10482609 -0.028061485 0.056642696
0.108508185 0.08357868 0.12866841 -0.0214009 -0.038172673 -0.10915906 0.0047110305 0.05887778
0.0074637835 0.0860857 -0.028759647 0.029908452 -0.124449946 0.013180665 0.021142075 -0.06074744
0.05095834 -0.10122902 0.12035324 -0.093802825 0.0685951 -0.014403 -0.14174107 -0.007486386
0.049075916 -0.025650298 -0.11162077 -0.0606001 0.11817191 -0.13264984 -0.08515365 -0.10514566
-0.09243399 0.13011996 -0.062042873 -0.023158345 -0.049575243 -0.10075134 -0.022678904 -0.12527397
-0.05253032 0.11372952 -0.10725322 0.07513346 -0.0593754 0.06282132 0.00048047217 0.051730163
0.084095284 0.10103597 0.07144132 -0.024791311 0.09819836 -0.10948853 -0.09292395 0.13115624
-0.038981654 0.1168923 0.045478772 -0.051274136 -0.044960897 -0.044114187 -0.08139084 0.11882731
-0.045243245 0.042268235 0.14112647 -0.12482966 -0.05388088 0.12524 -0.036033016 -0.08902065
0.056354113 0.10990455 -0.10436053 0.11749069 0.09972756 0.101171225 0.04950931 -0.015916653
0.056812797 -0.028073316 0.042083077 -0.03835262 0.07308815 -0.0206645 -0.08800659 -0.008385925
0.008819407 -0.0023955218 -0.09635063 -0.053857952 -0.07843562 -0.07524009 -0.032030184 0.10291986
-0.039654903 0.012758238 -0.06944249 -0.08121438 -0.09291576 -0.1246965 -0.085858375 -0.0366816
0.04449164 0.06932013 -0.11443643 -0.09834032 -0.091032475 -0.04988249 -0.04418269 0.044391364
0.004011247 -0.015340737 -0.11126023 -0.058622368 0.12859032 -0.12652431 0.01963927 -0.08846935
-0.14451836 0.035821304 -0.06401633 -0.14219344 -0.10960207 0.08944672 -0.035959676 0.11609269
0.14287932 -0.076868325 0.006079038 0.0801879 -0.01870683 0.06730823 0.09580651 -0.0965149
0.048235353 0.14228188 -0.07136213 -0.098002315 -0.08753027 -0.09713911 -0.0055491826 -0.008812519
0.07528814 0.041851357 0.112366445 -0.06751879 -0.0078112264 -0.02464531 0.026202463 -0.07235135
-0.10888133 -0.009167487 -0.07851623 0.07794476 0.09572197 -0.0782792 -0.052514546 -0.0034057156
-0.036778074 0.014942568 -0.105745815 0.06749543 0.07323429 0.039717413 0.10953173 0.002983413
-0.054556668 -0.051314607 -0.031682655 0.13474648 0.0010849305 0.060097646 -0.033178672 0.04462281
0.10191646 -0.11509261 -0.13603345 -0.023598388 -0.051431015 -0.11060255 0.05419459 -0.053213015
0.095230184 -0.0042700344 -0.032724082 0.07585767 -0.06464256 -0.09727602 0.031524632 0.087415084
-0.046991654 -0.09551747 -0.08564119 -0.13536279 0.10735575 -0.0060138465 0.02319966 -0.014184046
0.10768536 0.061180282 0.047092956 0.032088693 0.025491646 0.055365562 -0.112589404 0.089312874

rnn.bias_ih_l0 f4 [64]
00000000: ee98 3e3d 293e 84bd 058d 87bd 0cd5 87bb
00000010: b738 92bd 405a a5bd c9a0 f53d 760e c0bd
00000020: 57fe c23d 4b2a d0bc 9b9b febb aec7 92bd
00000030: 70d1 fb3c b8d9 47bd 152d 073d ece5 96bd
00000040: 83a7 5fbc ca1e d1bd cf13 d3bd 3f4c 27bd
00000050: 7d7c f93c 204a a23d 437e 85bd 46f5 b83d
00000060: bde8 95bc bb53 d5bd 0117 023e b0a0 943d
00000070: 5976 26bd 6ed6 f3bc ff93 04be 6bd5 d93d
00000080: 03d3 843d 3651 9e3d a72b 063e bcf1 a43d
00000090: cffd 013d 1bec d63b 943b 93bd f4f7 24bd
000000a0: d059 133d 8068 a6bd c7e1 603d 7809 793d
000000b0: 738d 7b3d 9150 b43c 8174 8abd e452 44bd
000000c0: c2b3 b4bd b0f2 b3bd a766 13bc 55fc c53d
000000d0: 75fe b03d b073 7b3d 2bb2 b23d ea6a bfbc
000000e0: bcba 883c 2224 ceba fffc f63d 4ecd 8dbd
000000f0: f0fc 36bd 0c90 af3c f280 fd3d 23c8 93bd
0.046532564 -0.064571686 -0.06618694 -0.00414527 -0.07139724 -0.080738544 0.11993558 -0.09377758
0.09521168 -0.025410792 -0.0077700145 -0.07166992 0.030739516 -0.048791617 0.033001978 -0.07368073
-0.013650778 -0.10210951 -0.103065126 -0.0408442 0.030454868 0.079242945 -0.06518223 0.09031157
-0.018299455 -0.10416361 0.12704088 0.07257211 -0.04064021 -0.029765334 -0.12947081 0.10636409
0.0648556 0.077303335 0.1310259 0.0805392 0.03173619 0.0065589077 -0.07189098 -0.04027553
0.035974324 -0.081254005 0.054902818 0.060800046 0.061414193 0.022011073 -0.067605026 -0.047930613
-0.088233486 -0.08786523 -0.008996642 0.09667269 0.08642284 0.061389625 0.08725389 -0.02336641
0.016690604 -0.0015727321 0.12059974 -0.069239244 -0.044674814 0.021430992 0.1237811 -0.072159074

rnn.bias_hh_l0 f4 [64]
00000000: 9c6f bc3d 7749 943d bb8d ea3b 1ec0 06be
00000010: 8736 313d f31b 673d 7727 12bd ba20 a93d
00000020: 255a 28bc 78bc 5d3d 64c4 ce3c f29a e0bd
00000030: fdd3 74bd 5f9b bd3d 16f9 893d 4278 5bbd
00000040: 5766 86bd 3b62 4a3b 83bd bc3d 82dc 8b3d
00000050: d58d d93c 9e26 6c3a 43af 183b 2465 ce3d
00000060: 0d0a ebbd 9508 0cbe 0330 8ebd 40ab 98bc
00000070: 41a8 9b3d f355 b3bd 86d7 dd3c 3bb8 303d
00000080: 0c9c cfbc 8ab2 ff3b ff8f 2a3c 7056 d5bd
00000090: 8ba8 debc 7888 b63d 90db 95bd b384 00bd
000000a0: d570 af3d e507 7cbd 9841 ec3d b7fc 8a3d
000000b0: b90e dc3c 6fa4 233d d2ef 32bc 38df 90bd
000000c0: f2aa 8f3c 9fda 123d e647 a7bd 8f85 f73d
000000d0: 4f1a cbbd 5a3c bfbd e76a 103d 9348 d7bd
000000e0: ef87 10be 2b5c dabd de22 08bc 9a73 9d3b
000000f0: b8ea 093e 37ca f8bc 46f0 96bc 1995 d83d
0.09200975 0.07240575 0.007158009 -0.13159224 0.043264892 0.05642314 -0.035682168 0.08258195
-0.010275398 0.054134816 0.02524013 -0.109670535 -0.05977248 0.0925815 0.067369625 -0.053581484
-0.065624885 0.0030881304 0.09215834 0.06829168 0.026556889 0.000900844 0.0023297823 0.10077885
-0.114765264 -0.13675149 -0.06942751 -0.018636346 0.07600451 -0.08756628 0.027080309 0.043144446
-0.025342964 0.007803266 0.010410308 -0.10416877 -0.027179977 0.08912748 -0.07317269 -0.03137655
0.08566443 -0.061530966 0.115359485 0.06786483 0.026862489 0.039951738 -0.010921435 -0.070738256
0.017537568 0.035853025 -0.081680104 0.12086021 -0.09917127 -0.09337683 0.0352582 -0.10511889
-0.14114355 -0.10662111 -0.008309094 0.0048050405 0.13468444 -0.030369861 -0.018425118 0.10575313

linear.weight f4 [32, 64]
00000000: c9f5 573d 2a91 b6bd 5ece bcbd 0c11 01bd
00000010: 851d ef3c 1a2e 9a3c 23f1 df3d 893a a93d
00000020: 709c b23c b441 c93d 5cbb 79bd 5e21 30bd
00000030: 59fa a0bd 7bb1 a63c caf7 663d b525 973d
00000040: cc4f d8bd 6e40 113c 6aca 8d3d b5e5 97bd
00000050: 05e2 0fbd 20b6 e9bc 41e0 583d c6e5 d1bd
00000060: 6884 9ebc 90ef 07be 18f2 d03b acc7 b5bc
00000070: 5107 84bd 05f9 2f3d e57f d6bd 87c1 48bb
00000080: e182 283d 418c abbd 0a29 e83c 7c22 09be
00000090: b008 b23d dbac 153d f4d7 a5bc 8260 9bbd
000000a0: 4f27 69bd d655 e33d a113 8a3d 9f50 123d
000000b0: 1676 aabd d94c 2c3d 8174 3bbd 2f53 28bd
000000c0: 2be3 6dbd 157f 8e3d 54d6 8e3d dab9 c5bd
000000d0: a3ae b1bd b1f7 49bd 623e 9f3c 1ed2 9e3d
000000e0: 4077 23bd 5dee 88bd 2d23 963c 826f bf3c
000000f0: 1002 033e 8fbf 513d fbd8 1e3d cbaf acbc
00000100: a1b7 823d 9d05 97bd 0816 98bd 7d47 413d
00000110: 2ffe d93d 4f7f c73d dcd0 bbbd cd26 d8bc
00000120: 5eed ae3d ab71 d93c 04cd ffbc 8472 843d
00000130: c76c 933d b172 d43d 7bdd 78bd 09dd 0d3e
00000140: 0c41 91bc 39bf 8abd 7cee cdbc aead fcbd
00000150: 1a09 c8bd 49b3 22bd 64c3 2bbd c0f6 69bd
00000160: 75ae e4bb 5ee7 113c 855f d4bd 42fe ef3c
00000170: 0ee9 30bd 463f 0a3d b046 88bd 4081 553d
00000180: 62db 31bd 2f82 2f3d 4420 e7bd 8484 b63d
00000190: 742a 98bd 7a29 8ebd 50ca bbbc 2a8e 90bd
000001a0: a670 3d3c 8b6a a93d c376 a23d 890c d7bd
000001b0: b779 c7bd c85c 37bd 1014 95bd b27a 6c3d
000001c0: 9de9 243d 908c 343d ad8b 923c 12f0 f8bc
000001d0: bd4b f7bc e65b 8b3d 36e0 fbbd 914b 843d
000001e0: 6e3e b93c 5596 0f3d ce71 c33d 3b0b 9c3d
000001f0: c425 95bd df08 093d 0ee9 eebd cc0a c1bd
00000200: 8032 8ebd 2f58 ff3c 2b8b 8bbd 0eb7 c03d
00000210: 8887 2bbd a951 88bd 555f 6abd 2b31 ec3d
00000220: 8978 e13b e587 07be 41fe 103d 125b 653d
00000230: 5a46 33bc db61 f1bd 1a01 8ebd 8a72 c93d
00000240: 3f25 eb3d 4243 093d 9a4c fbbd 784e 673c
00000250: 4d98 b73d 4ee7 fabd c41f 563d b38d 7b3d
00000260: 4d87 053e c6f3 b6bb 8a83 81bd 52bc bcbd
00000270: e1ed 04bd a8ae febc 76ed 09bd 248f 82bc
00000280: 0ced dcbd 475f bfbd 8bb6 b4bd b2e6 f53d
00000290: c87f 0bbd 7ee1 4ebd de5e a63c c319 5f3d
000002a0: 02a6 f3bd cb1a cf3d b5a3 893d 02e9 403c
000002b0: 4006 873d 5b51 e03b 0712 46bd 2727 d33d
000002c0: 58f2 debd 56fe 3fbd fa4b f53d 7598 de3d
000002d0: e674 7abc 7967 033e dcf3 e6bd cfa9 adbd
000002e0: 9fbd 733d 736f ab3c 6bd6 cbbd 8a4c 453d
000002f0: f406 9d3a fb73 1b3d 0c4d 8bbb 24a3 bebd
00000300: d147 f23c 8df0 d9bd c12d 97bc 99ad 80bd
00000310: 83f5 cb3d 3c02 27bd cbec 13bc ff02 11bc
00000320: b3cb a7bd 8431 c7bd 4043 003e 8d37 77bd
00000330: d11a 99bd d489 2dbc 4743 b8bd 51dc af3d
00000340: fb17 5b3c f442 373d d894 a23d 0b89 8a3b
00000350: 73e9 f63d dff7 4fbd 1cf4 b7bd 2170 50bd
00000360: aeb9 a43d cef5 debd c464 a23d 8b48 a53d
00000370: 4de5 8d3d 3035 04be cee4 f2bc ded0 e33d
00000380: 8217 d8bd 7529 dbbd 56db c1bd a237 59bd
00000390: ed8c 9fbd 13e4 b63d 7153 973d 2839 943d
000003a0: 7eb3 9dbd 86fe 12bd 1e2a 1e3d e8cb b3bc
000003b0: ac69 b5bd ef51 ef3d 61f8 debd 6438 09be
000003c0: 61e6 7c3d b9a4 ca3d 10f8 c3bd 497a 9c3d
000003d0: 0394 813c c2af 86bd 59bf 3dbd f82f 3cbd
000003e0: 31a9 c03d 14b0 333d 7cde 8aba 66a1 c83a
000003f0: 6532 a23d 17eb 60bc 7428 963d 4423 0c3e
0.052724633 -0.089144066 -0.09219049 -0.031510398 0.02918888 0.018820811 0.10934665 0.08263118
0.02180311 0.09826985 -0.060969695 -0.04300057 -0.0786025 0.020348301 0.056388654 0.07380239
-0.10562095 0.008865459 0.06923373 -0.0741686 -0.03512766 -0.028529227 0.05294824 -0.10248904
-0.019350246 -0.1327498 0.006376516 -0.022189938 -0.06446708 0.042962093 -0.10473613 -0.003063293
0.04114044 -0.08376361 0.028339881 -0.13392061 0.08693063 0.0365418 -0.020244576 -0.07586767
-0.056922253 0.11100356 0.06742025 0.035721418 -0.08323304 0.042065475 -0.045765404 -0.041094955
-0.058077972 0.06957833 0.069744736 -0.09654589 -0.086758874 -0.049308483 0.019438926 0.077549204
-0.039908648 -0.06686089 0.01832732 0.0233686 0.12793756 0.051208075 0.038781147 -0.021079918
0.06382681 -0.073741175 -0.07426077 0.047187317 0.10644185 0.09741079 -0.09170696 -0.02638569
0.08541368 0.026543459 -0.031225689 0.064671546 0.07198482 0.10373438 -0.060758095 0.1385385
-0.017731212 -0.06774754 -0.025138132 -0.12337814 -0.09767361 -0.03972176 -0.041934386 -0.057120085
-0.0069788047 0.00890526 -0.103697814 0.029296044 -0.04319101 0.03375175 -0.066541076 0.052125216
-0.04342211 0.042848762 -0.11285451 0.08911994 -0.07429972 -0.06941505 -0.022923619 -0.07058366
0.011562502 0.082722746 0.07932808 -0.10500438 -0.09740012 -0.044766217 -0.07279217 0.0577342
0.040261853 0.044079363 0.017888868 -0.030387912 -0.030187482 0.068046376 -0.12298624 0.06459726
0.022612777 0.035055477 0.09543191 0.076193295 -0.07282594 0.033455726 -0.116655454 -0.094258875
-0.06943226 0.031169979 -0.068136536 0.09409915 -0.0418773 -0.066562004 -0.057219822 0.115328155
0.006880824 -0.13235433 0.035398725 0.055995055 -0.010942066 -0.117862426 -0.06933804 0.098363
0.114817135 0.033511408 -0.1227047 0.0141178295 0.08964596 -0.12251149 0.052276388 0.06141443
0.13039894 -0.0055832593 -0.06323917 -0.09215607 -0.03245342 -0.031089142 -0.033673726 -0.015937395
-0.107874006 -0.093443446 -0.0882388 0.12006892 -0.03405741 -0.050508015 0.020308908 0.054467928
-0.11896898 0.10112532 0.06720678 0.011774303 0.06592989 0.006845636 -0.048357036 0.10310202
-0.10886067 -0.046873413 0.11977382 0.108689226 -0.01528666 0.1283244 -0.11276981 -0.08479654
0.05950701 0.020927167 -0.09953006 0.048168696 0.0011980222 0.037952404 -0.004251128 -0.0930846
0.02957526 -0.106415845 -0.018454434 -0.06283111 0.09958937 -0.040773615 -0.009028624 -0.008850812
-0.081931494 -0.09726241 0.12525654 -0.06035571 -0.07475818 -0.010591943 -0.08997207 0.08586944
0.013372417 0.044741586 0.07938546 0.0042277626 0.12056246 -0.050773498 -0.08982107 -0.050888184
0.08043228 -0.10886727 0.07929376 0.08070477 0.06928501 -0.12910914 -0.029650118 0.11123823
-0.10551359 -0.10701267 -0.09465663 -0.05303157 -0.07790551 0.089302205 0.07388962 0.07237464
-0.07700251 -0.035887264 0.038614385 -0.021947816 -0.08858046 0.116855495 -0.10887218 -0.13400418
0.061743144 0.098946996 -0.095687985 0.076405115 0.015817648 -0.06576492 -0.04632506 -0.045944184
0.09407271 0.043869093 -0.001059487 0.001530689 0.07919768 -0.013727925 0.073319346 0.13685328

linear.bias f4 [32]
00000000: c41d bc3d ca73 da3d 21a3 90bd 4bd7 7ebd
00000010: 85f9 44bd 67a9 db3d 544e 34bd 81b4 523d
00000020: 59fa b2bd dc9b 493d f10f 203d 1fbb 573c
00000030: 827b d43d 8bad 763d f685 f8bd 65b1 fbbd
00000040: dba4 bfbd c282 b53d 509a 7ebd cc13 d63c
00000050: 63d8 e1bd bc17 293d 42f5 5dbc a3b3 b9bd
00000060: 6ae4 a53d 224c 6d3c b6ac fbbd c588 b73d
00000070: f1b5 c7bc 3b27 86bd 18f0 da3d edbd 6b3d
0.09185365 0.10666616 -0.07062364 -0.062217038 -0.048089523 0.1072567 -0.044020012 0.051441673
-0.08739156 0.049220905 0.039077703 0.013167172 0.1037512 0.060224097 -0.12134926 -0.12289695
-0.093576156 0.08862831 -0.062158883 0.026132487 -0.110276006 0.0412824 -0.013547244 -0.09067466
0.08100207 0.0144834835 -0.12288801 0.089616336 -0.024378749 -0.06550451 0.106903255 0.057554174
